Comparison/TrainedModel/5-0.001-36-Agent/node_agent_32.pth (torch, 26948 bytes, 6 tensors)

input_layer.weight f4 [32, 57]
00000000: 47bd 09be 9625 c6bd fc07 3ebe a3c3 1f3d
00000010: 4bcc af3d 7a94 813d c7eb aebb f26b 413c
00000020: 6fed b5bd 18f3 0ebd eff6 2bbd dd20 d83d
00000030: 6762 82bd 9925 263e 9b78 ee3c fa5b ce3b
00000040: 9a4c 0c3a 6991 9b3c bfa6 d4bc 0dde 34be
00000050: f861 b43d f50c 10be 1285 6e3e 4340 8d3c
00000060: 8bf3 cfbb a84d 0dbe 3d0f a43d 530c 243d
00000070: f7ae 8a3e 90de 33bd c0c8 063d 9756 603d
00000080: 5dfb e1bb c445 84bd fbdf f23d 44bf 353d
00000090: ab50 a7bd 788e b5bc 9824 033d 906a fc3d
000000a0: fa46 183d 5528 af3d ccd4 343d 3fd2 1ebc
000000b0: 62d2 f9bc 5860 36be bdda f0bd 6ad0 4dbd
000000c0: 5c56 153d daf7 b53c 8936 053d 9d43 6f3d
000000d0: d8f8 fa3c 857e 1a3e 82ee c63c 4bd3 15be
000000e0: 5f14 39bd b681 10be 1cce 923c 72f4 0fbe
000000f0: 4583 8b3d edb6 fe3c 4acb 41bd bddc 06be
00000100: e524 2e3d 9404 8ebc 2b08 103e c5a1 97bd
00000110: cd7e d8bc 604d 8e3c 42c2 f3bc f795 af3d
00000120: ff26 4e3c d29f a53c 9291 74bc 9437 a93c
00000130: 40a8 d43c cfb4 d8bd 709b 1fbc 9d1d 11be
00000140: aa0a febd 6c14 0abe 9042 b5bd 076f c1bb
00000150: 838d 4a3d caf9 04bd 0a80 593d 59fd 2dbe
00000160: f82c 4c3e 3530 7f3c 3ba5 3ebc 3eb1 913c
00000170: f700 e9bc 985f ab3d 5a61 143d e767 0a3c
00000180: a125 08bd d700 5d3d f5c6 573d 0552 503d
00000190: a4e6 363c f71d 1dbe 3ba6 09be cbc6 963d
000001a0: 7e5e 69bd 6dfc eebd 2050 083d cb1b af3d
000001b0: b7b8 bdbd 2ab4 01be 1900 23be 68a2 a4be
000001c0: d2cb f73c b37c a33d 0fc5 b1bd 282f 60bd
000001d0: 3a9e 0b3e 3851 5dbe a23d 82bd ffa9 7f3d
000001e0: f107 9f3f c47c 11be 280f a63b 34fd 953d
000001f0: a7f8 d13a 1f05 2dbd 493b bbbd 673b 8d3d
00000200: 0bee 743c 0aad 4340 22b2 d33e aaf5 ce3e
00000210: 7ebc 683f f86a 3b40 4e16 35bc 7bb2 e93f
00000220: 632d 4ebd 0583 9c3a b751 513e b975 07be
00000230: 2fbb c33f 60f1 62be 03de dd3d 3bbc 233e
00000240: b372 223d 5df9 d6bd b481 2f3e 08a5 233e
00000250: b14c a2bd e525 993e e322 64bd 2489 3ebc
00000260: eb19 c13d abeb 72bd 058e 48bd e97b c53d
00000270: 82e7 93bd 5647 9f3d a82f 413d c5d2 fb3d
00000280: a2ac e3bd 3fe5 b93f 9b83 e43c b5ed 83bb
00000290: 59a6 1f3d 1d63 a2bd b6fa 88bd 43ce 553e
000002a0: e0a3 20bd 9528 4e3d 57f1 0c3e 3c2d c13c
000002b0: 9da8 063e c3eb 04bd aeff 41bb e130 b6bd
000002c0: 9dd9 d13d 9882 bb3f ada0 553e a8c0 a8bd
000002d0: c4ee 26bd e53a 403e a318 603e fbaa 163d
000002e0: 66d1 803d 7b4e 833d dcd2 4940 f078 e03e
000002f0: a9b6 bdbb 9b23 9d3f facb 3e40 db8b 8c3c
00000300: ad20 e63f 39e2 9eb8 6f6f 0abe 5c3a 30be
00000310: 22a5 ed3d 9691 b43f 2ff2 033e d828 0a3d
00000320: e857 8cbd 11a9 3bbe 568b 4abe 950b 95be
00000330: 6a88 cb3c 5b77 0e3d 0f9c 883e b26d 4abd
00000340: bf51 543d c7e2 d73d f511 1e3e 10fc 3f3e
00000350: ec21 0e3d 0512 d33c 9360 33be 94b3 0dbe
00000360: cd27 3f3d 4081 43bd eca9 ce3f b362 acbd
00000370: 43aa 2ebd 85c8 05bd 27e1 f63d f9b8 1ebd
00000380: a55a debc d2dd eb3d f80d 7a3d e86c e33d
00000390: d0e5 9c3c 9eb8 3bbe a4c6 26bd d9a3 34bd
000003a0: a88b 00bd 282f 063e 58f5 cb3f c4e7 2c3e
000003b0: 469f a43d 3310 60be ff4a 3d3e ef16 ab3d
000003c0: 380d d63d 6f9d ffbd 1054 69bd d736 4140
000003d0: 6b13 d63e f346 893d 5905 893f 8eb7 4d40
000003e0: 673a 283e 6640 f63f 28f4 53bd 0797 b73d
000003f0: bcd1 acbd 5aed 633d 381b b63f 29c7 c03d
-0.1345111 -0.09675138 -0.18557733 0.039004933 0.08583888 0.06327148 -0.0053381654 0.011805521
-0.088831775 -0.0348998 -0.04198354 0.10553143 -0.06366425 0.1622528 0.029110244 0.0062975856
0.00053519907 0.018990235 -0.025958417 -0.1766283 0.088077486 -0.14067443 0.2329295 0.017242556
-0.0063461713 -0.13799155 0.08010719 0.040050816 0.27086613 -0.043913424 0.032906294 0.05477008
-0.00689642 -0.06458619 0.11859127 0.04437186 -0.08169683 -0.022162661 0.03201732 0.12325013
0.037177064 0.085526146 0.04414825 -0.009693681 -0.030495826 -0.1781019 -0.11760471 -0.050247587
0.03645931 0.022212911 0.032522712 0.05841409 0.030636236 0.15087326 0.024283651 -0.14631383
-0.045185443 -0.14111981 0.017920546 -0.14058092 0.06812147 0.031093085 -0.047313012 -0.13170142
0.042515654 -0.017336167 0.14065616 -0.07403902 -0.02642765 0.01737088 -0.029755715 0.085735254
0.01258254 0.02021781 -0.014927285 0.020656385 0.025959134 -0.105813615 -0.009741649 -0.14171453
-0.12404378 -0.13484353 -0.088505864 -0.005903128 0.049451362 -0.03246478 0.053100623 -0.16991176
0.19939029 0.015575458 -0.011636074 0.017784711 -0.028442843 0.083678424 0.036225654 0.008447624
-0.03323901 0.05395588 0.052679975 0.05085947 0.011163387 -0.15343462 -0.13442318 0.073621355
-0.05697488 -0.1166924 0.03327954 0.08550223 -0.09263747 -0.12666383 -0.15918006 -0.32155156
0.030248556 0.07982769 -0.08680164 -0.05473247 0.13634577 -0.21613014 -0.06359412 0.06241798
1.2424299 -0.1420775 0.0050677247 0.07323685 0.0016019539 -0.042241212 -0.09142167 0.06896096
0.014949332 3.0574365 0.41346842 0.40421802 0.90912616 2.9284039 -0.011052681 1.8257593
-0.050336253 0.0011940902 0.20441328 -0.13228501 1.5291499 -0.2216239 0.10833361 0.15989773
0.039660167 -0.10496781 0.17139322 0.15980923 -0.07924784 0.29911724 -0.055697333 -0.011629377
0.094287716 -0.05930678 -0.048963565 0.096427746 -0.07221891 0.07777278 0.04716459 0.122960605
-0.111169115 1.4523085 0.027894786 -0.0040261396 0.038977 -0.079290606 -0.06688444 0.20879464
-0.039218783 0.05033167 0.13763939 0.02358114 0.13150258 -0.032451402 -0.002960186 -0.08896042
0.102465846 1.4649229 0.20862074 -0.08239871 -0.04075505 0.18772466 0.21884398 0.036784153
0.062899396 0.06411453 3.1534948 0.43842268 -0.005789597 1.2276491 2.9811997 0.017156532
1.7978722 -7.576164e-05 -0.13519071 -0.17209762 0.11603762 1.4106929 0.12885354 0.033730358
-0.06852704 -0.18326212 -0.19779715 -0.291104 0.02484532 0.034781795 0.26681563 -0.04942102
0.05183577 0.10541301 0.15436538 0.18748498 0.03470032 0.025765428 -0.17517309 -0.13838035
0.046668816 -0.047730684 1.6145606 -0.08417263 -0.042642843 -0.032661933 0.12054663 -0.038750622
-0.027142832 0.11516918 0.061048478 0.111047566 0.019152552 -0.18332145 -0.040716782 -0.04410157
-0.031383187 0.13103926 1.5934248 0.16885287 0.080381915 -0.2188118 0.1848564 0.083539836
0.1045174 -0.124812 -0.056964934 3.0189722 0.4181169 0.067029856 1.0704757 3.2143283
0.16428529 1.9238403 -0.051746517 0.08964353 -0.08438441 0.055646278 1.4227057 0.09412987

input_layer.bias f4 [32]
00000000: 60d5 dd3b a15d 03bd 134c a93f c91e c03f
00000010: 0d72 ce3f 742f bcbd 808b 383d c646 b33f
00000020: 4dab c4bd 0e36 c13f bbac 9e3f 8331 b43f
00000030: 0820 433d fbc2 c43f ad27 ab3f 0916 0bbe
00000040: 5772 b73f 8a30 a93f e00d 903c 8ea2 af3f
00000050: c148 ae3f 0902 c93f 74da b13f 3157 b23f
00000060: 32b2 d0bd 3a4b c33f 1e94 cb3f 6ae2 b23f
00000070: 2be3 ce3f d7c9 bc3f 090b 15be 33b5 913f
0.006769821 -0.032071713 1.3226341 1.5009395 1.6128556 -0.091887385 0.045054913 1.4005973
-0.096029855 1.5094621 1.2396463 1.407761 0.04763797 1.5372003 1.3371483 -0.13582624
1.4331769 1.3217938 0.017584741 1.3721483 1.3615953 1.5703746 1.3894792 1.3932859
-0.10190238 1.5257332 1.5904577 1.3975346 1.6163076 1.4749097 -0.14554991 1.1383423

hidden_layer1.weight f4 [64, 32]
00000000: 6f98 c83d 0385 123e 9eb4 bc3f 14fb c23f
00000010: 8e1e ac3f 07da 8d3d 58fe 2f3d 9420 bc3f
00000020: c1d5 5ebe 0670 a93f 1ea8 b23f b824 c13f
00000030: 4fac 683c f09d c93f 6265 a53f df3a f83d
00000040: 7cd7 a43f a5c7 b83f d291 6d3e 9a4a b13f
00000050: 60e3 c93f a689 d63f 9608 b43f 4fa8 b93f
00000060: fde9 d0bd d45c 9f3f 2681 da3f 442f c73f
00000070: 0337 9f3f 88e7 b13f 98c8 fa3c 0a06 a23f
00000080: 22cb 063c 06ba 953d f2fa cb3f 3337 dc3f
00000090: 242c af3f d313 72bd 535f 77bd 5025 c03f
000000a0: 5191 83bd 6f53 b03f 7905 ca3f ef9c ae3f
000000b0: 7a18 81bb b4de b43f 6a6b d33f 12b9 eebd
000000c0: f2d0 b63f 92cf a83f 6935 183e d16b af3f
000000d0: 7eb5 b03f a70b c03f aecf b73f 0215 ba3f
000000e0: 6390 c53d e40c b23f 99fb c03f 2ddf c73f
000000f0: e886 a63f d73b dc3f 17a0 37be 05d3 c33f
00000100: 77e9 99bd c145 11be 8f19 a63f 575c bf3f
00000110: 957e c93f 7095 46bd ce54 893d f9f2 ad3f
00000120: cfb9 84bd d2d0 ac3f a337 bf3f 1db7 b53f
00000130: 4f60 0c3d 6c40 c03f 3708 b53f ff66 48bc
00000140: 00d1 993f bd0d a33f 4356 003e 8007 9f3f
00000150: 47de b43f 55ce ae3f 470d b93f 0943 c03f
00000160: 8d8f fa3d 73a4 9e3f 7595 b23f 2c85 ac3f
00000170: f85d bb3f 6e4f ca3f cc64 babb 1046 cd3f
00000180: 32cc febd 2833 fabd 4014 cf3f 3339 da3f
00000190: 0246 c83f 9e87 813d 4074 88bb 8782 d03f
000001a0: ce1c 6f3d 7398 a73f b3aa bc3f 7dbf d03f
000001b0: 53f5 fdbd 1a23 ce3f bddc bc3f a0d1 2b3d
000001c0: ddde c43f 1946 c33f 588b d03d ab91 ca3f
000001d0: b5ec ce3f cb5f dc3f 4238 c83f e8e0 af3f
000001e0: 538b 83bc fd31 c73f 7d65 e43f b051 c73f
000001f0: 0316 db3f daa3 b03f 287d e83c 6a92 b03f
00000200: 6904 803c c03c ee3d 84e8 2e3c 9a1b 463d
00000210: bb1f d33d d7c7 433d aaff e2bd 6052 afbd
00000220: 7d3c 79bd ffe8 33bd 38fb 95bd c89b 0e3d
00000230: 161a 923d 78d2 c03d 2983 e8bc f844 813c
00000240: d5cb 963d c79d 16be b7d2 333e 1184 db3d
00000250: 6d7d 983d 674b cdbd 4374 353d 9ca8 82bd
00000260: 637b cb3d 2cb1 373d 0a11 eb3c 26a9 02be
00000270: d007 fbbd 023c e0bc a2fc c33d 8320 963d
00000280: 3f72 79bd 087f 0cbe 2a86 803f c8a4 b33f
00000290: e861 b03f 9581 6e3d 23af 70bc 8eac 9f3f
000002a0: 985a 333e 3dc5 883f 319c 9f3f 6a38 993f
000002b0: 171e 78bd 3dcb a83f 45fe 963f 3ba9 8a3d
000002c0: c25f 9c3f e233 8f3f eb30 bf3b 6550 a63f
000002d0: 2b30 a43f 206b b03f d796 ae3f 18c1 a03f
000002e0: 1d92 103e 2580 9c3f b764 953f 56bf b33f
000002f0: c8db 8c3f 0675 a73f eade 27be ec4e a13f
00000300: 4bf8 593d 7fea 2b3c 7510 25bd 34ab 91be
00000310: 48c9 db3d b72f 623c ec44 09bd 08db bd3d
00000320: b0a4 e1bd c256 71bd cbca b7bb e390 fbbd
00000330: 0f5b ea3d 3f6f 1dbd 9486 403c b72e 853d
00000340: ca7e 543d cf77 c4bd 8f9d 82bd 6988 adbd
00000350: 2d38 75be 4a8d cfbd eea3 24bd fb58 1a3e
00000360: 32fe 42bc 15a5 f7bc 20f3 a43b 1b90 07bd
00000370: 36ff 333e c7f1 88bd 2ff0 74bd 17c5 15be
00000380: c84d d5bd 113c c0bd 25a0 8aba ba1b 933d
00000390: bce0 abbd 606b e2bd 7db3 fabd 0a1e c43d
000003a0: 1475 003e 1bda c6bd 5025 e43d 9670 46be
000003b0: a866 063e 871d c5bd ebcc 17be bcb1 c53d
000003c0: fec4 9cbc a7b8 91bd 9bd7 3ebb 220b 723d
000003d0: b5f4 bd3d ef39 0f3e 9343 fcbd 2ef6 043c
000003e0: e0de 16bd ad52 373e 69a2 33bc cd5c 87bd
000003f0: 7887 18be ab41 793b 8747 7f3e 7beb 36bc
0.097946994 0.14308552 1.474262 1.5232873 1.3446825 0.06926351 0.04296717 1.4697442
-0.21761228 1.3237312 1.3957555 1.5089331 0.014201238 1.5751324 1.2921565 0.12120604
1.2878261 1.4435927 0.23200157 1.3850892 1.5772514 1.6760757 1.406512 1.4504489
-0.1020088 1.2450204 1.7070663 1.5561299 1.2438663 1.3898783 0.030613229 1.2658093
0.008227142 0.07310872 1.5935957 1.7204345 1.3685346 -0.059100937 -0.060393643 1.5011387
-0.06424201 1.3775462 1.578292 1.3641642 -0.0039396854 1.4130464 1.6517155 -0.11656393
1.4282515 1.3188345 0.14864124 1.3704778 1.3805387 1.5003556 1.4360254 1.4537661
0.0964668 1.3910184 1.5076782 1.5614983 1.300992 1.7205762 -0.17932163 1.5298773
-0.07515233 -0.14186765 1.297655 1.4950055 1.5741755 -0.04848236 0.06705628 1.3589774
-0.06480753 1.3501227 1.4938854 1.4196507 0.034271535 1.501966 1.4143132 -0.012231587
1.2016907 1.2738568 0.12532906 1.2424164 1.4130334 1.3656718 1.4457177 1.5020458
0.122344114 1.2393936 1.3951861 1.3478141 1.4638052 1.580549 -0.0056882855 1.6037006
-0.12441291 -0.122167885 1.6178055 1.7048706 1.5646365 0.06324695 -0.0041642487 1.6289834
0.05837708 1.3093399 1.4739593 1.6308438 -0.124003075 1.6104462 1.4754864 0.04194796
1.5380512 1.5255767 0.10182828 1.5825704 1.6165987 1.7216734 1.5642169 1.3740511
-0.016057646 1.556213 1.7843472 1.5571804 1.7116092 1.3800004 0.028379992 1.3794682
0.015627103 0.11632681 0.010675553 0.048366167 0.103087865 0.047798004 -0.1108392 -0.08560634
-0.0608487 -0.043923374 -0.07323307 0.034816533 0.07133882 0.09415144 -0.028382855 0.015779957
0.073630966 -0.14708625 0.1756085 0.10718549 0.07445798 -0.100241475 0.04430033 -0.06379816
0.099356435 0.0448467 0.028694648 -0.12759838 -0.122573495 -0.027372364 0.0956967 0.0733042
-0.06089997 -0.13720334 1.0040944 1.4034662 1.3779879 0.058229048 -0.014690193 1.2474535
0.17515028 1.0685192 1.2469541 1.1970341 -0.06057557 1.3187023 1.1796347 0.067705594
1.2216723 1.1187708 0.005834689 1.2993284 1.28272 1.3782692 1.3639783 1.2558928
0.14118238 1.2226607 1.1671361 1.4042766 1.1004572 1.3082588 -0.16393629 1.260221
0.053215306 0.01049292 -0.040298898 -0.2845093 0.10731751 0.013805321 -0.033512995 0.092702925
-0.1101774 -0.05892063 -0.0056088916 -0.12283494 0.11443149 -0.03843617 0.011750836 0.06503051
0.051878728 -0.09593164 -0.06377708 -0.08473284 -0.2394721 -0.101343706 -0.040195398 0.15073006
-0.011901425 -0.030230084 0.0050338656 -0.033096414 0.17577824 -0.0668674 -0.05979937 -0.14625965
-0.10415226 -0.09386457 -0.0010576291 0.07183023 -0.08392474 -0.110556364 -0.12241266 0.09576042
0.12544662 -0.09709569 0.11139929 -0.19378886 0.13125098 -0.096247725 -0.14824264 0.09653041
-0.019136902 -0.07115298 -0.002912021 0.05909265 0.0927519 0.13986944 -0.12317576 0.008115334
-0.036833644 0.17902632 -0.010964015 -0.06609497 -0.14895427 0.0038033526 0.2492963 -0.011164541

hidden_layer1.bias f4 [64]
00000000: 5cf4 473f 0c8e 543f 3c73 393f 2e41 463f
00000010: 1b58 df3d 333f 213f 81c4 23be cb70 283e
00000020: 47eb 123e 9904 213e f9f8 0d3f 3a6a 55bd
00000030: a0a4 5d3c 25e9 b33f 9dc7 ae3f 50d5 0abd
00000040: 30d5 653d f14c 02be ec1a 13bd 0179 0d3e
00000050: 32bc ee3d 4cd4 263d 986c c0bd bdd1 d4bd
00000060: 0031 5a3f 4854 a13c 6acf a2bc 129a fa3e
00000070: 5bcd 49be f327 1b3f a8d5 963d 94f1 173f
00000080: d0e6 0ebd b54b 2a3f 2a0e 683f a92f 9c3c
00000090: 5b07 0a3e f4eb c6bd 90db 7cbc 7f6e 193e
000000a0: 5dcf ddbc 1be4 76bd 1fcc 0e3f 08f4 803c
000000b0: 8020 60bc be6c c23d 9e13 173d b8ba 753e
000000c0: 7850 e9bd 6443 09bd 7e26 c13c 8521 35be
000000d0: abf7 c23d 1aee b2be 6fe3 893d c7e4 a23d
000000e0: f83f 05be 446e 1ebe f160 963d 1018 e33c
000000f0: a196 4fbb 87d6 113e 83b1 1b3e f447 cf3e
0.7810724 0.83029246 0.7244146 0.77443206 0.10905477 0.6298706 -0.15992929 0.16449277
0.14347564 0.1572441 0.5545803 -0.05210326 0.013528019 1.4055525 1.3654667 -0.033894837
0.056111515 -0.12724663 -0.035914347 0.1381569 0.11656989 0.040729806 -0.093957126 -0.10391567
0.8523102 0.019693509 -0.019874293 0.4894567 -0.19707243 0.6060783 0.073649704 0.59352994
-0.03488809 0.6652177 0.9064661 0.019065695 0.13479368 -0.09712973 -0.015433207 0.14983557
-0.027076418 -0.060276132 0.55780214 0.015741363 -0.013679624 0.09493397 0.036883943 0.23997009
-0.11392301 -0.033511534 0.023577925 -0.17688568 0.09519895 -0.34947282 0.06732833 0.07953792
-0.13012683 -0.1547175 0.07342709 0.027721435 -0.0031675475 0.14241992 0.15204434 0.40484583

hidden_layer2.weight f4 [32, 64]
00000000: 339e 693e 00a5 d6bd df71 86bd d5f9 003d
00000010: 95a7 55bd 7ab8 49bc ca26 ca3d 277d 13bc
00000020: 747f 9dbc c3a4 3dbc a2b7 5f3b d014 84bc
00000030: e370 b63d fa16 efbd d0b3 c8bd bf58 043e
00000040: 0b46 d5bc bf79 02be 10ca 643d 62f0 4c3e
00000050: 1b0a debc 1558 1b3e c6d7 86bc 1a3a 4dbc
00000060: 3b44 753d bcd1 01be 9391 34be 7fbe 44be
00000070: 4e67 caba 85fc 7c3e 269d 043e faef 6c3d
00000080: 6b55 f3bd 739c 64bd 2fc7 5fbe 3ca2 8cbd
00000090: 9ffb 96bd 9bf9 d8bc 41a2 8f3d 77ff 1fbc
000000a0: 6425 ab3d 2824 603d fac8 74be f7fd d73d
000000b0: 6899 8abd 732a 7d3c 9f31 23be 6700 223e
000000c0: adca 0dbd 1fc8 1f3c a5ee 923a d13b 41bd
000000d0: 93ec 543e 8440 bf3d e287 123e 6769 ae3d
000000e0: 4278 4b3d 9530 19be 0b92 8f3d e7c6 06bd
000000f0: 0ad1 bd3c 0566 dcbd bf2d a03c eefb 383c
00000100: e873 c53f b9ff fc3f 9445 dd3f ceed c93f
00000110: 3033 4f3e 438f b83f e474 913d 5343 9f3c
00000120: aac8 b9bc 384f 1a3d 4241 ca3f f536 cdbd
00000130: fb70 1abe 0566 da3f 1ab3 bc3f 7164 b5bd
00000140: dfac fabd b501 58bd 2897 003d 4594 1a3d
00000150: 8071 fc3b 7608 913e 8a13 4cbd 0797 c03b
00000160: 6661 d73f 071c 21be d06e 003e ecc9 b83f
00000170: 6ffc 843d 47b7 d13f bab7 cb3d 4e7c b23f
00000180: c7c0 12bd 35d0 c73f 482b c73f dc4a cd3b
00000190: b0f9 c3bd 6aad ba3d e58e e33c 77ff 10bd
000001a0: 05eb 56be f5ea 063e 848b ad3f 05b5 663b
000001b0: 8f51 363e 25ed 40bd 3e1b 5cbd 7265 dc3f
000001c0: 11ee 7f3d 0657 a03c d7e9 8c3d ddc2 9b3d
000001d0: 03f4 bebd f505 05be 5dab debc 1799 143e
000001e0: 29b3 a83b 64fd 4fbd 8499 3e3c 340d 093e
000001f0: cd29 ea3e bb83 2f3d fbd1 cebd 8960 a73f
00000200: b2f9 8abb 9f27 05bd e7f6 ad3c 9131 ca3d
00000210: 6735 f3bc 5508 15be 0fc8 aeba 458a 8f3d
00000220: 1fb4 84bc 44a0 0bbe e5d8 033d 14d1 b2bd
00000230: 62a1 333e 7387 073d bc3d 91bd 1f9c 42bd
00000240: f3fd 073d 17b5 343b d129 26be 0436 4abc
00000250: d7d9 31be 5c7b 943d 83bf bbbd d33d 33be
00000260: f861 ffbc e3df 3dbd a62a 03bd 2b1a e7bd
00000270: 1081 64bc 7eac 843d 72b9 f1bd e5c7 bdbd
00000280: 9d9c ff3c 4c34 8e3d 3259 1abd a36e 85bc
00000290: 3e9e 0fbd 3d0d 43bc 2d3a f0ba 0e07 bf3d
000002a0: fba9 08be 4d02 7dbd ce0d 18be 700e bdbb
000002b0: dbca 3b3d 8b46 8fbd 6111 a93a cfa3 723c
000002c0: c304 be3d 7b83 5ebe 6034 513c fae8 f1bd
000002d0: 18fa 0c3a 4c2c 15bd 720c 3b3d e266 fe3d
000002e0: abde 52bd 8939 98bd 6869 2cbe 2162 a03d
000002f0: b63f c13d db9a 3abe f74b 85be 7059 933d
00000300: 7e6f efbd d0c4 19be ad6a c03d cbe7 a6be
00000310: 6df6 dbbd b011 9a3c 1624 323e d4c8 90be
00000320: 6881 003d 0758 90bd 65ec 18bd 051f 9fbc
00000330: 7f43 5e3d 82b0 14bd 63d5 e1bd ab20 48bd
00000340: 30bc 3cbd 6131 0cbd f2ce 6b3d 90ea 16bd
00000350: 0c3d 45bd 8e05 92bd 4eb4 c73d 7dd1 1c3e
00000360: a6a8 853c 2b6c 323c 10d6 4fbd 3710 53bd
00000370: 71b3 fabb dfba e6bd 18fb 80bd fc59 193d
00000380: c8f3 d33d 26c5 11be 4499 bbbd 4d3d 21be
00000390: 0f47 a2bd 53cf df3b abf7 cd3d b896 d53b
000003a0: 1333 4c3e 8377 4abe 24c5 243e 5184 b9bc
000003b0: 6548 463d 9837 ce3c e512 bc3b 3e54 503e
000003c0: bb26 993d 97de 8abd 0734 febd a35c 333e
000003d0: 875f 10be 64bc d7bc eb7f 5abc 9c0c 883d
000003e0: dc5e a13d 3881 ffbd 9f7b 913d bfd4 04bd
000003f0: 0677 93bd 3b57 80bb 14f6 463d a2e0 e1bc
0.22814254 -0.1048069 -0.06564688 0.03148826 -0.05216177 -0.012312049 0.0987068 -0.009002007
-0.019225813 -0.011574927 0.0034136553 -0.016123205 0.0890825 -0.11674304 -0.097999215 0.12924479
-0.026034376 -0.12741755 0.055856764 0.20013574 -0.027104428 0.1517032 -0.01646031 -0.0125260595
0.059879523 -0.12677664 -0.17633657 -0.19213293 -0.0015442164 0.24705704 0.12950572 0.057846047
-0.118815266 -0.055813264 -0.21853326 -0.06866881 -0.07372212 -0.026486209 0.07013369 -0.009765497
0.08356741 0.05472198 -0.23904791 0.10546487 -0.06767541 0.015452015 -0.15936898 0.15820466
-0.034617115 0.009752302 0.0011210038 -0.047176186 0.20793371 0.09338477 0.14309648 0.08516198
0.049675234 -0.14959939 0.07010277 -0.03290453 0.023170967 -0.10761646 0.019553063 0.0112905335
1.5425997 1.976554 1.7286859 1.5775697 0.2023437 1.441872 0.07102373 0.019441282
-0.022678692 0.037673205 1.5801165 -0.10020248 -0.15082161 1.7062384 1.4742157 -0.08857048
-0.12240004 -0.052736003 0.031394154 0.037739057 0.00770396 0.28326768 -0.04982332 0.005877379
1.6826599 -0.15733348 0.12542272 1.4436622 0.064934604 1.6384057 0.099471524 1.3944185
-0.035828378 1.5610415 1.5560083 0.0062650274 -0.095691085 0.09115107 0.027778098 -0.03539988
-0.2098809 0.13175566 1.3558202 0.003520311 0.1780455 -0.04710116 -0.053736918 1.7218459
0.062482897 0.019572746 0.06880539 0.076055266 -0.09323885 -0.12990554 -0.027181322 0.14511524
0.0051483107 -0.05077876 0.011633281 0.13383943 0.45735016 0.042850237 -0.10098644 1.3076335
-0.004241192 -0.03250849 0.021235896 0.09872735 -0.02968855 -0.1455396 -0.0013334769 0.07008795
-0.01619917 -0.13635355 0.03218927 -0.08731285 0.17542031 0.03308816 -0.07091853 -0.04751217
0.03320117 0.0027573758 -0.16226889 -0.01234198 -0.17368256 0.072500914 -0.09167387 -0.17504053
-0.031174645 -0.046356093 -0.032023095 -0.11284288 -0.0139467865 0.06478213 -0.11802949 -0.092666425
0.031202609 0.069435686 -0.03768272 -0.016288107 -0.03506302 -0.011905012 -0.0018327885 0.093275174
-0.13346092 -0.061769772 -0.14849016 -0.0057695433 0.045847755 -0.06995877 0.0012898856 0.014809563
0.09278252 -0.21729843 0.012768835 -0.11812015 0.0005377843 -0.036419198 0.045666166 0.12421967
-0.051481884 -0.07432849 -0.16837084 0.078312166 0.0943598 -0.18223135 -0.2603452 0.07194793
-0.11691187 -0.15016484 0.09395347 -0.3259872 -0.10740361 0.018807262 0.17396578 -0.2827822
0.03137341 -0.0704804 -0.03733482 -0.019423971 0.054263588 -0.036301143 -0.110270284 -0.04885928
-0.046077907 -0.03422678 0.057570405 -0.03684479 -0.048153922 -0.07129966 0.09751187 0.15314288
0.01631577 0.010890047 -0.050741255 -0.051529136 -0.0076507856 -0.112661116 -0.06297892 0.03743933
0.10349232 -0.14235362 -0.091600925 -0.1574604 -0.079237096 0.006830135 0.100570045 0.006518211
0.19941358 -0.19772153 0.16090828 -0.022646101 0.048408885 0.025172994 0.005739557 0.20344636
0.074780904 -0.06780737 -0.12412267 0.17515807 -0.14098941 -0.026334949 -0.013336162 0.0664303
0.07879421 -0.124758184 0.07103657 -0.032429453 -0.07200436 -0.0039166487 0.048574522 -0.027572934

hidden_layer2.bias f4 [32]
00000000: 00ff 973d cc12 d03f bcdd e53d 50f7 5a3c
00000010: 2781 05be 0abc 623e a02b 8b3d cddd b13d
00000020: 8f41 f5bd fc49 c2be 7459 af3d 4d6e cfbc
00000030: 48ac 553d 359d 513f 933c b73d efef 1cbe
00000040: 34b5 c0bc a99b c9be 60e6 5b3b 0383 8ebd
00000050: b237 283b 51cc 9a3e c24f aebe cc84 933d
00000060: 61bf 273d 138b 4f3e fb39 a6bd 327d 7fbe
00000070: ae5c e3bd aa0a a73e c39a 05be 9bf5 963d
0.07421684 1.6255736 0.11223933 0.013364628 -0.13037549 0.22142044 0.0679543 0.08684883
-0.11975395 -0.3794707 0.08561984 -0.02532115 0.052166253 0.81880504 0.089471005 -0.15325902
-0.023523904 -0.39376572 0.0033554062 -0.06958582 0.0025667963 0.30234006 -0.34045225 0.07203063
0.040953998 0.20267896 -0.08116528 -0.24950102 -0.111016616 0.32625324 -0.13047318 0.07371064
