Comparison/TrainedModel/5-0.001-36-Agent/node_agent_25.pth (torch, 26948 bytes, 6 tensors)

input_layer.weight f4 [32, 57]
0	0xbe09bd47	-0.1345111
1	0xbdc62596	-0.09675138
2	0xbe3e07fc	-0.18557733
3	0x3d1fc3a3	0.039004933
4	0x3dafcc4b	0.08583888
5	0x3d81947a	0.06327148
6	0xbbaeebc7	-0.0053381654
7	0x3c416bf2	0.011805521
8	0xbe1cc130	-0.1530807
9	0xbd0ef318	-0.0348998
10	0xbdd99068	-0.106232464
11	0x3d2917d5	0.041282494
12	0xbd826267	-0.06366425
13	0x3e262599	0.1622528
14	0x3cee789b	0.029110244
15	0x3bce5bfa	0.0062975856
16	0x3a0c4c9a	0.00053519907
17	0xbd2993f7	-0.041400876
18	0xbd7ceefd	-0.061751354
19	0xbe81012a	-0.251962
20	0x3db461f8	0.088077486
21	0xbe106ec7	-0.14104758
22	0x3e6e8512	0.2329295
23	0x3c8d4043	0.017242556
24	0xbbcff38b	-0.0063461713
25	0xbe0d4da8	-0.13799155
26	0x3da40f3d	0.08010719
27	0x3d240c53	0.040050816
28	0x3e8aaef7	0.27086613
29	0xbd33de90	-0.043913424
30	0x3d06c8c0	0.032906294
31	0x3d605697	0.05477008
32	0xbd91b4a5	-0.07114533
33	0xbd8445c4	-0.06458619
34	0x3df2dffb	0.11859127
35	0x3d35bf44	0.04437186
36	0xbda750ab	-0.08169683
37	0xbcb58e78	-0.022162661
38	0x3d032498	0.03201732
39	0x3dfc6a90	0.12325013
40	0x3d1846fa	0.037177064
41	0x3daf2855	0.085526146
42	0x3d34d4cc	0.04414825
43	0xbd976f37	-0.073942594
44	0xbcf9d262	-0.030495826
45	0xbe366058	-0.1781019
46	0xbdf0dabd	-0.11760471
47	0xbd4dd06a	-0.050247587
48	0x3d15565c	0.03645931
49	0xbd2c2df9	-0.04203603
50	0x3d053689	0.032522712
51	0x3d6f439d	0.05841409
52	0x3cfaf8d8	0.030636236
53	0x3e1a7e85	0.15087326
54	0x3cc6ee82	0.024283651
55	0xbe15d34b	-0.14631383
56	0xbd39145f	-0.045185443
57	0xbe1081b6	-0.14111981
58	0x3c92ce1c	0.017920546
59	0xbe0ff472	-0.14058092
60	0x3d8b8345	0.06812147
61	0x3cfeb6ed	0.031093085
62	0xbd41cb4a	-0.047313012
63	0xbdb19607	-0.086711936
64	0x3d2e24e5	0.042515654
65	0xbd36634d	-0.044528294
66	0x3e10082b	0.14065616
67	0xbdcf5247	-0.10123115
68	0xbd5ba06b	-0.053619783
69	0x3c8e4d60	0.01737088
70	0xbcf3c242	-0.029755715
71	0x3daf95f7	0.085735254
72	0x3d9faed4	0.07797018
73	0x3ca78dc9	0.02045335
74	0xbc8fea5e	-0.01756781
75	0x3bfe7e6d	0.007766536
76	0x3cd1a902	0.025593285
77	0xbdd8b4cf	-0.105813615
78	0xbabcc1be	-0.0014401001
79	0xbe111d9d	-0.14171453
80	0xbdfe0aaa	-0.12404378
81	0xbe0a146c	-0.13484353
82	0xbdb54290	-0.088505864
83	0x3d201911	0.039086405
84	0x3d4a8d83	0.049451362
85	0xbd04f9ca	-0.03246478
86	0x3d59800a	0.053100623
87	0xbe2dfd59	-0.16991176
88	0x3e4c2cf8	0.19939029
89	0xbc3e53ed	-0.011616689
90	0xbc3ea53b	-0.011636074
91	0x3c91b13e	0.017784711
92	0xbce900f7	-0.028442843
93	0x3dab5f98	0.083678424
94	0x3d14615a	0.036225654
95	0x3c0a67e7	0.008447624
96	0xbd0825a1	-0.03323901
97	0x3d5d00d7	0.05395588
98	0x3d57c6f5	0.052679975
99	0x3d505205	0.05085947
100	0xbc834eba	-0.01602875
101	0xbe1d1df7	-0.15343462
102	0xbe09a63b	-0.13442318
103	0x3d96c6cb	0.073621355
104	0xbc445e47	-0.011985368
105	0xbdeefc6d	-0.1166924
106	0x3bc778c2	0.0060873935
107	0x3daf1bcb	0.08550223
108	0xbdbdb8b7	-0.09263747
109	0xbe01b42a	-0.12666383
110	0xbe230019	-0.15918006
111	0xbea4a268	-0.32155156
112	0x3cf7cbd2	0.030248556
113	0x3da37cb3	0.07982769
114	0xbdb1c50f	-0.08680164
115	0xbd602f28	-0.05473247
116	0x3e0b9e3a	0.13634577
117	0xbe5d5138	-0.21613014
118	0xbd823da2	-0.06359412
119	0x3d7fa9ff	0.06241798
120	0xbe3a2b3d	-0.18180557
121	0xbe117cc4	-0.1420775
122	0x3f5b81d6	0.8574499
123	0x3d95fd34	0.07323685
124	0x3f5a9eaa	0.8539835
125	0x3f4f657a	0.81014216
126	0xbdbb3b49	-0.09142167
127	0x3d8d3b67	0.06896096
128	0x3c74ee0b	0.014949332
129	0xba8c8327	-0.0010720239
130	0x3f934f10	1.1508503
131	0x403c33e7	2.9406679
132	0xc009065e	-2.1410136
133	0x401d0d9f	2.4539564
134	0xbc35164e	-0.011052681
135	0x3f2b0351	0.66801935
136	0xbd4e2d63	-0.050336253
137	0x3a9c8305	0.0011940902
138	0x3e5151b7	0.20441328
139	0xbe0775b9	-0.13228501
140	0x3dd6dd3f	0.10491418
141	0xbe62f160	-0.2216239
142	0x3dddde03	0.10833361
143	0x3e23bc3b	0.15989773
144	0x3d2272b3	0.039660167
145	0xbdd6f95d	-0.10496781
146	0x3f830af2	1.0237715
147	0x3e23a508	0.15980923
148	0xbda24cb1	-0.07924784
149	0x3e9925e5	0.29911724
150	0xbd6422e3	-0.055697333
151	0xbc3e8924	-0.011629377
152	0x3dc119eb	0.094287716
153	0xbd72ebab	-0.05930678
154	0xbd488e05	-0.048963565
155	0x3dc57be9	0.096427746
156	0xbd93e782	-0.07221891
157	0x3f6e1e22	0.9301473
158	0x3d412fa8	0.04716459
159	0x3dfbd2c5	0.122960605
160	0xbde3aca2	-0.111169115
161	0x3ce5f8f2	0.028072808
162	0x3ce4839b	0.027894786
163	0x3f592dc4	0.8483546
164	0x3d1fa659	0.038977
165	0xbda2631d	-0.079290606
166	0xbd88fab6	-0.06688444
167	0x3e55ce43	0.20879464
168	0xbd20a3e0	-0.039218783
169	0x3d4e2895	0.05033167
170	0x3e0cf157	0.13763939
171	0x3cc12d3c	0.02358114
172	0x3e06a89d	0.13150258
173	0xbd04ebc3	-0.032451402
174	0xbb41ffae	-0.002960186
175	0xbdb630e1	-0.08896042
176	0x3dd1d99d	0.102465846
177	0x3d0e0557	0.03467306
178	0x3e55a0ad	0.20862074
179	0x3f81e64c	1.0148406
180	0xbd26eec4	-0.04075505
181	0x3fa479d3	1.2849678
182	0x3fa8758d	1.3160874
183	0x3d16aafb	0.036784153
184	0x3d80d166	0.062899396
185	0x3d834e7b	0.06411453
186	0x3dc91da1	0.098201044
187	0xbfa5f6e0	-1.2965965
188	0xbe243984	-0.16037565
189	0x4032165c	2.7826147
190	0x3ee2c7ed	0.44293156
191	0x3c8c8bdb	0.017156532
192	0xbd85291e	-0.06501983
193	0xb89ee239	-7.576164e-05
194	0xbe0a6f6f	-0.13519071
195	0xbe303a5c	-0.17209762
196	0x3deda522	0.11603762
197	0xbca03531	-0.019556614
198	0x3e03f22f	0.12885354
199	0x3d0a28d8	0.033730358
200	0xbd8c57e8	-0.06852704
201	0xbe3ba911	-0.18326212
202	0xbe4a8b56	-0.19779715
203	0x3f4e5e39	0.8061252
204	0x3ccb886a	0.02484532
205	0x3d0e775b	0.034781795
206	0x3e889c0f	0.26681563
207	0xbd4a6db2	-0.04942102
208	0x3d5451bf	0.05183577
209	0x3dd7e2c7	0.10541301
210	0x3e1e11f5	0.15436538
211	0x3e3ffc10	0.18748498
212	0x3d0e21ec	0.03470032
213	0x3cd31205	0.025765428
214	0x3f6c0c27	0.92206043
215	0xbe0db394	-0.13838035
216	0x3d3f27cd	0.046668816
217	0xbd438140	-0.047730684
218	0x3e3cbb88	0.18430912
219	0xbdac62b3	-0.08417263
220	0x3f86fd0a	1.0545971
221	0xbd05c885	-0.032661933
222	0x3df6e127	0.12054663
223	0xbd1eb8f9	-0.038750622
224	0xbcde5aa5	-0.027142832
225	0x3debddd2	0.11516918
226	0x3d7a0df8	0.061048478
227	0x3de36ce8	0.111047566
228	0x3c9ce5d0	0.019152552
229	0xbe3bb89e	-0.18332145
230	0xbd26c6a4	-0.040716782
231	0xbd34a3d9	-0.04410157
232	0xbd008ba8	-0.031383187
233	0x3e062f28	0.13103926
234	0x3dd9ef38	0.106413305
235	0x3e2ce7c4	0.16885287
236	0x3e8e6c80	0.27817154
237	0xbe601033	-0.2188118
238	0x3ec3eac2	0.38265043
239	0x3e900a88	0.28133035
240	0x3dd60d38	0.1045174
241	0xbdff9d6f	-0.124812
242	0xbd695410	-0.056964934
243	0xbd031fb3	-0.032012653
244	0x400fe06c	2.2480726
245	0xbf45bc4e	-0.77240455
246	0xc0583a77	-3.3785684
247	0x3f13d059	0.5773979
248	0x3e283a67	0.16428529
249	0x3f8acad7	1.0843152
250	0xbd53f428	-0.051746517
251	0x3db79707	0.08964353
252	0xbdacd1bc	-0.08438441
253	0x3d63ed5a	0.055646278
254	0xbd83b285	-0.06430534
255	0x3dc0c729	0.09412987

input_layer.bias f4 [32]
0	0xbd6b6f35	-0.057479102
1	0xbc69def0	-0.014274344
2	0x3f4032ef	0.7507772
3	0x3f957eca	1.1679318
4	0x3ea5b424	0.32364
5	0x3f83e751	1.0304967
6	0x3e952b69	0.29134682
7	0x3e2bfd3e	0.16795823
8	0x3e188527	0.14894544
9	0x3ea09301	0.31362155
10	0x3d7c9bfb	0.061672192
11	0x3e3b97e5	0.18319662
12	0x40182a5a	2.377585
13	0x3e8b7485	0.27237335
14	0x3e19d7db	0.15023749
15	0x3e35371c	0.17696804
16	0x3f098bac	0.5372875
17	0x3dadcbb4	0.08486119
18	0x3f96a3f6	1.1768787
19	0x3df7dd10	0.12102711
20	0x3e52a8e6	0.20572242
21	0x3ec269f4	0.3797146
22	0x3dcc900c	0.09988412
23	0x3ea64d76	0.32480973
24	0xbdd0b232	-0.10190238
25	0x3ea6f490	0.3260846
26	0x3f16bb4c	0.5887954
27	0x3eb7e6d1	0.35918286
28	0x3f29bf71	0.6630774
29	0x3ead3b69	0.3383439
30	0x3ea5bb9e	0.32369703
31	0x3f56d9d9	0.8392616

hidden_layer1.weight f4 [64, 32]
0	0x3e0498f3	0.1294897
1	0x3dd94215	0.10608307
2	0xbe6eb7d7	-0.23312317
3	0xbff7b1fd	-1.9351193
4	0x3f52a0b8	0.8227649
5	0xbfe83eb7	-1.8144139
6	0x3f79c823	0.9757101
7	0x3f6e1794	0.9300473
8	0x3f439f12	0.764146
9	0x3f503cf0	0.81342983
10	0x3f54d370	0.8313513
11	0x3f5ad0b5	0.8547471
12	0xc0b9bdb6	-5.804408
13	0x3f768c6d	0.9630802
14	0x3f40ef03	0.753647
15	0x3f6c1be9	0.9223009
16	0xbe543ca9	-0.20726265
17	0x3f7a7541	0.97835165
18	0xc00d3f8c	-2.2070036
19	0x3f607ca9	0.87690216
20	0x3f88ff3c	1.0702891
21	0x3f89aed9	1.0756484
22	0x3f47fa1c	0.7811601
23	0xbc912c5d	-0.01772135
24	0xbdd0e9fd	-0.1020088
25	0x3f532df3	0.8249199
26	0x3d94a840	0.07258654
27	0xbcee497d	-0.029087776
28	0xbec25cd9	-0.37961462
29	0x3f550c34	0.83221745
30	0xbf651e90	-0.8949976
31	0xbeff2ac0	-0.49837303
32	0x3d2368ff	0.039895054
33	0x3d70d460	0.058796287
34	0x3f454b32	0.77067864
35	0xbfa797fd	-1.3093258
36	0x3f76e71c	0.96446395
37	0xbfbff128	-1.499547
38	0x3f719a80	0.94376373
39	0x3f860c91	1.0472585
40	0x3f7d9be7	0.99066013
41	0x3f6f4cd8	0.9347663
42	0x3f873bf2	1.0565169
43	0x3f443598	0.7664428
44	0xc0419ec5	-3.0253155
45	0x3f673801	0.9031983
46	0x3f98e9e5	1.1946379
47	0x3f51ed5d	0.8200281
48	0x3f3e43b5	0.7432206
49	0x3f6e3907	0.93055767
50	0xbfb6f33d	-1.429298
51	0x3f6cce7f	0.9250259
52	0x3f713ce4	0.94233537
53	0x3f6b40b9	0.91895634
54	0x3f6fe348	0.9370618
55	0x3f4c3d03	0.79780596
56	0x3dc59063	0.0964668
57	0x3f84150a	1.0318921
58	0x3f3dd24e	0.74149024
59	0x3f535ee8	0.8256669
60	0x3f121d68	0.5707612
61	0x3f9bb0ba	1.2163308
62	0xbf2267dd	-0.6343973
63	0x3ef8bd58	0.48581958
64	0xbdda7f97	-0.10668867
65	0xbe2e79b4	-0.17038614
66	0xbeaa1783	-0.33221063
67	0xbfbc4d7e	-1.4711149
68	0x3f994819	1.1975127
69	0xbfbd393c	-1.4783092
70	0x3f88f637	1.0700139
71	0x3f70e3f2	0.94097817
72	0x3f811c28	1.0086718
73	0x3f77d271	0.96805483
74	0x3f85030e	1.0391557
75	0x3f5b52be	0.8567313
76	0xc0b0e294	-5.5276585
77	0x3f7b1a81	0.98087317
78	0x3f7ee3c9	0.9956632
79	0x3f5eb8ed	0.87000924
80	0xbdf28771	-0.1184224
81	0x3f738725	0.9512809
82	0xbfe7c330	-1.8106441
83	0x3f5b9f50	0.85789967
84	0x3f844665	1.0333983
85	0x3f5c1084	0.859627
86	0x3f67609d	0.90381795
87	0x3e4e81e9	0.20166744
88	0x3dfa8f8d	0.122344114
89	0x3f74e9fd	0.9566954
90	0xbda6fa7d	-0.081532456
91	0xbd9b65a7	-0.07587748
92	0x3c9a9e6c	0.01887437
93	0x3f939b3d	1.153175
94	0xbf8e4d56	-1.1117351
95	0xbddfc49f	-0.10926174
96	0xbe54c9df	-0.20780133
97	0xbe019578	-0.12654674
98	0x3f74aac9	0.955731
99	0x3d8f6eac	0.07003531
100	0x3f4565c1	0.7710839
101	0xbd5392e3	-0.051653754
102	0x3f45c778	0.7725749
103	0x3f58d4cf	0.8469972
104	0x3f47f170	0.7810278
105	0x3f0ecf11	0.5578471
106	0x3f3d7f77	0.7402262
107	0x3f47d7de	0.7806376
108	0xbf894c32	-1.0726378
109	0x3f533257	0.8249869
110	0x3f346dcd	0.7048004
111	0x3f4fd91a	0.81190646
112	0x3f83b13a	1.028846
113	0x3f4478f8	0.76747084
114	0x3d946fab	0.072478615
115	0x3f505e98	0.8139434
116	0x3f559ff8	0.8344722
117	0x3f67a93d	0.9049261
118	0x3f4f5201	0.80984503
119	0x3f5e1161	0.8674527
120	0xbc838b53	-0.016057646
121	0x3f4bdc85	0.7963336
122	0x3f98a559	1.192546
123	0x3f7a5517	0.97786087
124	0x3f91ce71	1.1391126
125	0x3f0e03a9	0.55474335
126	0x3e2982ed	0.1655385
127	0x3f706a91	0.9391261
128	0x3bb98c5f	0.0056624855
129	0x3df6ec75	0.12056819
130	0x3fa8b449	1.3180019
131	0x3f481e89	0.7817159
132	0xbe4e3f2e	-0.20141289
133	0x3f414a20	0.7550373
134	0xbea740a4	-0.32666504
135	0xbeba6ec7	-0.3641264
136	0xbf2ed210	-0.6828928
137	0xbe05c29e	-0.13062522
138	0xbe62400d	-0.22094746
139	0x3c241574	0.01001488
140	0x4066d97a	3.6070237
141	0x3e2e6972	0.17032412
142	0xbe67db3d	-0.22642227
143	0x3d2a48a1	0.04157317
144	0x3f6d1e7b	0.92624635
145	0xbeb079bd	-0.3446788
146	0x3f7d53f4	0.9895623
147	0xbd74cb2f	-0.059764083
148	0xbe5e04c8	-0.21681511
149	0xbe39c239	-0.18140496
150	0x3e2f989f	0.17148064
151	0x3f2f2c7b	0.68427247
152	0x3dcb7b63	0.099356435
153	0xbec38a3a	-0.38191396
154	0x3f65d09b	0.8977143
155	0x3f349a4f	0.70547956
156	0x3f5371d2	0.8259555
157	0xbedba6b0	-0.4290061
158	0x3f864f31	1.0492917
159	0x3fb09f2c	1.3798575
160	0xbcff06eb	-0.031131228
161	0xbe3bf6ae	-0.1835582
162	0xbefb288c	-0.49054372
163	0xbf97ce30	-1.1859798
164	0x3f8ae575	1.0851275
165	0xbf9b508b	-1.2133955
166	0x3f6c2cdd	0.92255956
167	0x3f6c0ef7	0.92210335
168	0x3f965c15	1.1746851
169	0x3f477988	0.77919817
170	0x3f6b28c3	0.9185907
171	0x3f438f1f	0.7639026
172	0xc0b0b99c	-5.5226574
173	0x3f684708	0.90733385
174	0x3f5e7bf4	0.8690789
175	0x3f67ed10	0.90596104
176	0x3c4432c4	0.011974994
177	0x3f60e7dc	0.8785379
178	0xbfdf2a6e	-1.7434824
179	0x3f823ce9	1.0174838
180	0x3f7fff7f	0.9999923
181	0x3f7f4d84	0.99727654
182	0x3f70bced	0.9403828
183	0x3d9853ac	0.07437834
184	0x3e10921d	0.14118238
185	0x3f8240c8	1.017602
186	0xbe35026c	-0.17676705
187	0x3dde95ea	0.108684376
188	0xbe6658d3	-0.22494821
189	0x3f7ec301	0.995163
190	0xbfb1f1e6	-1.3901947
191	0xbe93c845	-0.2886373
192	0x3d59f84b	0.053215306
193	0x3c2bea7f	0.01049292
194	0xbdb4838c	-0.08814153
195	0xbe8a0112	-0.26953942
196	0x3d64f57c	0.055898175
197	0x3d008446	0.031376146
198	0xbdac1bac	-0.084037155
199	0x3d29e9af	0.041482624
200	0xbe2bd0ae	-0.16778824
201	0xbde10225	-0.10986737
202	0xbd5ff2b8	-0.054674834
203	0xbe304abf	-0.17216013
204	0x3d933712	0.07188238
205	0xbdae9da8	-0.08526164
206	0xbd1d2745	-0.03836753
207	0x3c833ab3	0.0160192
208	0x3bcaafe2	0.0061855176
209	0xbe17922e	-0.14801857
210	0xbd444908	-0.04792121
211	0xbe0a9ebd	-0.13537116
212	0xbe955f5e	-0.29174322
213	0xbe1b6237	-0.15174185
214	0xbdb0d5b2	-0.08634509
215	0x3dd55a1b	0.10417577
216	0xbc42fe32	-0.011901425
217	0xbdac3175	-0.08407871
218	0xbd262eda	-0.040572025
219	0xbda26cb9	-0.079308935
220	0x3e053786	0.13009462
221	0xbdf64ae9	-0.12026007
222	0xbd74f02f	-0.05979937
223	0xbe4559a5	-0.19272478
224	0xbdd54dc8	-0.10415226
225	0xbdc03c11	-0.09386457
226	0x3f021dad	0.5082653
227	0x3f0c7a0a	0.54873717
228	0x3f20a975	0.6275857
229	0x3ebd9263	0.37025747
230	0x3f175961	0.59120756
231	0x3f648544	0.8926585
232	0x3f5c44bf	0.860424
233	0x3f2bfafa	0.67179835
234	0x3f691f2b	0.91063184
235	0x3f1286e2	0.57237065
236	0xbfaf02a0	-1.3672676
237	0x3f2e3f2a	0.6806513
238	0x3f198f96	0.5998472
239	0x3f59e3a7	0.85112995
240	0x3f34ae85	0.70578796
241	0x3f27b34b	0.65507954
242	0x3ed39356	0.41323346
243	0x3f4f0ece	0.80881965
244	0x3f53fa40	0.82803726
245	0x3f6e60f9	0.9311672
246	0x3f2ab948	0.66688967
247	0x3f44c2aa	0.76859534
248	0xbd16dee0	-0.036833644
249	0x3f67ce8d	0.90549546
250	0x3f379c8a	0.71723235
251	0x3f29d6dc	0.66343474
252	0x3f021a1c	0.5082109
253	0x3f335917	0.70057815
254	0x3f20f3be	0.6287192
255	0x3ef2843f	0.4736652

hidden_layer1.bias f4 [64]
0	0xbe14d24d	-0.14533348
1	0x3efdd857	0.49579117
2	0xbbc233d3	-0.005926588
3	0x3f1ed9a8	0.6205087
4	0x3f9e66bc	1.2375102
5	0xbc92b51d	-0.017908627
6	0xbe4e0a28	-0.20121062
7	0x3f2baffa	0.67065394
8	0x3e12eb47	0.14347564
9	0x3e007dee	0.12548038
10	0x3f2ab41b	0.6668107
11	0x3edf2818	0.43585277
12	0x3c5da4a0	0.013528019
13	0xbe9db9b3	-0.3080574
14	0x3f787076	0.970466
15	0x3f86c4b8	1.0528784
16	0x3f1153a7	0.5676827
17	0x3f8aac37	1.0833806
18	0xbd2dad59	-0.042401645
19	0x3edf8a21	0.43660071
20	0x3da71a71	0.0815934
21	0x3c130167	0.008972502
22	0xbdeed861	-0.11662365
23	0xbf14fad4	-0.58195233
24	0xbe82c641	-0.2554188
25	0x3f8439f7	1.033019
26	0x3fa66619	1.2999908
27	0xbedc8a0b	-0.43074068
28	0x3f1e15db	0.617521
29	0xbdb58364	-0.088629514
30	0x3b2c2636	0.0026267893
31	0xbd2642e0	-0.04059112
32	0xbd8865e2	-0.066600576
33	0xbd97115d	-0.07376359
34	0x3f2ae39b	0.6675355
35	0x3f64f354	0.8943379
36	0x3fa50f7e	1.2895353
37	0xbe2308f8	-0.1592139
38	0xbd414eec	-0.047194406
39	0x3f9b43ce	1.2130067
40	0xbc6d45e0	-0.0144819915
41	0xbc88e344	-0.016709931
42	0xbe5a0b93	-0.21293478
43	0x3f45e1c5	0.7729762
44	0xbd9ba6d1	-0.07600177
45	0x3dfe3fe7	0.12414532
46	0x3fad1671	1.3522474
47	0xbea2b1f5	-0.31776395
48	0x3f47f94a	0.7811476
49	0x3f890020	1.0703163
50	0xbd45ea91	-0.048319403
51	0xbe0398bf	-0.12851237
52	0x3ed70dff	0.42002866
53	0xbdfa900f	-0.12234508
54	0x3f238fe2	0.6389142
55	0x3f30fc90	0.6913538
56	0x3f18237a	0.5942913
57	0xbde05666	-0.10953979
58	0x3d91fea5	0.07128648
59	0xbc87e34a	-0.016587872
60	0x3c16e507	0.009209878
61	0x3f70a3ed	0.9400013
62	0x3f7acf83	0.9797289
63	0x3e0e45c0	0.13893795

hidden_layer2.weight f4 [32, 64]
0	0x3e5ce7a7	0.21572743
1	0xbe1917bb	-0.14950459
2	0xbde165fa	-0.110057786
3	0xbc48588b	-0.012228142
4	0xbdabe235	-0.08392755
5	0xbd6b6546	-0.05746963
6	0x3dca26ca	0.0987068
7	0xbd26fc26	-0.04076781
8	0xbc9d7f74	-0.019225813
9	0xbc3da4c3	-0.011574927
10	0xbd27e1da	-0.040986873
11	0xbc8414d0	-0.016123205
12	0x3db670e3	0.0890825
13	0xbe02f850	-0.12790036
14	0xbe14724b	-0.14496724
15	0x3dc7a313	0.09747901
16	0xbcd5460b	-0.026034376
17	0xbe0279bf	-0.12741755
18	0x3d64ca10	0.055856764
19	0x3e239cd4	0.15977794
20	0xbcde0a1b	-0.027104428
21	0x3e1b5815	0.1517032
22	0xbc86d7c6	-0.01646031
23	0xbc4d3a1a	-0.0125260595
24	0x3d409c50	0.04702407
25	0xbe01d1bc	-0.12677664
26	0xbe349193	-0.17633657
27	0xbe518cee	-0.20463917
28	0xbd3d82a8	-0.04626718
29	0x3e4dc270	0.20093703
30	0x3e049d26	0.12950572
31	0x3c5c16f9	0.0134332115
32	0xbdf3556b	-0.118815266
33	0xbdcdb993	-0.10045161
34	0xbe869988	-0.2628901
35	0xbde60580	-0.11231518
36	0xbd96fb9f	-0.07372212
37	0xbd91cd7d	-0.07119272
38	0x3d8fa241	0.07013369
39	0xbd2a1cb9	-0.0415313
40	0x3dab2564	0.08356741
41	0x3d602428	0.05472198
42	0xbe81ae74	-0.2532841
43	0x3dd7fdf7	0.10546487
44	0xbd8a9968	-0.06767541
45	0xbcf11e81	-0.02943349
46	0xbe23319f	-0.15936898
47	0x3dea21e2	0.11432244
48	0xbd0dcaad	-0.034617115
49	0xbcb455a0	-0.022013485
50	0x3a92eea5	0.0011210038
51	0xbdba0027	-0.0908206
52	0x3e23f52e	0.16011497
53	0x3d45cd96	0.048291765
54	0x3e1287e2	0.14309648
55	0x3d9b4240	0.075809956
56	0x3d4b7842	0.049675234
57	0xbe451054	-0.1924451
58	0x3d8f920b	0.07010277
59	0xbd06c6e7	-0.03290453
60	0xbcb34b0d	-0.021886373
61	0xbe0eba3b	-0.13938229
62	0xbc4817fc	-0.01221275
63	0xbd11eeda	-0.035628177
64	0xbe1ae1f3	-0.15125255
65	0x3e11a731	0.14223935
66	0xbcaf0bb3	-0.021367883
67	0xbd17a603	-0.037023555
68	0x3e310108	0.1728555
69	0xbe4ffe48	-0.20311844
70	0x3d9174e4	0.07102373
71	0xbc49ece8	-0.012324549
72	0xbcb9c8aa	-0.022678692
73	0x3d1a4f38	0.037673205
74	0xbd8f0ede	-0.069852576
75	0xbe279b2d	-0.16367789
76	0xbe1a70fb	-0.15082161
77	0x3c589e37	0.013221315
78	0x3a6a26f6	0.0008932197
79	0xbdf672df	-0.12033629
80	0xbe1ddda9	-0.15416588
81	0xbdaba875	-0.0838174
82	0x3d0cec3a	0.03440497
83	0x3c000dab	0.007815759
84	0x3bfc7180	0.00770396
85	0x3e910876	0.28326768
86	0xbd4c138a	-0.04982332
87	0xbcd3a3f3	-0.025835013
88	0x3d9d7f9d	0.07690356
89	0xbe6a28c1	-0.22867109
90	0x3dc786b8	0.097424924
91	0xbe632d06	-0.22185144
92	0x3b865251	0.0040991683
93	0xbc66e6ca	-0.01409311
94	0x3dcbb7ba	0.099471524
95	0xbe482f69	-0.19549336
96	0xbd12c0c7	-0.035828378
97	0xbdc02201	-0.09381486
98	0xbd7150b6	-0.058914863
99	0xbd6280e2	-0.055298693
100	0xbe028410	-0.1274569
101	0x3d3bbdc4	0.04583527
102	0x3ce38ee5	0.027778098
103	0xbd898e2b	-0.067165695
104	0xbe56eb05	-0.2098809
105	0xbca4bb57	-0.020108862
106	0xbeab05fe	-0.3340301
107	0xbce7631e	-0.028245505
108	0x3e36518f	0.1780455
109	0xbdbd62a9	-0.092473336
110	0xbda8a953	-0.08235421
111	0xbdd21f05	-0.10259823
112	0x3cc392af	0.023873655
113	0xbc47c55d	-0.012193051
114	0x3d97dd30	0.07415235
115	0x3c6efe53	0.014587003
116	0xbe1cac61	-0.15300132
117	0xbe27f43c	-0.16401762
118	0xbd58d973	-0.05294175
119	0x3de86f7b	0.11349388
120	0xbcda0cf6	-0.026617508
121	0xbda56bb7	-0.080771856
122	0x3c724e69	0.014789202
123	0x3e090d34	0.13383943
124	0x3e7fa14e	0.24963877
125	0xbca8fc44	-0.020628102
126	0xbe07f036	-0.13275227
127	0xbd81c43e	-0.06336258
128	0xbb8af9b2	-0.004241192
129	0xbd05279f	-0.03250849
130	0x3cadf6e7	0.021235896
131	0x3dca3191	0.09872735
132	0xbcf33567	-0.02968855
133	0xbe150855	-0.1455396
134	0xbaaec80f	-0.0013334769
135	0x3d8f8a45	0.07008795
136	0xbc84b41f	-0.01619917
137	0xbe0ba044	-0.13635355
138	0x3d03d8e5	0.03218927
139	0xbdb2d114	-0.08731285
140	0x3e33a162	0.17542031
141	0x3d078773	0.03308816
142	0xbd913dbc	-0.07091853
143	0xbd429c1f	-0.04751217
144	0x3d07fdf3	0.03320117
145	0x3b34b517	0.0027573758
146	0xbe2629d1	-0.16226889
147	0xbc4a3604	-0.01234198
148	0xbe31d9d7	-0.17368256
149	0x3d947b5c	0.072500914
150	0xbdbbbf83	-0.09167387
151	0xbe333dd3	-0.17504053
152	0xbcff61f8	-0.031174645
153	0xbd3ddfe3	-0.046356093
154	0xbd032aa6	-0.032023095
155	0xbde71a2b	-0.11284288
156	0xbc648110	-0.0139467865
157	0x3d84ac7e	0.06478213
158	0xbdf1b972	-0.11802949
159	0xbdbdc7e5	-0.092666425
160	0x3cff9c9d	0.031202609
161	0x3d8e344c	0.069435686
162	0xbd1a5932	-0.03768272
163	0xbc856ea3	-0.016288107
164	0xbd0f9e3e	-0.03506302
165	0xbc430d3d	-0.011905012
166	0xbaf03a2d	-0.0018327885
167	0x3dbf070e	0.093275174
168	0xbe08a9fb	-0.13346092
169	0xbd7d024d	-0.061769772
170	0xbe180dce	-0.14849016
171	0xbbbd0e70	-0.0057695433
172	0x3d3bcadb	0.045847755
173	0xbd8f468b	-0.06995877
174	0x3aa91161	0.0012898856
175	0x3c72a3cf	0.014809563
176	0x3dbe04c3	0.09278252
177	0xbe5e837b	-0.21729843
178	0x3c513460	0.012768835
179	0xbdf1e8fa	-0.11812015
180	0x3a0cfa18	0.0005377843
181	0xbd152c4c	-0.036419198
182	0x3d3b0c72	0.045666166
183	0x3dfe66e2	0.12421967
184	0xbd52deab	-0.051481884
185	0xbd983989	-0.07432849
186	0xbe2c6968	-0.16837084
187	0x3da06221	0.078312166
188	0x3dc13fb6	0.0943598
189	0xbe3a9adb	-0.18223135
190	0xbe854bf7	-0.2603452
191	0x3d935970	0.07194793
192	0xbde3d30e	-0.1112424
193	0xbe142fa0	-0.14471292
194	0x3dd1e7f7	0.10249322
195	0xbeac1e7f	-0.33617017
196	0xbe0b02d2	-0.13575295
197	0x3d066aae	0.03281658
198	0x3e322416	0.17396578
199	0xbe90c8d4	-0.2827822
200	0x3d008168	0.03137341
201	0xbd905807	-0.0704804
202	0xbcef1cd2	-0.029188547
203	0xbd5176f0	-0.05113882
204	0x3d5e437f	0.054263588
205	0xbd2e1dcd	-0.04250889
206	0xbdee8145	-0.1164575
207	0xbda5040f	-0.08057415
208	0xbd3cbc30	-0.046077907
209	0xbd974cdf	-0.07387709
210	0x3d49be86	0.049253963
211	0xbd08f0b0	-0.033432662
212	0xbd453d0c	-0.048153922
213	0xbd92058e	-0.07129966
214	0x3dc7b44e	0.09751187
215	0x3df8af32	0.12142791
216	0x3cbf820e	0.023377445
217	0xbce2c7ac	-0.027683102
218	0xbdb7f2ac	-0.08981833
219	0xbd36df43	-0.044646513
220	0xbc20539c	-0.009785559
221	0xbde2ef62	-0.11080815
222	0xbd83bdef	-0.06432711
223	0x3d2b45bb	0.041814547
224	0x3dd3f3c8	0.10349232
225	0xbe0a07d2	-0.13479546
226	0xbdb5735c	-0.08859894
227	0xbe2af9dd	-0.16696878
228	0xbde33ad8	-0.11095208
229	0xbc7b7262	-0.015347095
230	0x3dcdf7ab	0.100570045
231	0xbcce697c	-0.025196783
232	0x3e4bfe77	0.1992129
233	0xbe4a7783	-0.19772153
234	0x3e2a7089	0.16644491
235	0xbcb98451	-0.022646101
236	0x3d464865	0.048408885
237	0x3be095de	0.006853803
238	0xbcf8f31f	-0.030389367
239	0x3e5402a4	0.20704132
240	0x3d46be68	0.04852143
241	0xbd8ade97	-0.06780737
242	0xbdfa2e5b	-0.12215873
243	0x3e3a55d5	0.18196805
244	0xbe1b53b1	-0.15168644
245	0xbc98fc37	-0.018674953
246	0xbd1fee65	-0.03904571
247	0x3d8d0425	0.06885556
248	0x3d40d632	0.047079273
249	0xbe057ab1	-0.13035084
250	0x3d790ddc	0.060804233
251	0xbd04d4bf	-0.032429453
252	0xbd8cc648	-0.06873757
253	0xbd11f278	-0.035631627
254	0x3d46f614	0.048574522
255	0xbc8ad9c3	-0.01694954

hidden_layer2.bias f4 [32]
0	0x3d014398	0.031558603
1	0x3d0b3f0f	0.033995684
2	0x3de5ddbc	0.11223933
3	0x3c2e7c1c	0.010649707
4	0x3dbbda25	0.09172467
5	0xbe13871b	-0.14407007
6	0x3d149cae	0.036282234
7	0xbd66eb86	-0.056376956
8	0xbde251e4	-0.11050776
9	0xbd1201ec	-0.035646364
10	0x3f4e62af	0.8061933
11	0xbe9d0887	-0.30670568
12	0x3d55ac48	0.052166253
13	0x3e6ad980	0.22934532
14	0x3cca9b11	0.024732145
15	0xbdce669b	-0.10078164
16	0xbd80ecc4	-0.062951595
17	0xbde61c1c	-0.1123583
18	0x3f0953f8	0.5364375
19	0xbeca37c0	-0.3949566
20	0xbadb9de4	-0.0016755429
21	0xbf1a6ac9	-0.6031919
22	0xbe01f4ba	-0.12691012
23	0xbcf70f9b	-0.030158808
24	0x3d292c59	0.04130206
25	0xbe6a6e08	-0.22893536
26	0xbdad7986	-0.084704444
27	0xbc552016	-0.013008138
28	0xbe32974b	-0.17440526
29	0xbcdcafe7	-0.026939346
30	0xbe2f4b78	-0.17118633
31	0x3f025d44	0.5092356
