Comparison/TrainedModel/5-0.001-63-Agent/node_agent_59.pth (torch, 30404 bytes, 6 tensors)

input_layer.weight f4 [32, 84]
000000 07 8e 1a bd 08 3c 7d bd 53 45 73 3d 7d 5b 73 bd
       -0.037733104 -0.06182483 0.059392285 -0.059413422
000010 f0 79 54 bd 73 0d 16 3d 3e 81 be 3e 34 a1 e5 3e
       -0.0518741 0.03663392 0.3720798 0.4484955
000020 f2 08 de 3e 02 02 58 3e c5 34 bc bd 8c bc 30 be
       0.433662 0.21094516 -0.091897525 -0.17259425
000030 48 52 b2 3e bd 67 70 3e 9a e3 0e 3f 3b 1c ac 3d
       0.348284 0.23477073 0.5581604 0.08403822
000040 82 71 bd bf 9d ce a3 3f c8 ba 82 be e3 9c 60 3f
       -1.4800265 1.2797428 -0.25533128 0.8773939
000050 19 66 ae 3c d7 1b 1a be c6 c1 18 3d 83 d7 1b bd
       0.021288918 -0.15049683 0.03729417 -0.038047325
000060 f7 45 12 3d 71 4f 2f 3e 8a 49 af 3e b4 ac 20 bd
       0.035711255 0.17120148 0.34235793 -0.039227203
000070 21 04 0d be d8 99 dd bd db c4 49 3e 5c 73 0f 3e
       -0.13771106 -0.10820359 0.19704 0.1400885
000080 b7 bf f8 3a 57 1a d3 3d db 7f e6 bd d2 58 ee 3e
       0.0018978034 0.10307758 -0.11254855 0.4655214
000090 f8 3a cf 3d 9d 31 ec 3d 33 1f 0a 3d 45 db e6 3c
       0.10118669 0.115329005 0.03372116 0.028180728
0000a0 f4 ff 9e bd 2f a1 6b 3b d5 00 c7 bc 92 7d f9 3c
       -0.07763663 0.0035954227 -0.024292389 0.030455384
0000b0 7f 58 34 bc 73 47 70 3d b0 ce 38 3e ef fb 50 bd
       -0.011007427 0.05866189 0.18047595 -0.051021513
0000c0 c9 14 16 be 61 e0 35 be b0 75 10 be 6d 49 b9 bc
       -0.14656366 -0.17761375 -0.14107394 -0.02261802
0000d0 57 3a 27 bd b0 3b e9 bd 8a cc 62 bc db 51 58 be
       -0.04082712 -0.113883376 -0.013842711 -0.21124975
0000e0 1f a4 b0 3d b0 42 eb bd 70 9a 9c 3c 10 a9 bb 3c
       0.086250536 -0.11487329 0.01911661 0.022907764
0000f0 50 51 22 3d 7b 8e 1e be b7 9b 0b 3c 82 3b fe bd
       0.039628327 -0.1548404 0.008521012 -0.12413694
000100 d5 6c 41 3e 65 a6 e8 3d cb c4 3f 3d 24 d8 b7 3e
       0.18889172 0.11359862 0.046818536 0.3590709
000110 4d 47 7e bd cb be 0b 3e 3d 66 80 bd 59 e1 9a 3d
       -0.062079716 0.13647 -0.062695004 0.07562513
000120 42 56 f7 3d f8 7c 5a bd 2b 1e 13 3c a0 6f 50 3d
       0.12076999 -0.053341836 0.008979361 0.050887704
000130 ec fb 31 be 4f e6 7d bd 58 fb f3 3d 57 65 e4 3b
       -0.17381257 -0.061987218 0.119131744 0.0069700885
000140 ff e7 01 3e 81 11 a6 bd af da ce bd 29 e5 be 3e
       0.12686156 -0.08108807 -0.10100304 0.3728421
000150 fe 61 0f 3e 4f 02 dc 3a 73 5c 03 be 02 42 95 3d
       0.14002225 0.0016785356 -0.12828235 0.072879806
000160 ad cc 62 bd ed 66 a9 3d 80 63 9f 3e 84 d7 bd 3e
       -0.055370975 0.08271585 0.311306 0.37078488
000170 d2 94 f3 3e fd 87 05 3e f6 5c 85 bd af 08 28 3e
       0.47574478 0.13040157 -0.065118715 0.16409563
000180 24 f6 02 3f 84 7f e1 3e d2 7e d3 3e d9 b3 29 be
       0.5115683 0.440426 0.41307694 -0.16572513
000190 35 32 de bf d1 a1 a5 3f 24 9c 3e be e8 5f 5e 3f
       -1.7359072 1.2940007 -0.1861425 0.8686509
0001a0 2e 42 0b bd 40 57 2d be e7 2f 5a bd 33 17 84 b9
       -0.03399866 -0.16927814 -0.05326834 -0.00025194287
0001b0 a0 94 2d bd 43 7c 4f 3a 3e c1 fd 3e 9d 9f 2a 3e
       -0.042378068 0.000791494 0.49561495 0.1666245
0001c0 a2 2e 34 bd a7 15 94 3d d4 b1 f2 3e a4 23 34 3d
       -0.043989785 0.07230692 0.47401297 0.043979302
0001d0 e1 04 0b bc 88 a8 8d bb ec f2 b2 3c 76 77 b4 3e
       -0.00848505 -0.004323069 0.02184435 0.3524739
0001e0 26 30 90 3b 33 1f a1 bd 0b b2 24 3d 10 6a 0d 3d
       0.004400271 -0.07867279 0.040208858 0.034524977
0001f0 87 17 1d 3e 45 4d 56 3c af ea 26 3e 58 1f a8 bb
       0.15341006 0.013079946 0.16300462 -0.0051306896
000200 b3 39 da 3b 37 f3 5c bd 53 be 8c bc da 27 a5 3d
       0.0066597103 -0.053942885 -0.017180597 0.08064242
000210 be d1 39 bd 91 29 ac 3c 33 03 88 3d dd b6 44 bc
       -0.04536604 0.021015914 0.06641235 -0.012006489
000220 90 7e 5f bd d1 4f 1b be f0 de 56 bd ab 8f 2b bd
       -0.05456406 -0.15167166 -0.052458704 -0.04188506
000230 d7 4e c6 3b 31 20 ba ba d2 83 e6 3c 7b c2 f5 3d
       0.006051879 -0.0014200268 0.028139029 0.11999985
000240 a4 4d 0c bd 42 ea d7 3b 30 3f 56 3d 0e 70 b5 bc
       -0.03425373 0.006589205 0.052306354 -0.022148158
000250 cb 86 bc 3d 98 fe f1 bd e2 b3 ba bd 18 a3 a2 3e
       0.09205397 -0.11816138 -0.09116341 0.31765056
000260 78 ad f4 bc 88 8e 6c 3d c8 4a d1 3a e2 9b d5 bb
       -0.029867873 0.057753116 0.0015967721 -0.006518827
000270 83 ec 7d be 56 06 84 3d 32 2b 0f be b7 52 b4 bd
       -0.24797253 0.06446521 -0.13981321 -0.08804839
000280 ac c9 49 3e e9 39 bc bc 67 7c ae 3c b0 9c a2 3b
       0.19705838 -0.022976832 0.021299554 0.0049625263
000290 d1 3f 92 3d 7d f1 d8 3d 22 62 55 3d 36 e8 94 3e
       0.07141078 0.10592935 0.05209554 0.29083413
0002a0 52 8a 03 bd 79 ef b2 3b f6 04 a5 3d 97 97 fc 3d
       -0.032114334 0.0054606763 0.08057587 0.12333601
0002b0 f3 d1 8b be 97 b3 87 be 7f ca 8e 3e 97 eb af 3e
       -0.27308616 -0.26504204 0.27888867 0.34359428
0002c0 38 a4 88 3e 8a f8 fc bc 7b d5 70 be b7 71 cd bb
       0.2668779 -0.030880231 -0.23518936 -0.0062696594
0002d0 c9 7f e3 3e a5 5a ba 3e d5 f4 c8 3e 93 98 dc bd
       0.4443343 0.3639728 0.39249292 -0.10771289
0002e0 ea d8 b7 bf 01 e8 c3 3f 94 99 ad be a4 51 62 3f
       -1.4363072 1.5305177 -0.33906233 0.88405824
0002f0 d7 17 c4 bd 20 06 a1 be 2a 1e 8a bd 77 d8 4a 3e
       -0.095748596 -0.31449986 -0.067440346 0.19809137
000300 07 d8 a0 3d 33 06 83 bd d9 d6 e4 3e c0 4f 7e 3c
       0.07853704 -0.06397667 0.44695166 0.015521944
000310 37 73 6d 3d 57 bc 7b 3d ee 69 01 3e 88 a3 5f 3b
       0.057971206 0.06145891 0.12638065 0.0034124572
000320 7d 4a d4 3d 23 04 00 bd 57 3d 4a bc 65 21 9e 3e
       0.1036577 -0.031253945 -0.012343726 0.30884853
000330 f9 94 c8 bc ca bf 50 bd 8c 29 01 bd 97 8d 10 3e
       -0.024485098 -0.050964154 -0.031533763 0.14116512
000340 23 c7 24 be c4 33 18 3e af 16 59 bd 33 46 2d bd
       -0.1609159 0.14863497 -0.05300015 -0.042303275
000350 98 f8 48 ba e7 8d 56 bd c6 a4 8b 3d 9c dc bb 3b
       -0.0007666438 -0.052381422 0.068185374 0.005733086
000360 62 dc 25 3c bf e3 8a bd bf 1e 89 bd 9d ff 63 bd
       0.010123344 -0.0678172 -0.066953175 -0.055663694
000370 4a b8 79 3d 34 11 8c 3d 6f 53 f1 bd ce 09 22 be
       0.060966767 0.06839219 -0.11783492 -0.15824053
000380 a2 6c 7a 3d 43 10 4d bd 1b 5d cf 3c f0 fd f0 3d
       0.061138757 -0.050064337 0.02531295 0.11767185
000390 1d 33 4f 3d 1f 6b 0e bd 70 9f d0 bd 03 7d e1 bb
       0.050585855 -0.034770127 -0.1018666 -0.0068813576
0003a0 cf 07 b6 bd f5 0a 07 3d b3 4f a1 3a 0d 37 ae 3e
       -0.08888208 0.032969434 0.0012307077 0.34026375
0003b0 c8 b0 19 3d bb 01 ca 3d d1 e1 a4 3c f2 9b c7 bc
       0.037522107 0.09863611 0.020127209 -0.024366353
0003c0 fd 49 9b 3d 90 71 9b bc c2 4e 36 bd b7 cf 86 bd
       0.075824715 -0.01897505 -0.044508703 -0.06582587
0003d0 8c cf 24 3e 8f 1f 17 3d 0f 84 d7 bc 5c 8d 0d bd
       0.16094798 0.03689533 -0.026308088 -0.03455864
0003e0 dd d2 b0 3d c1 a7 0e bc 5d eb 47 3c 92 83 af 3e
       0.08633969 -0.008706988 0.012202111 0.34280068
0003f0 e7 16 0c be 72 a9 dc 3d 8f 8c 14 bc de 42 9a 3d
       -0.13680612 0.10774507 -0.009066715 0.07532285

input_layer.bias f4 [32]
000000 ac 08 eb 3e 12 55 a3 3e e2 b1 a2 3e 21 bd a3 bc
       0.45905054 0.3190084 0.3177634 -0.019987645
000010 5d a7 ba 3e 1b 1a c3 3e e4 ad 3e 3e bb 76 cc 3e
       0.36455813 0.38105854 0.18621022 0.39934334
000020 51 c5 af 3e 6d 87 c6 3e f7 72 ae 3e 33 9b 94 3e
       0.34330228 0.38775197 0.34072086 0.29024658
000030 7c 4d e2 3c 93 0c 96 3e 6a f1 a4 3e 46 35 60 3e
       0.027624838 0.29306468 0.32215434 0.21895322
000040 a7 3b ea 3e 7e d7 cc 3e 5d e2 90 3e eb 87 ac 3e
       0.45748636 0.40008157 0.282977 0.33697447
000050 e7 e2 c1 3e 1f a5 e1 3e e7 ec 08 3f ee 99 9a bd
       0.37868425 0.4407129 0.53486484 -0.07548891
000060 f2 1b 8f 3e 31 41 35 3e ec ba a9 3e 15 9f 27 3e
       0.27951008 0.1770065 0.33150423 0.16369279
000070 f2 24 0c 3f 9c a7 c1 3c 1c e8 5f 3e 77 a4 9f 3e
       0.54743874 0.023639493 0.21865886 0.31180164

hidden_layer1.weight f4 [64, 32]
000000 db a6 84 bb ba 8a a3 bd 57 34 1d bd 56 36 13 3d
       -0.004048211 -0.07985444 -0.038379993 0.03594049
000010 d5 1f 02 3d 35 d2 89 bc 5f 65 45 be a4 cc 77 3d
       0.03176864 -0.016823867 -0.19276951 0.060497895
000020 67 9b 00 3d 85 40 ff bd 08 81 8c 3d 3c 23 86 bd
       0.031398203 -0.12463478 0.06860548 -0.06549689
000030 fb 12 59 be 26 2f 19 bd 07 a7 34 bd dc 0f ed bb
       -0.21198647 -0.03739848 -0.044104602 -0.0072345566
000040 f2 f5 fb bd 01 4c 85 3d bf 25 28 3d d7 b3 23 be
       -0.1230277 0.06508637 0.041051622 -0.15986572
000050 bc 05 7e bc d9 a7 03 3c 22 28 43 bd da c5 da 3c
       -0.015504297 0.0080356235 -0.047645696 0.026705671
000060 00 20 72 3d fb fd 13 bd ff d6 b9 3d 31 4c 97 bc
       0.05911255 -0.036130887 0.090742104 -0.018468948
000070 88 4a 60 bc 61 00 33 be 1e 5b 5e 3c 0d a0 da bb
       -0.013689645 -0.17480613 0.013571529 -0.0066719116
000080 30 4a 34 bd e7 88 11 3e 23 29 98 be dd 3a 22 3d
       -0.044016063 0.1421238 -0.29718885 0.039606918
000090 7c 47 36 bd ef a6 90 3e a3 2e 36 3e bf c2 71 be
       -0.044501767 0.2825236 0.17791228 -0.23609446
0000a0 f5 06 8d bd c3 3d 5a 3d b4 87 d4 be fd 1d 65 3e
       -0.068860926 0.053281557 -0.41509783 0.22374721
0000b0 fb 3c 5e 3d d1 36 ef bd 90 2d 7c 3d ee 79 9b be
       0.054257374 -0.11680377 0.06156689 -0.30366462
0000c0 d6 77 8f be c9 19 87 bc b7 2f 89 bd 88 cc 15 3e
       -0.28021115 -0.016491788 -0.06698554 0.14628804
0000d0 a6 b3 35 3e aa aa 50 be dd 5a 52 be 40 51 d0 bd
       0.17744312 -0.20377603 -0.20542474 -0.10171747
0000e0 c5 91 e0 3c a8 4d 0b be ea a0 6a be 7b f0 b5 3d
       0.027413258 -0.13603842 -0.22912946 0.08883759
0000f0 c7 97 40 3e cb ff 04 bd 3b 91 94 bd 74 fc ed bd
       0.18807898 -0.032470506 -0.07254263 -0.11620417
000100 fd a9 a5 3e 86 90 b1 3e c0 6c 57 3e 33 99 f8 3e
       0.32356253 0.34680575 0.21037579 0.48554382
000110 84 d7 80 3e 6f 71 16 3e e7 98 e3 3e 11 81 80 3e
       0.25164425 0.14691709 0.44452593 0.2509847
000120 2e 73 c8 3e 58 cf 63 3e 7e 31 97 3e 76 43 58 3e
       0.39150375 0.22247064 0.29529947 0.21119484
000130 57 76 9b 3c 0e 2d b5 3e 59 44 ab 3e 09 df 5b 3e
       0.018977327 0.35385936 0.33450583 0.214718
000140 5c 2a 56 3e 86 ad 9b 3e e2 3e 84 3e dd 42 8a 3e
       0.20914596 0.30405825 0.25829226 0.27004138
000150 71 95 88 3e 49 4a 23 3e ab 36 d0 3e 0f 1e 3b bd
       0.26676515 0.15946306 0.40666708 -0.045682963
000160 bf cb cf 3e 7c 0e ae 3e 96 ea 98 3e 7d e9 42 3d
       0.40585133 0.33995426 0.29866475 0.047585953
000170 99 7d 58 3d ad 8d 96 ba d9 78 93 3e 5f 17 a2 3e
       0.052854154 -0.0011486314 0.28803137 0.31658456
000180 14 c7 1c be c0 52 fa bd 5b 91 23 be cf e9 07 bd
       -0.15310317 -0.122228146 -0.15973417 -0.03318196
000190 e7 49 dd bc 29 a3 2b bd 12 8d c6 3d 1f 31 13 bd
       -0.027012778 -0.04190365 0.09694876 -0.035935517
0001a0 b8 6b e3 bd 39 f0 a4 3d 6d 62 ed bb 51 12 1e 3b
       -0.1110453 0.08053631 -0.0072443993 0.0024119804
0001b0 45 33 eb bb 42 2d 70 3d 27 9a 3e 3c 70 f2 fd bc
       -0.0071777427 0.05863691 0.0116334325 -0.030999392
0001c0 8c 38 2f 3d 6a a0 89 3d 78 1e 01 bd f8 00 67 3d
       0.042778537 0.0672005 -0.031523198 0.05639741
0001d0 3f 76 13 3d 87 41 cc bd 33 44 b8 bd 4f 43 f1 3d
       0.03600144 -0.09973436 -0.08997383 0.11780416
0001e0 78 e9 dc bd f5 66 fa bc d6 31 99 3c 8a d5 d4 3d
       -0.10786718 -0.030566672 0.018700521 0.10392292
0001f0 92 aa ff 3b f7 8e 10 bd ce 0e 06 3e 8f 98 13 bd
       0.007802316 -0.035292592 0.13091585 -0.036034163
000200 6a 5b 5b 3f 4b 05 34 3f 32 ed 51 3f ef 0a 06 bf
       0.8568636 0.70320576 0.82002556 -0.52360433
000210 01 85 4f 3f f2 c1 55 3f 2c a8 0e bf 85 f2 70 3f
       0.8106232 0.8349906 -0.5572536 0.94120055
000220 e3 22 3e 3f 0d ff 7f 3f d0 86 8f 3f cb 8a 6e 3f
       0.7427198 0.9999855 1.1213017 0.9318053
000230 ef 30 b9 3d 16 72 9a 3f c1 52 4f 3f 6b eb 5f 3f
       0.090425365 1.2066066 0.8098565 0.87468594
000240 97 ee 8c 3f 16 d7 30 3f 56 88 65 3f 64 46 5a 3f
       1.1010312 0.69078195 0.8966116 0.8526366
000250 a9 f3 69 3f b9 41 89 3f ae 13 9b 3f 6f c8 3f bd
       0.9138742 1.0723182 1.2115381 -0.046822008
000260 9b 97 5c 3f 49 bf 70 3f c8 d8 74 3f 49 d1 43 3f
       0.8616883 0.9404188 0.9564328 0.7649122
000270 01 48 5e 3f 27 a1 65 bd 05 4d 6e 3f b1 5e 83 3f
       0.8682862 -0.05606189 0.9308627 1.0263273
000280 33 02 53 3f 80 b1 72 3f 24 fc 5a 3f 64 42 9e be
       0.8242523 0.94802094 0.85540986 -0.30910027
000290 91 4a 22 3f 08 61 21 3f 12 ec f6 be d5 d8 63 3f
       0.6339503 0.6303868 -0.48226982 0.89002734
0002a0 14 99 13 3f 13 dd 5d 3f 12 0b 9f 3f da f0 41 3f
       0.57655454 0.8666546 1.2425253 0.75758135
0002b0 b3 aa 9e 3d 24 13 6a 3f 68 6a 5d 3f 7a 7a 80 3f
       0.07747402 0.91435456 0.8649049 1.0037377
0002c0 71 0c 80 3f c2 3c 43 3f 94 56 54 3f 12 e8 65 3f
       1.0003797 0.76264584 0.8294461 0.89807236
0002d0 1d 63 5c 3f d1 57 7b 3f 87 44 82 3f ea 4f d0 3d
       0.86088735 0.9818087 1.0177163 0.101714924
0002e0 9d 0f 73 3f b3 ea 30 3f 12 86 60 3f 3b ce 2e 3f
       0.949457 0.6910812 0.87704575 0.6828343
0002f0 fe 62 3a 3f 84 d3 87 3c f7 7c 7b 3f 1a 6f 7c 3f
       0.728073 0.01658035 0.98237556 0.9860703
000300 13 f1 80 3d 2a 2b fc bd ec d3 0f 3d e7 2c 75 bd
       0.06295981 -0.123129204 0.035114214 -0.059857275
000310 75 9f 29 be 88 dc af 3d 52 6b d0 3d 03 13 39 bc
       -0.16564734 0.08586985 0.1017672 -0.011296037
000320 7f 84 c4 bd b9 1e 8d 3d ba 66 f5 3d f8 d7 a4 3d
       -0.09595584 0.068906255 0.11982484 0.08049005
000330 d2 a5 f7 bd 56 ed b1 bd aa d8 de 3d 61 9e 34 3c
       -0.120921746 -0.08687846 0.10881169 0.011024089
000340 3d 26 fb 3d fb b6 4b 3d 05 bc 97 bd 0d 71 98 bd
       0.12263153 0.04973505 -0.07408909 -0.07443438
000350 5f c8 31 3d 9a ee ac 3c 59 c4 3a bd 54 83 2a be
       0.04340398 0.021109868 -0.045597408 -0.1665166
000360 c3 f2 29 be ab 6e ab bc 23 a4 14 be 1c 80 18 be
       -0.16596512 -0.020926794 -0.14515738 -0.1489262
000370 f8 eb 00 be 77 32 86 3c 15 ac 0d be 66 f1 a9 bd
       -0.12590015 0.016381485 -0.13835175 -0.08297996
000380 55 8d 36 3d 4c 71 95 bc 0c ad 21 bd eb 60 8d 3d
       0.04456838 -0.0182425 -0.03947167 0.06903251
000390 b6 e1 84 bd 74 e4 80 3e 57 a0 07 3e da f4 b9 3d
       -0.064883634 0.25174296 0.13244759 0.09079905
0003a0 65 c5 3c 3e 01 1e 33 3d 20 15 6d 3d 29 16 18 be
       0.18434675 0.043729786 0.057881474 -0.14852203
0003b0 e6 86 84 3d a4 b2 2c be 3d e9 31 3d 07 d8 0f 3c
       0.06471042 -0.16865021 0.043435324 0.008779532
0003c0 7e c1 96 be 35 05 49 be 5f e1 60 bd cc 24 84 bd
       -0.29444498 -0.19630893 -0.05490243 -0.06452331
0003d0 af a8 9a 3d 5a 87 a0 bd 37 a8 9d 3d c1 06 0a 3e
       0.07551705 -0.07838316 0.076981 0.13479139
0003e0 7d a7 0a 3d f5 d4 8a 3c 80 87 da bc bf 7a dc 3c
       0.033851136 0.016947249 -0.02667594 0.026913999
0003f0 77 00 92 be 08 55 36 3c 67 aa 57 bd ba 4b 82 bd
       -0.2851598 0.0111286715 -0.052652743 -0.063621

hidden_layer1.bias f4 [64]
000000 59 80 40 be df 54 40 3f 67 03 15 3d a2 1a 7f bd
       -0.18798961 0.75129503 0.036380198 -0.06228126
000010 4c 29 51 3e c6 c0 8c 3d 8b 68 f7 bd 1b 81 49 bd
       0.2042591 0.06872706 -0.12080487 -0.04919539
000020 6a f7 70 3f 26 aa 69 3e f7 82 72 3b da d0 01 3e
       0.94127524 0.22818813 0.003700433 0.12677327
000030 88 7e 4e bd 91 ae c1 bd 6a 99 2b bd 83 b2 3b 3e
       -0.05041364 -0.09457124 -0.041894354 0.18329816
000040 98 83 e1 bd aa 63 8d 3d bf d7 b0 3f e4 46 c2 3f
       -0.11011428 0.06903775 1.381584 1.5177884
000050 31 39 f9 bd 25 6f 50 3e 97 1d ed bd e1 04 8f 3d
       -0.121691115 0.20354898 -0.115779094 0.069833525
000060 1e dd ae 3f b6 55 08 be d1 a2 65 3e 39 a5 ba bd
       1.366123 -0.13313946 0.22425391 -0.09113545
000070 4d 2f af 3f 1a 5b 0c be 13 68 26 3e 2c d2 e4 bc
       1.368631 -0.13706627 0.16250639 -0.027932249
000080 b3 1e 34 be e0 81 ec 3f e7 a2 83 be c0 93 a1 3f
       -0.17589836 1.8477135 -0.25710222 1.2623215
000090 b9 39 2e bd 1f f9 c0 bd 5f 70 bd 3d f3 5b c9 bd
       -0.042535517 -0.09422516 0.09249949 -0.09831991
0000a0 2d 4d e4 bd a5 28 92 bc 36 79 d9 3f 4f d0 0b 3d
       -0.111475326 -0.017841646 1.6990116 0.034134205
0000b0 56 c1 36 be 05 ce 84 3f ee a4 13 3d 64 c2 f7 bd
       -0.1784719 1.0375372 0.03604596 -0.12097624
0000c0 7d 0e 01 40 50 d3 7e 3e b8 b5 19 3f 2f 3c 86 bd
       2.0165093 0.24885297 0.60042906 -0.06554448
0000d0 46 8c 6c be f1 06 7e 3f a9 fa a2 3e 61 59 0e 3d
       -0.23100385 0.9922934 0.31831864 0.034753207
0000e0 f2 f6 10 3e f4 4e e1 bd 89 ff f6 bb e7 cd d2 3c
       0.14156702 -0.11001387 -0.0075377864 0.025732948
0000f0 15 ad eb 3f 3c 33 de 3f 6e 7a 98 bd d8 6a c9 3f
       1.8412195 1.7359385 -0.074452266 1.5735731

hidden_layer2.weight f4 [32, 64]
000000 53 80 70 bd 27 09 f0 3e aa 16 15 3f ed 41 64 be
       -0.05871613 0.46881983 0.5823771 -0.22290774
000010 60 9c cd 3e a7 a9 a7 3e 3d f9 00 3e 9c 30 6b be
       0.40158367 0.32746622 0.12595077 -0.22967762
000020 cc 30 80 3e ed bd cc 3e ce 97 f6 3e cd 31 a6 3e
       0.2503723 0.39988652 0.48162693 0.3245987
000030 01 df b4 3e b8 c1 6f 3e 1a 01 90 3e 3a 34 02 3f
       0.35326388 0.23413742 0.2812584 0.5086094
000040 d9 33 a6 3e 96 08 00 3f bf 64 e5 be ed 65 08 bf
       0.32461432 0.500131 -0.44803426 -0.53280526
000050 e2 84 42 bd fc cf 0e 3f 85 cc 3b 3e 5f 7a 92 3e
       -0.04749001 0.5578611 0.18339737 0.28608987
000060 f3 5c ce be b4 00 83 3e 2b b5 33 3e e7 3d 68 bd
       -0.4030529 0.25586474 0.17549579 -0.05669966
000070 27 15 5a be be 82 e9 3e 55 37 5c 3e 29 bd 9d ba
       -0.21297131 0.4560756 0.21505482 -0.0012034524
000080 28 8b e0 bd 0e de 12 bf 69 29 02 3f 15 3d 49 3f
       -0.10964042 -0.5737008 0.50844437 0.7860883
000090 0b 48 15 3d 1b 7c a0 3d 51 23 de 3e 35 65 d6 3c
       0.03644566 0.07836171 0.4338632 0.026171306
0000a0 27 eb b8 3d b3 40 e0 3d 88 1c 6e bf 61 ba e4 3e
       0.09029227 0.109498404 -0.93012285 0.44673446
0000b0 c3 0a e5 ba d5 4e 30 3f 64 18 c4 3e f6 f8 5b 3d
       -0.0017474521 0.6887029 0.3829986 0.053704225
0000c0 45 f0 91 bf ae 64 1f 3f 5b 00 6c 3f 85 f2 c4 3e
       -1.140145 0.62263 0.9218804 0.38466278
0000d0 d1 a2 4b be b3 58 15 3f cd cb 09 3f 02 03 e9 3e
       -0.19886328 0.5833847 0.538266 0.45510107
0000e0 f8 02 e2 3e 56 0e 04 3f 1d c5 d7 3e 8b 86 9f 3e
       0.4414289 0.51584375 0.42142573 0.31157336
0000f0 1e c5 ab be b8 04 1b bf 38 54 e3 3e 6b 51 9a be
       -0.33548826 -0.60554075 0.4440019 -0.30140242
000100 57 0f 15 be dc 18 b8 bd 82 ea 2c bc 70 83 26 be
       -0.14556633 -0.089891165 -0.010553958 -0.16261077
000110 a7 48 6f 3d 0a 34 d9 bd b1 0f 03 3d 25 3b 2d bd
       0.058418896 -0.10605629 0.031997386 -0.042292733
000120 cf d5 75 3d 60 fc d2 3d 62 70 39 be 1a 93 ef bd
       0.060018357 0.10302043 -0.18109277 -0.11697979
000130 95 6a fd 3d bf 78 54 bc 78 5c 88 3d 01 a1 b7 3c
       0.123738445 -0.012968241 0.06658262 0.02241564
000140 0e 73 8e be 77 58 8f bd 7c f8 d4 bd 77 d5 33 be
       -0.27822155 -0.06999295 -0.10398957 -0.17561899
000150 cb 40 f6 3b 02 99 3d 3c 65 d6 ed 3c ef 0d d6 bb
       0.007515048 0.011572124 0.029032895 -0.0065324227
000160 94 81 42 3d 0a 9c 5c 3d 92 c6 19 bc 0e bf bb bd
       0.047486857 0.053859748 -0.009385722 -0.091673
000170 28 b8 e9 bd 03 5d 44 be 57 ff 39 3e db 76 11 bc
       -0.11412078 -0.19176106 0.1816381 -0.008878435
000180 db 2f 95 3d 84 73 a8 3c c5 99 8a 3c 9c 55 fe 3d
       0.07284518 0.020562895 0.016919026 0.124186724
000190 0f 5a 06 be 8b 30 68 3d 31 c4 c3 bd 4f 02 ff 3d
       -0.13120292 0.05668692 -0.09558905 0.12451612
0001a0 da da bb 3d 8f 2f 8d 3d ae ca 0e bc 25 8e 4e bd
       0.09172602 0.06893837 -0.008715315 -0.05042853
0001b0 d0 a3 ee 3d ce c2 86 bd 6b 52 be bc b3 4a 2b 3e
       0.116523385 -0.06580125 -0.02323266 0.16727714
0001c0 5c 4b 86 bd 6a 5b 22 3e df e4 3a 3d 62 24 d1 bd
       -0.065573424 0.15855184 0.045628425 -0.102120176
0001d0 92 cc ac 3d ed e7 2f bd b0 a8 80 3c 33 93 6e 3e
       0.08437456 -0.04294579 0.015705436 0.2329834
0001e0 f6 9f cc 3c c9 f1 a7 bd 70 2c 8b bd 5c cc 3d bd
       0.02497862 -0.08200414 -0.06795585 -0.04633747
0001f0 46 a5 cf 3d 14 56 c4 3d 64 f2 3a be df 3b 3e be
       0.10138945 0.095867306 -0.18256527 -0.18577527
000200 fa 50 0f bd 48 86 2a bf b8 2f cf 3d 7d 0d d7 3d
       -0.034989335 -0.66611147 0.101165235 0.105006196
000210 03 ec 53 3f ba bb 7f 3f f2 b7 f4 bd 8a 30 e6 bd
       0.82782 0.99895823 -0.11949147 -0.11239727
000220 f9 98 45 bf b9 46 55 3f f7 82 64 3f c7 8f 65 3f
       -0.7718654 0.8331104 0.89262336 0.8967251
000230 20 55 74 3f 6a d9 69 3f 07 83 45 3f 90 ec 56 3f
       0.9544239 0.9134737 0.77153057 0.83954716
000240 d9 91 7e 3f f5 24 7e 3f c8 b3 23 c0 74 fd 26 c0
       0.99441296 0.9927514 -2.557848 -2.6092196
000250 af 75 1b bd 49 5c 5a 3f 5f 4a 7f 3f c0 f2 2d 3f
       -0.03795403 0.85297066 0.99722856 0.6794853
000260 93 4a 23 c0 fd 69 8b 3f 3a 21 5c 3f 95 4e 0a be
       -2.5514266 1.089172 0.859882 -0.13506539
000270 1c f6 17 c0 9a ee 82 3f 0a a7 79 3f 9a 07 52 3c
       -2.3743963 1.0229065 0.97520506 0.012819195
000280 d7 a0 de 3d a0 1a 43 c0 fa a5 55 3e 8f 5b b0 bf
       0.108705215 -3.0485 0.20864096 -1.3777941
000290 cc 78 a2 bd 3b 1e 46 bd 58 ec 6a 3f 80 39 86 bc
       -0.079331964 -0.048368674 0.9176688 -0.01638484
0002a0 50 1c 69 3f 81 18 a9 bd 0a 8e 2a c0 76 29 81 3f
       0.91058826 -0.08256627 -2.6649194 1.0090778
0002b0 cf 78 00 3e 5b 95 4f bf 4f 9d 82 3f 28 96 2f be
       0.12546085 -0.81087273 1.0204257 -0.17147124
0002c0 bf 00 36 c0 6c 0f fa bc af 4b 2f bf b0 56 4d 3f
       -2.8437955 -0.030524932 -0.6847486 0.802104
0002d0 48 8d 5b bc 7b 86 2d bf 68 23 d6 3d fc e2 84 3f
       -0.013400383 -0.67783326 0.10455972 1.038177
0002e0 e7 92 60 3f f5 f5 79 3f e8 57 54 3f b3 9f 69 3f
       0.87724155 0.97640926 0.82946634 0.91259307
0002f0 4b a7 3d c0 65 a8 31 c0 94 d2 60 3f 2c 31 3a c0
       -2.9633358 -2.775903 0.87821317 -2.9092512
000300 36 85 5b 3e 9a 89 de 3d 76 53 93 3e fe 54 3e bd
       0.21437535 0.10866089 0.28774613 -0.046467774
000310 8a c2 8e 3e d8 0b 9b 3e d7 e2 91 bb ad 08 c9 bd
       0.27882797 0.30282474 -0.0044520902 -0.09816108
000320 8f a0 1b bb 7f d4 47 3e 7d 37 71 bc 56 4c 66 3e
       -0.0023746823 0.19514655 -0.014722702 0.22490057
000330 54 97 42 3e c3 78 83 3e a3 7b e4 3d 13 a2 81 3e
       0.1900304 0.2567807 0.11156394 0.25318965
000340 bf 54 0a 3e cc f7 09 3e f4 77 f5 3e 1e aa f4 3e
       0.1350889 0.13473433 0.4794308 0.4778604
000350 75 5a bd 3d 65 17 c3 3e 1e 69 70 3d 15 7f c5 3d
       0.09245769 0.38103786 0.058693998 0.096433796
000360 c7 0d 0c 3f d3 1d 3b 3e 88 b2 93 3e 11 3c ec 3c
       0.5470852 0.18273096 0.28847146 0.028837236
000370 16 94 d1 3e b6 34 4b 3e 37 98 c6 3d 25 74 a8 3d
       0.40933293 0.19844326 0.096970014 0.08225278
000380 a6 57 ac bd 83 71 20 3f cd 6c 43 3e c5 40 02 3f
       -0.08415155 0.62673205 0.19084473 0.5088008
000390 5e e9 ae 3d 99 ab 35 3d 9a 97 c9 3e 67 3d f5 3c
       0.08540605 0.0443531 0.39373475 0.029936505
0003a0 4f c7 ac 3c 23 ea e2 bd b0 78 f2 3e 56 39 b5 3d
       0.021091131 -0.11079814 0.47357702 0.088488266
0003b0 79 9e 00 3e ec af 47 3e 22 ea 92 3e 26 47 e8 bd
       0.12560453 0.19500703 0.28694254 -0.113416955
0003c0 5f ec 22 3f 82 d4 5f 3e 7f 93 f6 bd 2d 48 ae bc
       0.63641924 0.21858409 -0.120398514 -0.02127465
0003d0 19 ae 00 3d 00 53 ab bd ad b1 4f 3e 22 93 11 3e
       0.031416032 -0.0836544 0.20282622 0.14216283
0003e0 4a 28 51 3e 4d 89 14 3e 34 a8 b1 3e b0 3e ea 3a
       0.20425525 0.14505501 0.3469864 0.0017871466
0003f0 44 98 50 3f de 64 cc 3e b9 89 2b 3e a9 21 07 3f
       0.8148234 0.39920706 0.16751756 0.52785736

hidden_layer2.bias f4 [32]
000000 31 73 9c 3e 3e 79 6e bc c1 f2 d3 3e 44 95 ee 3e
       0.30556634 -0.014555274 0.41396144 0.46598256
000010 15 a3 80 3f 76 3d 84 3d c7 87 c7 3d 4d f3 cd bd
       1.0049769 0.06457035 0.09742694 -0.100561716
000020 a0 d7 30 bd 2c ad 43 be 60 45 65 3f 90 a6 f5 3d
       -0.043174386 -0.19109029 0.8955898 0.1199466
000030 86 96 18 3d bf a3 49 bd f2 ba ad 3d 68 c8 bd be
       0.037252925 -0.049228426 0.084829226 -0.3706696
000040 15 9d 50 be 01 50 d3 be b4 c6 5b bd b8 6d 2d 3d
       -0.20372422 -0.41271976 -0.053656295 0.042340964
000050 a7 ff 78 bf 8c f0 0e be dc 6b 35 3f cf 86 2b bc
       -0.97265095 -0.13958949 0.70867705 -0.010469153
000060 6a 1d c0 bd 74 55 92 3d e6 32 8d 3f e0 8e c3 3c
       -0.0938061 0.07145205 1.1031158 0.023871839
000070 55 78 82 be 30 04 2c be 13 cd c8 3e 58 a2 18 be
       -0.2548243 -0.16798472 0.3921896 -0.14905679
