Comparison/TrainedModel/5-0.001-72-Agent/node_agent_10.pth (torch, 31556 bytes, 6 tensors)

input_layer.weight f4 [32, 93]
-0.01831476 0.20008634 0.014760111 -0.03332989 -0.039096057 -0.07304226 -0.015710985 0.005997312
-0.06335596 0.073662095 0.052236583 0.015494809 0.003922777 0.0591969 -0.121384494 -0.107970916
0.056039866 0.8563671 4.870248 5.7428756 -0.06676126 2.4062023 -0.052281182 -0.031405058
-0.086126566 0.096042 -0.024140744 0.12140825 0.049021017 0.03642986 0.011074446 0.22153655
0.013858572 -0.301225 0.006732195 0.15617087 -0.12713741 0.057794858 0.01698436 0.15486775
-0.029124916 0.055758208 0.14039376 -0.11247337 0.03594394 0.1076136 -0.077784166 -0.00837873
-0.14534578 -0.21431077 -0.028275678 -0.009695339 -0.064457 -0.19326623 -0.023109611 0.0026295814
0.22301579 0.049587037 -0.24616471 -0.002298244 0.13461833 0.12992692 -0.057777036 0.14148007
-0.16768284 2.1023138 0.057733893 -0.06784206 0.05280568 0.13552414 -0.010980577 0.060231067
-0.08716084 -0.02015534 0.010955134 0.1254545 -0.10757686 0.11091983 -0.15782212 -0.1060066
0.14056614 0.06114715 0.06992216 0.068994686 -0.03973984 0.15281852 -0.07152413 0.0976501
-0.043088507 0.006865439 0.0088316975 -0.11983887 0.070036195 0.02235764 0.124562 -0.09123007
0.034808617 -0.05644982 -0.1603998 -0.08550584 0.101051114 -0.061437774 0.028345019 -0.0994891
-0.100071244 -0.1551545 -0.07495 0.034696676 0.13525699 0.1321725 0.74757904 4.9426355
5.5460677 0.108149186 1.5785837 0.06510001 -0.026236003 0.015811427 0.055117454 -0.05651493
0.054662615 -0.07081883 -0.04031789 0.08542173 0.111228846 -0.017416839 -0.023229646 -0.017922072
-0.08905033 -0.044151634 -0.17836569 0.07503119 -0.123689346 0.07096743 0.11344724 0.0038050327
0.07875078 0.02435792 0.0016618088 0.057298638 0.02332872 0.07155194 -0.09739445 -0.13842039
0.10679909 -0.061164625 0.09718181 0.008869393 -0.07014601 0.06103645 0.13093008 -0.065892
0.021064926 0.18320242 -0.07916762 -0.25058895 0.11585879 0.1512891 1.4030716 -0.023347434
0.019739198 0.072493486 0.10054529 0.109670915 0.08541956 -0.05872804 -0.047838803 0.15271196
0.032242835 -0.050501104 -0.07195958 -0.0030359677 0.005286015 0.13206917 0.034851097 0.037340045
0.1482662 -0.062203135 0.05092215 0.043288287 0.029699385 0.12806112 0.06551396 -0.043239243
-0.061730843 0.056447435 0.10442978 -0.15816088 0.037903942 -0.020618653 -0.04798005 -0.19022474
0.076230966 0.19251756 0.09123516 -0.085115165 -0.011585876 0.02381173 -0.18573876 -0.2329895
0.018194927 -0.06306831 0.1840781 0.7390572 5.1009445 5.828916 0.098904006 1.9355336
0.038129095 -0.08469689 -0.08309203 0.014574753 -0.052421637 0.038387444 -0.025105376 0.09392028
-0.022912899 -0.02703595 0.18000047 0.113304615 0.052622195 0.22636282 0.00550966 -0.02009635
-0.14544916 0.0324919 -0.17691529 0.007392514 0.104937926 0.12264009 0.13732846 -0.008649058
-0.092276014 -0.08489021 0.044571627 -0.025796324 0.05528999 -0.19007663 0.010828155 -0.04348412
-0.028121585 -0.08750291 -0.093884386 -0.07202334 -0.08396789 -0.03903445 -0.053962458 -0.1784339
-0.026191 -0.029761497 0.056960117 1.8093399 -0.06854757 0.031395987 -0.012501289 -0.04448326
00000000: d608 96bc 6fe3 4c3e 65d4 713c ec84 08bd
00000010: 3023 20bd 2e97 95bd 53b4 80bc 1985 c43b
00000020: c5c0 81bd 27dc 963d 07f6 553d f0dd 7d3c
00000030: a38a 803b 7378 723d 6f98 f8bd db1f ddbd
00000040: 0f8a 653d e03a 5b3f 12d9 9b40 a3c5 b740
00000050: 21ba 88bd 38ff 1940 cb24 56bd 97a2 00bd
00000060: 2063 b0bd abb1 c43d cfc2 c5bc e3a4 f83d
00000070: 43ca 483d 7a37 153d 9871 353c 7ada 623e
00000080: 100f 633c 2a3a 9abe bf99 dc3b 42eb 1f3e
00000090: 4f30 02be 4dba 6c3d c922 8b3c a795 1e3e
000000a0: 6097 eebc b862 643d 62c3 0f3e 7058 e6bd
000000b0: f439 133d 8564 dc3d 4e4d 9fbd f146 09bc
000000c0: 86d5 14be 4874 5bbe 65a2 e7bc 33d9 1ebc
000000d0: 0802 84bd 95e7 45be 5e50 bdbc 0e55 2c3b
000000e0: 405e 643e c71b 4b3d 9a12 7cbe 239e 16bb
000000f0: 63d9 093e 900b 053e 9da7 6cbd 27e0 103e
00000100: 0db5 2bbe 4f8c 0640 607a 6c3d c7f0 8abd
00000110: c54a 583d d7c6 0a3e e1e7 33bc dab4 763d
00000120: 6281 b2bd d01c a5bc 2a7d 333c 2577 003e
00000130: 4251 dcbd f029 e33d 1f9c 21be fd19 d9bd
00000140: 92f0 0f3e 6f75 7a3d 5933 8f3d 164d 8d3d
00000150: 3ec6 22bd 757c 1c3e 3e7b 92bd c7fc c73d
00000160: 937d 30bd 7af7 e03b d3b2 103c 156e f5bd
00000170: 236f 8f3d 5f27 b73c 5d1a ff3d d5d6 babd
00000180: 7b93 0e3d ed37 67bd d83f 24be b01d afbd
00000190: e3f3 ce3d 2da6 7bbd d033 e83c f1c0 cbbd
000001a0: 27f2 ccbd d2e0 1ebe 637f 99bd 1a1e 0e3d
000001b0: cf80 0a3e 3a58 073e 5761 3f3f 122a 9e40
000001c0: 6379 b140 527d dd3d 080f ca3f 2753 853d
000001d0: e3ec d6bc f786 813c d7c2 613d 337c 67bd
000001e0: e8e5 5f3d 7609 91bd 5f24 25bd 97f1 ae3d
000001f0: f3cb e33d c2ad 8ebc 194c bebc 4fd1 92bc
00000200: 0560 b6bd 58d8 34bd 7fa5 36be f4a9 993d
00000210: d750 fdbd 5f57 913d 0757 e83d db5d 793b
00000220: 1748 a13d 438a c73c 0dd1 d93a fab1 6a3d
00000230: df1b bf3c d389 923d be76 c7bd 13be 0dbe
00000240: 7bb9 da3d c287 7abd 4207 c73d ee50 113c
00000250: b6a8 8fbd 5b01 7a3d 8912 063e 63f2 86bd
00000260: 5a90 ac3c 6a99 3b3e a222 a2bd 324d 80be
00000270: 6047 ed3d 88eb 1a3e da97 b33f 1e43 bfbc
00000280: 19b4 a13c 7777 943d b0ea cd3d 259b e03d
00000290: 73f0 ae3d d08c 70bd 9ff2 43bd 8660 1c3e
000002a0: 1011 043d 3fda 4ebd 8b5f 93bd 16f7 46bb
000002b0: 4f36 ad3b 243d 073e 06c0 0e3d e0f1 183d
000002c0: 18d3 173e b7c8 7ebd bf93 503d 0f4f 313d
000002d0: 204c f33c 7422 033e 2f2c 863d a21b 31bd
000002e0: 7bd9 7cbd 6d35 673d 48df d53d edf4 21be
000002f0: 2a41 1b3d 73e8 a8bc bb86 44bd 46ca 42be
00000300: fb1e 9c3d 5323 453e 80d9 ba3d dc50 aebd
00000310: b0d2 3dbc d110 c33c 4d32 3ebe cd94 6ebe
00000320: 870d 953c f529 81bd f87e 3c3e da32 3d3f
00000330: f03a a340 7b86 ba40 2f8e ca3d 91bf f73f
00000340: 412d 1c3d 9075 adbd 272c aabd f2ca 6e3c
00000350: 12b8 56bd 273c 1d3d caa9 cdbc 4759 c03d
00000360: d5b3 bbbc 7f7a ddbc 0b52 383e 400c e83d
00000370: 5f8a 573d a8cb 673e 618a b43b 1aa1 a4bc
00000380: a0f0 14be 3a16 053d 4829 35be e73c f23b
00000390: b2e9 d63d ba2a fb3d d59f 0c3e c7b4 0dbc
000003a0: 35fb bcbd ebda adbd bd90 363d d052 d3bc
000003b0: c277 623d 73a3 42be 9368 313c 681c 32bd
000003c0: 3d5f e6bc ba34 b3bd 7546 c0bd f980 93bd
000003d0: 5bf7 abbd 96e2 1fbd bd07 5dbd 60b7 36be
000003e0: 828e d6bc 62ce f3bc 034f 693d 7398 e73f
000003f0: ab62 8cbd 1499 003d 35d2 4cbc 1434 36bd

input_layer.bias f4 [32]
2.1025865 1.3271077 1.8457135 1.7752514 -0.069168344 2.0546372 -0.013678588 1.7447498
1.8002596 -0.06531485 2.0809193 2.073098 -0.02590965 1.8032413 1.4702084 1.6596066
0.7398789 1.7414848 2.0238013 2.0187662 2.1680007 0.04646608 1.9515858 2.0443037
2.073048 2.1003067 0.046308495 2.1424396 1.8423581 0.034417532 1.999501 2.0961092
00000000: c790 0640 aade a93f 5740 ec3f 703b e33f
00000010: 22a8 8dbd 2d7f 0340 281c 60bc f653 df3f
00000020: e86e e63f cbc3 85bd c82d 0540 a3ad 0440
00000030: 7940 d4bc 9cd0 e63f ca2f bc3f fd6d d43f
00000040: b468 3d3f f9e8 de3f f685 0140 7733 0140
00000050: 86c0 0a40 3753 3e3d 90cd f93f dfd5 0240
00000060: d2ac 0440 6d6b 0640 faad 3d3d bb1d 0940
00000070: 64d2 eb3f 66f9 0c3d a6ef ff3f a726 0640

hidden_layer1.weight f4 [64, 32]
0.12713982 -0.07594364 -0.010779935 -0.030068634 0.06344476 0.032678496 0.02410945 -0.03351052
-0.036414593 -0.07825526 0.0827669 -0.09518264 0.08896398 0.040399347 0.0018622795 -0.015942762
-0.1416379 -0.0019956313 -0.10237371 0.07965966 -0.037243117 0.034128528 -0.13018607 0.073827036
0.05135693 -0.17201523 -0.1896754 0.025268892 -0.11052394 -0.15886 0.11754624 -0.18413477
0.6940949 1.0339155 1.5358946 1.5922531 -0.013389233 0.8184355 -0.022090955 1.0935065
0.8777684 0.059932835 0.89176726 0.7240378 0.054133475 1.5685939 1.0694387 1.1942186
-0.1408039 1.6011853 0.74434525 0.8253997 0.76453686 -0.18263313 1.6092659 0.75817394
0.8188103 0.7712433 -0.108022355 0.7427474 1.0167885 0.06716784 0.7292861 0.94322646
1.6512992 0.81701857 1.6719941 1.4737874 0.09132558 1.6297154 0.16636926 1.6218375
1.5184214 0.06609876 1.6891458 1.5245388 0.0387155 1.6299512 1.0849737 1.212404
0.704682 1.437443 1.4384136 1.6545968 1.7717358 0.026184404 1.4822941 1.7138835
1.7659069 1.7340349 -0.12538195 1.8637371 1.5312989 -0.08983236 1.7770188 1.7757943
0.023961876 -0.18256462 0.02577631 -0.03899527 0.044817507 -0.038028333 -0.062363077 0.095647186
-0.093151025 0.13978322 -0.040845435 -0.2519843 -0.13553847 0.011437602 0.0525388 0.08840079
0.009161972 0.03137774 0.068171926 0.026222173 -0.15466593 0.031567235 -0.03267645 0.018838208
-0.0029363902 -0.054452498 0.030011658 -0.12955676 0.11400955 0.10252644 -0.09402802 -0.09314926
-0.25589362 -0.0396126 0.03257399 -0.096407115 0.16361843 -0.028862277 -0.012998368 0.09839811
-0.12926921 -0.11187881 -0.15195988 0.078711346 0.12530509 0.050078955 0.002250434 0.106071986
-0.12707248 -0.060491096 0.07891079 -0.1504823 0.14214127 0.12012446 -0.030023033 -0.095673285
-0.040154453 0.17396176 -0.06751401 -0.032654062 0.0815331 0.25663933 0.11243067 -0.043104704
0.019545129 -0.20211962 0.029465873 0.06500481 0.061665185 -0.20224474 0.08199302 0.1468103
0.063764416 -0.021403844 -0.22970001 0.0053281575 0.0951589 0.15140021 0.032189593 -0.0590579
-0.007864154 0.1210199 -0.022818208 -0.089883044 -0.12245385 0.049736496 -0.008585052 -0.14350133
-0.15203713 -0.015543431 0.009724273 -0.047469392 -0.041638188 0.09610532 -0.06735811 0.04578716
-0.06758248 0.040187396 0.010363312 0.011268782 0.03943469 0.03079294 -0.13530545 -0.023736909
-0.16224588 0.03180444 0.10031533 -0.060199495 -0.098932646 -0.18630207 -0.066981055 -0.0051637944
0.0072381496 -0.037170775 -0.05428321 0.056649935 0.23891811 0.14078157 0.05774532 -0.009430373
-0.06856077 0.010403364 -0.07076713 0.021816423 -0.08284682 -0.046174582 -0.12409488 -0.15382741
1.8089986 0.73353964 1.5320685 1.8188243 0.12247946 1.7012949 -0.08557748 1.6161681
1.3798071 0.17499046 1.697929 1.5894094 0.02287173 1.8285329 0.79120255 1.124799
0.5366236 1.5702926 1.6981304 1.5114286 1.675861 0.014529155 1.620084 1.8110678
1.7090597 1.7782634 -0.08105942 1.7652962 1.3685918 0.043716557 1.6493134 1.5934621
00000000: f130 023e 5788 9bbd 539e 30bc 7f52 f6bc
00000010: 54ef 813d e3d9 053d 2e81 c53c 5442 09bd
00000020: 7827 15bd 4b44 a0bd b181 a93d 1eef c2bd
00000030: bf32 b63d c979 253d bb17 f43a 659a 82bc
00000040: 8709 11be 23c9 02bb 4fa9 d1bd 9b24 a33d
00000050: 3d8c 18bd 5bca 0b3d 7f4f 05be a132 973d
00000060: a55b 523d c324 30be 453a 42be b500 cf3c
00000070: 605a e2bd 32ac 22be 15bc f03d d38d 3cbe
00000080: 34b0 313f 5857 843f 3298 c43f f3ce cb3f
00000090: 835e 5bbc fd84 513f 17f8 b4bc 05f8 8b3f
000000a0: 6eb5 603f 227c 753d dc4a 643f 8b5a 393f
000000b0: 10bb 5d3d afc7 c83f 5ee3 883f 28dc 983f
000000c0: e62e 10be a4f3 cc3f 698d 3e3f 654d 533f
000000d0: b0b8 433f 2e04 3bbe 6dfc cd3f b017 423f
000000e0: 8d9d 513f 3370 453f d33a ddbd b224 3e3f
000000f0: 2026 823f 4b8f 893d 7eb2 3a3f 4a77 713f
00000100: c65d d33f 2128 513f e703 d63f 11a5 bc3f
00000110: e808 bb3d 849a d03f b45c 2a3e 5f98 cf3f
00000120: a25b c23f c95e 873d ee35 d83f 1624 c33f
00000130: 2594 1e3d 3ea2 d03f 6be0 8a3f 0e30 9b3f
00000140: 0a66 343f 22fe b73f f01d b83f d4c9 d33f
00000150: 3dc8 e23f ad80 d63c d0bb bd3f 8960 db3f
00000160: 3d09 e23f dbf4 dd3f 2064 00be f08e ee3f
00000170: 9a01 c43f 07fa b7bd 5a75 e33f 3a4d e33f
00000180: b24b c43c 38f2 3abe d728 d33c 81b9 1fbd
00000190: 9092 373d 99c3 1bbd 6d70 7fbd ace2 c33d
000001a0: f7c5 bebd 5523 0f3e 8b4d 27bd 1604 81be
000001b0: 99ca 0abe c864 3b3c ed32 573d 790b b53d
000001c0: 191c 163c f285 003d b99d 8b3d e2cf d63c
000001d0: bf60 1ebe a54c 013d bed7 05bd 9652 9a3c
000001e0: 7470 40bb 9509 5fbd 02db f53c 87aa 04be
000001f0: d77d e93d 62f9 d13d c391 c0bd 0ac5 bebd
00000200: 7d04 83be d240 22bd 4e6c 053d 1871 c5bd
00000210: 978b 273e 9570 ecbc 1bf7 54bc f384 c93d
00000220: 265f 04be b820 e5bd 5f9b 1bbe 6a33 a13d
00000230: fa4f 003e 971f 4d3d 047c 133b 453c d93d
00000240: 4a1f 02be 83c5 77bd fb9b a13d 0818 1abe
00000250: 7b8d 113e d003 f63d ddf2 f5bc 5bf0 c3bd
00000260: ff78 24bd 0823 323e c944 8abd 44c0 05bd
00000270: d3fa a63d 3b66 833e 0d42 e63d 8f8e 30bd
00000280: 1b1d a03c 72f8 4ebe 6a62 f13c 3e21 853d
00000290: a294 7c3d 3f19 4fbe f5eb a73d 7055 163e
000002a0: eb96 823d 1d57 afbc 7b36 6bbe d397 ae3b
000002b0: abe2 c23d a808 1b3e 3cd9 033d b2e6 71bd
000002c0: a7d8 00bc 48d9 f73d 40ed babc 9a14 b8bd
000002d0: 16c9 fabd 7fb8 4b3d 51a8 0cbc 03f2 12be
000002e0: 9faf 1bbe e0a9 7ebc 8f52 1f3c 446f 42bd
000002f0: ce8c 2abd ded2 c43d 0cf3 89bd 518b 3b3d
00000300: af68 8abd 8a9b 243d e2ca 293c b3a0 383c
00000310: 4586 213d 7a41 fc3c 838d 0abe e873 c2bc
00000320: c923 26be 5f45 023d 2072 cd3d bf93 76bd
00000330: 339d cabd f8c5 3ebe 5d2d 89bd 0c35 a9bb
00000340: 002e ed3b 6240 18bd 1258 5ebd c309 683d
00000350: f3a6 743e 0b29 103e 5b86 6c3d da81 1abc
00000360: 9769 8cbd df72 2a3c 5bee 90bd 5bb8 b23c
00000370: 98ab a9bd 8f21 3dbd 7525 febd ef84 1dbe
00000380: 448d e73f 41c9 3b3f d21a c43f 3ccf e83f
00000390: 83d6 fa3d 08c4 d93f 3f43 afbd 99de ce3f
000003a0: 859d b03f b330 333e bd55 d93f c471 cb3f
000003b0: 7f5d bb3c 5e0d ea3f 408c 4a3f 6af9 8f3f
000003c0: 2a60 093f 59ff c83f 565c d93f 7e76 c13f
000003d0: 9d82 d63f b10b 6e3c ea5e cf3f 12d1 e73f
000003e0: 78c2 da3f 239e e33f 7b02 a6bd 3af5 e13f
000003f0: 042e af3f 2210 333d b41c d33f 91f6 cb3f

hidden_layer1.bias f4 [64]
-0.097105876 0.80598146 1.3450855 -0.066787265 -0.1528357 0.02249855 -0.16021743 1.3039927
-0.106044106 -0.0049757846 0.59181863 0.62101454 0.34691438 -0.15673655 0.01933147 -0.0027588904
-0.16997702 -0.17026736 0.07445638 -0.1163841 -0.09606023 1.4134779 0.06469536 0.10972083
1.1919733 1.257753 1.5401138 1.6316783 1.1484959 1.4848282 0.044898197 -0.16046697
-0.023987725 1.3443536 -0.15422794 -0.14298627 -0.10214248 -0.16010644 -0.08599359 1.564139
0.48658723 1.3834014 0.03488964 1.530288 1.4061568 -0.114858925 1.3480875 -0.15119778
1.4191213 1.4792395 1.4264044 -0.1125108 -0.045387648 1.285367 -0.12547934 0.0375826
0.9306248 -0.08879512 -0.17571561 0.14812513 -0.18370159 0.09642081 0.12350945 0.73687327
00000000: 72df c6bd cd54 4e3f c32b ac3f c3c7 88bd
00000010: f680 1cbe e14e b83c 0a10 24be 3ce9 a63f
00000020: a72d d9bd e80b a3bb 6d81 173f cffa 1e3f
00000030: c39e b13e 8c7f 20be 085d 9e3c 80ce 34bb
00000040: 750e 2ebe 915a 2ebe 967c 983d c95a eebd
00000050: 3abb c4bd d8ec b43f 007f 843d 51b5 e03d
00000060: 9592 983f 0dfe a03f 7322 c53f d6da d03f
00000070: ea01 933f da0e be3f 2ce7 373d 7451 24be
00000080: e881 c4bc c713 ac3f eeed 1dbe fe6a 12be
00000090: 1430 d1bd f1f2 23be 681d b0bd b535 c83f
000000a0: f621 f93e 4c13 b13f 70e8 0e3d 7ae0 c33f
000000b0: f2fc b33f 283b ebbd 228e ac3f 97d3 1abe
000000c0: c4a5 b53f b857 bd3f 6b94 b63f 106c e6bd
000000d0: 66e8 39bd e886 a43f a87d 00be 36f0 193d
000000e0: 6d3d 6e3f 37da b5bd cbee 33be 1dae 173e
000000f0: 451c 3cbe 4678 c53d 86f2 fc3d baa3 3c3f

hidden_layer2.weight f4 [32, 64]
-0.16945216 0.12787847 0.040676855 -0.033249293 0.044078723 -0.002766304 -0.030224597 -0.1425474
0.110092595 -0.07636114 -0.06468702 0.062437583 -0.106513076 -0.042664576 -0.041430455 -0.07262845
0.03139917 0.06560103 -0.021216726 0.10822288 0.001595016 -0.12070673 0.01681008 0.030905908
0.03822354 -0.013928902 -0.12910761 -0.051534176 0.08570776 -0.12586445 0.045862567 -0.10779089
0.1006534 -0.08007075 0.077588305 0.0012043933 0.009980322 -0.016580697 0.07796572 -0.08330926
-0.2461342 -0.1255319 0.048105765 0.064968795 -0.059978653 -0.127227 -0.037866555 0.011437784
-0.020732138 0.010499853 0.016870953 -0.07307566 0.11075747 -0.12588544 0.0043002255 -0.120000795
0.14535396 0.07385444 0.048756946 -0.025943924 0.022058845 0.06411023 -0.004838253 0.16577159
-0.033296492 -0.3319992 0.021695642 -0.030108888 0.069139965 -0.10542759 0.11847984 0.07634253
0.11321241 0.33307037 -0.21652676 -0.17750783 0.16562389 0.026802909 -0.19707869 -0.044576652
0.08762531 0.076230176 0.15842004 0.01923183 -0.045225564 0.15753219 0.06139675 -0.0617636
0.19004492 0.090700544 0.11038704 -0.21324669 0.20340592 0.05946615 0.08239733 0.73252296
0.037860695 -0.11296818 -0.07746265 0.001372958 0.07493175 0.1066158 0.14730103 0.08227331
-0.36847907 0.018703144 0.06489178 -0.07746122 -0.20136559 0.092213534 0.10277727 0.06737369
0.14849417 0.08547811 -0.24397267 0.11151361 -0.03975537 0.030112114 0.14454652 -0.053781286
-0.42383116 0.13995539 -0.05123147 -0.13133495 -0.086641505 0.203589 -0.016124895 -0.38694516
0.10794232 0.43698594 0.8027723 -0.07089969 0.090189956 -0.061249845 -0.030681958 0.93480253
0.0027953775 -0.46502465 0.6593918 0.18835884 0.62194705 0.1213477 -0.06456822 -0.10724371
-0.002739891 -0.088761196 0.07374915 -0.064446054 -0.041198816 0.7548272 0.026667038 -0.022503575
0.79287857 0.8784479 0.8955962 0.8957735 1.0764903 0.73887455 -0.1124445 -0.048196558
-0.01065522 0.7914484 -0.038102414 -0.14932714 0.07827064 -0.08348682 -0.015492735 0.903684
0.40753585 1.0168155 -0.07206802 0.92554945 0.9671247 0.052780326 0.9241199 -0.040355284
0.89511037 0.95293856 1.0826906 0.04337993 -0.27658907 0.7767266 -0.13498656 -0.12878437
-0.08059444 0.069664136 -0.032634012 -0.10178243 -0.115063995 -0.11909323 0.06823879 0.081073314
-0.010961139 -0.074190244 -0.009610866 0.20296179 -0.021029852 0.067262396 -0.015366564 -0.16862081
0.110161245 -0.047739364 -0.113765776 -0.017797677 -0.04968306 0.20729335 0.029635254 -0.20156455
0.14355654 0.040694285 -0.14545554 -0.1444891 0.096073024 0.00680753 0.014629795 -0.09420951
-0.07592251 -0.02973939 0.075889714 0.04612323 0.045719817 -0.06516332 0.013226399 -0.011337704
0.23097216 -0.028970927 0.07183272 -0.10292011 0.036841348 0.16043828 -0.11755691 -0.005949729
-0.17787945 -0.24135095 -0.0055516534 -0.06087151 -0.09617158 0.20669301 0.17497249 0.07465198
-0.017526075 -0.21950771 0.15718587 0.013824354 -0.23154536 0.027252473 0.13787095 0.16797556
-0.019465243 -0.1549117 -0.102319635 -0.05791507 0.047793984 -0.045047544 -0.10758292 0.09280741
00000000: de84 2dbe 93f2 023e c69c 263d 6930 08bd
00000010: e48b 343d e14a 35bb 9399 f7bc f2f7 11be
00000020: 3a78 e13d 3b63 9cbd a17a 84bd 8dbe 7f3d
00000030: 8723 dabd 0dc1 2ebd fbb2 29bd 3abe 94bd
00000040: 6b9c 003d d559 863d b3ce adbc f5a3 dd3d
00000050: db0f d13a 1735 f7bd 4bb5 893c 632e fd3c
00000060: 4990 1c3d 0d36 64bc c934 04be 8015 53bd
00000070: 8d87 af3d 9ce2 00be 63da 3b3d 78c1 dcbd
00000080: 5f23 ce3d 22fc a3bd 9ee6 9e3d bcdc 9d3a
00000090: 8184 233c 3ed4 87bc 7eac 9f3d 0c9e aabd
000000a0: 9b0a 7cbe 6f8b 00be 8d0a 453d 5c0e 853d
000000b0: 2dac 75bd cb47 02be f619 1bbd 8b65 3b3c
000000c0: 72d6 a9bc 9307 2c3c f434 8a3c b1a8 95bd
000000d0: d0d4 e23d 1de8 00be e8e8 8c3b fac2 f5bd
000000e0: abd7 143e ff40 973d 5db5 473d 5a88 d4bc
000000f0: c0b4 b43c 394c 833d 358a 9ebb 07c0 293e
00000100: e761 08bd cdfb a9be 0fbb b13c eaa6 f6bc
00000110: 4199 8d3d 6cea d7bd 8fa5 f23d 7959 9c3d
00000120: e8db e73d 3388 aa3e 31b9 5dbe 9dc4 35be
00000130: 4f99 293e c691 db3c ffce 49be 0296 36bd
00000140: e674 b33d 911e 9c3d dd38 223e 128c 9d3c
00000150: 713e 39bd 1e50 213e 297b 7b3d d4fb 7cbd
00000160: 239b 423e 35c1 b93d 9a12 e23d 575d 5abe
00000170: a449 503e c792 733d eebf a83d a086 3b3f
00000180: d113 1b3d dc5b e7bd bda4 9ebd d3f4 b33a
00000190: d175 993d 6259 da3d 15d6 163e e97e a83d
000001a0: 4aa9 bcbe 5637 993c fbe5 843d fda3 9ebd
000001b0: c832 4ebe 73da bc3d e47c d23d 38fb 893d
000001c0: db0e 183e 260f af3d f9d3 79be 3f61 e43d
000001d0: 87d6 22bd aead f63c 0104 143e c449 5cbd
000001e0: 6600 d9be 7750 0f3e 17d8 51bd ab7c 06be
000001f0: 1a71 b1bd a379 503e 5b18 84bc ad1d c6be
00000200: dd10 dd3d 9fbc df3e 7c82 4d3f db33 91bd
00000210: 83b5 b83d 1ee1 7abd bb58 fbbc 384f 6f3f
00000220: a732 373b b617 eebe e7cd 283f 24e1 403e
00000230: ec37 1f3f 2585 f83d 583c 84bd 97a2 dbbd
00000240: be8f 33bb 6ec8 b5bd cb09 973d 4bfc 83bd
00000250: 17c0 28bd 5b3c 413f d574 da3c 6b59 b8bc
00000260: 17fa 4a3f f6e1 603f cb45 653f 6951 653f
00000270: 6fca 893f e226 3d3f 4d49 e6bd c169 45bd
00000280: 3b93 2ebc 5d9c 4a3f 4711 1cbd 37e9 18be
00000290: 5b4c a03d 23fb aabd 3ed5 7dbc d657 673f
000002a0: 8aa8 d03e 0327 823f 6698 93bd cff0 6c3f
000002b0: 7c95 773f 2f30 583d 1f93 6c3f 954b 25bd
000002c0: f425 653f c8f3 733f 9b95 8a3f 27af 313d
000002d0: 159d 8dbe 8ed7 463f eb39 0abe 0de0 03be
000002e0: b30e a5bd 12ac 8e3d 3eab 05bd 4f73 d0bd
000002f0: aca6 ebbd 27e7 f3bd c7c0 8b3d c409 a63d
00000300: 5996 33bc 0ef1 97bd e576 1dbc 37d5 4f3e
00000310: cc46 acbc dec0 893d 0ac4 7bbc efaa 2cbe
00000320: 389c e13d 5a8a 43bd 08fe e8bd 6fcc 91bc
00000330: 7780 4bbd b544 543e a2c5 f23c f066 4ebe
00000340: 7c00 133e 0daf 263d 4cf2 14be f3f4 13be
00000350: efc1 c43d b311 df3b cfb1 6f3c eaf0 c0bd
00000360: 437d 9bbd 05a0 f3bc 116c 9b3d b6eb 3c3d
00000370: b444 3b3d 5974 85bd 8ab3 583c c7c1 39bc
00000380: f783 6c3e 7054 edbc 081d 933d c7c7 d2bd
00000390: f4e6 163d ef49 243e adc1 f0bd f2f5 c2bb
000003a0: 0826 36be b424 77be a5ea b5bb 6854 79bd
000003b0: 9bf5 c4bd 55a7 533e fd2b 333e 23e3 983d
000003c0: d892 8fbc a1c6 60be 55f5 203e 8b7f 623c
000003d0: 3a1a 6dbe 9440 df3c 0b2e 0d3e c901 2c3e
000003e0: 9375 9fbc 2ca1 1ebe f58c d1bd 5a38 6dbd
000003f0: a0c3 433d c683 38bd 6f54 dcbd d011 be3d

hidden_layer2.bias f4 [32]
-0.111813486 0.06456471 0.5931642 -0.14262916 0.024499372 -0.10048534 -0.17375529 0.5712331
-0.10982708 -0.12370543 -0.03833039 -0.11560642 0.051783886 -0.11925241 -0.06441571 0.045666527
0.048561785 0.05463894 0.010443856 -0.111657485 0.32728013 0.03588594 0.5738586 -0.11562145
0.016905397 -0.022410937 0.05181054 -0.13058755 0.010871351 -0.0003835559 0.25440964 0.41401133
00000000: 78fe e4bd 813a 843d 9cd9 173f 610d 12be
00000010: e8b2 c83c 42cb cdbd e8ec 31be 553c 123f
00000020: 05ed e0bd 4659 fdbd 5400 1dbd 0fc3 ecbd
00000030: 571b 543d 9c3a f4bd 62ec 83bd d30c 3b3d
00000040: b9e8 463d 15cd 5f3d b51c 2b3c aeac e4bd
00000050: 4391 a73e 23fd 123d 66e8 123f f0ca ecbd
00000060: 307d 8a3c 2497 b7bc 4a37 543d beb8 05be
00000070: c01d 323c 0018 c9b9 fb41 823e 4bf9 d33e
