Comparison/TrainedModel/5-0.001-72-Agent/node_agent_34.pth (torch, 31556 bytes, 6 tensors)

input_layer.weight f4 [32, 93]
-0.01831476 0.20008634 0.014760111 -0.03332989 -0.039096057 -0.07304226 -0.015710985 0.005997312
-0.06335596 0.073662095 0.052236583 0.015494809 0.003922777 0.0591969 -0.121384494 -0.107970916
0.056039866 2.7676144 5.1212177 8.5002 -0.06676126 2.9612787 2.2546837 -0.031405058
-0.086126566 0.096042 -0.024140744 0.12140825 0.049021017 0.03642986 0.011074446 0.22153655
0.013858572 -0.301225 0.006732195 0.15617087 -0.12713741 0.057794858 0.01698436 0.15486775
-0.029124916 0.055758208 0.14039376 -0.11247337 0.03594394 0.1076136 -0.077784166 -0.00837873
-0.14534578 -0.21431077 -0.028275678 -0.009695339 -0.064457 -0.19326623 -0.023109611 0.0026295814
0.22301579 0.049587037 -0.24616471 -0.002298244 0.13461833 0.12992692 -0.057777036 0.14148007
-0.16768284 2.3248165 0.057733893 -0.06784206 2.3597715 0.13552414 -0.010980577 0.060231067
-0.08716084 -0.02015534 0.010955134 0.1254545 -0.10757686 0.11091983 -0.15782212 -0.1060066
0.14056614 0.06114715 0.06992216 0.068994686 -0.03973984 0.15281852 -0.07152413 0.0976501
-0.043088507 0.006865439 0.0088316975 -0.11983887 0.070036195 0.02235764 0.124562 -0.09123007
0.034808617 -0.05644982 -0.1603998 -0.08550584 0.101051114 -0.061437774 0.028345019 -0.0994891
-0.100071244 -0.1551545 -0.07495 0.034696676 0.13525699 0.1321725 -0.056364357 0.017098812
0.0026369821 0.108149186 -2.3443284 -0.5509911 -0.026236003 0.015811427 0.055117454 -0.05651493
0.054662615 -0.07081883 -0.04031789 0.08542173 0.111228846 -0.017416839 -0.023229646 -0.017922072
-0.08905033 -0.044151634 -0.17836569 0.07503119 -0.123689346 0.07096743 0.11344724 0.0038050327
0.07875078 0.02435792 0.0016618088 0.057298638 0.02332872 0.07155194 -0.09739445 -0.13842039
0.10679909 -0.061164625 0.09718181 0.008869393 -0.07014601 0.06103645 0.13093008 -0.065892
0.021064926 0.18320242 -0.07916762 -0.25058895 0.11585879 0.1512891 -0.62237275 -0.023347434
0.019739198 -0.54359806 0.10054529 0.109670915 0.08541956 -0.05872804 -0.047838803 0.15271196
0.032242835 -0.050501104 -0.07195958 -0.0030359677 0.005286015 0.13206917 0.034851097 0.037340045
0.1482662 -0.062203135 0.05092215 0.043288287 0.029699385 0.12806112 0.06551396 -0.043239243
-0.061730843 0.056447435 0.10442978 -0.15816088 0.037903942 -0.020618653 -0.04798005 -0.19022474
0.076230966 0.19251756 0.09123516 -0.085115165 -0.011585876 0.02381173 -0.18573876 -0.2329895
0.018194927 -0.06306831 0.1840781 2.69209 3.5039203 8.062512 0.098904006 2.8378723
2.3394594 -0.08469689 -0.08309203 0.014574753 -0.052421637 0.038387444 -0.025105376 0.09392028
-0.022912899 -0.02703595 0.18000047 0.113304615 0.052622195 0.22636282 0.00550966 -0.02009635
-0.14544916 0.0324919 -0.17691529 0.007392514 0.104937926 0.12264009 0.13732846 -0.008649058
-0.092276014 -0.08489021 0.044571627 -0.025796324 0.05528999 -0.19007663 0.010828155 -0.04348412
-0.028121585 -0.08750291 -0.093884386 -0.07202334 -0.08396789 -0.03903445 -0.053962458 -0.1784339
-0.026191 -0.029761497 0.056960117 2.2247806 -0.06854757 0.031395987 2.288826 -0.04448326
00000000: d608 96bc 6fe3 4c3e 65d4 713c ec84 08bd
00000010: 3023 20bd 2e97 95bd 53b4 80bc 1985 c43b
00000020: c5c0 81bd 27dc 963d 07f6 553d f0dd 7d3c
00000030: a38a 803b 7378 723d 6f98 f8bd db1f ddbd
00000040: 0f8a 653d 9820 3140 04e1 a340 d200 0841
00000050: 21ba 88bd 9785 3d40 bd4c 1040 97a2 00bd
00000060: 2063 b0bd abb1 c43d cfc2 c5bc e3a4 f83d
00000070: 43ca 483d 7a37 153d 9871 353c 7ada 623e
00000080: 100f 633c 2a3a 9abe bf99 dc3b 42eb 1f3e
00000090: 4f30 02be 4dba 6c3d c922 8b3c a795 1e3e
000000a0: 6097 eebc b862 643d 62c3 0f3e 7058 e6bd
000000b0: f439 133d 8564 dc3d 4e4d 9fbd f146 09bc
000000c0: 86d5 14be 4874 5bbe 65a2 e7bc 33d9 1ebc
000000d0: 0802 84bd 95e7 45be 5e50 bdbc 0e55 2c3b
000000e0: 405e 643e c71b 4b3d 9a12 7cbe 239e 16bb
000000f0: 63d9 093e 900b 053e 9da7 6cbd 27e0 103e
00000100: 0db5 2bbe cbc9 1440 607a 6c3d c7f0 8abd
00000110: 7f06 1740 d7c6 0a3e e1e7 33bc dab4 763d
00000120: 6281 b2bd d01c a5bc 2a7d 333c 2577 003e
00000130: 4251 dcbd f029 e33d 1f9c 21be fd19 d9bd
00000140: 92f0 0f3e 6f75 7a3d 5933 8f3d 164d 8d3d
00000150: 3ec6 22bd 757c 1c3e 3e7b 92bd c7fc c73d
00000160: 937d 30bd 7af7 e03b d3b2 103c 156e f5bd
00000170: 236f 8f3d 5f27 b73c 5d1a ff3d d5d6 babd
00000180: 7b93 0e3d ed37 67bd d83f 24be b01d afbd
00000190: e3f3 ce3d 2da6 7bbd d033 e83c f1c0 cbbd
000001a0: 27f2 ccbd d2e0 1ebe 637f 99bd 1a1e 0e3d
000001b0: cf80 0a3e 3a58 073e 50de 66bd cf12 8c3c
000001c0: 38d1 2c3b 527d dd3d 7a09 16c0 c10d 0dbf
000001d0: e3ec d6bc f786 813c d7c2 613d 337c 67bd
000001e0: e8e5 5f3d 7609 91bd 5f24 25bd 97f1 ae3d
000001f0: f3cb e33d c2ad 8ebc 194c bebc 4fd1 92bc
00000200: 0560 b6bd 58d8 34bd 7fa5 36be f4a9 993d
00000210: d750 fdbd 5f57 913d 0757 e83d db5d 793b
00000220: 1748 a13d 438a c73c 0dd1 d93a fab1 6a3d
00000230: df1b bf3c d389 923d be76 c7bd 13be 0dbe
00000240: 7bb9 da3d c287 7abd 4207 c73d ee50 113c
00000250: b6a8 8fbd 5b01 7a3d 8912 063e 63f2 86bd
00000260: 5a90 ac3c 6a99 3b3e a222 a2bd 324d 80be
00000270: 6047 ed3d 88eb 1a3e d253 1fbf 1e43 bfbc
00000280: 19b4 a13c 3e29 0bbf b0ea cd3d 259b e03d
00000290: 73f0 ae3d d08c 70bd 9ff2 43bd 8660 1c3e
000002a0: 1011 043d 3fda 4ebd 8b5f 93bd 16f7 46bb
000002b0: 4f36 ad3b 243d 073e 06c0 0e3d e0f1 183d
000002c0: 18d3 173e b7c8 7ebd bf93 503d 0f4f 313d
000002d0: 204c f33c 7422 033e 2f2c 863d a21b 31bd
000002e0: 7bd9 7cbd 6d35 673d 48df d53d edf4 21be
000002f0: 2a41 1b3d 73e8 a8bc bb86 44bd 46ca 42be
00000300: fb1e 9c3d 5323 453e 80d9 ba3d dc50 aebd
00000310: b0d2 3dbc d110 c33c 4d32 3ebe cd94 6ebe
00000320: 870d 953c f529 81bd f87e 3c3e 344b 2c40
00000330: 3b40 6040 0d00 0141 2f8e ca3d b39f 3540
00000340: b4b9 1540 9075 adbd 272c aabd f2ca 6e3c
00000350: 12b8 56bd 273c 1d3d caa9 cdbc 4759 c03d
00000360: d5b3 bbbc 7f7a ddbc 0b52 383e 400c e83d
00000370: 5f8a 573d a8cb 673e 618a b43b 1aa1 a4bc
00000380: a0f0 14be 3a16 053d 4829 35be e73c f23b
00000390: b2e9 d63d ba2a fb3d d59f 0c3e c7b4 0dbc
000003a0: 35fb bcbd ebda adbd bd90 363d d052 d3bc
000003b0: c277 623d 73a3 42be 9368 313c 681c 32bd
000003c0: 3d5f e6bc ba34 b3bd 7546 c0bd f980 93bd
000003d0: 5bf7 abbd 96e2 1fbd bd07 5dbd 60b7 36be
000003e0: 828e d6bc 62ce f3bc 034f 693d ce62 0e40
000003f0: ab62 8cbd 1499 003d 207c 1240 1434 36bd

input_layer.bias f4 [32]
2.3250885 -0.6983418 2.2611623 0.04899618 -0.069168344 2.2314322 -0.013678588 0.018615838
0.45912096 0.23012698 2.3631613 2.3446698 0.0058556423 1.7944192 2.4656703 1.5251241
0.20286942 2.6937783 2.3287783 2.2494967 2.3899925 0.07268252 -0.042370524 2.3578458
-0.057467196 2.3231905 1.2097701 0.023196027 1.9447817 0.8270993 2.209002 0.11444499
00000000: 40ce 1440 87c6 32bf e2b6 1040 38b0 483d
00000010: 22a8 8dbd c9cf 0e40 281c 60bc 3e80 983c
00000020: e711 eb3e 68a6 6b3e 093e 1740 120f 1640
00000030: b0e0 bf3b 87af e53f 8bcd 1d40 4437 c33f
00000040: 00bd 4f3e dd66 2c40 b40a 1540 c1f7 0f40
00000050: a3f5 1840 93da 943d b78c 2dbd f2e6 1640
00000060: b962 6bbd 27af 1440 bfd9 9a3f 9805 be3c
00000070: 9bee f83f c8bc 533f 4a60 0d40 2362 ea3d

hidden_layer1.weight f4 [64, 32]
0.09544188 -0.07594364 -0.010779935 -0.030068634 0.06344476 0.0009805531 0.02410945 -0.03351052
-0.0681103 -0.07825526 0.051068943 -0.12688056 0.08896398 0.040399347 0.0018622795 -0.015942762
-0.1416379 -0.0019956313 -0.13407163 0.04796169 -0.06894105 0.034128528 -0.13018607 0.04212906
0.05135693 -0.20371313 -0.1896754 0.025268892 -0.11052394 -0.19051793 0.0858483 -0.18413477
-0.21414971 -1.5665133 0.159213 -0.0065602264 -0.013389233 -0.057701413 -0.022090955 -2.1391366
0.24774401 -2.1603093 0.00026527664 -0.21255685 0.022378119 -0.21804151 0.11150209 0.4776628
-1.008849 0.302392 -0.21550883 -0.07729172 -0.11867912 -0.13729239 -0.03267714 -0.21771845
0.01261095 -0.14146525 0.036447633 -0.06513325 0.4698211 -0.2235178 -0.16458376 0.5348335
0.69174784 -1.1317165 0.9988161 -0.07230403 0.09132558 0.67062086 0.16636926 -2.6041856
0.47691017 -2.7616458 0.7285648 0.56400806 0.00695918 0.20939864 1.2426858 0.69264984
-1.3677187 1.3388855 0.45736063 0.75313765 0.8157681 0.04779332 -0.17556791 0.7119353
-0.003863883 0.7650509 0.25584435 0.17363632 0.71138597 -0.3088614 0.8471533 0.8858041
0.023961876 -0.18256462 0.02577631 -0.03899527 0.044817507 -0.038028333 -0.062363077 0.095647186
-0.093151025 0.13978322 -0.040845435 -0.2519843 -0.13553847 0.011437602 0.0525388 0.08840079
0.009161972 0.03137774 0.068171926 0.026222173 -0.15466593 0.031567235 -0.03267645 0.018838208
-0.0029363902 -0.054452498 0.030011658 -0.12955676 0.11400955 0.10252644 -0.09402802 -0.09314926
-0.2681066 -0.0396126 0.020361152 -0.096407115 0.16361843 -0.04107531 -0.012998368 0.09839811
-0.14148228 -0.11187881 -0.16417295 0.06649833 0.12530509 0.0378662 0.002250434 0.09386023
-0.12707248 -0.07270045 0.06669777 -0.16269536 0.1299282 0.12012446 -0.030023033 -0.107886314
-0.040154453 0.16174868 -0.06751401 -0.032654062 0.069320284 0.24442624 0.10021766 -0.055317704
0.036696386 -0.17065889 0.04661767 0.09646759 0.061665185 -0.18509345 0.08199302 0.17827283
0.080916315 -0.021403844 -0.2125485 0.022479773 0.0951589 0.16855206 0.049340922 -0.041905776
-0.007864154 0.13817027 -0.005667151 -0.07273105 -0.1053025 0.049736496 0.022878466 -0.12635031
-0.12057431 0.0016078387 0.009724273 -0.016006146 -0.024485167 0.08179407 -0.05020628 0.06293864
-0.06758248 0.040187396 0.010363312 0.011268782 0.03943469 0.03079294 -0.13530545 -0.023736909
-0.16224588 0.03180444 0.10031533 -0.060199495 -0.098932646 -0.18630207 -0.066981055 -0.0051637944
0.0072381496 -0.037170775 -0.05428321 0.056649935 0.23891811 0.14078157 0.05774532 -0.009430373
-0.06856077 0.010403364 -0.07076713 0.021816423 -0.08284682 -0.046174582 -0.12409488 -0.15382741
0.08644454 -0.063370004 -0.16986103 0.10353948 0.12247946 -0.011356271 -0.08557748 0.07344222
0.039904144 0.11154525 -0.014729026 -0.12512633 -0.008882737 0.0009347672 -0.06480266 0.11739492
0.053227145 0.02674899 -0.05750416 -0.18666632 -0.059046384 0.036274467 -0.057609476 0.055450838
-0.010326118 0.054439683 -0.086979695 0.09010569 0.02923656 0.0582655 -0.0792209 -0.115185186
00000000: 0877 c33d 5788 9bbd 539e 30bc 7f52 f6bc
00000010: 54ef 813d e785 803a 2e81 c53c 5442 09bd
00000020: 6a7d 8bbd 4b44 a0bd ab2d 513d faec 01be
00000030: bf32 b63d c979 253d bb17 f43a 659a 82bc
00000040: 8709 11be 23c9 02bb 134a 09be 7a73 443d
00000050: f730 8dbd 5bca 0b3d 7f4f 05be 858f 2c3d
00000060: a55b 523d 2d9a 50be 453a 42be b500 cf3c
00000070: 605a e2bd 2217 43be 3cd1 af3d d38d 3cbe
00000080: 104a 5bbe 8283 c8bf bc08 233e 2bf7 d6bb
00000090: 835e 5bbc 5158 6cbd 17f8 b4bc 9de7 08c0
000000a0: 9bb0 7d3e 8242 0ac0 d414 8b39 81a8 59be
000000b0: 5152 b73c 4646 5fbe 355b e43d 3890 f43e
000000c0: f721 81bf 20d3 9a3e 59ae 5cbe 1f4b 9ebd
000000d0: 0a0e f3bd 6096 0cbe 77d8 05bd 96f1 5ebe
000000e0: 289e 4e3c 44dc 10be 1d4a 153d 9564 85bd
000000f0: 648c f03e dae1 64be a588 28be d9ea 083f
00000100: 6316 313f 16dc 90bf 69b2 7f3f 2314 94bd
00000110: e808 bb3d cfad 2b3f b45c 2a3e faaa 26c0
00000120: 922d f43e cebe 30c0 3983 3a3f d562 103f
00000130: d509 e43b 996c 563e 5410 9f3f 8051 313f
00000140: 6811 afbf 9a60 ab3f 2c2b ea3e a1cd 403f
00000150: 2ed6 503f eec2 433d 13c8 33be 6441 363f
00000160: 3339 7dbb 60da 433f 08fe 823e b8cd 313e
00000170: 641d 363f 1523 9ebe 0adf 583f 0fc4 623f
00000180: b24b c43c 38f2 3abe d728 d33c 81b9 1fbd
00000190: 9092 373d 99c3 1bbd 6d70 7fbd ace2 c33d
000001a0: f7c5 bebd 5523 0f3e 8b4d 27bd 1604 81be
000001b0: 99ca 0abe c864 3b3c ed32 573d 790b b53d
000001c0: 191c 163c f285 003d b99d 8b3d e2cf d63c
000001d0: bf60 1ebe a54c 013d bed7 05bd 9652 9a3c
000001e0: 7470 40bb 9509 5fbd 02db f53c 87aa 04be
000001f0: d77d e93d 62f9 d13d c391 c0bd 0ac5 bebd
00000200: 4545 89be d240 22bd 6ecc a63c 1871 c5bd
00000210: 978b 273e 963e 28bd 1bf7 54bc f384 c93d
00000220: bbe0 10be b820 e5bd f41c 28be 4730 883d
00000230: fa4f 003e 9719 1b3d 047c 133b cb39 c03d
00000240: 4a1f 02be f9e3 94bd d798 883d 9d99 26be
00000250: e60b 053e d003 f63d ddf2 f5bc 80f3 dcbd
00000260: ff78 24bd 72a1 253e c944 8abd 44c0 05bd
00000270: cbf7 8d3d df4a 7a3e eb3e cd3d d194 62bd
00000280: f34e 163d 34c1 2ebe 2cf2 3e3d cd90 c53d
00000290: a294 7c3d 2389 3dbe f5eb a73d 278d 363e
000002a0: 74b7 a53d 1d57 afbc 50a6 59be 8027 b83c
000002b0: abe2 c23d e998 2c3e b519 4a3d 64a5 2bbd
000002c0: a7d8 00bc 827c 0d3e 82b3 b9bb 04f4 94bd
000002d0: d6a8 d7bd 7fb8 4b3d 9f6b bb3c fa61 01be
000002e0: aaef f6bd 1dbe d23a 8f52 1f3c 521f 83bc
000002f0: 1e95 c8bc a683 a73d 1aa5 4dbd f9e5 803d
00000300: af68 8abd 8a9b 243d e2ca 293c b3a0 383c
00000310: 4586 213d 7a41 fc3c 838d 0abe e873 c2bc
00000320: c923 26be 5f45 023d 2072 cd3d bf93 76bd
00000330: 339d cabd f8c5 3ebe 5d2d 89bd 0c35 a9bb
00000340: 002e ed3b 6240 18bd 1258 5ebd c309 683d
00000350: f3a6 743e 0b29 103e 5b86 6c3d da81 1abc
00000360: 9769 8cbd df72 2a3c 5bee 90bd 5bb8 b23c
00000370: 98ab a9bd 8f21 3dbd 7525 febd ef84 1dbe
00000380: d609 b13d 22c8 81bd 0df0 2dbe 820c d43d
00000390: 83d6 fa3d a70f 3abc 3f43 afbd e068 963d
000003a0: 8772 233d d671 e43d 0352 71bc 1e21 00be
000003b0: e688 11bc 2a0b 753a 42b7 84bd bf6c f03d
000003c0: b504 5a3d b320 db3c 7b89 6bbd 7525 3fbe
000003d0: 9fda 71bd 8994 143d eaf7 6bbd 6b20 633d
000003e0: e12e 29bc 25fc 5e3d 6922 b2bd 5589 b83d
000003f0: 8381 ef3c cea7 6e3d 913e a2bd 36e6 ebbd

hidden_layer1.bias f4 [64]
-0.1288037 -0.67170167 -0.0022323024 -0.066787265 -0.16504858 0.03962385 -0.16021743 -0.4406818
-0.106044106 0.22713658 0.16331235 -0.08229682 0.77576846 -0.14145935 0.01933147 -0.0027588904
-0.15501864 -0.17026736 0.07445638 -0.1163841 -0.11770211 -0.26215553 -0.45989937 0.10731769
-0.43653432 -0.123377346 0.51758796 0.65399206 -0.46525553 -0.36877996 0.044898197 -0.053396888
-0.023987725 -0.45169902 -0.17599648 -0.898395 -0.10214248 -0.3917732 -0.9037308 0.8197756
-0.45721808 0.80154365 0.03488964 0.2659894 -0.02797106 -0.114858925 0.26396367 -0.15119778
0.6131328 1.2387713 -0.1785485 -0.3786358 0.56785786 0.91695905 -0.12547934 -0.14493804
-0.4641125 -0.040382702 -0.17571561 0.14812513 -0.17864957 0.09642081 0.1165089 1.351889
00000000: 1ee5 03be a4f4 2bbf d24b 12bb c3c7 88bd
00000010: 7f02 29be 9e4c 223d 0a10 24be 0ba1 e1be
00000020: a72d d9bd 7e96 683e 5a3b 273e 3c8b a8bd
00000030: c398 463f b8da 10be 085d 9e3c 80ce 34bb
00000040: 35bd 1ebe 915a 2ebe 967c 983d c95a eebd
00000050: ce0d f1bd 4039 86be ee77 ebbe 61c9 db3d
00000060: 6d81 dfbe 43ad fcbd a580 043f 066c 273f
00000070: f935 eebe bad0 bcbe 2ce7 373d b2b6 5abd
00000080: e881 c4bc 1845 e7be 6c38 34be 37fd 65bf
00000090: 1430 d1bd 7f96 c8be e75a 67bf d0dc 513f
000000a0: 7d18 eabe f731 4d3f 70e8 0e3d c32f 883e
000000b0: 9023 e5bc 283b ebbd 3f26 873e 97d3 1abe
000000c0: 45f6 1c3f 0f90 9e3f 6bd5 36be 8ddc c1be
000000d0: 225f 113f d4bd 6a3f a87d 00be a36a 14be
000000e0: 27a0 edbe 5568 25bd cbee 33be 1dae 173e
000000f0: eaef 36be 4678 c53d 389c ee3d b30a ad3f

hidden_layer2.weight f4 [32, 64]
-0.16945216 0.10171668 0.013752468 -0.033249293 0.044078723 -0.002766304 -0.030224597 -0.14000496
0.110092595 -0.07636114 -0.06468702 0.062437583 -0.16232996 -0.042664576 -0.041430455 -0.07262845
0.03139917 0.06560103 -0.021216726 0.10822288 0.001595016 -0.118164316 -0.008900759 0.030905908
0.040765937 0.014324352 -0.15742458 -0.077709556 0.06826967 -0.12332204 0.045862567 -0.10779089
0.1006534 -0.07752832 0.036667027 0.0012043933 0.009980322 -0.042291548 0.037319932 -0.11170021
-0.279758 -0.15332775 0.048105765 0.037922166 -0.031725403 -0.127227 -0.06579652 0.011437784
-0.046781655 -0.017513262 0.0134361405 -0.09878646 0.053845897 -0.15430914 0.0043002255 -0.120000795
0.14535396 0.017829748 0.048756946 -0.025943924 0.022058845 0.06411023 -0.004838253 0.13708466
-0.033296492 -0.02178548 -0.010409651 -0.030108888 0.08135147 -0.15018234 0.11847984 0.07478181
0.11321241 -0.036278643 -0.121553466 -0.16386853 0.062356014 0.04206519 -0.19707869 -0.044576652
0.07250951 0.076230176 0.15842004 0.01923183 -0.042138673 0.10562496 0.028854135 -0.06021529
0.16945672 0.11232374 0.08552573 -0.26187372 0.19243272 0.005852847 0.08239733 0.035065453
0.037860695 -0.10696062 -0.22650033 -0.006850243 0.07493175 0.032932818 0.08354168 0.06304679
-0.07947187 0.004237686 0.06489178 -0.106248274 -0.07291781 0.092213534 0.10828176 0.06737369
0.10794858 0.06343195 -0.13767688 0.06888807 -0.26387507 0.010918869 0.14454652 -0.04602917
-0.05562318 0.052024163 -0.05123147 -0.13133495 -0.063942954 0.203589 0.014090202 -0.09025555
0.07637362 0.75491905 0.44791928 -0.07089969 0.090189956 -0.09210669 -0.030681958 0.5325528
0.0027953775 -0.5976543 -0.02001832 -0.09940024 0.28087997 0.10607983 -0.06456822 -0.10724371
-0.03396855 -0.088761196 0.07374915 -0.064446054 -0.05177146 0.6875397 0.70854855 -0.01903293
-0.54506606 0.018095363 0.44075853 0.38672185 0.676616 0.46389648 -0.1124445 0.023472773
-0.01065522 0.677569 0.37941694 0.033730287 0.07827064 0.47268897 1.0686747 0.32368106
0.51200694 0.51179713 -0.07206802 0.50346506 0.07124751 0.052780326 0.43618655 -0.040355284
0.4059457 0.41466027 0.41179696 -0.5851836 0.009666925 0.17749268 -0.13498656 0.049541883
-0.7636169 0.48048693 -0.032634012 -0.10178243 -0.12995209 -0.11909323 0.05574366 0.27298602
-0.010961139 -0.07961365 -0.0088730985 0.20296179 -0.021029852 0.067262396 -0.015366564 -0.14865628
0.110161245 -0.047739364 -0.10792042 -0.023095427 -0.086145364 0.20729335 0.029635254 -0.20156455
0.14355654 0.040694285 -0.14545554 -0.1444891 0.096073024 0.026813554 0.009207525 -0.09420951
-0.05597841 -0.0043135267 0.06476273 0.03504679 0.050610386 -0.045210224 0.013226399 -0.011337704
0.23097216 -0.009013138 0.03525161 -0.09707568 0.036841348 0.15501364 -0.12724514 -0.011652889
-0.17787945 -0.25250793 -0.0055516534 -0.066574685 -0.07592167 0.20669301 0.19502571 0.07465198
-0.028654618 -0.2306909 0.15148278 0.008329967 -0.26786435 0.016170384 0.13787095 0.16269355
-0.019465243 -0.1549117 -0.102319635 -0.05791507 0.047793984 -0.045047544 -0.10758292 0.08032921
00000000: de84 2dbe d650 d03d 0852 613c 6930 08bd
00000010: e48b 343d e14a 35bb 9399 f7bc 765d 0fbe
00000020: 3a78 e13d 3b63 9cbd a17a 84bd 8dbe 7f3d
00000030: d339 26be 0dc1 2ebd fbb2 29bd 3abe 94bd
00000040: 6b9c 003d d559 863d b3ce adbc f5a3 dd3d
00000050: db0f d13a 2200 f2bd 7dd4 11bc 632e fd3c
00000060: 2ffa 263d b0b0 6a3c e933 21be 3026 9fbd
00000070: f8d0 8b3d 4490 fcbd 63da 3b3d 78c1 dcbd
00000080: 5f23 ce3d 2bc7 9ebd 2a30 163d bcdc 9d3a
00000090: 8184 233c e739 2dbd c9dc 183d 14c3 e4bd
000000a0: 713c 8fbe f301 1dbe 8d0a 453d 4654 1b3d
000000b0: 7ff2 01bd cb47 02be 53c0 86bd 8b65 3b3c
000000c0: 1f9e 3fbd f977 8fbc 4223 5c3c 8e50 cabd
000000d0: 848d 5c3d 3703 1ebe e8e8 8c3b fac2 f5bd
000000e0: abd7 143e b10f 923c 5db5 473d 5a88 d4bc
000000f0: c0b4 b43c 394c 833d 358a 9ebb ec5f 0c3e
00000100: e761 08bd 7777 b2bc 3e8d 2abc eaa6 f6bc
00000110: 999b a63d 66c9 19be 8fa5 f23d 3527 993d
00000120: e8db e73d ea98 14bd 06f1 f8bd 27cd 27be
00000130: 0569 7f3d 8c4c 2c3d ffce 49be 0296 36bd
00000140: de7f 943d 911e 9c3d dd38 223e 128c 9d3c
00000150: 9a99 2cbd e651 d83d 825f ec3c 4fa4 76bd
00000160: 1086 2d3e fd09 e63d 1d28 af3d 5014 86be
00000170: 150d 453e 3dc9 bf3b eebf a83d cba0 0f3d
00000180: d113 1b3d 2b0e dbbd b4ef 67be 0178 e0bb
00000190: d175 993d 90e4 063d e617 ab3d ad1e 813d
000001a0: 26c2 a2bd 49dc 8a3b fbe5 843d b298 d9bd
000001b0: ef55 95bd 73da bc3d d4c2 dd3d 38fb 893d
000001c0: 2514 dd3d 9ce8 813d 2bfb 0cbe 3015 8d3d
000001d0: a21a 87be 0ee5 323c 0104 143e 1589 3cbd
000001e0: 22d5 63bd 4a17 553d 17d8 51bd ab7c 06be
000001f0: 86f4 82bd a379 503e 97da 663c e7d7 b8bd
00000200: c669 9c3d 6042 413f ad55 e53e db33 91bd
00000210: 83b5 b83d 6fa2 bcbd bb58 fbbc 6155 083f
00000220: a732 373b dfff 18bf 76fd a3bc 5a92 cbbd
00000230: 80cf 8f3e 6240 d93d 583c 84bd 97a2 dbbd
00000240: 9b22 0bbd 6ec8 b5bd cb09 973d 4bfc 83bd
00000250: 4f0e 54bd 9a02 303f 7063 353f f2ea 9bbc
00000260: 7389 0bbf ba3c 943c 1aab e13e 6800 c63e
00000270: b536 2d3f d783 ed3e 4d49 e6bd f949 c03c
00000280: 3b93 2ebc 2975 2d3f f042 c23e c528 0a3d
00000290: 5b4c a03d 4a04 f23e 55ca 883f 86b9 a53e
000002a0: e312 033f 2305 033f 6698 93bd 16e3 003f
000002b0: 37ea 913d 2f30 583d d853 df3e 954b 25bd
000002c0: 1dd8 cf3e 5a4e d43e 0dd7 d23e 98ce 15bf
000002d0: 0662 1e3c a4c0 353e eb39 0abe 6eec 4a3d
000002e0: 667c 43bf 6202 f63e 3eab 05bd 4f73 d0bd
000002f0: 2912 05be 27e7 f3bd 7753 643d d3c4 8b3e
00000300: 5996 33bc 7b0c a3bd 7960 11bc 37d5 4f3e
00000310: cc46 acbc dec0 893d 0ac4 7bbc 5a39 18be
00000320: 389c e13d 5a8a 43bd 6205 ddbd 9f32 bdbc
00000330: fb6c b0bd b544 543e a2c5 f23c f066 4ebe
00000340: 7c00 133e 0daf 263d 4cf2 14be f3f4 13be
00000350: efc1 c43d 19a8 db3c 29db 163c eaf0 c0bd
00000360: 9e49 65bd 7c58 8dbb 52a2 843d 398d 0f3d
00000370: d64c 4f3d 5b2e 39bd 8ab3 583c c7c1 39bc
00000380: f783 6c3e d7ab 13bc fe63 103d 9dcf c6bd
00000390: f4e6 163d e5bb 1e3e 8d4c 02be c2eb 3ebc
000003a0: 0826 36be b848 81be a5ea b5bb 4f58 88bd
000003b0: d27c 9bbd 55a7 533e d2b4 473e 23e3 983d
000003c0: 17bd eabc 3c3a 6cbe 4d1e 1b3e 6a7a 083c
000003d0: 8425 89be c177 843c 0b2e 0d3e 2399 263e
000003e0: 9375 9fbc 2ca1 1ebe f58c d1bd 5a38 6dbd
000003f0: a0c3 433d c683 38bd 6f54 dcbd a483 a43d

hidden_layer2.bias f4 [32]
-0.14093687 0.04665944 -0.5517088 -0.15366966 0.013585823 -0.10048534 -0.11834919 0.02307355
0.30069208 -0.12370543 -0.03833039 -0.069410555 0.052851565 -0.2803359 -0.06441571 -0.41569033
0.46249083 0.043050636 0.44859028 -0.111657485 -0.005739532 -0.0030501983 -0.0352793 -0.10502818
0.016905397 -0.01833079 0.038025245 -0.12265348 -0.019191062 -0.0003835559 0.03658411 0.27100044
00000000: c151 10be f81d 3f3d ca3c 0dbf 945b 1dbe
00000010: 1297 5e3c 42cb cdbd 0f61 f2bd be04 bd3c
00000020: 50f4 993e 4659 fdbd 5400 1dbd 1f27 8ebd
00000030: e27a 583d 3088 8fbe 62ec 83bd 5dd5 d4be
00000040: 99cb ec3e dd55 303d a0ad e53e aeac e4bd
00000050: af12 bcbb d6e5 47bb 0781 10bd 0419 d7bd
00000060: 307d 8a3c 742a 96bc 5cc0 1b3d bf31 fbbd
00000070: 9336 9dbc 0018 c9b9 38d9 153d 92c0 8a3e
