Comparison/TrainedModel/5-0.001-72-Agent/node_agent_33.pth (torch, 31556 bytes, 6 tensors)

input_layer.weight f4 [32, 93]
-0.01831476 0.20008634 0.014760111 -0.03332989 -0.039096057 3.8426497 -0.015710985 0.005997312
-0.06335596 0.073662095 0.052236583 0.015494809 0.003922777 0.0591969 -0.121384494 -3.0477548
2.147511 2.4601393 4.759689 7.4973264 -0.06676126 2.9826653 -0.052281182 -0.031405058
-0.086126566 0.096042 -0.024140744 0.12140825 0.049021017 0.03642986 0.011074446 0.22153655
0.013858572 -0.301225 0.006732195 0.15617087 -0.12713741 0.057794858 0.01698436 0.15486775
-0.029124916 0.055758208 0.14039376 -0.11247337 0.03594394 0.1076136 -0.077784166 -0.00837873
-0.14534578 -0.21431077 3.887423 -0.009695339 -0.064457 -0.19326623 -0.023109611 0.0026295814
0.22301579 0.049587037 -0.24616471 -0.002298244 0.13461833 0.12992692 -0.057777036 0.14148007
-0.16768284 0.017852945 0.057733893 -0.06784206 0.05280568 0.13552414 -0.010980577 0.060231067
-0.08716084 -0.02015534 0.010955134 0.1254545 -0.10757686 4.0266237 -0.15782212 -0.1060066
0.14056614 0.06114715 0.06992216 0.068994686 -0.03973984 0.15281852 -0.07152413 4.013355
-0.043088507 0.006865439 0.0088316975 -0.11983887 0.070036195 0.02235764 0.124562 -0.09123007
0.034808617 -0.05644982 1.0528073 -0.08550584 0.101051114 -0.061437774 0.028345019 -0.0994891
-0.100071244 -0.1551545 -0.07495 0.034696676 -1.4772412 -0.015114551 1.2326003 1.6670452
12.160479 0.108149186 -0.69438887 0.06510001 -0.026236003 0.015811427 0.055117454 -0.05651493
0.054662615 -0.07081883 -0.04031789 0.08542173 0.111228846 -0.017416839 -0.023229646 -0.017922072
-0.08905033 -0.044151634 -0.17836569 0.07503119 -0.123689346 0.07096743 0.11344724 0.0038050327
0.07875078 0.02435792 0.0016618088 0.057298638 0.02332872 0.07155194 -0.09739445 1.0747848
0.10679909 -0.061164625 0.09718181 0.008869393 -0.07014601 0.06103645 0.13093008 -0.065892
0.021064926 0.18320242 -0.07916762 -0.25058895 0.11585879 0.1512891 -0.0062812986 -0.023347434
0.019739198 0.072493486 0.10054529 0.109670915 0.08541956 -0.05872804 -0.047838803 0.15271196
0.032242835 -0.050501104 1.1412454 -0.0030359677 0.005286015 0.13206917 0.034851097 0.037340045
0.1482662 -0.062203135 0.05092215 0.043288287 1.2428973 0.12806112 0.06551396 -0.043239243
-0.061730843 0.056447435 0.10442978 -0.15816088 0.037903942 -0.020618653 -0.04798005 3.489761
0.076230966 0.19251756 0.09123516 -0.085115165 -0.011585876 0.02381173 -0.18573876 -0.2329895
0.018194927 -2.5415561 1.519272 2.3767703 5.7801557 8.202182 0.098904006 2.3547397
0.038129095 -0.08469689 -0.08309203 0.014574753 -0.052421637 0.038387444 -0.025105376 0.09392028
-0.022912899 -0.02703595 0.18000047 0.113304615 0.052622195 0.22636282 0.00550966 -0.02009635
-0.14544916 0.0324919 -0.17691529 0.007392514 0.104937926 0.12264009 0.13732846 -0.008649058
-0.092276014 -0.08489021 0.044571627 -0.025796324 3.7352805 -0.19007663 0.010828155 -0.04348412
-0.028121585 -0.08750291 -0.093884386 -0.07202334 -0.08396789 -0.03903445 -0.053962458 -0.1784339
-0.026191 -0.029761497 0.056960117 -0.07653004 -0.06854757 0.031395987 -0.012501289 -0.04448326
00000000: d608 96bc 6fe3 4c3e 65d4 713c ec84 08bd
00000010: 3023 20bd f9ed 7540 53b4 80bc 1985 c43b
00000020: c5c0 81bd 27dc 963d 07f6 553d f0dd 7d3c
00000030: a38a 803b 7378 723d 6f98 f8bd 6a0e 43c0
00000040: d270 0940 ec72 1d40 5f4f 9840 19ea ef40
00000050: 21ba 88bd fde3 3e40 cb24 56bd 97a2 00bd
00000060: 2063 b0bd abb1 c43d cfc2 c5bc e3a4 f83d
00000070: 43ca 483d 7a37 153d 9871 353c 7ada 623e
00000080: 100f 633c 2a3a 9abe bf99 dc3b 42eb 1f3e
00000090: 4f30 02be 4dba 6c3d c922 8b3c a795 1e3e
000000a0: 6097 eebc b862 643d 62c3 0f3e 7058 e6bd
000000b0: f439 133d 8564 dc3d 4e4d 9fbd f146 09bc
000000c0: 86d5 14be 4874 5bbe 8acb 7840 33d9 1ebc
000000d0: 0802 84bd 95e7 45be 5e50 bdbc 0e55 2c3b
000000e0: 405e 643e c71b 4b3d 9a12 7cbe 239e 16bb
000000f0: 63d9 093e 900b 053e 9da7 6cbd 27e0 103e
00000100: 0db5 2bbe 5740 923c 607a 6c3d c7f0 8abd
00000110: c54a 583d d7c6 0a3e e1e7 33bc dab4 763d
00000120: 6281 b2bd d01c a5bc 2a7d 333c 2577 003e
00000130: 4251 dcbd 1ada 8040 1f9c 21be fd19 d9bd
00000140: 92f0 0f3e 6f75 7a3d 5933 8f3d 164d 8d3d
00000150: 3ec6 22bd 757c 1c3e 3e7b 92bd 676d 8040
00000160: 937d 30bd 7af7 e03b d3b2 103c 156e f5bd
00000170: 236f 8f3d 5f27 b73c 5d1a ff3d d5d6 babd
00000180: 7b93 0e3d ed37 67bd 64c2 863f b01d afbd
00000190: e3f3 ce3d 2da6 7bbd d033 e83c f1c0 cbbd
000001a0: 27f2 ccbd d2e0 1ebe 637f 99bd 1a1e 0e3d
000001b0: 3d16 bdbf 06a3 77bc d9c5 9d3f bd61 d53f
000001c0: 5291 4241 527d dd3d 78c3 31bf 2753 853d
000001d0: e3ec d6bc f786 813c d7c2 613d 337c 67bd
000001e0: e8e5 5f3d 7609 91bd 5f24 25bd 97f1 ae3d
000001f0: f3cb e33d c2ad 8ebc 194c bebc 4fd1 92bc
00000200: 0560 b6bd 58d8 34bd 7fa5 36be f4a9 993d
00000210: d750 fdbd 5f57 913d 0757 e83d db5d 793b
00000220: 1748 a13d 438a c73c 0dd1 d93a fab1 6a3d
00000230: df1b bf3c d389 923d be76 c7bd 8c92 893f
00000240: 7bb9 da3d c287 7abd 4207 c73d ee50 113c
00000250: b6a8 8fbd 5b01 7a3d 8912 063e 63f2 86bd
00000260: 5a90 ac3c 6a99 3b3e a222 a2bd 324d 80be
00000270: 6047 ed3d 88eb 1a3e 5ad3 cdbb 1e43 bfbc
00000280: 19b4 a13c 7777 943d b0ea cd3d 259b e03d
00000290: 73f0 ae3d d08c 70bd 9ff2 43bd 8660 1c3e
000002a0: 1011 043d 3fda 4ebd 5414 923f 16f7 46bb
000002b0: 4f36 ad3b 243d 073e 06c0 0e3d e0f1 183d
000002c0: 18d3 173e b7c8 7ebd bf93 503d 0f4f 313d
000002d0: 4217 9f3f 7422 033e 2f2c 863d a21b 31bd
000002e0: 7bd9 7cbd 6d35 673d 48df d53d edf4 21be
000002f0: 2a41 1b3d 73e8 a8bc bb86 44bd 3f58 5f40
00000300: fb1e 9c3d 5323 453e 80d9 ba3d dc50 aebd
00000310: b0d2 3dbc d110 c33c 4d32 3ebe cd94 6ebe
00000320: 870d 953c dba8 22c0 8177 c23f 011d 1840
00000330: 09f7 b840 233c 0341 2f8e ca3d 0eb4 1640
00000340: 412d 1c3d 9075 adbd 272c aabd f2ca 6e3c
00000350: 12b8 56bd 273c 1d3d caa9 cdbc 4759 c03d
00000360: d5b3 bbbc 7f7a ddbc 0b52 383e 400c e83d
00000370: 5f8a 573d a8cb 673e 618a b43b 1aa1 a4bc
00000380: a0f0 14be 3a16 053d 4829 35be e73c f23b
00000390: b2e9 d63d ba2a fb3d d59f 0c3e c7b4 0dbc
000003a0: 35fb bcbd ebda adbd bd90 363d d052 d3bc
000003b0: d60e 6f40 73a3 42be 9368 313c 681c 32bd
000003c0: 3d5f e6bc ba34 b3bd 7546 c0bd f980 93bd
000003d0: 5bf7 abbd 96e2 1fbd bd07 5dbd 60b7 36be
000003e0: 828e d6bc 62ce f3bc 034f 693d c8bb 9cbd
000003f0: ab62 8cbd 1499 003d 35d2 4cbc 1434 36bd

input_layer.bias f4 [32]
3.9338262 1.1309513 3.6398327 3.9127104 -0.069168344 3.9943461 3.5697265 1.3194587
2.6536586 -0.06532901 3.3178153 3.7754228 3.4287574 1.8159056 1.823245 0.69416684
3.1101272 2.0208042 3.9204736 3.9141607 4.026939 -0.004683932 1.8450596 3.916691
1.1523656 3.8784423 -0.009955046 3.750624 3.5473466 3.9993813 3.6913316 2.2107596
00000000: cfc3 7b40 03c3 903f 05f3 6840 d969 7a40
00000010: 22a8 8dbd 5ea3 7f40 6676 6440 06e4 a83f
00000020: 8bd5 2940 37cb 85bd 1657 5440 87a0 7140
00000030: c370 5b40 986f e83f 1860 e93f ebb4 313f
00000040: 530c 4740 db54 0140 0ae9 7a40 9c81 7a40
00000050: afdc 8040 ab7b 99bb ea2a ec3f 11ab 7a40
00000060: b780 933f 6638 7840 7d1a 23bc 390a 7040
00000070: ba07 6340 ddf5 7f40 c73e 6c40 167d 0d40

hidden_layer1.weight f4 [64, 32]
0.0955637 -0.07594364 -0.010779935 -0.061831262 0.06344476 0.0009258152 0.02410945 -0.03351052
-0.036414593 -0.07825526 0.051029824 -0.1269152 0.018004606 0.040399347 0.0018622795 -0.015942762
-0.1416379 -0.0019956313 -0.13412422 0.04790204 -0.068969406 0.034128528 -0.13018607 0.042091396
0.05135693 -0.2037665 -0.1896754 0.025268892 -0.11052394 -0.19061491 0.08579072 -0.25054896
0.6987488 -8.332921 0.30817443 1.6422707 -0.013389233 1.2328728 0.23761283 -10.010095
0.51674336 0.060136877 -0.02085705 0.5530799 3.6027677 2.384846 -3.1805818 3.6433814
2.6545212 -3.066173 1.1281805 1.0963885 1.2763257 -0.20883866 -3.1243062 0.99131423
-3.3711913 0.6817562 -0.20610149 0.25997314 0.35966665 0.78082156 0.4890316 4.898311
0.8904042 -6.31611 0.58174425 1.4577539 0.09132558 1.2196172 0.6563966 -9.140661
0.45449445 0.06539634 0.034286845 0.5854239 1.9230816 1.1567062 -3.947948 2.2859242
2.687014 -3.9557226 0.98662275 1.095068 1.4804859 0.08490923 -4.1408296 1.1346296
-2.7448137 0.8578046 -0.15638015 0.6505841 0.37134475 0.6970802 0.78438634 1.3748004
0.023961876 -0.18256462 0.02577631 -0.03899527 0.044817507 -0.038028333 -0.062363077 0.095647186
-0.093151025 0.13978322 -0.040845435 -0.2519843 -0.13553847 0.011437602 0.0525388 0.08840079
0.009161972 0.03137774 0.068171926 0.026222173 -0.15466593 0.031567235 -0.03267645 0.018838208
-0.0029363902 -0.054452498 0.030011658 -0.12955676 0.11400955 0.10252644 -0.09402802 -0.09314926
0.5082566 -8.708713 0.38521865 1.4503968 0.16361843 1.0794684 0.29441303 -7.539838
-0.6153231 -0.14289132 -0.20149577 0.68444026 2.9618843 2.7648213 -3.3395092 3.7533135
1.8840554 -3.4715602 1.1891611 0.8548881 1.3652955 0.05775072 -3.433144 0.85754013
-3.7853367 0.8632457 -0.12933256 0.29226157 0.25989524 0.9214439 0.6524463 3.1036756
3.470023 4.621339 3.8046331 3.3968647 0.061665185 2.8797495 3.8042443 2.9978013
3.2945724 -0.021403844 3.9384296 3.6408494 2.836094 2.788982 6.3177285 0.699041
2.5244362 6.3936405 3.193835 3.2066507 2.893695 0.049736496 6.2621937 3.1290345
5.7797856 3.5935507 0.009724273 3.7285075 3.8814442 3.6085455 3.6055903 -5.581074
-0.06758248 0.040187396 0.010363312 0.011268782 0.03943469 0.03079294 -0.13530545 -0.023736909
-0.16224588 0.03180444 0.10031533 -0.060199495 -0.098932646 -0.18630207 -0.066981055 -0.0051637944
0.0072381496 -0.037170775 -0.05428321 0.056649935 0.23891811 0.14078157 0.05774532 -0.009430373
-0.06856077 0.010403364 -0.07076713 0.021816423 -0.08284682 -0.046174582 -0.12409488 -0.15382741
1.0502024 -7.028729 0.28773272 1.5176461 0.12247946 1.3087718 0.31118026 -9.923991
0.09644337 0.12133017 0.013490702 0.656172 2.2642457 2.3589964 -4.169407 3.4988308
2.8087583 -3.978587 1.3081503 1.008672 1.4324869 0.0463482 -3.996612 1.2484121
-2.7763097 0.9347491 -0.1441902 0.50016546 0.2600783 0.8281387 0.6549381 3.0804136
00000000: e7b6 c33d 5788 9bbd 539e 30bc c742 7dbd
00000010: 54ef 813d 68b2 723a 2e81 c53c 5442 09bd
00000020: 7827 15bd 4b44 a0bd a604 513d 0ff6 01be
00000030: 657e 933c c979 253d bb17 f43a 659a 82bc
00000040: 8709 11be 23c9 02bb dc57 09be ee34 443d
00000050: d53f 8dbd 5bca 0b3d 7f4f 05be 0768 2c3d
00000060: a55b 523d 2aa8 50be 453a 42be b500 cf3c
00000070: 605a e2bd 8e30 43be 0cb3 af3d f447 80be
00000080: 34e1 323f a553 05c1 0ac9 9d3e ed35 d23f
00000090: 835e 5bbc c7ce 9d3f c750 733e 5929 20c1
000000a0: 4b49 043f 1652 763d 67dc aabc a596 0d3f
000000b0: bf93 6640 51a1 1840 a78e 4bc0 292d 6940
000000c0: ade3 2940 2e3c 44c0 3868 903f 7556 8c3f
000000d0: a45e a33f cdd9 55be a2f4 47c0 c5c6 7d3f
000000e0: 99c1 57c0 9387 2e3f 450c 53be 331b 853e
000000f0: 3a26 b83e ece3 473f 5a62 fa3e f7be 9c40
00000100: 88f1 633f 931d cac0 31ed 143f ae97 ba3f
00000110: e808 bb3d 6b1c 9c3f 9c09 283f 2640 12c1
00000120: 7fb3 e83e 84ee 853d 5d70 0c3d 57de 153f
00000130: 8a27 f63f f30e 943f 2eab 7cc0 954c 1240
00000140: 0af8 2b40 8f2a 7dc0 4f93 7c3f 302b 8c3f
00000150: 9080 bd3f e4e4 ad3d ad81 84c0 8b3b 913f
00000160: 07ab 2fc0 1599 5b3f 1e22 20be ae8c 263f
00000170: e620 be3e d973 323f 8bcd 483f 76f9 af3f
00000180: b24b c43c 38f2 3abe d728 d33c 81b9 1fbd
00000190: 9092 373d 99c3 1bbd 6d70 7fbd ace2 c33d
000001a0: f7c5 bebd 5523 0f3e 8b4d 27bd 1604 81be
000001b0: 99ca 0abe c864 3b3c ed32 573d 790b b53d
000001c0: 191c 163c f285 003d b99d 8b3d e2cf d63c
000001d0: bf60 1ebe a54c 013d bed7 05bd 9652 9a3c
000001e0: 7470 40bb 9509 5fbd 02db f53c 87aa 04be
000001f0: d77d e93d 62f9 d13d c391 c0bd 0ac5 bebd
00000200: 1b1d 023f e356 0bc1 613b c53e 9aa6 b93f
00000210: 978b 273e 052c 8a3f 4ebd 963e 5a46 f1c0
00000220: d185 1dbf 1a52 12be e854 4ebe 7a37 2f3f
00000230: 838f 3d40 d5f2 3040 85ba 55c0 4a36 7040
00000240: ba28 f13f 0b2e 5ec0 6e36 983f f2d9 5a3f
00000250: 01c2 ae3f 058c 6c3d a2b8 5bc0 c087 5b3f
00000260: f542 72c0 acfd 5c3f c16f 04be 4fa3 953e
00000270: fd10 853e bfe3 6b3f b906 273f 9fa2 4640
00000280: db14 5e40 02e2 9340 1c7f 7340 3b66 5940
00000290: a294 7c3d d14d 3840 bd78 7340 fadb 3f40
000002a0: 46da 5240 1d57 afbc 3b0f 7c40 ad03 6940
000002b0: 9082 3540 ae7e 3240 d52a ca40 5af4 323f
000002c0: 5d90 2140 b498 cc40 cb67 4c40 c439 4d40
000002d0: 4d32 3940 7fb8 4b3d e463 c840 1a42 4840
000002e0: 01f4 b840 bcfc 6540 8f52 1f3c de9f 6e40
000002f0: 9569 7840 69f2 6640 fec1 6640 2998 b2c0
00000300: af68 8abd 8a9b 243d e2ca 293c b3a0 383c
00000310: 4586 213d 7a41 fc3c 838d 0abe e873 c2bc
00000320: c923 26be 5f45 023d 2072 cd3d bf93 76bd
00000330: 339d cabd f8c5 3ebe 5d2d 89bd 0c35 a9bb
00000340: 002e ed3b 6240 18bd 1258 5ebd c309 683d
00000350: f3a6 743e 0b29 103e 5b86 6c3d da81 1abc
00000360: 9769 8cbd df72 2a3c 5bee 90bd 5bb8 b23c
00000370: 98ab a9bd 8f21 3dbd 7525 febd ef84 1dbe
00000380: 086d 863f 59eb e0c0 b451 933e 3a42 c23f
00000390: 83d6 fa3d d685 a73f 0553 9f3e abc8 1ec1
000003a0: 1a84 c53d f47b f83d 1b08 5d3c e3fa 273f
000003b0: 67e9 1040 ccf9 1640 c86b 85c0 d8ec 5f40
000003c0: b2c2 3340 2ba1 7ec0 7871 a73f 2a1c 813f
000003d0: bb5b b73f 9cd7 3d3d 7ec8 7fc0 f8cb 9f3f
000003e0: 0faf 31c0 b84b 6f3f 99a6 13be d80a 003f
000003f0: fc28 853e e600 543f 06aa 273f 7f25 4540

hidden_layer1.bias f4 [64]
-0.16856076 1.6605937 0.92345744 -0.066787265 1.1051605 2.8950484 -0.16021743 0.95358515
2.2538073 -0.14899962 1.4628813 1.2653186 0.008524074 2.5815845 1.067942 1.4817746
0.9599384 -0.2020262 1.1929437 1.1327932 -0.14419366 0.832184 2.6764042 2.6619844
1.0119832 0.8704304 2.6494167 2.6415155 2.018378 1.2419502 1.6341819 -0.061292186
1.0995198 1.6161156 1.1856817 0.9280688 -0.13374941 0.8138738 2.614294 2.3014977
2.2228904 0.8333888 2.2000515 1.2520868 0.97008663 -0.114858925 0.9581299 1.1953125
2.2569814 0.8446736 1.0928074 2.2242439 2.697674 1.8038852 2.0974107 2.9931798
1.5086253 1.6412326 -0.22217356 0.11683515 2.175789 2.0474317 2.1085925 2.3389275
00000000: 319b 2cbe 568e d43f b567 6c3f c3c7 88bd
00000010: e675 8d3f 7948 3940 0a10 24be 281e 743f
00000020: 613e 1040 5b93 18be b23f bb3f f6f5 a13f
00000030: 8fa8 0b3c ae38 2540 53b2 883f caaa bd3f
00000040: 86be 753f f5df 4ebe 61b2 983f 5eff 903f
00000050: 81a7 13be 030a 553f 354a 2b40 f45d 2a40
00000060: aa88 813f 87d4 5e3f 0b90 2940 970e 2940
00000070: 1b2d 0140 39f8 9e3f df2c d13f 840d 7bbd
00000080: 11bd 8c3f e0dc ce3f 6bc4 973f eb95 6d3f
00000090: 9bf5 08be 095a 503f 9850 2740 bd4b 1340
000000a0: d643 0e40 f858 553f a5cd 0c40 6144 a03f
000000b0: 9957 783f 283b ebbd 0048 753f 0000 993f
000000c0: 6272 1040 873c 583f 1de1 8b3f 035a 0e40
000000d0: b1a6 2c40 b6e5 e63f fa3b 0640 4290 3f40
000000e0: a21a c13f e913 d23f 7781 63be 4447 ef3d
000000f0: 2140 0b40 1f09 0340 2ef3 0640 fdb0 1540

hidden_layer2.weight f4 [32, 64]
-0.16945216 0.019442977 0.03552986 -0.033249293 0.013375572 -0.10061831 -0.030224597 -0.14566328
0.110092595 -0.07636114 -0.104852386 0.062437583 -0.106513076 -0.12086198 -0.041430455 -0.07262845
0.0038116681 0.06560103 -0.021216726 0.10822288 0.001595016 -0.12101611 0.01681008 -0.006006703
0.035623707 -0.017246032 -0.13527659 -0.057136714 0.084453754 -0.09761124 0.045862567 -0.10779089
0.022665981 -0.051817525 0.038603265 -0.038914226 0.009980322 -0.050442535 -0.011837487 -0.09336761
-0.27683717 -0.13146298 -0.029655995 0.054630402 -0.06325961 -0.127227 -0.04031648 -0.027705433
-0.0160792 0.002585583 0.004903694 -0.16877732 0.0025493647 -0.12967326 -0.09372076 -0.22402601
0.06466761 -0.014722774 0.048756946 -0.025943924 -0.012396404 -0.049138542 -0.105356835 0.1580927
-0.09386117 0.89934796 0.4233822 -0.030108888 1.3958987 0.5698696 0.11847984 0.36224204
0.56828237 -0.03520329 0.23397735 0.09850326 0.14164418 0.47241834 -1.0494258 -0.32349482
0.4626476 0.076230176 0.11189858 -1.5777907 -0.3106489 0.5379315 0.36115146 0.05075867
0.59612095 0.5235911 0.32326952 0.03078763 0.3556465 -0.17095938 -0.22109465 0.0007184733
1.0981561 2.167908 0.25428647 0.29467288 0.10653827 0.5587657 1.8625542 0.3599135
-1.3725371 0.51676834 1.2206047 0.37476555 0.32627684 0.092213534 0.5240317 0.43772694
0.4216551 0.37971634 0.17152046 1.0350118 0.655264 0.3815811 1.2593572 1.0487852
0.42555723 0.7325497 -0.11135419 -0.13133495 0.22662255 1.333105 2.3320801 0.29945254
0.055829298 2.0355833 1.8245604 -0.07089969 2.3584113 -0.5672081 -0.030681958 2.097704
-0.34649536 -0.058605623 1.9845874 1.6585107 -0.07017985 0.7838287 0.58964777 1.8990847
1.8058347 -0.057049982 2.5455484 -0.9893312 -0.57145673 1.7202827 0.1823881 -0.08033818
2.0984502 2.066881 0.25093624 0.09391093 0.43211377 1.9787045 0.74931735 -0.03213345
0.39934844 2.124102 1.9810145 1.7861645 0.10987478 2.023819 -0.38745195 0.13230994
-1.485413 2.1564186 -0.46042687 2.178678 2.2498612 0.052780326 2.1729267 2.0890074
0.060034018 1.6363164 2.222855 -0.06927048 0.054639596 -0.019250687 -0.61067706 -1.5146304
2.913973 0.3175995 -0.08418755 -0.10178243 0.10660072 3.2411911 2.8055825 0.076781884
-0.010961139 -0.105956025 -0.014493564 0.20296179 -0.021029852 0.035496593 -0.015366564 -0.20421775
0.07839549 -0.047739364 -0.14189388 -0.017797677 -0.058252014 0.1755275 0.029635254 -0.20156455
0.113695 0.040694285 -0.14545554 -0.1444891 0.09833552 0.0029139284 0.014629795 -0.15467644
-0.07949517 -0.0270852 0.040434923 0.01104037 0.010635982 -0.039737493 0.013226399 -0.018653797
0.19920631 -0.0035450615 0.044139028 -0.13060854 0.036841348 0.13093436 -0.14932261 -0.027768228
-0.2096453 -0.24360684 -0.03731746 -0.057270154 -0.0994258 0.20669301 0.18491979 0.059173398
-0.021501629 -0.2546186 0.16713317 -0.017941402 -0.26331112 0.024158174 0.13787095 0.15665834
-0.019465243 -0.19552347 -0.102319635 -0.05791507 0.018292934 -0.045047544 -0.11830184 0.09546106
00000000: de84 2dbe e146 9f3c c287 113d 6930 08bd
00000010: 3725 5b3c f910 cebd 9399 f7bc c128 15be
00000020: 3a78 e13d 3b63 9cbd d9bc d6bd 8dbe 7f3d
00000030: 8723 dabd 7c86 f7bd fbb2 29bd 3abe 94bd
00000040: 2ecd 793b d559 863d b3ce adbc f5a3 dd3d
00000050: db0f d13a 4bd7 f7bd 4bb5 893c e0d3 c4bb
00000060: 2aea 113d 8d47 8dbc f285 0abe 3008 6abd
00000070: 17f6 ac3d 67e8 c7bd 63da 3b3d 78c1 dcbd
00000080: 02ae b93c 9d3e 54bd 751e 1e3d 8664 1fbd
00000090: 8184 233c d59c 4ebd 05f2 41bc 8437 bfbd
000000a0: 9abd 8dbe 3b9e 06be 21f1 f2bc 21c4 5f3d
000000b0: 418e 81bd cb47 02be e522 25bd 81f6 e2bc
000000c0: 87b8 83bc e272 293b 2baf a03b f6d3 2cbe
000000d0: 3e13 273b 11c9 04be abf0 bfbd 1367 65be
000000e0: 7470 843d ca37 71bc 5db5 473d 5a88 d4bc
000000f0: 491a 4bbc 7f45 49bd 53c5 d7bd 0ee3 213e
00000100: 493a c0bd ab3b 663f 8dc5 d83e eaa6 f6bc
00000110: cfac b23f f9e2 113f 8fa5 f23d ca77 b93e
00000120: f47a 113f 5331 10bd c297 6f3e 14bc c93d
00000130: 2c0b 113e d1e0 f13e 9653 86bf 1da1 a5be
00000140: 25e0 ec3e 911e 9c3d 152b e53d 0cf5 c9bf
00000150: 5f0d 9fbe e1b5 093f d8e8 b83e 53e8 4f3d
00000160: 629b 183f 110a 063f 9583 a53e 5736 fc3c
00000170: 4c17 b63e fa0f 2fbe a366 62be ed57 3c3a
00000180: 6190 8c3f 01bf 0a40 d631 823e 5ddf 963e
00000190: bd30 da3d 450b 0f3f 2d68 ee3f 9546 b83e
000001a0: 4caf afbf ee4a 043f c63c 9c3f 45e1 bf3e
000001b0: c20d a73e 73da bc3d f126 063f bf1d e03e
000001c0: 2de3 d73e 2e6a c23e 0fa3 2f3e 447b 843f
000001d0: 62bf 273f 995e c33e 9e32 a13f 983e 863f
000001e0: a3e2 d93e 6188 3b3f aa0d e4bd ab7c 06be
000001f0: be0f 683e 2fa3 aa3f cd40 1540 d851 993e
00000200: 43ad 643d ff46 0240 328b e93f db33 91bd
00000210: 36f0 1640 8d34 11bf bb58 fbbc c840 0640
00000220: d767 b1be 730c 70bd f606 fe3f 144a d43f
00000230: 74ba 8fbd ffa8 483f 28f3 163f 3515 f33f
00000240: 9725 e73f 3ead 69bd 44ea 2240 cf44 7dbf
00000250: fd4a 12bf 3932 dc3f f2c3 3a3e 5888 a4bd
00000260: 024d 0640 c747 0440 b77a 803e 6054 c03d
00000270: 043e dd3e 3046 fd3f 43d3 3f3f 5d9e 03bd
00000280: 6677 cc3e 4af1 0740 e291 fd3f 0aa1 e43f
00000290: 0706 e13d 4086 0140 1a60 c6be 427c 073e
000002a0: 0322 bebf c302 0a40 12bd ebbe 766f 0b40
000002b0: bafd 0f40 2f30 583d 3b11 0b40 4cb2 0540
000002c0: 3be6 753d d172 d13f 4243 0e40 aedd 8dbd
000002d0: c5cd 5f3d 9eb3 9dbc 5555 1cbf 69df c1bf
000002e0: 897e 3a40 679c a23e 866a acbd 4f73 d0bd
000002f0: 7a51 da3d ad6f 4f40 aa8e 3340 d23f 9d3d
00000300: 5996 33bc 79ff d8bd 6a76 6dbc 37d5 4f3e
00000310: cc46 acbc e064 113d 0ac4 7bbc 751e 51be
00000320: d18d a03d 5a8a 43bd a14c 11be 6fcc 91bc
00000330: aa99 6ebd 7bbd 333e a2c5 f23c f066 4ebe
00000340: edd8 e83d 0daf 263d 4cf2 14be f3f4 13be
00000350: 2264 c93d 9bf7 3e3b cfb1 6f3c 8063 1ebe
00000360: 5dce a2bd c8e1 ddbc 179f 253d abe2 343c
00000370: 8b42 2e3c c8c3 22bd 8ab3 583c d9cf 98bc
00000380: bdfc 4b3e 4354 68bb 20cb 343d 3fbe 05be
00000390: f4e6 163d a813 063e 07e8 18be 327a e3bc
000003a0: 42ad 56be 1274 79be 31da 18bd 1c94 6abd
000003b0: c19f cbbd 55a7 533e 9d5b 3d3e ce5f 723d
000003c0: 2f24 b0bc 5e5d 82be f524 2b3e d9f9 92bc
000003d0: b7d0 86be 5de7 c53c 0b2e 0d3e 0b6b 203e
000003e0: 9375 9fbc 4e37 48be f58c d1bd 5a38 6dbd
000003f0: 10db 953c c683 38bd 3c48 f2bd 1781 c33d

hidden_layer2.bias f4 [32]
-0.17363393 0.033534355 0.14556356 -0.17089115 1.5502607 -0.16048403 -0.0534663 0.045453932
-0.5246325 -0.15002608 -0.6014394 -0.13800348 0.02413495 -0.14854051 2.3366327 -0.9876413
-0.058182005 0.020450303 0.72950727 0.63856983 -0.050195385 0.7044367 -0.12875828 -0.15113977
1.6801889 0.42566878 -0.037369344 -0.17569485 0.009537527 -0.04993334 0.012450578 1.2319219
00000000: 18cd 31be 525b 093d 9d0e 153e 17fe 2ebe
00000010: f16e c63f ed55 24be 7bff 5abd e72d 3a3d
00000020: 514e 06bf 70a0 19be eff7 19bf c950 0dbe
00000030: a9b6 c53c 011b 18be 648b 1540 0fd6 7cbf
00000040: 4150 6ebd 6587 a73c fdc0 3a3f 5079 233f
00000050: ad99 4dbd f755 343f 36d9 03be 62c4 1abe
00000060: 6e10 d73f 42f1 d93e 9910 19bd 5ae9 33be
00000070: 4a43 1c3c e786 4cbd 82fd 4b3c 9eaf 9d3f
