Comparison/TrainedModel/5-0.001-72-Agent/node_agent_64.pth (torch, 31556 bytes, 6 tensors)

input_layer.weight f4 [32, 93]
00000000: d608 96bc 6fe3 4c3e 65d4 713c ec84 08bd
00000010: 3023 20bd 2e97 95bd 53b4 80bc 1985 c43b
00000020: c5c0 81bd 27dc 963d 07f6 553d f0dd 7d3c
00000030: a38a 803b 7378 723d 6f98 f8bd db1f ddbd
00000040: 0f8a 653d 53b5 783d 90b5 2840 92c2 033e
00000050: 21ba 88bd 45ef 0340 cb24 56bd 97a2 00bd
00000060: 2063 b0bd abb1 c43d cfc2 c5bc fd6b 0540
00000070: 43ca 483d 7a37 153d 9871 353c 7ada 623e
00000080: 100f 633c 2cbf d43f bf99 dc3b 42eb 1f3e
00000090: 4f30 02be 4dba 6c3d c922 8b3c a795 1e3e
000000a0: 6097 eebc b862 643d 62c3 0f3e 7058 e6bd
000000b0: 4fe7 ff3f 8564 dc3d 4e4d 9fbd f146 09bc
000000c0: 86d5 14be 4874 5bbe 65a2 e7bc 33d9 1ebc
000000d0: 0802 84bd 95e7 45be 5e50 bdbc 0e55 2c3b
000000e0: 405e 643e c71b 4b3d 9a12 7cbe 239e 16bb
000000f0: 63d9 093e 900b 053e 9da7 6cbd 27e0 103e
00000100: 0db5 2bbe 5740 923c 607a 6c3d c7f0 8abd
00000110: c54a 583d d7c6 0a3e e1e7 33bc dab4 763d
00000120: 6281 b2bd d01c a5bc 2a7d 333c 2577 003e
00000130: 4251 dcbd f029 e33d 1f9c 21be fd19 d9bd
00000140: 92f0 0f3e 6f75 7a3d 5933 8f3d 164d 8d3d
00000150: 3ec6 22bd 757c 1c3e 3e7b 92bd c7fc c73d
00000160: 937d 30bd 7af7 e03b d3b2 103c 156e f5bd
00000170: 236f 8f3d 5f27 b73c 5d1a ff3d d5d6 babd
00000180: 7b93 0e3d ed37 67bd d83f 24be b01d afbd
00000190: e3f3 ce3d 2da6 7bbd d033 e83c f1c0 cbbd
000001a0: 27f2 ccbd d2e0 1ebe 637f 99bd 1a1e 0e3d
000001b0: cf80 0a3e 3a58 073e 50de 66bd da9d 8d40
000001c0: 77df 2740 527d dd3d cb58 1740 2753 853d
000001d0: e3ec d6bc f786 813c d7c2 613d 337c 67bd
000001e0: bbc7 1b40 7609 91bd 5f24 25bd 97f1 ae3d
000001f0: f3cb e33d c2ad 8ebc 85cb 1640 4fd1 92bc
00000200: 0560 b6bd 58d8 34bd 7fa5 36be f4a9 993d
00000210: d750 fdbd 5f57 913d 0757 e83d db5d 793b
00000220: 1748 a13d 41d7 1940 0dd1 d93a fab1 6a3d
00000230: df1b bf3c d389 923d be76 c7bd 13be 0dbe
00000240: 7bb9 da3d c287 7abd 4207 c73d ee50 113c
00000250: b6a8 8fbd 5b01 7a3d 8912 063e 63f2 86bd
00000260: 5a90 ac3c 6a99 3b3e a222 a2bd 324d 80be
00000270: 6047 ed3d 88eb 1a3e 5ad3 cdbb 1e43 bfbc
00000280: 19b4 a13c 7777 943d b0ea cd3d 259b e03d
00000290: 73f0 ae3d d08c 70bd 9ff2 43bd 8660 1c3e
000002a0: 1011 043d 3fda 4ebd 8b5f 93bd 16f7 46bb
000002b0: 4f36 ad3b 243d 073e 06c0 0e3d e0f1 183d
000002c0: 18d3 173e b7c8 7ebd bf93 503d 0f4f 313d
000002d0: 204c f33c 7422 033e 2f2c 863d a21b 31bd
000002e0: 7bd9 7cbd 6d35 673d 48df d53d edf4 21be
000002f0: 2a41 1b3d 73e8 a8bc bb86 44bd 46ca 42be
00000300: fb1e 9c3d 5323 453e 80d9 ba3d dc50 aebd
00000310: b0d2 3dbc d110 c33c 4d32 3ebe cd94 6ebe
00000320: 870d 953c f529 81bd f87e 3c3e da83 64bd
00000330: f32f a240 cbdf 1140 2f8e ca3d d246 f43f
00000340: 412d 1c3d 9075 adbd 272c aabd f2ca 6e3c
00000350: 12b8 56bd 9350 fc3f caa9 cdbc 4759 c03d
00000360: d5b3 bbbc 7f7a ddbc 0b52 383e bcf3 0240
00000370: 5f8a 573d a8cb 673e 618a b43b 1aa1 a4bc
00000380: a0f0 14be 3a16 053d 4829 35be e73c f23b
00000390: b2e9 d63d ba2a fb3d 557d 0440 c7b4 0dbc
000003a0: 35fb bcbd ebda adbd bd90 363d d052 d3bc
000003b0: c277 623d 73a3 42be 9368 313c 681c 32bd
000003c0: 3d5f e6bc ba34 b3bd 7546 c0bd f980 93bd
000003d0: 5bf7 abbd 96e2 1fbd bd07 5dbd 60b7 36be
000003e0: 828e d6bc 62ce f3bc 034f 693d c8bb 9cbd
000003f0: ab62 8cbd 1499 003d 35d2 4cbc 1434 36bd
-0.01831476 0.20008634 0.014760111 -0.03332989 -0.039096057 -0.07304226 -0.015710985 0.005997312
-0.06335596 0.073662095 0.052236583 0.015494809 0.003922777 0.0591969 -0.121384494 -0.107970916
0.056039866 0.0607198 2.6360817 0.12867191 -0.06676126 2.0614789 -0.052281182 -0.031405058
-0.086126566 0.096042 -0.024140744 2.084716 0.049021017 0.03642986 0.011074446 0.22153655
0.013858572 1.6620841 0.006732195 0.15617087 -0.12713741 0.057794858 0.01698436 0.15486775
-0.029124916 0.055758208 0.14039376 -0.11247337 1.9992465 0.1076136 -0.077784166 -0.00837873
-0.14534578 -0.21431077 -0.028275678 -0.009695339 -0.064457 -0.19326623 -0.023109611 0.0026295814
0.22301579 0.049587037 -0.24616471 -0.002298244 0.13461833 0.12992692 -0.057777036 0.14148007
-0.16768284 0.017852945 0.057733893 -0.06784206 0.05280568 0.13552414 -0.010980577 0.060231067
-0.08716084 -0.02015534 0.010955134 0.1254545 -0.10757686 0.11091983 -0.15782212 -0.1060066
0.14056614 0.06114715 0.06992216 0.068994686 -0.03973984 0.15281852 -0.07152413 0.0976501
-0.043088507 0.006865439 0.0088316975 -0.11983887 0.070036195 0.02235764 0.124562 -0.09123007
0.034808617 -0.05644982 -0.1603998 -0.08550584 0.101051114 -0.061437774 0.028345019 -0.0994891
-0.100071244 -0.1551545 -0.07495 0.034696676 0.13525699 0.1321725 -0.056364357 4.425519
2.6230142 0.108149186 2.3647945 0.06510001 -0.026236003 0.015811427 0.055117454 -0.05651493
2.4340656 -0.07081883 -0.04031789 0.08542173 0.111228846 -0.017416839 2.3561718 -0.017922072
-0.08905033 -0.044151634 -0.17836569 0.07503119 -0.123689346 0.07096743 0.11344724 0.0038050327
0.07875078 2.403763 0.0016618088 0.057298638 0.02332872 0.07155194 -0.09739445 -0.13842039
0.10679909 -0.061164625 0.09718181 0.008869393 -0.07014601 0.06103645 0.13093008 -0.065892
0.021064926 0.18320242 -0.07916762 -0.25058895 0.11585879 0.1512891 -0.0062812986 -0.023347434
0.019739198 0.072493486 0.10054529 0.109670915 0.08541956 -0.05872804 -0.047838803 0.15271196
0.032242835 -0.050501104 -0.07195958 -0.0030359677 0.005286015 0.13206917 0.034851097 0.037340045
0.1482662 -0.062203135 0.05092215 0.043288287 0.029699385 0.12806112 0.06551396 -0.043239243
-0.061730843 0.056447435 0.10442978 -0.15816088 0.037903942 -0.020618653 -0.04798005 -0.19022474
0.076230966 0.19251756 0.09123516 -0.085115165 -0.011585876 0.02381173 -0.18573876 -0.2329895
0.018194927 -0.06306831 0.1840781 -0.055789806 5.068353 2.2792842 0.098904006 1.9084113
0.038129095 -0.08469689 -0.08309203 0.014574753 -0.052421637 1.9712089 -0.025105376 0.09392028
-0.022912899 -0.02703595 0.18000047 2.0461264 0.052622195 0.22636282 0.00550966 -0.02009635
-0.14544916 0.0324919 -0.17691529 0.007392514 0.104937926 0.12264009 2.0701497 -0.008649058
-0.092276014 -0.08489021 0.044571627 -0.025796324 0.05528999 -0.19007663 0.010828155 -0.04348412
-0.028121585 -0.08750291 -0.093884386 -0.07202334 -0.08396789 -0.03903445 -0.053962458 -0.1784339
-0.026191 -0.029761497 0.056960117 -0.07653004 -0.06854757 0.031395987 -0.012501289 -0.04448326

input_layer.bias f4 [32]
00000000: 7a9f fd3f 5c04 1340 3643 f23f a04f 1540
00000010: 22a8 8dbd bf58 eb3f 321d 3abd ae73 f13f
00000020: 22a3 b9bd 04b3 09bd f6c0 fa3f d67c ff3f
00000030: 74df fc3f 8ce1 ea3f a2f5 fc3f 65ee e83f
00000040: 4284 1b40 8f1a 0540 04be a7bd fa1d 773e
00000050: 17d0 fb3f 2cfc a43d c1d3 0240 c391 f43f
00000060: 7c03 053d 6a98 ff3f b66a 0440 5ff3 0640
00000070: fd1a e23f a7a9 fa3f 141b ef3f 9876 0040
1.9814293 2.297141 1.8926761 2.332985 -0.069168344 1.8386458 -0.045438 1.8863428
-0.09064318 -0.03361799 1.9590137 1.9959972 1.9755692 1.8350081 1.9762461 1.8197752
2.4299474 2.079746 -0.081905395 0.24132529 1.9672879 0.080559105 2.0441744 1.9106983
0.032474026 1.9968388 2.069013 2.1086042 1.7664486 1.9583024 1.8680139 2.0072384

hidden_layer1.weight f4 [64, 32]
00000000: f130 023e 5788 9bbd 539e 30bc 7f52 f6bc
00000010: 54ef 813d e3d9 053d 2e81 c53c 5442 09bd
00000020: 7827 15bd 4b44 a0bd b181 a93d 1eef c2bd
00000030: bf32 b63d c979 253d bb17 f43a 659a 82bc
00000040: 8709 11be 23c9 02bb 4fa9 d1bd 9b24 a33d
00000050: 3d8c 18bd 5bca 0b3d 7f4f 05be a132 973d
00000060: a55b 523d c324 30be 453a 42be b500 cf3c
00000070: 605a e2bd 32ac 22be 15bc f03d d38d 3cbe
00000080: 7515 833f a38b d2be 3cb9 123e 57d3 f23e
00000090: 835e 5bbc 7e92 fa3e dc80 5cbd b600 c23e
000000a0: 80f6 4d3d 8141 bb3d bd77 ab3d bb0e ae3e
000000b0: dc47 763f 5876 afbb 0bb7 7b3e 5990 9b3e
000000c0: 7377 b03f 8717 963e 98ad 88bd 8c26 3cc0
000000d0: 0514 d03c 6096 0cbe 36bd 433f b07b 643f
000000e0: 289e 4e3c 22d8 953e 4925 f53e 036f 0f3f
000000f0: 8aee ce3f 5a3f 833f ce98 873f e8c0 7f3f
00000100: 61d0 923f e7a7 8e3e e6d4 e93e 183c 473f
00000110: e808 bb3d 54b8 183f cfd8 093e 2217 1e3f
00000120: f037 103d 7eec 0c3d 6c50 9a3e 894e e83e
00000130: e4da 6d3f 6f1a c83e d463 333f 9615 e93e
00000140: ba69 8e3f 5862 043f 67d5 45be 22b6 d2bf
00000150: a190 e03e ab0a 693d 8ae4 333f b1fc 823f
00000160: 1242 963d 471f 133f c3c2 fc3e 80c6 583f
00000170: 1468 ab3f bc0e 5c3f 4f62 923f 881a 7d3f
00000180: b24b c43c 38f2 3abe d728 d33c 81b9 1fbd
00000190: 9092 373d 99c3 1bbd 6d70 7fbd ace2 c33d
000001a0: f7c5 bebd 5523 0f3e 8b4d 27bd 1604 81be
000001b0: 99ca 0abe c864 3b3c ed32 573d 790b b53d
000001c0: 191c 163c f285 003d b99d 8b3d e2cf d63c
000001d0: bf60 1ebe a54c 013d bed7 05bd 9652 9a3c
000001e0: 7470 40bb 9509 5fbd 02db f53c 87aa 04be
000001f0: d77d e93d 62f9 d13d c391 c0bd 0ac5 bebd
00000200: 828c a3be 7c07 d73e 9b2d 033f 3930 8abe
00000210: 978b 273e d2b5 893e 1bf7 54bc 5ff3 eb3e
00000220: 6408 d8bd b820 e5bd db0a 0e3f f7bf d73e
00000230: ab5c 9d3d 65bc 3c3f fc3c d03e 7cfc 393f
00000240: e78c 15c0 237f 023f fb9b a13d b4a3 4e40
00000250: fab6 483f d003 f63d eae1 843d 00f3 75bd
00000260: ff78 24bd 0693 193f 472a 483d 8651 fc3d
00000270: 115f efbe cf52 433e 5ecb 15be f14f 0b3d
00000280: 7b08 aa3f 2093 9cbc 791a f03e be0f 2c3f
00000290: a294 7c3d 53ab fe3e c1cf 4d3d 0d8c 403f
000002a0: 8393 923d 1d57 afbc 1600 a33d aeff 2f3f
000002b0: 01e8 973f c8ed 003f 7155 2d3f d165 a53e
000002c0: 3106 893f 55fa 0d3f 25a4 0d3c d554 13c0
000002d0: 35fb 8b3e 7fb8 4b3d 2e44 723f e6a2 6e3f
000002e0: aaef f6bd c6e4 133f 14ef 4a3f 93ed 493f
000002f0: 9109 b53f 6dbc 993f 85b2 9a3f d906 8f3f
00000300: 9a7a 6a3e 2bee 51be 1170 b0bd 05ac f4bc
00000310: 4586 213d 096c e33d 8315 d4bd 3663 3fbd
00000320: c923 26be 5f45 023d 2322 2fbe 97fd e6bd
00000330: 82ec c43d 62f2 9bbe 3a01 01be 0297 11be
00000340: 3668 463f a4b5 22be 1258 5ebd 4e28 2bbf
00000350: 1cac 0f3e 0b29 103e 73c2 7b3e 3b60 d43d
00000360: 9769 8cbd 4ce6 00be 5f58 83bb 78c2 113d
00000370: f39a 173f af44 473e 227d 853e 9c74 a6bb
00000380: 3b4f 023e f8fb a2bd 5717 6bbe 11a1 c8bc
00000390: 83d6 fa3d c699 cbbc 3f43 afbd b19a d7bc
000003a0: b0bc 113d 19c0 123e 6b5c 14be 9c30 f1bd
000003b0: 08f5 b2bc ab5f 65be b708 44be 0661 59bd
000003c0: 9ff4 1e3f 338b 2bbe 7ac4 8b3d 62ed 983b
000003d0: 932c 32be dd47 373d fa3d 33bd 283e 393e
000003e0: 980e 223b ff54 7e3d f0d2 02be c6fc 0b3c
000003f0: 429c 8a3e e46b 8b3d d155 b63d b488 4fbe
0.12713982 -0.07594364 -0.010779935 -0.030068634 0.06344476 0.032678496 0.02410945 -0.03351052
-0.036414593 -0.07825526 0.0827669 -0.09518264 0.08896398 0.040399347 0.0018622795 -0.015942762
-0.1416379 -0.0019956313 -0.10237371 0.07965966 -0.037243117 0.034128528 -0.13018607 0.073827036
0.05135693 -0.17201523 -0.1896754 0.025268892 -0.11052394 -0.15886 0.11754624 -0.18413477
1.0240923 -0.4112216 0.14328474 0.47426865 -0.013389233 0.4893989 -0.053833827 0.37891167
0.05028391 0.09143353 0.08372448 0.33995613 0.962034 -0.005354684 0.24581544 0.30383566
1.3786453 0.29314825 -0.066737354 -2.9398527 0.025400171 -0.13729239 0.7646059 0.8925123
0.01261095 0.2926646 0.4788001 0.56028765 1.6166546 1.0253708 1.0593507 0.99903727
1.1469842 0.27862474 0.4567024 0.7782607 0.09132558 0.5965626 0.13461612 0.6175405
0.035209596 0.034405224 0.30139482 0.45372418 0.92912126 0.39082667 0.700742 0.4552428
1.1126015 0.5171256 -0.19319688 -1.6461833 0.43860343 0.05689494 0.702706 1.0233365
0.07336821 0.574696 0.4936734 0.84677887 1.3391137 0.8595998 1.1436251 0.9886861
0.023961876 -0.18256462 0.02577631 -0.03899527 0.044817507 -0.038028333 -0.062363077 0.095647186
-0.093151025 0.13978322 -0.040845435 -0.2519843 -0.13553847 0.011437602 0.0525388 0.08840079
0.009161972 0.03137774 0.068171926 0.026222173 -0.15466593 0.031567235 -0.03267645 0.018838208
-0.0029363902 -0.054452498 0.030011658 -0.12955676 0.11400955 0.10252644 -0.09402802 -0.09314926
-0.31943136 0.41997898 0.51241463 -0.26989916 0.16361843 0.2689653 -0.012998368 0.46084115
-0.105484754 -0.11187881 0.55485314 0.42138645 0.07683691 0.7372497 0.40671527 0.72650886
-2.336725 0.50975245 0.07891079 3.2287416 0.784042 0.12012446 0.06488402 -0.060046196
-0.040154453 0.59989965 0.048868444 0.12320237 -0.46752217 0.19074558 -0.1462836 0.034011785
1.3283838 -0.019113123 0.46895197 0.6721152 0.061665185 0.49740085 0.050246958 0.752137
0.07157042 -0.021403844 0.07959001 0.6874951 1.1867677 0.50362825 0.677085 0.32304242
1.0705014 0.554601 0.008645092 -2.3020527 0.27340093 0.049736496 0.94635284 0.93217313
-0.12057431 0.57770956 0.79271054 0.78878134 1.4143544 1.2010628 1.208573 1.1173965
0.22898331 -0.2050101 -0.08615125 -0.029867182 0.03943469 0.111045904 -0.103556655 -0.046725474
-0.16224588 0.03180444 -0.17102866 -0.11278837 0.09615423 -0.3045836 -0.12598124 -0.14217761
0.77502763 -0.15889603 -0.05428321 -0.66858375 0.14030498 0.14078157 0.24585895 0.10369917
-0.06856077 -0.12587851 -0.0040083374 0.03558585 0.5922081 0.19459794 0.2607203 -0.005079819
0.12725537 -0.079582155 -0.22958122 -0.024490865 0.12247946 -0.024853598 -0.08557748 -0.02631888
0.035580337 0.14331092 -0.1448838 -0.1177685 -0.021845356 -0.22399776 -0.1914395 -0.053071044
0.6209201 -0.16752319 0.06824584 0.00466697 -0.17399816 0.04474627 -0.043760277 0.18090117
0.0024727937 0.062092777 -0.12775779 0.008544153 0.2707234 0.06807688 0.08903087 -0.20266992

hidden_layer1.bias f4 [64]
00000000: 72df c6bd 49bf 653f 056b 1f3f c3c7 88bd
00000010: f6e5 1abf 6fb0 673f 9acd b6bd b7b8 883d
00000020: d421 2a3d ad84 94bd 4717 423e 7dfc 18bd
00000030: e6de 28be c5ef 233f 1a59 233f 0e03 9b3e
00000040: ff38 8b3f 915a 2ebe 5243 953f c95a eebd
00000050: 3181 3dbe 4160 6d3c 08df 673f 6044 5f3f
00000060: 21cd 453f 05a9 663e 36fd e33e 0826 5b3f
00000070: e7ff d8bd fe55 b13f d82b eebc df4f 183e
00000080: 44c5 63bd df71 3c3f cc41 2fbe 0499 813e
00000090: ce02 14be 52a7 543f 735f e3bd f067 573f
000000a0: ad76 0b3f cbf1 e2bd 87a8 cc3f 7b50 4f3d
000000b0: 92a8 253e 283b ebbd 3126 f2bd 97d3 1abe
000000c0: 0ace 133f c856 c43f fa36 b4bd 106c e6bd
000000d0: b7ff e43d 027b 333f 0037 273e c96a d63e
000000e0: 0cb5 aabc e554 c33d cbee 33be c59c 8e3f
000000f0: e64c 5f3f 190c 083e 3ac6 bb3f f7ed a4bd
-0.097105876 0.89745003 0.62272674 -0.066787265 -0.6050714 0.9050359 -0.08925934 0.066758566
0.041536167 -0.072518684 0.18954192 -0.037350167 -0.16491279 0.64037734 0.63807833 0.30275768
1.0876769 -0.17026736 1.166117 -0.1163841 -0.18506314 0.014488281 0.90574694 0.87213707
0.77266127 0.22525413 0.44529122 0.85604906 -0.105956845 1.3854368 -0.02907364 0.14874218
-0.05560805 0.73611253 -0.17114943 0.25312054 -0.14454195 0.8306781 -0.1110219 0.8414297
0.5447796 -0.110812746 1.598893 0.05061386 0.16177586 -0.114858925 -0.11823691 -0.15119778
0.57736266 1.5338984 -0.087995484 -0.1125108 0.11181586 0.7010957 0.16329575 0.41878346
-0.020838283 0.09537677 -0.17571561 1.1141592 0.8722671 0.13285865 1.4669869 -0.08053201

hidden_layer2.weight f4 [32, 64]
00000000: de84 2dbe cb20 c53d c2cd 183d 6930 08bd
00000010: e48b 343d 5edd 0cbd 9399 f7bc 1213 eabd
00000020: 3a78 e13d 3b63 9cbd a17a 84bd 8dbe 7f3d
00000030: 8723 dabd e224 98bd fbb2 29bd 3abe 94bd
00000040: e7d1 b4bc d559 863d 64c9 59bd f5a3 dd3d
00000050: 9dec 56bd 4458 bdbd 4bb5 893c 1b62 3cba
00000060: 3b4a 013d b0b0 6a3c 89a8 07be a2b7 bebc
00000070: 6064 e93d fcd3 1abe 63da 3b3d 78c1 dcbd
00000080: 5f23 ce3d 1227 abbd 9ee6 9e3d bcdc 9d3a
00000090: 8184 233c cf72 45bd 7eac 9f3d 9285 b1bd
000000a0: 9b0a 7cbe 0d3a c7bd 700b b7bb 2feb be3d
000000b0: 7ff2 01bd cb47 02be 1b81 1dbc 8b65 3b3c
000000c0: ab73 f63b a93d 77bc 2ad4 383d b1a8 95bd
000000d0: 7510 a23d 69f3 c7bd e8e8 8c3b fac2 f5bd
000000e0: abd7 143e ff40 973d 5db5 473d 5a88 d4bc
000000f0: 0d05 2abc 394c 833d 10b2 16bd 70ae 463e
00000100: e761 08bd f40f df3d ad2d 973d eaa6 f6bc
00000110: d99b f43c 0e09 07be 9cc1 983d b965 5f3e
00000120: c7ba 653e 426e 3cbd 1e49 48be dbf8 4bbe
00000130: 9036 493d 3bf6 553d 1c28 b6be 2136 253d
00000140: 68b8 62be 911e 9c3d 895e 363e 128c 9d3c
00000150: c568 9a3d 58cf 053e 6863 793b 95bb 70bd
00000160: 0797 843e b07d 393e 33d8 ea3d c4e0 d5be
00000170: 16d8 323e dd71 12be 8093 e8bd eb06 293b
00000180: d113 1b3d 0500 e7bc 20da eebd 2001 90bd
00000190: 1045 e33d 5105 703d 2a99 113e 7f53 0b3e
000001a0: 0fd8 e73c 842c c53d fa28 1abe 8061 dc3b
000001b0: 4770 22bd 73da bc3d 7296 1d3e 38fb 893d
000001c0: a0cd c6bc cdfc 093b 27b8 ecbd 3f61 e43d
000001d0: 6a69 b9bd 9345 1bbe 30a8 0fbe 8225 edbe
000001e0: 167f 4abe 256b 393e 17d8 51bd 4a2c 4ebe
000001f0: 1902 0ebe 685a b03d 7bd5 b9bb 122a 143b
00000200: dd10 dd3d b3bf 8d3d ce6f 23bd db33 91bd
00000210: 83b5 b83d 6fa2 bcbd bb58 fbbc 1b81 533d
00000220: a732 373b 09fc 80bd 2f3b c0bc d7a4 c8bd
00000230: ed1d 87bd 6240 d93d 583c 84bd 97a2 dbbd
00000240: 9b22 0bbd 6ec8 b5bd cb09 973d 4bfc 83bd
00000250: 3996 1ebd d85a c4bd 03d8 8d3c d7a8 9abc
00000260: 275c 80bd 0f29 56bc 0bc6 443d 9445 4a3d
00000270: 800e 533e f29b 33be 4d49 e6bd ad03 943b
00000280: 3b93 2ebc c005 99bd 094a 87bd e3ee 30be
00000290: 5b4c a03d 3290 fbbd 010a 2abc 0a82 a63a
000002a0: 28ca 94bb 823f 303e 6698 93bd c526 4f3d
000002b0: 25b6 ae3d 2f30 583d 9200 ee3c 954b 25bd
000002c0: 7457 c73c 1b00 b13d 1953 373e 27af 313d
000002d0: 1c9b 9dbe d8df e4bd eb39 0abe b100 1cbe
000002e0: ceaa 1bbe 6795 4e3d 3eab 05bd 4f73 d0bd
000002f0: e365 efbd 27e7 f3bd c7c0 8b3d 47df fdbc
00000300: 5996 33bc 0ef1 97bd 6c8e 813c 37d5 4f3e
00000310: cc46 acbc dec0 893d 0ac4 7bbc b5a1 12be
00000320: 389c e13d 5a8a 43bd 08fe e8bd 6fcc 91bc
00000330: 7780 4bbd b544 543e a2c5 f23c f066 4ebe
00000340: 7c00 133e 0daf 263d 4cf2 14be f3f4 13be
00000350: efc1 c43d 2707 043d cfb1 6f3c eaf0 c0bd
00000360: 9bd5 4ebd 7c58 8dbb 877e cf3d 5088 923d
00000370: cfb4 913d c8c3 22bd 8ab3 583c c7c1 39bc
00000380: f783 6c3e 4354 68bb 081d 933d c7c7 d2bd
00000390: f4e6 163d ef49 243e adc1 f0bd 668c 9f3c
000003a0: 0826 36be 7a1b 5dbe a5ea b5bb 7f2f 11bd
000003b0: 27e3 90bd 55a7 533e 3735 4d3e 23e3 983d
000003c0: 1f6e 013c 67bd 46be 8ffe 3a3e 8b7f 623c
000003d0: 3a1a 6dbe 3dc5 573d 0b2e 0d3e c901 2c3e
000003e0: 9375 9fbc 2ca1 1ebe f58c d1bd 5a38 6dbd
000003f0: a0c3 433d c683 38bd 6f54 dcbd 4524 f23d
-0.16945216 0.096253954 0.0373056 -0.033249293 0.044078723 -0.0343908 -0.030224597 -0.114294186
0.110092595 -0.07636114 -0.06468702 0.062437583 -0.106513076 -0.0742891 -0.041430455 -0.07262845
-0.022072745 0.06560103 -0.053170577 0.10822288 -0.052471746 -0.09245351 0.01681008 -0.000718625
0.031564932 0.014324352 -0.13247885 -0.023280922 0.11396098 -0.15119928 0.045862567 -0.10779089
0.1006534 -0.083570614 0.077588305 0.0012043933 0.009980322 -0.048205193 0.07796572 -0.08668055
-0.2461342 -0.09727869 -0.0055860803 0.093222015 -0.031725403 -0.127227 -0.009613301 0.011437784
0.007521113 -0.0150903845 0.04512421 -0.07307566 0.07913295 -0.09763224 0.0043002255 -0.120000795
0.14535396 0.07385444 0.048756946 -0.025943924 -0.010377181 0.06411023 -0.036790907 0.1940248
-0.033296492 0.10891715 0.07381759 -0.030108888 0.02985947 -0.13187048 0.07458803 0.21816148
0.22434531 -0.046003588 -0.19559142 -0.1991915 0.0491243 0.052236777 -0.35577476 0.040334824
-0.22140658 0.076230176 0.178095 0.01923183 0.075395145 0.13067377 0.0038053636 -0.058772642
0.25896475 0.18114352 0.11467018 -0.41773045 0.17465243 -0.14301248 -0.113562584 0.0025791477
0.037860695 -0.028198252 -0.11662698 -0.070314646 0.11097157 0.05859882 0.14218584 0.1360607
0.028301267 0.09627631 -0.15054694 0.00672549 -0.039657857 0.092213534 0.15389422 0.06737369
-0.024267972 0.0021055222 -0.11558562 0.11151361 -0.09053309 -0.15163259 -0.14029002 -0.4631768
-0.19775042 0.18107279 -0.05123147 -0.20134082 -0.13867988 0.086109936 -0.005671201 0.0022608084
0.10794232 0.06921329 -0.039901547 -0.07089969 0.090189956 -0.09210669 -0.030681958 0.051636796
0.0027953775 -0.06298072 -0.023465721 -0.09797066 -0.06597505 0.10607983 -0.06456822 -0.10724371
-0.03396855 -0.088761196 0.07374915 -0.064446054 -0.038717482 -0.095876396 0.017314916 -0.018879337
-0.06267577 -0.013071313 0.04804043 0.04938276 0.20611 -0.17539957 -0.1124445 0.0045170397
-0.01065522 -0.074718 -0.06605918 -0.17278628 0.07827064 -0.122833624 -0.010378362 0.001270355
-0.0045407005 0.17211726 -0.07206802 0.050574083 0.08530835 0.052780326 0.029053006 -0.040355284
0.024333693 0.08642598 0.17902793 0.04337993 -0.30782402 -0.11175507 -0.13498656 -0.15234639
-0.15201876 0.05043545 -0.032634012 -0.10178243 -0.11689355 -0.11909323 0.06823879 -0.030990256
-0.010961139 -0.074190244 0.015814982 0.20296179 -0.021029852 0.067262396 -0.015366564 -0.14319499
0.110161245 -0.047739364 -0.113765776 -0.017797677 -0.04968306 0.20729335 0.029635254 -0.20156455
0.14355654 0.040694285 -0.14545554 -0.1444891 0.096073024 0.032233384 0.014629795 -0.09420951
-0.05049668 -0.0043135267 0.10131555 0.07154906 0.071145646 -0.039737493 0.013226399 -0.011337704
0.23097216 -0.0035450615 0.07183272 -0.10292011 0.036841348 0.16043828 -0.11755691 0.019476127
-0.17787945 -0.21592513 -0.0055516534 -0.035445686 -0.07074576 0.20669301 0.20039831 0.07465198
0.00789979 -0.19408189 0.18261169 0.013824354 -0.23154536 0.052678335 0.13787095 0.16797556
-0.019465243 -0.1549117 -0.102319635 -0.05791507 0.047793984 -0.045047544 -0.10758292 0.11823324

hidden_layer2.bias f4 [32]
00000000: 1347 f1bd 974b 2d3d 80f3 c2ba 5008 f0bd
00000010: c6b2 8c3f 31d0 27be 56df 0e3f 9e2a 9b3f
00000020: 7195 f53e 4659 fdbd a1ff cebc 17c3 1abe
00000030: 6f4c 2ebe bc33 bebd 2424 06bc ab22 c5be
00000040: 6b4c fd3d d3e4 cfbc c0d8 7bbd f340 0abe
00000050: cf95 003f 087e 1ebe f4ea 323f 0419 d7bd
00000060: b21c 7a3c e16f 1a3f 4b1e 523d 3880 0abe
00000070: 9927 e8bc 0018 c9b9 9e8d 8a3c 6318 e5bc
-0.117811345 0.042308416 -0.0014873594 -0.117203355 1.0992057 -0.16388012 0.55809534 1.2122381
0.47965577 -0.12370543 -0.025268378 -0.15113483 -0.17021345 -0.09287211 -0.0081873275 -0.38503012
0.12368091 -0.025377667 -0.061486006 -0.13501339 0.5022859 -0.15477765 0.6988976 -0.10502818
0.015265631 0.60326964 0.05129842 -0.13525474 -0.028339194 -0.0003835559 0.016913231 -0.02796573
