Comparison/TrainedModel/5-0.001-72-Agent/node_agent_42.pth (torch, 31556 bytes, 6 tensors)

input_layer.weight f4 [32, 93]
-0.01831476 0.20008634 0.014760111 -0.03332989 -0.039096057 -0.07304226 4.851091 4.8727975
4.8034444 0.073662095 0.052236583 0.015494809 0.003922777 0.0591969 -0.121384494 0.8193993
2.1476624 -1.2254752 13.016438 9.5733185 -0.06676126 1.9454414 -0.052281182 -0.031405058
-0.086126566 0.096042 -0.024140744 0.12140825 0.049021017 0.03642986 0.011074446 0.22153655
0.013858572 -0.301225 0.006732195 0.15617087 -0.12713741 0.057794858 0.01698436 0.15486775
-0.029124916 0.055758208 0.14039376 -0.11247337 0.03594394 0.1076136 -0.077784166 -0.00837873
-0.14534578 4.652497 -0.028275678 -0.009695339 4.802344 -0.19326623 -0.023109611 0.0026295814
0.22301579 0.049587037 -0.24616471 -0.002298244 0.13461833 0.12992692 -0.057777036 0.14148007
-0.16768284 0.017852945 0.057733893 4.7989573 0.05280568 0.13552414 -0.010980577 0.060231067
-0.08716084 -0.02015534 0.010955134 0.1254545 -0.10757686 0.11091983 -0.15782212 -0.1060066
0.14056614 0.06114715 0.06992216 0.068994686 -0.03973984 0.15281852 -0.07152413 0.0976501
-0.043088507 0.006865439 0.0088316975 -0.11983887 4.9368243 0.02235764 0.124562 -0.09123007
0.034808617 -0.05644982 -0.1603998 -0.14808714 0.038469844 -0.124019 0.028345019 -0.0994891
-0.100071244 -0.1551545 -0.07495 0.034696676 0.13525699 0.06958814 -0.08812991 0.017098812
0.00673292 0.108149186 -0.07719264 0.06510001 -0.026236003 0.015811427 0.055117454 -0.05651493
0.054662615 -0.07081883 -0.04031789 0.08542173 0.111228846 -0.017416839 -0.023229646 -0.017922072
-0.08905033 -0.044151634 -0.17836569 0.07503119 -0.123689346 0.07096743 0.11344724 0.0038050327
0.07875078 0.02435792 0.0016618088 0.057298638 0.02332872 0.07155194 -0.15997575 -0.13842039
0.10679909 -0.12374585 0.09718181 0.008869393 -0.07014601 0.06103645 0.13093008 -0.065892
0.021064926 0.18320242 -0.07916762 -0.25058895 0.11585879 0.1512891 -0.0062812986 -0.023347434
-0.042842075 0.072493486 0.10054529 0.109670915 0.08541956 -0.05872804 -0.047838803 0.15271196
0.032242835 -0.050501104 -0.07195958 -0.0030359677 0.005286015 0.13206917 0.034851097 0.037340045
0.1482662 -0.062203135 0.05092215 0.043288287 0.029699385 0.12806112 0.06551396 -0.043239243
-0.061730843 -0.006133864 0.10442978 -0.15816088 0.037903942 -0.020618653 -0.04798005 -0.19022474
5.486191 5.6024694 5.501192 -0.085115165 -0.011585876 0.02381173 -0.18573876 -0.2329895
0.018194927 0.8588374 1.8605542 1.5941267 10.815901 8.236376 0.098904006 3.2192354
0.038129095 -0.08469689 -0.08309203 0.014574753 -0.052421637 0.038387444 -0.025105376 0.09392028
-0.022912899 -0.02703595 0.18000047 0.113304615 0.052622195 0.22636282 0.00550966 -0.02009635
-0.14544916 0.0324919 -0.17691529 0.007392514 0.104937926 0.12264009 0.13732846 -0.008649058
-0.092276014 -0.08489021 0.044571627 5.384161 0.05528999 -0.19007663 5.420785 -0.04348412
-0.028121585 -0.08750291 -0.093884386 -0.07202334 -0.08396789 -0.03903445 -0.053962458 -0.1784339
-0.026191 -0.029761497 0.056960117 -0.07653004 -0.06854757 5.441351 -0.012501289 -0.04448326
00000000: d608 96bc 6fe3 4c3e 65d4 713c ec84 08bd
00000010: 3023 20bd 2e97 95bd 233c 9b40 f5ed 9b40
00000020: d1b5 9940 27dc 963d 07f6 553d f0dd 7d3c
00000030: a38a 803b 7378 723d 6f98 f8bd 27c4 513f
00000040: 4d73 0940 5fdc 9cbf 5443 5041 502c 1941
00000050: 21ba 88bd 3904 f93f cb24 56bd 97a2 00bd
00000060: 2063 b0bd abb1 c43d cfc2 c5bc e3a4 f83d
00000070: 43ca 483d 7a37 153d 9871 353c 7ada 623e
00000080: 100f 633c 2a3a 9abe bf99 dc3b 42eb 1f3e
00000090: 4f30 02be 4dba 6c3d c922 8b3c a795 1e3e
000000a0: 6097 eebc b862 643d 62c3 0f3e 7058 e6bd
000000b0: f439 133d 8564 dc3d 4e4d 9fbd f146 09bc
000000c0: 86d5 14be 41e1 9440 65a2 e7bc 33d9 1ebc
000000d0: cdac 9940 95e7 45be 5e50 bdbc 0e55 2c3b
000000e0: 405e 643e c71b 4b3d 9a12 7cbe 239e 16bb
000000f0: 63d9 093e 900b 053e 9da7 6cbd 27e0 103e
00000100: 0db5 2bbe 5740 923c 607a 6c3d 0f91 9940
00000110: c54a 583d d7c6 0a3e e1e7 33bc dab4 763d
00000120: 6281 b2bd d01c a5bc 2a7d 333c 2577 003e
00000130: 4251 dcbd f029 e33d 1f9c 21be fd19 d9bd
00000140: 92f0 0f3e 6f75 7a3d 5933 8f3d 164d 8d3d
00000150: 3ec6 22bd 757c 1c3e 3e7b 92bd c7fc c73d
00000160: 937d 30bd 7af7 e03b d3b2 103c 156e f5bd
00000170: 77fa 9d40 5f27 b73c 5d1a ff3d d5d6 babd
00000180: 7b93 0e3d ed37 67bd d83f 24be 28a4 17be
00000190: 8e92 1d3d acfd fdbd d033 e83c f1c0 cbbd
000001a0: 27f2 ccbd d2e0 1ebe 637f 99bd 1a1e 0e3d
000001b0: cf80 0a3e 3a84 8e3d 747d b4bd cf12 8c3c
000001c0: d49f dc3b 527d dd3d 2d17 9ebd 2753 853d
000001d0: e3ec d6bc f786 813c d7c2 613d 337c 67bd
000001e0: e8e5 5f3d 7609 91bd 5f24 25bd 97f1 ae3d
000001f0: f3cb e33d c2ad 8ebc 194c bebc 4fd1 92bc
00000200: 0560 b6bd 58d8 34bd 7fa5 36be f4a9 993d
00000210: d750 fdbd 5f57 913d 0757 e83d db5d 793b
00000220: 1748 a13d 438a c73c 0dd1 d93a fab1 6a3d
00000230: df1b bf3c d389 923d afd0 23be 13be 0dbe
00000240: 7bb9 da3d 776e fdbd 4207 c73d ee50 113c
00000250: b6a8 8fbd 5b01 7a3d 8912 063e 63f2 86bd
00000260: 5a90 ac3c 6a99 3b3e a222 a2bd 324d 80be
00000270: 6047 ed3d 88eb 1a3e 5ad3 cdbb 1e43 bfbc
00000280: 2c7b 2fbd 7777 943d b0ea cd3d 259b e03d
00000290: 73f0 ae3d d08c 70bd 9ff2 43bd 8660 1c3e
000002a0: 1011 043d 3fda 4ebd 8b5f 93bd 16f7 46bb
000002b0: 4f36 ad3b 243d 073e 06c0 0e3d e0f1 183d
000002c0: 18d3 173e b7c8 7ebd bf93 503d 0f4f 313d
000002d0: 204c f33c 7422 033e 2f2c 863d a21b 31bd
000002e0: 7bd9 7cbd 95fe c8bb 48df d53d edf4 21be
000002f0: 2a41 1b3d 73e8 a8bc bb86 44bd 46ca 42be
00000300: e08e af40 6e47 b340 c409 b040 dc50 aebd
00000310: b0d2 3dbc d110 c33c 4d32 3ebe cd94 6ebe
00000320: 870d 953c c5dc 5b3f a426 ee3f 580c cc3f
00000330: ee0d 2d41 32c8 0341 2f8e ca3d f407 4e40
00000340: 412d 1c3d 9075 adbd 272c aabd f2ca 6e3c
00000350: 12b8 56bd 273c 1d3d caa9 cdbc 4759 c03d
00000360: d5b3 bbbc 7f7a ddbc 0b52 383e 400c e83d
00000370: 5f8a 573d a8cb 673e 618a b43b 1aa1 a4bc
00000380: a0f0 14be 3a16 053d 4829 35be e73c f23b
00000390: b2e9 d63d ba2a fb3d d59f 0c3e c7b4 0dbc
000003a0: 35fb bcbd ebda adbd bd90 363d 0c4b ac40
000003b0: c277 623d 73a3 42be 1277 ad40 681c 32bd
000003c0: 3d5f e6bc ba34 b3bd 7546 c0bd f980 93bd
000003d0: 5bf7 abbd 96e2 1fbd bd07 5dbd 60b7 36be
000003e0: 828e d6bc 62ce f3bc 034f 693d c8bb 9cbd
000003f0: ab62 8cbd 8c1f ae40 35d2 4cbc 1434 36bd

input_layer.bias f4 [32]
4.8849244 -0.1448351 5.3698034 3.5916889 3.2601552 5.059882 3.2099617 2.956639
4.852315 -0.03361799 1.4022666 1.2256049 3.0885744 3.5198524 -0.0485357 -0.14194137
4.697087 0.09441209 1.1390624 1.1630027 4.9636774 1.2866281 0.0089230575 5.447779
4.5689435 4.8419924 3.190966 5.7157545 2.9991517 4.875673 5.035614 4.8968463
00000000: 4d51 9c40 a74f 14be 6ed5 ab40 3bde 6540
00000010: 62a6 5040 8eea a140 0370 4d40 9339 3d40
00000020: 2a46 9b40 04b3 09bd 797d b33f 9fe0 9c3f
00000030: 34ab 4540 4345 6140 5fcd 46bd 1459 11be
00000040: 894e 9640 205b c13d cccc 913f 46dd 943f
00000050: 72d6 9e40 3bb0 a43f 0432 123c 3554 ae40
00000060: c934 9240 9af1 9a40 c938 4c40 76e7 b640
00000070: 1af2 3f40 8305 9c40 c023 a140 f7b2 9c40

hidden_layer1.weight f4 [64, 32]
0.12713982 -0.07594364 -0.010779935 -0.030068634 0.06344476 0.032678496 0.02410945 -0.03351052
-0.036414593 -0.07825526 0.0827669 -0.09518264 0.08896398 0.040399347 0.0018622795 -0.015942762
-0.1416379 -0.0019956313 -0.10237371 0.07965966 -0.037243117 0.034128528 -0.13018607 0.073827036
0.05135693 -0.17201523 -0.1896754 0.025268892 -0.11052394 -0.15886 0.11754624 -0.18413477
-0.14029156 -0.22137092 -0.046859793 -0.038104713 -0.013389233 -0.01237423 -0.05361449 0.0024930083
0.04251188 0.09143353 0.066616535 -0.116176724 -0.009166441 -0.067149304 -0.122243024 0.21906368
0.012991199 0.12604053 -0.098279886 -0.020686392 -0.07501791 -0.13729239 0.020145131 -0.07772721
-0.018933043 -0.06399949 -0.17132163 -0.096676305 0.17915997 0.035624627 -0.1226009 0.107597
-0.34294432 0.04441814 1.863086 -6.6257086 -18.57405 0.60356206 -18.760498 -18.029106
-0.025633072 0.034405224 7.4313626 7.95412 -16.433249 -6.014976 0.13338724 0.08484679
-1.2809008 0.1280892 7.8001323 8.106197 -0.28427023 9.876583 -0.07095855 4.395074
-1.471428 -0.4476473 -16.438526 4.047596 -16.064825 -0.46064162 0.55475944 -0.029696919
0.023961876 -0.18256462 0.02577631 -0.03899527 0.044817507 -0.038028333 -0.062363077 0.095647186
-0.093151025 0.13978322 -0.040845435 -0.2519843 -0.13553847 0.011437602 0.0525388 0.08840079
0.009161972 0.03137774 0.068171926 0.026222173 -0.15466593 0.031567235 -0.03267645 0.018838208
-0.0029363902 -0.054452498 0.030011658 -0.12955676 0.11400955 0.10252644 -0.09402802 -0.09314926
4.241121 -0.0396126 3.1544793 8.835588 14.242679 3.7724154 14.134457 14.110407
4.1668425 -0.11187881 -3.483603 -4.024758 13.440954 8.887782 0.002250434 0.08376648
5.191519 -0.060491096 -4.0442734 -4.158544 4.661594 -5.8312874 -0.030023033 1.0726721
5.513992 4.7746344 13.131548 1.5518609 14.061935 4.730598 4.040733 4.2337193
4.6516166 -0.17065889 2.9634778 9.5678215 14.212034 3.658536 14.261208 14.416668
4.4600215 -0.021403844 -3.5708869 -4.3170695 13.603427 9.27482 0.063651435 -0.052324094
5.565885 0.15248145 -4.269713 -4.2372394 4.5506186 -6.5918803 0.0622327 0.95158523
5.718941 4.7491217 13.511428 1.4029229 12.93285 4.578827 3.9582212 4.3891525
-0.09934809 0.040187396 -0.02140245 -0.020496815 0.007669424 -0.00097273785 -0.16707064 -0.055501703
-0.19401154 0.03180444 0.0685496 -0.091965236 -0.13069835 -0.21806766 -0.066981055 -0.0051637944
-0.024527458 -0.037170775 -0.086048946 0.024884164 0.20715246 0.10901583 0.05774532 -0.041196145
-0.10032638 -0.021362258 -0.10253278 -0.009949367 -0.11461225 -0.07794016 -0.15586056 -0.18559304
5.868871 -0.031584132 3.6387725 10.235804 15.881898 4.814944 15.827034 16.311357
5.556247 0.14331092 -4.1723313 -5.3912024 14.705307 9.974053 -0.08524344 0.09041583
6.7561893 0.0003615845 -5.2441854 -5.4319906 5.784057 -8.746127 -0.016674686 1.2260362
6.9042597 6.0028887 14.419342 1.8234487 15.993716 5.909481 4.9137845 5.3777413
00000000: f130 023e 5788 9bbd 539e 30bc 7f52 f6bc
00000010: 54ef 813d e3d9 053d 2e81 c53c 5442 09bd
00000020: 7827 15bd 4b44 a0bd b181 a93d 1eef c2bd
00000030: bf32 b63d c979 253d bb17 f43a 659a 82bc
00000040: 8709 11be 23c9 02bb 4fa9 d1bd 9b24 a33d
00000050: 3d8c 18bd 5bca 0b3d 7f4f 05be a132 973d
00000060: a55b 523d c324 30be 453a 42be b500 cf3c
00000070: 605a e2bd 32ac 22be 15bc f03d d38d 3cbe
00000080: 97a8 0fbe 0faf 62be 0ef0 3fbd b013 1cbd
00000090: 835e 5bbc 48bd 4abc de9a 5bbd bd61 233b
000000a0: f020 2e3d 8141 bb3d 406e 883d 10ee edbd
000000b0: d72e 16bc 9385 89bd 8d5a fabd 3b52 603e
000000c0: 0ad9 543c c510 013e f746 c9bd 8276 a9bc
000000d0: fda2 99bd 6096 0cbe 6707 a53c 722f 9fbd
000000e0: 7819 9bbc 2a12 83bd f06e 2fbe 3afe c5bd
000000f0: b675 373e 21eb 113d 2e16 fbbd d15b dc3d
00000100: 6696 afbe ccef 353d 9a79 ee3f ce05 d4c0
00000110: a897 94c1 0b83 1a3f 8015 96c1 9c3b 90c1
00000120: 73fc d1bc 7eec 0c3d b9cd ed40 2788 fe40
00000130: 4b77 83c1 af7a c0c0 aa96 083e 27c4 ad3d
00000140: 8ff4 a3bf d129 033e af9a f940 fcb2 0141
00000150: de8b 91be 7c06 1e41 b752 91bd 72a4 8c40
00000160: c157 bcbf 0732 e5be 1a82 83c1 e885 8140
00000170: c384 80c1 38d9 ebbe b704 0e3f f446 f3bc
00000180: b24b c43c 38f2 3abe d728 d33c 81b9 1fbd
00000190: 9092 373d 99c3 1bbd 6d70 7fbd ace2 c33d
000001a0: f7c5 bebd 5523 0f3e 8b4d 27bd 1604 81be
000001b0: 99ca 0abe c864 3b3c ed32 573d 790b b53d
000001c0: 191c 163c f285 003d b99d 8b3d e2cf d63c
000001d0: bf60 1ebe a54c 013d bed7 05bd 9652 9a3c
000001e0: 7470 40bb 9509 5fbd 02db f53c 87aa 04be
000001f0: d77d e93d 62f9 d13d c391 c0bd 0ac5 bebd
00000200: 43b7 8740 d240 22bd fde2 4940 925e 0d41
00000210: 03e2 6341 416f 7140 bc26 6241 3ac4 6141
00000220: c656 8540 b820 e5bd 5af3 5ec0 d1ca 80c0
00000230: 260e 5741 5b34 0e41 047c 133b c38d ab3d
00000240: ec20 a640 83c5 77bd b06a 81c0 cb12 85c0
00000250: c72b 9540 e899 bac0 ddf2 f5bc 524d 893f
00000260: 9f72 b040 cec9 9840 d21a 5241 61a3 c63f
00000270: b0fd 6041 0f61 9740 af4d 8140 a17a 8740
00000280: 0bda 9440 34c1 2ebe 9fa9 3d40 cc15 1941
00000290: 7e64 6341 7425 6a40 e82d 6441 acaa 6641
000002a0: 7fb8 8e40 1d57 afbc 6989 64c0 6f25 8ac0
000002b0: a3a7 5941 aa65 1441 af5b 823d ca51 56bd
000002c0: bb1b b240 1924 1c3e 7da1 88c0 7797 87c0
000002d0: ab9e 9140 aff0 d2c0 b7e7 7e3d 179b 733f
000002e0: 9101 b740 cef8 9740 cf2e 5841 fa92 b33f
000002f0: f4ec 4e41 c085 9240 7f53 7d40 f073 8c40
00000300: 0377 cbbd 8a9b 243d 3154 afbc f0e8 a7bc
00000310: cb4f fb3b 55ff 7eba 9114 2bbe c155 63bd
00000320: f6aa 46be 5f45 023d bc63 8c3d 4558 bcbd
00000330: cad5 05be 214d 5fbe 5d2d 89bd 0c35 a9bb
00000340: cfed c8bc 6240 18bd 6e3a b0bd e0d9 cb3c
00000350: c61f 543e b143 df3d 5b86 6c3d 4abd 28bd
00000360: eb77 cdbd e7ff aebc b5fc d1bd ab02 23bc
00000370: d4b9 eabd 179f 9fbd e999 1fbe 1a0c 3ebe
00000380: cbcd bb40 5d5e 01bd a6e1 6840 dac5 2341
00000390: 411c 7e41 0514 9a40 883b 7d41 a97d 8241
000003a0: c7cc b140 19c0 123e bd83 85c0 bb84 acc0
000003b0: f048 6b41 b995 1f41 1d94 aebd ef2b b93d
000003c0: b432 d840 0d93 bd39 5ed0 a7c0 ded2 adc0
000003d0: ff16 b940 23f0 0bc1 5a99 88bc c1ee 9c3f
000003e0: b2ef dc40 aa17 c040 a0b5 6641 c466 e93f
000003f0: 43e6 7f41 781a bd40 b93d 9d40 7516 ac40

hidden_layer1.bias f4 [64]
-0.097105876 -0.01245877 1.5713634 -0.066787265 3.232327 3.7196057 -0.19197965 3.0468366
-0.106044106 3.7650394 0.14656308 -0.09640622 0.0033435777 -0.14933841 0.0015634097 -0.0027588904
3.6126025 -0.17026736 0.07445638 -0.1163841 3.948559 1.7458696 0.07024953 3.84278
1.5548611 1.6042495 3.7312186 3.1024165 1.5060267 0.096433945 0.016403692 4.5731716
-0.023987725 1.4429158 -0.21917813 3.2877746 -0.10214248 3.6411083 1.6071134 4.008504
-0.08321468 1.7415552 0.03488964 1.7393117 3.4930897 -0.114858925 3.6293585 -0.17935024
1.8333865 1.7980502 3.872235 3.950472 -0.058684934 3.5889945 -0.12547934 4.042785
3.6500342 3.2392535 -0.17571561 0.09649007 3.6092336 3.4082422 0.12350945 3.6655102
00000000: 72df c6bd de1f 4cbc 7022 c93f c3c7 88bd
00000010: 72de 4e40 050e 6e40 5096 44be 5fff 4240
00000020: a72d d9bd 68f6 7040 a214 163e a070 c5bd
00000030: ed1f 5b3b 2bec 18be 53eb cc3a 80ce 34bb
00000040: e134 6740 915a 2ebe 967c 983d c95a eebd
00000050: 31b5 7c40 a878 df3f fcde 8f3d 1cf0 7540
00000060: b005 c73f 0c58 cd3f 49cc 6e40 fe8d 4640
00000070: 7cc5 c03f 297f c53d 0961 863c 6c57 9240
00000080: e881 c4bc 77b1 b83f 3b70 60be e66a 5240
00000090: 1430 d1bd eb07 6940 e4b5 cd3f aa45 8040
000000a0: 756c aabd 48eb de3f 70e8 0e3d c4a1 de3f
000000b0: c88e 5f40 283b ebbd 6947 6840 97a7 37be
000000c0: 69ac ea3f 8226 e63f b3d2 7740 89d4 7c40
000000d0: 9d5f 70bd 16b2 6540 a87d 00be 7f5e 8140
000000e0: 299a 6940 ee4f 4f40 cbee 33be 969c c53d
000000f0: affd 6640 a420 5a40 86f2 fc3d b897 6a40

hidden_layer2.weight f4 [32, 64]
-0.16945216 0.12787847 0.037261333 -0.033249293 0.012409923 -0.03443508 -0.030224597 -0.14596288
0.110092595 -0.10802995 -0.06468702 0.062437583 -0.106513076 -0.042664576 -0.041430455 -0.07262845
-0.000269634 0.06560103 -0.021216726 0.10822288 -0.030073777 -0.1241223 0.01681008 -0.000762896
0.034808025 -0.017344408 -0.13252309 -0.05494969 0.08229221 -0.09761124 0.045862567 -0.1394596
0.1006534 -0.08348632 0.077588305 -0.030464403 0.009980322 -0.048249464 0.046296954 -0.08672483
-0.2461342 -0.12894739 0.048105765 0.061553232 -0.06339419 -0.127227 -0.04128207 0.011437784
-0.024147674 0.0070843184 0.01345541 -0.104744464 0.11075747 -0.12930095 0.0043002255 -0.15166947
0.113685176 0.042185668 0.048756946 -0.025943924 -0.009609954 0.032441463 -0.004838253 0.16235611
-0.033296492 0.12014899 0.70469373 -0.030108888 -0.611701 -1.7527888 0.08671491 -0.48574975
0.11321241 -0.86279064 -0.15918727 -0.12611009 0.1570685 0.04895117 -0.23018944 -0.044576652
-0.38940892 0.076230176 0.15842004 0.01923183 -0.64771557 0.78659946 0.013416193 -0.9521149
0.7957852 0.77252525 0.6363399 -0.7108134 0.87990165 0.07097803 0.05389162 0.24902534
0.037860695 0.22281967 -0.21599668 -0.56843907 0.07493175 -0.53161484 0.7754009 -0.5457154
0.052757412 0.70946896 0.06489178 0.4654573 -0.7632255 0.092213534 -0.44001547 0.06737369
0.76488507 0.7104695 -0.69774896 -0.3289814 -0.017382603 -0.5446001 0.14454652 -0.6990055
-0.5748548 -0.5294705 -0.05123147 -0.1570757 -1.0752419 -0.7809954 -0.016124895 -0.65089136
0.10794232 0.03801381 -8.004897 -0.07089969 0.7107665 0.43395126 -0.062444564 0.19802779
0.0027953775 -0.004341781 -0.014694834 -0.101657994 -0.022764934 0.119798444 -0.032264788 -0.10724371
-0.041029926 -0.088761196 0.07374915 -0.064446054 -0.10368513 -8.198477 -0.031585418 -0.06127421
-8.09602 -8.023369 -2.2457354 0.01760473 -7.6955996 -0.17095952 -0.08397451 -0.74551487
-0.01065522 -8.348502 0.03668811 -0.22328627 0.07827064 -0.16481991 -8.023519 -0.09915573
0.025483113 -7.612256 -0.07206802 -8.05398 0.1947156 0.052780326 0.030542389 -0.009950328
-7.8578215 -7.745539 0.10751757 0.119996354 -0.26872838 -0.0779839 -0.13498656 -0.23419726
0.23370205 0.21644607 -0.032634012 -0.10022012 0.07275528 0.7454549 0.06823879 -0.04367845
-0.010961139 -0.074190244 -9.567045 0.20296179 8.880283 9.536077 0.016398568 5.064049
0.110161245 6.475204 -0.08226551 0.013962083 -0.04968306 0.20729335 0.029635254 -0.20156455
6.390276 0.040694285 -0.14545554 -0.1444891 5.1923804 -9.558474 0.054140296 5.7257895
-10.09955 -10.231337 0.25585645 4.708476 -9.548484 -0.039737493 0.013226399 3.4417748
0.23097216 -8.977217 0.12457759 4.791473 0.036841348 5.1802626 -10.094953 5.0270658
-0.20955175 -10.544663 -0.0055516534 -8.847257 5.157635 0.20669301 5.222864 0.073925644
-10.286471 -10.5631695 5.1428347 7.205527 -0.23154536 5.1423965 0.13787095 5.303395
8.683815 5.0951004 -0.102319635 -0.004296094 7.0596094 9.044363 -0.10758292 5.052735
00000000: de84 2dbe 93f2 023e 579f 183d 6930 08bd
00000010: fd52 4b3c cc0b 0dbd 9399 f7bc 4b77 15be
00000020: 3a78 e13d ce3e ddbd a17a 84bd 8dbe 7f3d
00000030: 8723 dabd 0dc1 2ebd fbb2 29bd 3abe 94bd
00000040: aa5d 8db9 d559 863d b3ce adbc f5a3 dd3d
00000050: 485d f6bc d533 febd 4bb5 893c 15fd 47ba
00000060: dc92 0e3d dc15 8ebc 22b4 07be ed12 61bd
00000070: d188 a83d 67e8 c7bd 63da 3b3d 7fce 0ebe
00000080: 5f23 ce3d e0fa aabd 9ee6 9e3d 7c90 f9bc
00000090: 8184 233c 3ba1 45bd e0a1 3d3d ca9c b1bd
000000a0: 9b0a 7cbe c90a 04be 8d0a 453d 3e1f 7c3d
000000b0: d0d4 81bd cb47 02be 6317 29bd 8b65 3b3c
000000c0: 58d1 c5bc 9223 e83b 1474 5c3c 4484 d6bd
000000d0: d0d4 e23d 7867 04be e8e8 8c3b 3e4f 1bbe
000000e0: c6d3 e83d e1ca 2c3d 5db5 473d 5a88 d4bc
000000f0: 1273 1dbc 57e1 043d 358a 9ebb ae40 263e
00000100: e761 08bd ac10 f63d cf66 343f eaa6 f6bc
00000110: 7098 1cbf 625b e0bf 9697 b13d 31b4 f8be
00000120: e8db e73d d9df 5cbf fd01 23be 0123 01be
00000130: 91d6 203e 0681 483d c8b6 6bbe 0296 36bd
00000140: 9b60 c7be 911e 9c3d dd38 223e 128c 9d3c
00000150: b0d0 25bf 955e 493f 98cf 5b3c cdbd 73bf
00000160: 94b8 4b3f 37c4 453f 2ce7 223f def7 35bf
00000170: 3c41 613f ee5c 913d 76bd 5c3d 8000 7f3e
00000180: d113 1b3d d72a 643e 3c2e 5dbe 3985 11bf
00000190: d175 993d e917 08bf ac80 463f 01b4 0bbf
000001a0: 2818 583d c29f 353f fbe5 843d 6b50 ee3e
000001b0: bf62 43bf 73da bc3d b549 e1be 38fb 893d
000001c0: 82cf 433f 54e1 353f ad9f 32bf 4070 a8be
000001d0: f665 8ebc ea6a 0bbf 0104 143e 06f2 32bf
000001e0: af29 13bf 618b 07bf 17d8 51bd 74d8 20be
000001f0: 87a1 89bf 51ef 47bf 5b18 84bc d1a0 26bf
00000200: dd10 dd3d 5eb4 1b3d 0f14 00c1 db33 91bd
00000210: cbf4 353f dc2e de3e dfc5 7fbd ccc7 4a3e
00000220: a732 373b 8045 8ebb 9ac2 70bc 1132 d0bd
00000230: 877d babc e358 f53d 1528 04bd 97a2 dbbd
00000240: ff0e 28bd 6ec8 b5bd cb09 973d 4bfc 83bd
00000250: df58 d4bd f62c 03c1 b65f 01bd abfa 7abd
00000260: 4c89 01c1 b85f 00c1 21ba 0fc0 cb37 903c
00000270: 5a42 f6c0 0310 2fbe d4fa abbd 10da 3ebf
00000280: 3b93 2ebc 7793 05c1 4646 163d 28a5 64be
00000290: 5b4c a03d 8dc6 28be 5560 00c1 2912 cbbd
000002a0: f6c1 d03c 9a97 f3c0 6698 93bd 1add 00c1
000002b0: 8763 473e 2f30 583d 0834 fa3c b306 23bc
000002c0: 4673 fbc0 75db f7c0 2c32 dc3d a6c0 f53d
000002d0: c496 89be 06b6 9fbd eb39 0abe 68d1 6fbe
000002e0: 974f 6f3e 0aa4 5d3e 3eab 05bd 3540 cdbd
000002f0: b800 953d 22d6 3e3f c7c0 8b3d 2de8 32bd
00000300: 5996 33bc 0ef1 97bd 9e12 19c1 37d5 4f3e
00000310: a415 0e41 c593 1841 4a56 863c b00c a240
00000320: 389c e13d df34 cf40 d27a a8bd 38c1 643c
00000330: 7780 4bbd b544 543e a2c5 f23c f066 4ebe
00000340: 247d cc40 0daf 263d 4cf2 14be f3f4 13be
00000350: fb27 a640 82ef 18c1 37c2 5d3d ab39 b740
00000360: c297 21c1 8eb3 23c1 9eff 823e d6ab 9640
00000370: 97c6 18c1 c8c3 22bd 8ab3 583c 0a46 5c40
00000380: f783 6c3e aea2 0fc1 8922 ff3d bf53 9940
00000390: f4e6 163d b6c4 a540 ed84 21c1 b9dd a040
000003a0: bc94 56be f1b6 28c1 a5ea b5bb 5d8e 0dc1
000003b0: 590b a540 55a7 533e b421 a740 5466 973d
000003c0: 6395 24c1 be02 29c1 1a92 a440 ad93 e640
000003d0: 3a1a 6dbe 838e a440 0b2e 0d3e 69b5 a940
000003e0: e8f0 0a41 100b a340 f58c d1bd 40c6 8cbb
000003f0: 52e8 e140 b6b5 1041 6f54 dcbd 01b0 a140

hidden_layer2.bias f4 [32]
-0.11522981 0.15598485 -1.3888668 3.6560776 0.024499372 -0.10048534 -0.01225629 1.1397455
-0.15476424 -0.12370543 -0.09230656 -0.12360962 0.062418748 -0.103137046 -0.116153605 -0.046588354
2.2758837 0.024206653 -0.38359082 -0.14951277 -1.4174693 -0.7614065 -0.1343773 -0.123653404
-0.32990706 -0.3827999 0.042626742 -0.12398705 0.017836528 5.055012 -1.0034006 -0.2899579
00000000: 9bfd ebbd 7eba 1f3e 63c6 b1bf 2dfd 6940
00000010: e8b2 c83c 42cb cdbd 9bce 48bc 2ee3 913f
00000020: 847a 1ebe 4659 fdbd 390b bdbd 0a27 fdbd
00000030: cdaa 7f3d 8439 d3bd f1e1 edbd 6ed3 3ebd
00000040: 14a8 1140 084d c63c 0466 c4be e019 19be
00000050: a26f b5bf 89eb 42bf 349a 09be ff3d fdbd
00000060: 94e9 a8be 59fe c3be 6199 2e3d ecec fdbd
00000070: e91d 923c a9c2 a140 6e6f 80bf 5d75 94be
