Comparison/TrainedModel/20-0.001-90-Agent/node_agent_27.pth (torch, 41540 bytes, 6 tensors)

input_layer.weight f4 [32, 171]
0	0x3d6aa533	0.057286453
1	0xbe0b9c0a	-0.13633743
2	0xbd329137	-0.04359552
3	0x3cc7cff7	0.024391158
4	0xbe15e523	-0.1463819
5	0xbde6ee27	-0.11275893
6	0x3d9d2807	0.0767365
7	0x3c023b51	0.007948712
8	0x3e138604	0.14406592
9	0xbe1e956b	-0.15486686
10	0x3ce8f657	0.028437776
11	0x3c2e6ee7	0.010646558
12	0x3d453fb7	0.048156466
13	0x3c94011e	0.018066939
14	0x3c860cdc	0.016363554
15	0xbcc97017	-0.024589581
16	0xbdd23177	-0.10263341
17	0xbd84db51	-0.06487144
18	0x3c9f9e3f	0.019484637
19	0xbb29a9c6	-0.0025888546
20	0xbc1413c5	-0.009037917
21	0xbbee0067	-0.0072632316
22	0xbd7061c3	-0.058686983
23	0xbd9b994f	-0.07597601
24	0x3ec2b295	0.38026872
25	0xbe3de341	-0.18543722
26	0xbcd20a97	-0.025639815
27	0x3d85ca9b	0.065327846
28	0xbd41884e	-0.04724913
29	0xbe66b3e7	-0.22529565
30	0xbd533b4b	-0.051570218
31	0x3e40bc5b	0.18821852
32	0xbc109c2f	-0.0088263
33	0xbe05ea8a	-0.13077751
34	0xbcff4a7d	-0.031163448
35	0xbd86f901	-0.065904625
36	0x3d5cb70a	0.053885497
37	0xbe0eb1cb	-0.1393501
38	0xbe280743	-0.1640902
39	0x3c5ca93f	0.013468086
40	0x3d4769c3	0.048684847
41	0x3d1b6431	0.037937347
42	0x3afb0ee2	0.0019154216
43	0x3d7d2a8b	0.06180815
44	0x3df68463	0.120369695
45	0x3def1bfd	0.1167526
46	0x3e00c6b5	0.125758
47	0x3d1ea1dc	0.03872858
48	0x3e1371f6	0.14398941
49	0xbd3dd8e1	-0.04634941
50	0x3d1c4c35	0.038158614
51	0x3dff56f7	0.12467759
52	0x3d9c34df	0.07627272
53	0x3e35320b	0.17694871
54	0x3c8bcdba	0.017065872
55	0x3c9aa9ef	0.018879859
56	0xbcfd7f4f	-0.030944495
57	0xbcf529ff	-0.029927252
58	0xbba72d47	-0.005101833
59	0xbd453435	-0.04814549
60	0xbaec2b0f	-0.0018018204
61	0xbe21fec7	-0.15819846
62	0xbd723208	-0.059129745
63	0x3d64d45f	0.055866595
64	0xbc65f46d	-0.014035326
65	0xbcca2c6d	-0.024679387
66	0x3dd2b3f0	0.102882266
67	0x3e0233ff	0.12715147
68	0x3de660da	0.11248942
69	0x3cd1cf80	0.025611639
70	0x3dee72bb	0.11642977
71	0x3d83a6d9	0.06428308
72	0xbdbef1bd	-0.09323452
73	0x3dd979ff	0.10618972
74	0xbd69d9e5	-0.057092566
75	0x3e2bc7e4	0.16775471
76	0xbdbc06bc	-0.09180972
77	0xbc0ad26c	-0.00847302
78	0x3da063cb	0.07831534
79	0x3dd5ead2	0.10445179
80	0x3ce2b57a	0.027674425
81	0xbe84644f	-0.2585778
82	0xbd97cf3b	-0.07412573
83	0x3d88e35a	0.06683989
84	0x3d08a6b7	0.033362117
85	0x3dd4d04d	0.10391293
86	0xbd435833	-0.047691535
87	0xbe35278e	-0.1769087
88	0xbe3e445b	-0.18580763
89	0x3ca52a0a	0.020161647
90	0xbdad5625	-0.084636964
91	0xbc956e81	-0.018241169
92	0xbe2a4477	-0.1662768
93	0x3e7f9705	0.24959953
94	0xbe5a1e40	-0.21300602
95	0xbe18b195	-0.14911492
96	0xbd011347	-0.031512525
97	0xbbb10c5f	-0.005403086
98	0x3d64a503	0.05582143
99	0x3d44808b	0.04797415
100	0x3db7f64f	0.089825265
101	0x3de714fa	0.11283298
102	0x3d645fab	0.0557553
103	0xbec79229	-0.389787
104	0x3d66d42a	0.05635468
105	0xbd1068e4	-0.03525628
106	0x3d2e9b38	0.042628497
107	0xbbec1215	-0.007204304
108	0xbbd6950f	-0.006548531
109	0xbd648410	-0.055790007
110	0xbd4fb77f	-0.050712105
111	0x3d08c276	0.033388577
112	0x3d249087	0.040176895
113	0x3e289111	0.16461588
114	0xbca0a0f3	-0.019607997
115	0xbcab251e	-0.020891722
116	0xbdb3f1bf	-0.08786344
117	0xbd8c051e	-0.068369135
118	0x3d56b358	0.05241713
119	0xbc172be7	-0.009226776
120	0x3d82700b	0.06369027
121	0x3e5555a7	0.20833455
122	0x3af098bf	0.0018356069
123	0x3a782ec2	0.00094674167
124	0x3e4d8982	0.20071986
125	0xbd521968	-0.05129376
126	0xbe3984f7	-0.18117128
127	0x3d8c66a4	0.06855515
128	0x3e31f67f	0.17379187
129	0x3c0935c2	0.008374633
130	0x3d906b06	0.07051663
131	0x3db71f93	0.08941569
132	0x3d1001a1	0.035157803
133	0x3e91be85	0.28465667
134	0xbd345864	-0.04402961
135	0x3e091b50	0.13389325
136	0x3ce51bef	0.027967421
137	0xbdb041e9	-0.08606321
138	0xbe01489f	-0.12625359
139	0x3c650798	0.013978861
140	0x3d829a2c	0.06377062
141	0x3d0d9fb9	0.03457615
142	0xbd2fd597	-0.042928305
143	0x3d1ac37f	0.037784096
144	0x3e1f1291	0.15534426
145	0x3e35508b	0.17706506
146	0xbdc5a272	-0.096501246
147	0x3d570def	0.052503522
148	0xbc639a5f	-0.013891785
149	0x3e0e247f	0.1388111
150	0xbecab041	-0.39587596
151	0x3e2ae8c9	0.16690363
152	0xbaf0699d	-0.0018342022
153	0x3e5312fa	0.20612708
154	0x3d4370ed	0.047715116
155	0x3e20917a	0.15680495
156	0xbd3653d6	-0.044513546
157	0xbd3e0d5b	-0.046399456
158	0x3d4a0c8c	0.049328372
159	0xbd6924da	-0.05691991
160	0xbe426597	-0.18984066
161	0x3d5c4837	0.053779807
162	0x3e2be69f	0.16787194
163	0x3d620b35	0.05518647
164	0xbc5f0d83	-0.013614061
165	0x3c9ef111	0.019402059
166	0x3d81a754	0.063307434
167	0x3d062280	0.032747746
168	0xbd08e8b2	-0.03342504
169	0x3dbc8a83	0.092061065
170	0xbd1c2ff9	-0.038131688
171	0x3e5f1f43	0.21789269
172	0x3dfc136f	0.12308394
173	0xbd12a210	-0.035799086
174	0x3e024f6b	0.12725608
175	0xbb12a214	-0.0022374438
176	0xbcdc86a7	-0.026919676
177	0xbdd9479d	-0.10609362
178	0x3d88ef61	0.06686283
179	0x3dc2b125	0.09506444
180	0x3de98f50	0.11404288
181	0x3cbb7bef	0.022886245
182	0xbde122eb	-0.10992988
183	0xbcc9a7a6	-0.024616074
184	0xbe03f004	-0.12884527
185	0x3e0765ab	0.13222377
186	0x3bc31b65	0.0059541934
187	0xbd8370ce	-0.06418
188	0xbdeb1743	-0.11479046
189	0x3e2923b5	0.16517527
190	0xbc87eac1	-0.016591432
191	0xbe707878	-0.23483455
192	0xbe51ca9f	-0.2048745
193	0x3d807a57	0.062733345
194	0xbd639cf3	-0.0555696
195	0x3c76c6f8	0.015062086
196	0x3dd9d7a0	0.1063683
197	0xbdcc94de	-0.09989332
198	0xbdb1bbb3	-0.08678379
199	0xbdfb966f	-0.12284552
200	0x3c861247	0.016366137
201	0xbd6c6808	-0.0577164
202	0x3e199ca7	0.15001164
203	0x3d8b39cb	0.067981325
204	0xbd868c3e	-0.06569718
205	0xbc01d5e1	-0.007924528
206	0x3dd55e23	0.10418346
207	0xbdfdb5d8	-0.123881996
208	0xbe0e649f	-0.13905571
209	0xbdd64998	-0.10463256
210	0xbd63f5fb	-0.055654507
211	0xbd87fed9	-0.06640405
212	0xbd97c57c	-0.07410714
213	0xbe02b7be	-0.12765405
214	0xbcd88ecb	-0.026435276
215	0x3dd539f8	0.10411447
216	0x39ef1e42	0.00045608176
217	0x396e07a5	0.00022700297
218	0xbd49827f	-0.049196716
219	0xbd104fb1	-0.03523225
220	0xbd906ad5	-0.070516266
221	0x3a91e92a	0.001113211
222	0x3c240f35	0.010013391
223	0x3e399a6d	0.18125315
224	0x3e0aa2d7	0.13538681
225	0x3e74a512	0.23891094
226	0x3e31eb01	0.17374803
227	0xbc7b59f3	-0.01534127
228	0xbe3d9453	-0.18513612
229	0x3ca1cf3a	0.019752134
230	0xbcfe543a	-0.031046022
231	0xbe5ab91d	-0.21359678
232	0xbdba608a	-0.091004446
233	0xbdb102e4	-0.086431295
234	0x3d8d2446	0.06891684
235	0x3ca719b7	0.020398004
236	0xbd39e7d3	-0.0453871
237	0x3e162263	0.14661555
238	0x3b68ee3a	0.0035542385
239	0x3e166583	0.14687161
240	0x3e0c541f	0.13703965
241	0xbd6af865	-0.057365794
242	0xbdda2ec0	-0.10653448
243	0x3e451c08	0.19248974
244	0xbdbfbfcf	-0.093627565
245	0x3e0c6437	0.13710104
246	0xbc2f9955	-0.01071771
247	0xbd82fdbb	-0.063960515
248	0xbd55a36b	-0.0521578
249	0xbcab8880	-0.020939112
250	0x3cc86b30	0.024465173
251	0x3dea1707	0.11430173
252	0xbf5838fc	-0.8446195
253	0x3c8ed583	0.017435795
254	0xbd9402d3	-0.07227101
255	0xbcbb9f8f	-0.022903232

input_layer.bias f4 [32]
0	0xbea9c0ac	-0.3315481
1	0xbf7a7500	-0.9783478
2	0xbcd5ede4	-0.026114412
3	0x3b5d4100	0.0033760667
4	0xbe95c2c2	-0.2925015
5	0x3d870112	0.06592001
6	0xbd99ba75	-0.07506267
7	0x3c59f058	0.013301931
8	0xbdcb222d	-0.09918628
9	0xbe9dd079	-0.30823115
10	0xbd0b39e0	-0.03399074
11	0xbcd53528	-0.026026323
12	0x3ceaae44	0.02864755
13	0xbbb5bc80	-0.0055461526
14	0xbe4b9e01	-0.19884492
15	0xbeae0d4a	-0.33994514
16	0xbd9be43f	-0.07611894
17	0x3ce58538	0.028017625
18	0xbe24cb52	-0.16093186
19	0xbd29a238	-0.04141447
20	0xbe728e27	-0.2368704
21	0xbe8cdc07	-0.27511618
22	0xbe8e18dc	-0.2775334
23	0x3d78ba1c	0.060724363
24	0xbea05812	-0.31317192
25	0xbd8d05f4	-0.06885901
26	0x3d21f03e	0.039535753
27	0xbe916800	-0.28399658
28	0xbd95cbc1	-0.073142536
29	0xbd8a1386	-0.06742005
30	0x3d8ca4c6	0.068673655
31	0xbdca923c	-0.09891173

hidden_layer1.weight f4 [64, 32]
0	0x3daa6d5d	0.08321641
1	0xbf5c5319	-0.86064297
2	0x3e141c22	0.14463857
3	0xbda02628	-0.07819778
4	0x3e1566a3	0.14589934
5	0x3d3f6db5	0.046735484
6	0xbd6dab82	-0.05802489
7	0xbc4c846f	-0.0124827465
8	0x3cd3d63a	0.025858987
9	0x3d412a4b	0.047159474
10	0x3cd3322b	0.025780758
11	0xbcd86660	-0.026416004
12	0xbdc31817	-0.09526079
13	0xbcaa8e9f	-0.02081996
14	0xbdd61393	-0.10452952
15	0x3e23c5b4	0.15993387
16	0x3e3e5275	0.18586142
17	0xbc0bc3fd	-0.008530614
18	0xbd31c8dc	-0.043404445
19	0x3d9694cf	0.07352602
20	0x3e0c6b16	0.13712725
21	0xbda682b2	-0.08130397
22	0x3c7a7cd3	0.0152885495
23	0xbe3dd568	-0.1853844
24	0xbdbcd725	-0.09220723
25	0x3b82bfb8	0.00399014
26	0x3e356b0d	0.17716618
27	0xbcafd27e	-0.021462675
28	0xbdc2a74c	-0.095045656
29	0x3dbc7374	0.092017084
30	0x3d31ad0b	0.043377917
31	0x3cce9b50	0.025220543
32	0xbde4e8aa	-0.1117719
33	0xbea79f74	-0.3273884
34	0xbc985013	-0.01859287
35	0xbdc531e9	-0.0962866
36	0x3c7f610b	0.015587102
37	0x3d80e80c	0.062942594
38	0xbe619537	-0.22029577
39	0xbe04f14f	-0.12982677
40	0xbdd08ea0	-0.101834536
41	0xbe9dfb5b	-0.30855832
42	0x3d674e3a	0.056471087
43	0xbe1b4180	-0.15161705
44	0xbd06cdc8	-0.032911092
45	0x3e289023	0.16461234
46	0xbe9e822b	-0.30958685
47	0xbc911d10	-0.017714053
48	0xbd5abc23	-0.053402077
49	0xbd6c638b	-0.05771212
50	0xbe68a535	-0.22719271
51	0xbe2b5461	-0.16731407
52	0xbe62dffd	-0.22155757
53	0xbea79d48	-0.32737184
54	0xbdb84bfb	-0.08998867
55	0x3de24e3b	0.110500775
56	0xbeb3a705	-0.35088363
57	0xbeda9fff	-0.42700192
58	0x3d7a1e60	0.061064124
59	0xbcf328e7	-0.02968259
60	0x3bf8d94b	0.0075942627
61	0xbe80f2fb	-0.2518538
62	0xbe6bb305	-0.2301751
63	0xbd90c543	-0.07068875
64	0x3e6e59f3	0.232765
65	0xbdbebb1a	-0.093130305
66	0xbc694a9b	-0.014238979
67	0x3d57b1ed	0.052659918
68	0x3e6348d3	0.22195749
69	0x3d12f8a7	0.035881665
70	0xbc7117ab	-0.014715116
71	0xbb0e53be	-0.0021717395
72	0x3b925b88	0.004466478
73	0xbd3345d2	-0.043767758
74	0xbdd2bc1f	-0.102897875
75	0xbd779aff	-0.06045055
76	0xbe0e3276	-0.13886437
77	0xba8ad0f7	-0.0010590841
78	0x3d6e214f	0.058137234
79	0x3ea51d1b	0.32248768
80	0xbd3dcd1f	-0.046338197
81	0xbd2a9dbf	-0.041654345
82	0xbcaf8c69	-0.021429257
83	0x3d5d8c6f	0.054089006
84	0x3e7ff098	0.24994123
85	0xbe2072d9	-0.15668811
86	0x3e293fb1	0.16528203
87	0xbd407c39	-0.046993468
88	0xbd6fe6dd	-0.058569778
89	0xbe7ea445	-0.24867351
90	0x3bc0d9df	0.0058853473
91	0x3e59cda8	0.21269858
92	0x3d73f175	0.059556443
93	0x3da94a41	0.08266116
94	0xbda720a6	-0.08160524
95	0x3e0e308e	0.1388571
96	0xbeb34c65	-0.35019222
97	0xbdd8ea9b	-0.105916224
98	0x3dae2ed6	0.08505027
99	0x3e309f71	0.17248322
100	0xbea47ff8	-0.32128882
101	0x3d641b53	0.05569012
102	0xbdcaf2b8	-0.09909576
103	0xbc038d96	-0.008029362
104	0xbe2213a4	-0.15827805
105	0xbe80de32	-0.25169522
106	0xbd83592e	-0.06413494
107	0xbe133eea	-0.14379469
108	0xbe2aca73	-0.16678791
109	0x3ced17ca	0.028942008
110	0xbc600142	-0.013672175
111	0xbe683364	-0.22675854
112	0xbc1c7d32	-0.009551333
113	0x3e55d7e7	0.20883141
114	0xbdad853a	-0.084726766
115	0xbe98043a	-0.29690725
116	0xbe84bfba	-0.25927526
117	0xbd8ee86e	-0.06977926
118	0xbe3afb19	-0.18259849
119	0xbd422e1a	-0.047407247
120	0xbdfe74bf	-0.12424611
121	0xbdc1b189	-0.0945769
122	0x3d68b98d	0.05681758
123	0xbe457b12	-0.19285229
124	0x3d2fbb00	0.042902946
125	0xbe0ec35d	-0.13941713
126	0xbbb5af55	-0.005544583
127	0xbeb73a39	-0.35786608
128	0xbdd49bc0	-0.103812695
129	0x3ffb0e68	1.9613771
130	0x3d632f5f	0.0554651
131	0xbbe18fd8	-0.0068836026
132	0x3d94ecdf	0.07271742
133	0x3d58795a	0.052850105
134	0x3f6e7a76	0.9315561
135	0xbe085980	-0.13315392
136	0x3f1df6e0	0.61704826
137	0x3f554b39	0.83317906
138	0xbbfb3953	-0.0076667457
139	0x3cbb798e	0.02288511
140	0x3d837fea	0.06420882
141	0xbe420383	-0.18946652
142	0x3f55bbdf	0.83489794
143	0xbd0b2209	-0.033968005
144	0x3c96552a	0.018351156
145	0xbd905747	-0.07047897
146	0xbe003173	-0.12518863
147	0x3f8e0249	1.1094447
148	0xbd9e14a3	-0.0771878
149	0xbe034a4b	-0.1282131
150	0xbde5da20	-0.11223245
151	0xbc75eed8	-0.015010558
152	0x3d9ff795	0.078108944
153	0xbd8bcacd	-0.068257906
154	0xbdf9e9e3	-0.122028135
155	0xbc5dba0a	-0.013533125
156	0x3d343d5f	0.04400384
157	0x3f6ff28f	0.9372949
158	0xbdbfd23d	-0.09366272
159	0x3f5ec22a	0.8701502
160	0xbd7203e5	-0.059085745
161	0x402a8ff3	2.665036
162	0xbe4b0255	-0.19825108
163	0x3d3cca48	0.046091348
164	0x3c519f57	0.012794337
165	0xbc549f0a	-0.012977371
166	0x3f081d82	0.53170025
167	0x3e36b507	0.17842494
168	0x3e1b7db7	0.15184675
169	0x3f3d5665	0.7395995
170	0xbde42318	-0.11139506
171	0xbe01f1ad	-0.12689848
172	0x3ec036e3	0.37541875
173	0xbd42f5be	-0.04759764
174	0x3f3c32fa	0.73515284
175	0xbdbb5375	-0.091467775
176	0x3e970fe3	0.29504308
177	0x3e1cfbcf	0.15330432
178	0x3d3587ce	0.044318967
179	0xbcce8763	-0.025211042
180	0x3e084531	0.13307644
181	0x3d37a1a3	0.044831883
182	0x3d488339	0.04895327
183	0x3d001056	0.03126558
184	0x3b2f4e47	0.0026749538
185	0xbd4bd7b1	-0.049766246
186	0xbdbed545	-0.09318022
187	0xbdb0d201	-0.08633805
188	0xbe12e53e	-0.14345261
189	0xbd6861c8	-0.056733876
190	0xbd92e826	-0.07173185
191	0x3d7838b7	0.060600962
192	0xbd285fe0	-0.04110706
193	0x400c11e8	2.188593
194	0xbe85b61f	-0.2611551
195	0x3e2fee47	0.1718074
196	0x3d134427	0.035953667
197	0xbd729cc3	-0.05923153
198	0xbe5fb760	-0.21847296
199	0x3c0385ef	0.008027538
200	0x3e3ae1de	0.18250224
201	0xbdb7f549	-0.08982331
202	0xbdcb8e1a	-0.09939213
203	0x3e2782c7	0.16358481
204	0x3e07f62b	0.132775
205	0xbd2aa057	-0.04165682
206	0x3e1b0260	0.15137625
207	0x3bb6b9a7	0.0055763307
208	0x3dd01f70	0.10162246
209	0xbde6fe2a	-0.11278947
210	0x3d8e823f	0.06958436
211	0xbdda71cb	-0.106662355
212	0x3de62d63	0.112391256
213	0x3e0de4f0	0.13856864
214	0xbd21fcbb	-0.039547663
215	0x3e1459da	0.144874
216	0xbe13fd43	-0.1445208
217	0x3e2aecbd	0.16691871
218	0xbdad7a53	-0.08470597
219	0xbe03f7e0	-0.12887526
220	0x3d9d0c97	0.07668417
221	0xbdd57aab	-0.10423788
222	0x3de44b15	0.11147133
223	0x3c1f81e7	0.009735561
224	0x3dc0513d	0.09390495
225	0xbb4a32fd	-0.0030853145
226	0xbd07dc44	-0.033169046
227	0x3d8a1ef7	0.06744187
228	0x3d363bf5	0.044490773
229	0xbdb65d40	-0.08904505
230	0xbcc2b48b	-0.02376773
231	0x3e2317dc	0.1592707
232	0xbcbd9a1a	-0.02314477
233	0x3c265d1c	0.010154035
234	0xbdb3fd71	-0.087885745
235	0xbd8f22e6	-0.06989078
236	0xbd03fc56	-0.03222307
237	0xbe4bde73	-0.19909076
238	0xbe39acf8	-0.18132389
239	0xbd4ce162	-0.05001963
240	0xbe0ed16e	-0.13947079
241	0x3d3656e4	0.04451646
242	0xbe3584c6	-0.1772643
243	0x3d279c0f	0.040920313
244	0xbd788c4b	-0.06068067
245	0x3bd29932	0.0064269537
246	0x3c903782	0.017604593
247	0x3e4ee1c5	0.20203312
248	0x3e32d2a8	0.17463171
249	0xbc4c2f09	-0.012462386
250	0xbe0516e3	-0.12997012
251	0x3d98b7e4	0.07456949
252	0xbe3492d9	-0.17634143
253	0x3c6fa6a8	0.014627136
254	0x3e76c935	0.24100192
255	0xbdc1c9ea	-0.0946234

hidden_layer1.bias f4 [64]
0	0x406f4f41	3.7392123
1	0xbecb76d8	-0.39739108
2	0xbf0b3904	-0.54383874
3	0xbdbba2a8	-0.091618836
4	0xbea6ca7d	-0.3257636
5	0xbd7ec172	-0.062196203
6	0xbe3cd604	-0.18441015
7	0xbd6b5e5c	-0.057463035
8	0xbeaf52dd	-0.34242907
9	0x407f397f	3.9878843
10	0xbe3dbd1a	-0.18529168
11	0x419b2128	19.39119
12	0xbed48ff1	-0.4151607
13	0xbd922bfd	-0.07137296
14	0xbea9a8e4	-0.33136666
15	0xbe7c1be9	-0.24620022
16	0xbdd44b71	-0.10365952
17	0xbd468a38	-0.04847166
18	0xbc80c7c0	-0.015720248
19	0xbf264a1c	-0.6495683
20	0xbf27210f	-0.6528482
21	0x4084157f	4.127624
22	0xbe89e608	-0.26933312
23	0xbf2c803b	-0.67383164
24	0xbe228952	-0.15872696
25	0xbbc21780	-0.0059232116
26	0xbeac35ab	-0.33634695
27	0xbe7f52d0	-0.24933934
28	0xbd152cf2	-0.036419816
29	0xbdccb51c	-0.09995481
30	0xbf083ccf	-0.53217787
31	0xbf29f847	-0.66394466
32	0xbe163796	-0.14669642
33	0xbdb0ba84	-0.08629325
34	0xbea7e272	-0.32789952
35	0xbecb7a1d	-0.39741603
36	0xbeded57a	-0.43522245
37	0xbf3d0442	-0.7383462
38	0xbee6e3d1	-0.45095685
39	0xbf1032ea	-0.5632769
40	0xbf38f5d9	-0.72250134
41	0xbe45b79d	-0.19308324
42	0xbe1cabe1	-0.15299942
43	0xbf25c96f	-0.6476049
44	0xbe983ee8	-0.29735494
45	0xbe27a134	-0.16370088
46	0xbe5a059d	-0.21291204
47	0xbce2a438	-0.027666196
48	0xbdee4eda	-0.116361335
49	0xbf292ca0	-0.6608372
50	0xbe64bf63	-0.22338633
51	0x418c9494	17.572548
52	0xbce6a813	-0.028156316
53	0xbf6cb4e9	-0.92463547
54	0xbe379115	-0.17926438
55	0xbe13fd4f	-0.14452098
56	0xbf0d63b1	-0.5523024
57	0xbcd96a00	-0.026539803
58	0xbf13f77c	-0.57799506
59	0xbee862ac	-0.4538778
60	0xbf34a058	-0.70557165
61	0xbe643503	-0.22285847
62	0xbec344d1	-0.3813844
63	0xbdb5fdb2	-0.08886279

hidden_layer2.weight f4 [32, 64]
0	0xbf9eddd6	-1.2411449
1	0xbd6cf04a	-0.057846345
2	0xbfa52354	-1.2901406
3	0xbdd1ac40	-0.10237932
4	0xbf638bb9	-0.88885075
5	0xbf74fbf9	-0.9569698
6	0xbf770c30	-0.9650297
7	0x3d11326f	0.035448488
8	0xbe97e79b	-0.29668888
9	0xbf94db1e	-1.1629369
10	0x3c353620	0.011060268
11	0xbf81a0fd	-1.0127255
12	0xbdd41bdd	-0.10356877
13	0xbebc42b3	-0.36769637
14	0xbf902b7b	-1.1263269
15	0xbef01db2	-0.46897656
16	0x3d9db433	0.07700386
17	0x3d23181d	0.039817918
18	0xbd84a6c7	-0.06477123
19	0xbda0fa47	-0.078602366
20	0xbc379331	-0.011204527
21	0xbf9e564a	-1.2370083
22	0xbc267082	-0.01015866
23	0xbfbfaf9c	-1.4975467
24	0xbe88882e	-0.26666397
25	0x3d2f8ef2	0.042860933
26	0xbe837135	-0.25672308
27	0x3e283fc6	0.16430578
28	0xbe8fa4fd	-0.28055564
29	0xbe0951f1	-0.13410164
30	0xbe11f00f	-0.14251731
31	0xbfee227f	-1.8604277
32	0xbcab4c76	-0.020910483
33	0xbd92409d	-0.0714123
34	0xbebd515d	-0.36976138
35	0xbe60d655	-0.21956761
36	0xbec61410	-0.3868718
37	0xbe0f13da	-0.13972417
38	0xbe9c4414	-0.3052069
39	0xbe1005ab	-0.14064662
40	0xbf27c5d5	-0.6553624
41	0xbf7f5d17	-0.9975142
42	0x3e7d3ef3	0.24731044
43	0xbfbb4e00	-1.4633179
44	0xbe86cf90	-0.26330233
45	0xbdd65657	-0.10465687
46	0x3d57cc2b	0.052684944
47	0xbebbbf2c	-0.3666929
48	0xbb8cb20f	-0.004293687
49	0xbfcacda9	-1.5844012
50	0xbf8f1741	-1.1178972
51	0xbe02944f	-0.12751888
52	0xbe162e77	-0.14666162
53	0xbf7beef4	-0.9841149
54	0xbef00c88	-0.4688456
55	0xbe7fd917	-0.24985157
56	0xbf853527	-1.0406846
57	0xbcfdd29b	-0.030984214
58	0x3ddb37b5	0.10703985
59	0x3dbebf74	0.093138605
60	0x3d921309	0.07132537
61	0xbe97c207	-0.2964022
62	0xbe5a075c	-0.2129187
63	0xbd16590f	-0.036706027
64	0x3dfbf395	0.12302319
65	0x3dd2d9dd	0.102954604
66	0xbe949743	-0.29021654
67	0xbe1be883	-0.15225415
68	0xbf3c0668	-0.73447275
69	0xbf014e8a	-0.50510466
70	0xbf201988	-0.6253896
71	0xbc58eba8	-0.013239779
72	0xbec6e6cb	-0.38847956
73	0xbe43629e	-0.19080588
74	0x3d0655bf	0.032796618
75	0x3df3c15b	0.11902114
76	0xbe62704f	-0.22113155
77	0xbe9e4da8	-0.30918622
78	0xbea7d408	-0.32778955
79	0xbe79848c	-0.24366969
80	0xbcd0589a	-0.025432874
81	0x3e309e51	0.17247893
82	0x3c4fc2e3	0.012680742
83	0xbd1767b4	-0.036964133
84	0x3e3ae052	0.18249634
85	0x3d8c5c4e	0.06853543
86	0xbe1fe6cb	-0.15615384
87	0xbdbc1817	-0.09184282
88	0xbedad428	-0.42739987
89	0x3ae1c48f	0.0017224717
90	0xbe81fa41	-0.2538624
91	0x3dbf8cbf	0.09353017
92	0xbe4fa56b	-0.20277946
93	0xbe133498	-0.14375532
94	0xbc852b8c	-0.016256116
95	0xbecf23af	-0.40456912
96	0xbb757a6b	-0.0037457
97	0x3e11dd1e	0.14244506
98	0xbe98ee73	-0.29869422
99	0xbe469945	-0.19394405
100	0xbe3e9c4a	-0.18614307
101	0x3d5ea6fb	0.054358464
102	0xbe5cec4b	-0.21574514
103	0x3db80947	0.089861445
104	0x3ddf0b0b	0.10890778
105	0xbf28f108	-0.65992785
106	0xbdc80813	-0.09767165
107	0xbf0dd267	-0.55399173
108	0xbe140632	-0.14455488
109	0xbda6568f	-0.081219785
110	0x3da9e607	0.08295827
111	0xbe8157a3	-0.25262174
112	0xbdd0cf3b	-0.10195776
113	0xbe33d871	-0.17563035
114	0xbf38cfbc	-0.7219198
115	0xbecc6f32	-0.39928585
116	0xbeb1b34a	-0.347071
117	0x3d6ec01f	0.05828869
118	0xbed62316	-0.41823643
119	0xbe9175aa	-0.28410083
120	0xbf1490fd	-0.58033735
121	0x3c05fe3b	0.008178289
122	0x3d950d42	0.07277919
123	0xbd1b0aa8	-0.03785196
124	0x3dfc151d	0.123087145
125	0xbe866e12	-0.26255852
126	0xbdfba76e	-0.12287794
127	0x3d840720	0.064466715
128	0xbf1988fd	-0.5997465
129	0x3e9e0c03	0.3086854
130	0xbec2b4fc	-0.38028705
131	0xbe60d6c2	-0.21956924
132	0xbf6ba975	-0.92055446
133	0xbf3204ac	-0.6953838
134	0xbf4bd753	-0.79625434
135	0xbe0c776b	-0.1371743
136	0xbeff6e20	-0.49888706
137	0xbf5eea19	-0.87075955
138	0x3daab9ce	0.08336221
139	0xbf45ba43	-0.7723734
140	0xbe32f5b0	-0.17476535
141	0xbe925bb6	-0.28585595
142	0xbf03a53a	-0.5142399
143	0xbe3d820d	-0.18506642
144	0xbe0a9e97	-0.1353706
145	0x3d27d647	0.040975835
146	0xbd561088	-0.05226186
147	0x3c40ba40	0.011763155
148	0xbe357160	-0.1771903
149	0xbf5a62fd	-0.85307294
150	0x3df8a988	0.121417105
151	0xbebb11ca	-0.3653701
152	0xbe350a4e	-0.17679712
153	0xbd0b979c	-0.034080133
154	0xbe25e9cf	-0.16202472
155	0xbe1145a1	-0.14186718
156	0xbee9b514	-0.45645964
157	0xbb385971	-0.0028129483
158	0xbd8bd0a9	-0.06826908
159	0xbeaa3c90	-0.3324933
160	0x3d4cca81	0.04999781
161	0x3e7f7a6d	0.24949045
162	0xbe283cf3	-0.164295
163	0xbe60e121	-0.2196088
164	0xbde00811	-0.109390385
165	0x3dd2fc1f	0.103019945
166	0xbead9f7a	-0.33910733
167	0xbde16d6b	-0.11007198
168	0x3cec2c2a	0.028829653
169	0xbf53eb7e	-0.8278121
170	0xbe0cb43f	-0.13740633
171	0xbe8acbe9	-0.27108696
172	0xbe9197be	-0.28436083
173	0xbc2d8041	-0.01058966
174	0xbe0ea1b3	-0.13928871
175	0xbe784f6f	-0.24249052
176	0xbd07cf2b	-0.033156555
177	0xbee969ab	-0.4558843
178	0xbf30a716	-0.6900495
179	0xbf55b1fd	-0.83474714
180	0xbebafaa0	-0.36519337
181	0x3cb63da3	0.022246188
182	0xbea4a915	-0.3216025
183	0xbe55eeec	-0.20891923
184	0xbda92980	-0.082598686
185	0x3e14ef05	0.14544304
186	0x3e1c0237	0.1523522
187	0x3bb35875	0.0054731914
188	0x3d65181b	0.055931192
189	0xbe69197d	-0.2276363
190	0xbea471b6	-0.32118005
191	0x3d583b7f	0.052791115
192	0xbe1540bc	-0.14575475
193	0xbebc1f94	-0.36742842
194	0xbe6cf032	-0.23138502
195	0x3e998318	0.2998283
196	0xbe1d06d0	-0.1533463
197	0x3e0da0fa	0.13830939
198	0xbd193e38	-0.037412852
199	0x3dae9b63	0.085257314
200	0x3ea3bd12	0.31980187
201	0xbd66f40b	-0.05638508
202	0xbd3d586a	-0.046226896
203	0xbe81e434	-0.25369418
204	0x3ecb7759	0.39739493
205	0xbe8a9b25	-0.2707149
206	0xbebd2b13	-0.36946926
207	0x3db4fb2b	0.08836969
208	0xbe4f557b	-0.20247452
209	0xbf0058db	-0.5013558
210	0x3c67c3a5	0.014145766
211	0xbd76cfd5	-0.060256798
212	0x3c48308a	0.012218604
213	0x3dd1b967	0.10240441
214	0x3df6ad9d	0.12044833
215	0xbe865219	-0.2623451
216	0xbec59d59	-0.3859661
217	0xbda4f5c2	-0.08054687
218	0x3eb505fd	0.3535613
219	0xbcabd069	-0.020973401
220	0xbe3799b7	-0.17929731
221	0xbcc4c04c	-0.024017476
222	0x3d8166cb	0.06318434
223	0xbe3d3c2d	-0.18479986
224	0x3e006059	0.12536754
225	0x3d7531fb	0.05986212
226	0x3efd8822	0.49517924
227	0x3ec2c8ce	0.38043827
228	0x3eab219b	0.33424076
229	0x3db9a60c	0.09064874
230	0x3e8b0691	0.27153447
231	0x3c84c4ac	0.016207062
232	0x3d568b7f	0.052379128
233	0x3d4e7768	0.050406843
234	0xbea50ee9	-0.32237938
235	0xbecd1aa0	-0.40059376
236	0x3ebce698	0.3689468
237	0xbd922050	-0.07135069
238	0xbd7c72dc	-0.061632976
239	0xbc506bf8	-0.012721054
240	0xbd948af4	-0.07253066
241	0xbe3d9976	-0.18515572
242	0xbddb3fbb	-0.10705515
243	0x3e61d052	0.22052124
244	0xbda4aa6b	-0.08040317
245	0xbd48160f	-0.04884916
246	0xbdfb7e87	-0.122799926
247	0x3ec15f9e	0.37768263
248	0x3dc80616	0.09766786
249	0x3e5cff8b	0.21581857
250	0xbdfc81a5	-0.12329415
251	0xbe862f3f	-0.2620792
252	0xbd9b2bf0	-0.0757674
253	0xbe9b650e	-0.30350536
254	0x3de1736b	0.11008342
255	0xbe0f891b	-0.14017145

hidden_layer2.bias f4 [32]
0	0xbfeb5661	-1.8385736
1	0xbec170fa	-0.37781507
2	0xbf41ac59	-0.75653607
3	0xbcedb756	-0.029018085
4	0x3d53a23b	0.051668387
5	0xbdb375dc	-0.08762714
6	0x3e282b0a	0.16422668
7	0xbe488ef3	-0.19585781
8	0xbfa9c25f	-1.3262442
9	0xc000b3ee	-2.010982
10	0xbe8d1b81	-0.27560046
11	0x3dfbcc28	0.12294799
12	0xbec101fc	-0.37696826
13	0xc0ab3068	-5.349659
14	0xbfad0054	-1.3515725
15	0xc0d28170	-6.5783005
16	0xc00f866f	-2.2425802
17	0x3d098b3a	0.033580042
18	0x3eb83ce1	0.35983947
19	0xbea2ca70	-0.31795073
20	0xbf1804b9	-0.59382206
21	0xbe431d76	-0.19054207
22	0x3ed88113	0.42285976
23	0x3e05db1e	0.13071868
24	0xbedc2533	-0.4299713
25	0xbef8a9f8	-0.48567176
26	0xbf7040ae	-0.93848693
27	0xbbe7cc00	-0.0070738792
28	0xbf9ca2b4	-1.2237153
29	0x3f9e85de	1.2384603
30	0xc0342694	-2.8148546
31	0xbf1780df	-0.59181017
