Comparison/TrainedModel/20-0.001-108-Agent/node_agent_48.pth (torch, 43844 bytes, 6 tensors)

input_layer.weight f4 [32, 189]
0	0xbdc7bb1a	-0.09752484
1	0xbd62f927	-0.05541339
2	0x3e025122	0.12726262
3	0xbdcc3217	-0.099704914
4	0x3afa2125	0.0019083364
5	0xbe2421a2	-0.16028455
6	0xbb81e4d7	-0.0039640474
7	0x3cac1a2f	0.021008579
8	0x3d6646c7	0.056219842
9	0xbdb16f30	-0.086637855
10	0xbdd78d13	-0.10524955
11	0xbc6ae850	-0.014337614
12	0x3e527197	0.20551144
13	0x3db8c5c6	0.09022097
14	0x3c920d41	0.017828586
15	0xbe07c184	-0.13257414
16	0xbdf8ff58	-0.12158078
17	0x3d8ce51b	0.06879636
18	0xbd274861	-0.04084051
19	0xbdd9e38b	-0.106391035
20	0xbe3b1815	-0.18270905
21	0x3ddbd565	0.10734061
22	0xbe15e9f7	-0.14640032
23	0xbcfa3440	-0.030542493
24	0xbdf77d5d	-0.12084458
25	0xbdca9fdf	-0.09893774
26	0xbc02bb24	-0.007979188
27	0x3d517a43	0.05114199
28	0xbe6e5dad	-0.23277922
29	0x3d191916	0.03737744
30	0x39f84552	0.00047353894
31	0x3d27cbd5	0.040965874
32	0xbb566f4d	-0.003272015
33	0xbdb1a955	-0.08674876
34	0x3d3520c9	0.04422072
35	0x3c873248	0.016503468
36	0x3c092381	0.008370281
37	0x3e17dc63	0.14830165
38	0x3e0a7a45	0.13523205
39	0xbc3199df	-0.010839908
40	0x3e8bd4c8	0.27310777
41	0x3d6c1317	0.057635393
42	0xbe536243	-0.20642953
43	0xbdb8202b	-0.089905106
44	0x3d9d9c26	0.076957986
45	0x3d4233b5	0.047412593
46	0xbd5f227a	-0.05447624
47	0x3cce6025	0.02519233
48	0x3dbd9cdd	0.09258435
49	0xb9c90687	-0.0003834257
50	0x3dde0660	0.1084106
51	0xbd49746d	-0.049183298
52	0x3e469808	0.19393933
53	0x3d82fb47	0.063955836
54	0xbd14952a	-0.036275066
55	0x3d9176fd	0.07102773
56	0xbe07d80a	-0.13266006
57	0x3d165bf6	0.036708795
58	0x3c04dd75	0.00810944
59	0x3e0657e3	0.13119464
60	0xbda62354	-0.08112207
61	0x3c2ab5a2	0.010419281
62	0xbd25a7b7	-0.04044315
63	0xbd2a37af	-0.04155701
64	0x3da32413	0.07965865
65	0x3e1dc73b	0.15408032
66	0x3d665e53	0.0562423
67	0x3e2a2918	0.16617239
68	0xbd000c53	-0.031261753
69	0xbd309f7a	-0.04312084
70	0xbe13a90d	-0.14419957
71	0xbea94339	-0.330591
72	0xbe8f8720	-0.2803278
73	0xbdded300	-0.10880089
74	0x3e19068e	0.14943907
75	0x3ee198d4	0.4406191
76	0x3d67f391	0.056628767
77	0x3e92bef6	0.28661317
78	0xbc39f085	-0.011348848
79	0x3ea7fbe9	0.3280938
80	0xbd4f216d	-0.050568987
81	0x3e4e6b39	0.2015809
82	0x3df7cead	0.12099967
83	0xbd8423bb	-0.064521275
84	0x3cee3c7b	0.029081574
85	0xbe6d60c7	-0.23181449
86	0xbd2b7df4	-0.041868165
87	0xbe76cc83	-0.24101453
88	0xbd760ad2	-0.060068913
89	0xbddbe12f	-0.1073631
90	0x3d3db7f6	0.046318017
91	0xba22136a	-0.00061827025
92	0xbba8ff92	-0.0051574195
93	0x3c4b2a32	0.012400197
94	0x3e09204b	0.13391225
95	0xbe1bf1d4	-0.15228969
96	0x3ce41792	0.02784327
97	0xbd7accb3	-0.061230373
98	0x3ad9861d	0.0016595755
99	0xbdf5ae78	-0.11996168
100	0x3d261fa4	0.04055752
101	0xbe2da3dc	-0.16957039
102	0x3d9936d2	0.07481159
103	0x3bb5dbbf	0.0055498774
104	0x3d4473cc	0.047961995
105	0xbc5af4d8	-0.013364039
106	0xbd90ff87	-0.07079988
107	0x3d86839c	0.06568071
108	0x3ba1aea6	0.00493415
109	0x3b15c7f9	0.0022854789
110	0x3e0759ab	0.132178
111	0x3d1d2d33	0.038373183
112	0xbd0ee083	-0.03488208
113	0x3cdfa293	0.027299201
114	0x3d39ebb3	0.045390796
115	0xbb61fc0f	-0.0034482514
116	0xbdba5cfd	-0.09099767
117	0x3d6a075b	0.05713592
118	0x3da71d5c	0.08159897
119	0xbe11ab71	-0.14225556
120	0xbe00d6ff	-0.12582015
121	0xbe0f289b	-0.13980334
122	0xbd4c9094	-0.049942568
123	0x3d51f5b7	0.051259723
124	0xbe0c2d15	-0.13689072
125	0xbd44c94c	-0.048043534
126	0x3dc0fe5e	0.09423517
127	0xbe3b1751	-0.18270613
128	0x3d87fecf	0.06640398
129	0xbbf17e30	-0.007369779
130	0x3c23b64c	0.009992193
131	0x3da963c9	0.08270986
132	0xbd6b337d	-0.05742215
133	0x3de099f0	0.10966861
134	0x3da2be8d	0.07946501
135	0x3d95c8cc	0.073136896
136	0x3d6a2da0	0.057172418
137	0x3de2dddc	0.110774726
138	0x3d319b03	0.04336072
139	0xbdcde77a	-0.10053916
140	0x3bc6c63d	0.0060661123
141	0x3e0749bf	0.13211726
142	0xbd96ab8b	-0.07356938
143	0xbd891d4b	-0.0669504
144	0x3d0e4044	0.034729257
145	0xbd8ca315	-0.06867043
146	0xbda62ba6	-0.08113794
147	0xbd383f1b	-0.044982057
148	0x3ddcb5f0	0.10776889
149	0x3d4ee62d	0.05051248
150	0x3e0f93fc	0.14021295
151	0x3e397834	0.1811226
152	0x3c42807d	0.011871454
153	0xbbba1c1e	-0.0056796214
154	0x3b9646ae	0.0045860624
155	0xbd137f1e	-0.0360099
156	0x3d88732f	0.066625945
157	0xbc9714f0	-0.018442601
158	0x3dc380f3	0.095460795
159	0xbcf1f0cd	-0.029533768
160	0xbd00d0c7	-0.031449106
161	0xbdd78d42	-0.1052499
162	0xbb8c44cc	-0.004280662
163	0xbd9131f7	-0.07089608
164	0x3d2c78ac	0.04210727
165	0x3d82fd50	0.06395972
166	0xbd1c3034	-0.038131908
167	0x3d132a6a	0.03592912
168	0x3e7d3eef	0.24731039
169	0xbdc052c0	-0.09390783
170	0xbe0d190a	-0.13779083
171	0xbc333cf2	-0.010939823
172	0x3e0ef323	0.13959937
173	0x3e58ca4b	0.21170919
174	0xbbc6156b	-0.0060450337
175	0x3e67eaed	0.22648211
176	0xbc7d79a0	-0.015470892
177	0x3cbd7e07	0.023131384
178	0x3d6d8f4b	0.057997983
179	0xbc60d7bd	-0.013723311
180	0xbd536925	-0.051613946
181	0x3e1925b5	0.1495579
182	0x3e3266dc	0.1742205
183	0xbe0e1cb4	-0.13878137
184	0xbd448ffc	-0.047988877
185	0xbc06f6cb	-0.008237551
186	0x3e9d37f1	0.30706742
187	0xbcdb1413	-0.02674297
188	0xbcd0aecf	-0.02547398
189	0x3d38e0b7	0.04513618
190	0xbd855e41	-0.06512118
191	0xbe78fb1d	-0.24314542
192	0xbe294a9a	-0.16532364
193	0xbe15bea4	-0.14623505
194	0x3d9181df	0.07104849
195	0x3d5fdd10	0.05465418
196	0xbe33aa72	-0.17545488
197	0xbdfd0153	-0.12353768
198	0xbd99069f	-0.07471966
199	0xbc250303	-0.010071519
200	0x3c97dedb	0.018538883
201	0xbdbbbf43	-0.0916734
202	0xbe037f6e	-0.1284158
203	0xbd4cd3a7	-0.050006535
204	0x3d324739	0.043524954
205	0xbc4f64eb	-0.012658338
206	0xbc819e9c	-0.015822701
207	0xbe33228f	-0.17493652
208	0x3bc67fa7	0.006057698
209	0x3e3b18d3	0.18271188
210	0x3d67c01f	0.056579705
211	0xbd9b6242	-0.075871006
212	0xbda79f81	-0.0818472
213	0x3e34c544	0.17653376
214	0xbdd99212	-0.10623564
215	0xbd019bd1	-0.03164274
216	0xbe1c610f	-0.152714
217	0xbca21f53	-0.019790327
218	0xbd964c3e	-0.07338761
219	0xbcab9a48	-0.02094759
220	0x3d5fb54b	0.054616254
221	0xbc461b32	-0.012091445
222	0xbe41f191	-0.18939807
223	0x3d9b64e9	0.075876065
224	0xbac70c12	-0.0015186092
225	0x3c3b5c86	0.0114356335
226	0x3caca197	0.021073146
227	0x3dd433e5	0.103614606
228	0xbd9b9562	-0.07596852
229	0x3d693e8a	0.056944408
230	0x3d90f045	0.07077078
231	0x3d23322d	0.039842773
232	0x3e0ca3b5	0.13734324
233	0x3d8ea86b	0.06965717
234	0xbd8df3d7	-0.069312744
235	0xbe4ef3a0	-0.20210123
236	0x3e1c7b11	0.15281321
237	0x3bd9d313	0.0066474765
238	0xbd9a074e	-0.075209245
239	0x3dd02a4b	0.10164317
240	0x3dc232e8	0.09482366
241	0xbd4ce96b	-0.050027292
242	0xbdaa0c1f	-0.08303093
243	0x3c17efb3	0.009273457
244	0x3e0dddc3	0.13854127
245	0xbcf93a43	-0.03042329
246	0xbe2852ec	-0.16437882
247	0xbcf06a1b	-0.02934747
248	0x3d709ba0	0.058742166
249	0xbd646252	-0.055757828
250	0x3c8d83b1	0.01727471
251	0xbe3fbd4b	-0.18724553
252	0xbe2c415c	-0.16821808
253	0x3d91895a	0.07106276
254	0xbdf5cd3b	-0.12002035
255	0xbd761300	-0.060076714

input_layer.bias f4 [32]
0	0x3e354b9f	0.17704628
1	0x3d2cc4c1	0.042179827
2	0x3d37355a	0.044728614
3	0x3d4f2128	0.05056873
4	0x3e0574bc	0.13032812
5	0x3e013e47	0.12621413
6	0xbc7b2f45	-0.015331094
7	0x3e8fedf1	0.28111222
8	0x3da5a6f6	0.08088486
9	0xbc8b613e	-0.017014142
10	0x3e375110	0.17902017
11	0x3d35164c	0.044210717
12	0x3e570ee8	0.2100178
13	0x3eb31da4	0.34983552
14	0x3d30b044	0.04313685
15	0x3d319a9e	0.043360345
16	0x3c693cd0	0.01423569
17	0xbd0d1576	-0.034444295
18	0x3e1135a1	0.14180614
19	0x3c39e0b0	0.011345074
20	0x3e0ed742	0.13949302
21	0x3e0ef82b	0.13961856
22	0xbda5655d	-0.08075974
23	0x3cd0bcd0	0.025480658
24	0xbd375b2c	-0.044764683
25	0x3e3ea5d7	0.1861795
26	0xbb8439b0	-0.004035197
27	0xbc057f07	-0.008147961
28	0x3e1b985d	0.1519484
29	0x3d3602bc	0.0444362
30	0x3e8a766c	0.27043474
31	0x3c4b9b10	0.0124271065

hidden_layer1.weight f4 [64, 32]
0	0x3d983556	0.07432048
1	0x3df43bfb	0.11925503
2	0x3c081679	0.008306139
3	0x3dec2695	0.115307964
4	0xbd82c8eb	-0.06385978
5	0x3dfe0905	0.12404064
6	0x3cfe071d	0.031009251
7	0xbe3e7b9f	-0.18601845
8	0xbe037dee	-0.12841007
9	0x3e626a5d	0.22110887
10	0xbde1490b	-0.1100026
11	0x3d2f5d0f	0.042813357
12	0x3dbb3b12	0.09142126
13	0x3dc5f68f	0.09666168
14	0xbcbd0161	-0.023071947
15	0x3e2f5a3b	0.17124264
16	0xbd6d6ccb	-0.05796508
17	0x3d8de939	0.06929249
18	0xbcc8240e	-0.024431255
19	0xbd9656ca	-0.073407724
20	0xbdd7b7d7	-0.105331115
21	0xbd1e5c62	-0.038662322
22	0xbc39468b	-0.011308323
23	0xbcc55798	-0.02408962
24	0x3ca84b04	0.020543583
25	0x3dadfb73	0.08495226
26	0xbe50edb8	-0.20403183
27	0x3dbe71c3	0.09299042
28	0x3c69db3b	0.01427346
29	0x3e10665e	0.1410155
30	0xbe409216	-0.18805727
31	0x3d24152c	0.040059254
32	0x3d5ca3df	0.053867217
33	0x3dab3126	0.08358984
34	0xbd83f468	-0.06443101
35	0x3dacd7d9	0.08439607
36	0x3c6a84ff	0.014313935
37	0x3c9d8e13	0.019232785
38	0x3d8f73fa	0.07004543
39	0xbe373d55	-0.1789449
40	0xbdb932d2	-0.09042896
41	0xbdb1458a	-0.08655842
42	0x3c9b3e25	0.018950531
43	0x3e33f58b	0.17574136
44	0xbd81152b	-0.063028656
45	0x3dc29899	0.09501762
46	0xbcee70da	-0.029106546
47	0xbd3fdb76	-0.046840154
48	0x3d9c00f0	0.07617366
49	0xbd045e29	-0.03231636
50	0xbe28a5c6	-0.16469488
51	0x3befed60	0.0073219985
52	0x3d20f142	0.03929258
53	0xbe094c09	-0.13407911
54	0xbd115118	-0.035477728
55	0x3dbd4d79	0.09243292
56	0x3bfa3dca	0.0076367604
57	0x3dbe21f3	0.09283819
58	0x3a5fa21d	0.00085309317
59	0x3e3ebd7d	0.18626972
60	0xbd020698	-0.03174457
61	0x3d2a2572	0.041539617
62	0xbe42d433	-0.1902626
63	0xbe08ec8b	-0.13371484
64	0x3d09838d	0.033572722
65	0xbe113d5b	-0.14183562
66	0x3e4d2dbd	0.20036979
67	0x3d0d69f9	0.03452489
68	0xbceec52d	-0.029146755
69	0xbdb0d9d6	-0.08635299
70	0xbd85c80b	-0.06532296
71	0x3dc2da92	0.09514345
72	0xbd39d846	-0.04537227
73	0x3cf8c19b	0.030365756
74	0xbe54859a	-0.2075409
75	0x3d97849e	0.073983416
76	0x3e0d4e57	0.13799416
77	0xbd4b9837	-0.04970571
78	0x3e2cb49d	0.16865773
79	0x3d891f1c	0.06695387
80	0xbcaf6387	-0.021409763
81	0x3cc2a521	0.02376038
82	0x3e0388c7	0.12845145
83	0x3da76ade	0.0817468
84	0x3be9cdab	0.0071351132
85	0x3dadb4ad	0.08481727
86	0x3e2d05d4	0.16896755
87	0x3d7db99b	0.061944585
88	0x3e5d8b5a	0.2163519
89	0xbdc8b91f	-0.09800934
90	0x3dfc73bf	0.12326764
91	0x3d84633f	0.06464242
92	0xbd9c4023	-0.076294206
93	0x3b98ab03	0.004659058
94	0xbdb2a78f	-0.087233655
95	0xbd1e4cb6	-0.038647376
96	0xbde141e5	-0.109988965
97	0x3d6d472d	0.057929207
98	0xbd9cc05c	-0.07653877
99	0x3d4960e7	0.04916468
100	0xbb2fc2d2	-0.0026819003
101	0xbd91bef1	-0.07116497
102	0xbe7816f8	-0.24227512
103	0xbd3b7862	-0.045769103
104	0x3d26a29e	0.040682428
105	0xbd0e16cb	-0.034689706
106	0x3d9da4b7	0.076974325
107	0x3d8700e9	0.065919705
108	0x3e7e57d2	0.24838188
109	0x3e206fff	0.15667723
110	0xbcd3e89d	-0.025867755
111	0x3d175d37	0.03695413
112	0x3cfc2a45	0.030781874
113	0xbe2517b1	-0.16122319
114	0x3da8052d	0.08204112
115	0xbe543765	-0.20724256
116	0xbe1bae52	-0.15203217
117	0xbe1b1a93	-0.15146856
118	0x3e84d9b4	0.25947344
119	0xbac2a60a	-0.0014850509
120	0xbdc3882c	-0.09547457
121	0x3d12632d	0.035739113
122	0x3e33bda9	0.17552818
123	0xbe0d2f2b	-0.13787524
124	0x3a8b8250	0.0010643695
125	0xbd9967a3	-0.0749047
126	0xbdf08e8f	-0.11745941
127	0xbcc2e8d3	-0.02379266
128	0xbe20d688	-0.15706837
129	0x3dcd38fb	0.10020634
130	0x3da9e298	0.082951725
131	0x3e2cdcd5	0.16881116
132	0x3c820f08	0.015876308
133	0x3a890d91	0.0010456314
134	0x3b71051b	0.0036776725
135	0x3b664ffe	0.0035142894
136	0x3e562996	0.20914301
137	0x3db0db5c	0.086355895
138	0xbded2511	-0.115793355
139	0xbdc9e447	-0.098579936
140	0xbc35e1d1	-0.011101202
141	0xbc8061d2	-0.015671644
142	0xbd3006a9	-0.0429751
143	0x3d01608a	0.031586207
144	0xbd0638cf	-0.03276902
145	0x3e483ea8	0.19555151
146	0x3d8a433f	0.067511074
147	0xbdec3a92	-0.11534609
148	0x3da27ff7	0.079345636
149	0xbde0a703	-0.10969355
150	0xbe017948	-0.12643921
151	0x3bb87f4a	0.0056304084
152	0xbded5791	-0.115889676
153	0x3da7ea5f	0.081989996
154	0x3e4bff57	0.19921623
155	0x3d3195e0	0.043355823
156	0x3d63f784	0.05565597
157	0x3d2882dc	0.041140422
158	0xbde19651	-0.11014999
159	0xbc548b7d	-0.01297271
160	0xbd16886a	-0.03675119
161	0xbd1a714f	-0.037705716
162	0x3cb3148f	0.021860389
163	0x3dee22a2	0.116276994
164	0x3d8d4cbc	0.068994015
165	0x3dddfb02	0.108388916
166	0xbd3cfa9c	-0.046137437
167	0xbceaa5d8	-0.028643534
168	0x3aa80547	0.0012818956
169	0xbcda8eeb	-0.026679477
170	0xbc5707b7	-0.013124398
171	0x3e1ae2a3	0.15125518
172	0xbda5a473	-0.08088007
173	0x3dad5d37	0.08465045
174	0x3c9581c3	0.018250352
175	0x3d44654d	0.04794817
176	0xbd297e91	-0.04138047
177	0x3dc2f6ce	0.095197305
178	0xbda5c39b	-0.080939494
179	0x3e064052	0.13110474
180	0x3b748c65	0.0037315127
181	0xbe1df78f	-0.15426467
182	0x3e91e224	0.28492844
183	0x3b03fdb7	0.002014024
184	0x3ded3fea	0.11584456
185	0x3d464411	0.048404757
186	0xbd11bc0a	-0.03557972
187	0x3ddf1952	0.10893501
188	0x3ccc95e7	0.024973823
189	0x3cc3d3a1	0.023904623
190	0xbe3eab54	-0.18620044
191	0xbe20efb6	-0.15716442
192	0xba54cdb7	-0.0008117812
193	0x3dc4beff	0.09606742
194	0xbc78086a	-0.015138725
195	0xbc49cea5	-0.012317334
196	0xba57d352	-0.00082330883
197	0x3dfcab95	0.12337414
198	0x3e9e0dff	0.30870053
199	0xbd9b89d9	-0.07594652
200	0xbd26f3a9	-0.040759716
201	0x3c11d9cd	0.008902025
202	0xbd13ec45	-0.036113996
203	0x3d999d8d	0.075007536
204	0xbe00f37c	-0.12592882
205	0x3b9fb787	0.004874173
206	0xbda10bf3	-0.07863607
207	0x3d667870	0.056267202
208	0x3d3e1a29	0.046411667
209	0xbbb2839f	-0.0054478194
210	0x3cff8ff7	0.031196577
211	0xbe1b3732	-0.15157774
212	0xbd7fbd5c	-0.062436447
213	0xbd3b0093	-0.045654844
214	0x3ca2b87f	0.019863365
215	0xbd22be4e	-0.03973227
216	0xbd3b2be1	-0.045696143
217	0x3e395ae6	0.18101081
218	0x3d973b01	0.07384301
219	0xbdda5183	-0.106600784
220	0xbdedd77c	-0.11613366
221	0xbd0d7c0f	-0.03454214
222	0x3cac2dbb	0.0210179
223	0x3da0b551	0.07847083
224	0xbe5a5c90	-0.21324372
225	0x3e5f9c88	0.21837056
226	0x3db9157c	0.09037301
227	0xbd78adab	-0.060712498
228	0xbda599ad	-0.08085952
229	0x3e1761e7	0.1478344
230	0x3e71bb77	0.23606668
231	0xbe89b4a6	-0.26895636
232	0x3de9e483	0.11420538
233	0xbc9e0b2b	-0.019292435
234	0xbe193df4	-0.1496504
235	0x3da85a8b	0.08220395
236	0x3dc24463	0.094857
237	0x3d4badd3	0.04972632
238	0xbd7526a8	-0.05985132
239	0x3d1479c2	0.03624893
240	0x3d554b0d	0.052073527
241	0xbe3ed329	-0.18635239
242	0x3dc476a9	0.09592945
243	0xbe35a1d0	-0.17737508
244	0x3cc7ad36	0.024374586
245	0x3e2e196b	0.17001884
246	0xbe5ec421	-0.21754505
247	0xbe097fa6	-0.134276
248	0x3ba7713f	0.0051099355
249	0x3c8e39f1	0.017361613
250	0xbdaaaea6	-0.08334093
251	0xbc89a1aa	-0.01680072
252	0xbe0581fe	-0.1303787
253	0xbdf221ff	-0.118228905
254	0xbdda1d1e	-0.10650085
255	0x3bcb48a3	0.0062037273

hidden_layer1.bias f4 [64]
0	0x3d79379c	0.06084405
1	0x3e1386ff	0.14406966
2	0x3e2df079	0.16986264
3	0x3dc2b8a6	0.09507875
4	0xbea21d74	-0.31663096
5	0x3e0ea3b1	0.13929631
6	0xbeabe19a	-0.33570558
7	0xbed85bb3	-0.4225746
8	0xbe1f87ed	-0.15579195
9	0x3e1a99ed	0.1509778
10	0xbeb71a8e	-0.35762447
11	0xbdf52866	-0.11970596
12	0xbea78ac4	-0.32723057
13	0xbed3b53a	-0.41349202
14	0xbd44c334	-0.048037723
15	0xbf0c5936	-0.54823625
16	0xbeaa0078	-0.33203483
17	0xbf1c77f4	-0.61120534
18	0xbea2fd37	-0.31833813
19	0xbeb86988	-0.36018014
20	0xbde3c469	-0.11121447
21	0x3cabdb24	0.020978518
22	0x3dd75672	0.10514535
23	0xbee139ce	-0.43989414
24	0xbdf20f3f	-0.11819314
25	0xbea8aea6	-0.32945746
26	0xbe75d5c7	-0.24007331
27	0x3d37a4ac	0.044834778
28	0x3c8de6d8	0.017321989
29	0xbe9af98e	-0.3026852
30	0xbebfbf12	-0.37450463
31	0x3e2b759f	0.16744088
32	0xbf0a0e3f	-0.5392799
33	0xbddc7aad	-0.10765586
34	0xbdf59346	-0.11990981
35	0x3d3e6fa6	0.046493195
36	0xbe2b6942	-0.16739371
37	0xbedcdb80	-0.43136215
38	0x3e088695	0.13332589
39	0xbd8a19a7	-0.06743174
40	0x3dd588c5	0.10426477
41	0xbeca87de	-0.39556783
42	0xbe0d1345	-0.13776882
43	0x3d2a854e	0.041631036
44	0x3d0a7c88	0.03381017
45	0x3d9e2c66	0.07723312
46	0xbdb30019	-0.08740253
47	0xbf043a1d	-0.51651174
48	0x3dc111e6	0.09427242
49	0x3dd4c942	0.103899494
50	0x3df6414a	0.12024172
51	0xbee4358c	-0.44572103
52	0xbefd2630	-0.49443197
53	0xbe85c5ec	-0.26127565
54	0xbeda0724	-0.42583573
55	0xbd81e0a5	-0.06341676
56	0xbaff99cd	-0.0019500792
57	0xbe2ba653	-0.16762666
58	0xbcdec4b0	-0.027193397
59	0xbeb05452	-0.3443933
60	0xbec42ad5	-0.38313928
61	0xbe56adcd	-0.20964737
62	0xbea4025d	-0.32033053
63	0x3e05db47	0.13071929

hidden_layer2.weight f4 [32, 64]
0	0x3d35f8aa	0.044426598
1	0xbbeef233	-0.007292056
2	0xbd0eb0bf	-0.034836527
3	0x3df69f57	0.120421104
4	0x3eac2c48	0.33627534
5	0x3e0b09c3	0.13577943
6	0x3eba4703	0.36382303
7	0x3e8e1d2b	0.27756628
8	0xbd671787	-0.05641892
9	0x3d7c237d	0.06155728
10	0x3eb8a7d6	0.3606555
11	0xbe31dd6c	-0.17369622
12	0x3ecdd6f5	0.40203062
13	0x3ee8842e	0.45413345
14	0x3e291916	0.16513476
15	0x3ea6c354	0.325709
16	0x3ebc9484	0.36832058
17	0x3ec4fdeb	0.38474974
18	0x3edff38a	0.43740493
19	0x3e8fad41	0.2806187
20	0x3d0830d3	0.033249687
21	0xbe0082ac	-0.12549847
22	0xbd021657	-0.031759586
23	0x3ebc7263	0.3680602
24	0xbd507235	-0.050890166
25	0x3ebb8b8c	0.36629903
26	0x3ec2ef43	0.38073167
27	0x3be5e4db	0.007015807
28	0xbd90aa55	-0.07063738
29	0x3e8ca38c	0.27468526
30	0x3ef2860b	0.47367892
31	0x3cc42e83	0.02394796
32	0x3f3b9295	0.7327054
33	0x3dcd26e3	0.10017183
34	0x3ef2ec35	0.47445837
35	0xbd25e4b2	-0.040501304
36	0xbd79f258	-0.061022133
37	0x3e716628	0.23574126
38	0xbe06b9d8	-0.13156831
39	0x3dbd7939	0.09251637
40	0xbd9a63bd	-0.07538555
41	0x3ed23b02	0.41060644
42	0xbc9bf5b8	-0.019038066
43	0xbd593112	-0.053025313
44	0xbe477624	-0.19478661
45	0x3e8be1cb	0.27320704
46	0x3d1753f6	0.036945306
47	0x3ebb1d9d	0.3654603
48	0xbd6af540	-0.057362795
49	0x3d71f507	0.059071567
50	0xbc80f41e	-0.015741404
51	0x3ea0e157	0.3142192
52	0x3eb3ad46	0.35093135
53	0x3f16283c	0.5865514
54	0x3eb68577	0.356487
55	0xbdb8414d	-0.0899683
56	0xbd8e9801	-0.06962586
57	0x3ead7371	0.33877137
58	0x3daf408b	0.085572325
59	0x3ecdbedd	0.4018468
60	0x3e3d40e7	0.1848179
61	0x3f15edeb	0.5856616
62	0x3edad801	0.42742923
63	0xbe039a8c	-0.12851924
64	0xbc30ccac	-0.010790985
65	0x3e12cb2b	0.14335315
66	0xbd2a1392	-0.04152257
67	0x376a5a2f	1.3968484e-05
68	0xbd927575	-0.071513094
69	0xbe031651	-0.12801482
70	0x3d380ea2	0.04493583
71	0x3c697785	0.014249687
72	0x3da22526	0.07917242
73	0xba13ca92	-0.00056377903
74	0x3e0ca616	0.13735232
75	0xbab0e4e2	-0.0013495947
76	0x3d70cef7	0.058791127
77	0x3c680ebd	0.01416367
78	0xbd87d653	-0.06632676
79	0x3c72c2d2	0.014816957
80	0xbda5b297	-0.08090704
81	0xbd1b1777	-0.037864175
82	0x3d96a389	0.073554106
83	0x3e4a3ea3	0.19750457
84	0xbd0ec66f	-0.03485721
85	0x3ddf3a3d	0.1089978
86	0x3c24eac6	0.01006574
87	0x3de1e310	0.11029637
88	0xbd6b7707	-0.05748656
89	0xbc0f208b	-0.008735786
90	0xbcb651d2	-0.022255812
91	0x3d866821	0.0656283
92	0x3cae73f7	0.02129553
93	0xbe0693e5	-0.13142355
94	0xbdeb91c7	-0.11502414
95	0xbd517760	-0.051139235
96	0xbbf4d6a7	-0.0074718776
97	0x3d880c8f	0.0664302
98	0xbd1c899a	-0.038217165
99	0xbe228fab	-0.15875117
100	0xbbce6a25	-0.0062992745
101	0xbdc81647	-0.09769874
102	0xbdde6c90	-0.108605504
103	0xbd70e29b	-0.058809858
104	0x3d780298	0.06054935
105	0xbc5d1f88	-0.013496287
106	0x3d4f4260	0.05060041
107	0x3db9e669	0.090771504
108	0xbc80b8c1	-0.015713098
109	0x3b51564a	0.0031942301
110	0xbd261b1c	-0.040553197
111	0x3d633a38	0.055475444
112	0xbc9d649b	-0.019213011
113	0xbdb81447	-0.089882426
114	0xbd0f4f4e	-0.03498774
115	0x3d1d6193	0.038423132
116	0x3de75390	0.11295235
117	0xbe8efc57	-0.27926895
118	0xbd631247	-0.055437353
119	0xbc43c449	-0.0119486535
120	0xbe0383c4	-0.12843233
121	0x3cde7f5d	0.02716034
122	0xbaf4177f	-0.0018622725
123	0xbe921348	-0.28530335
124	0xbe1ed133	-0.1550949
125	0xbcf01847	-0.029308451
126	0xb5e02c83	-1.6702255e-06
127	0x3d9bfdd3	0.076167725
128	0xbd2517eb	-0.040306013
129	0x3dbd989f	0.09257626
130	0xbd532bf8	-0.051555604
131	0xbcd00983	-0.02539516
132	0xbd54b3b2	-0.051929183
133	0x3e0e1dc3	0.1387854
134	0xbd7fbbed	-0.06243508
135	0x3c95cdb3	0.018286562
136	0xbc83c0a3	-0.016083067
137	0x3dce2b6a	0.10066874
138	0xbde9bbb0	-0.11412752
139	0xbe18f7cc	-0.14938277
140	0xbd00c762	-0.031440146
141	0x3d95a1a6	0.073062226
142	0xbe21fdfb	-0.15819542
143	0xbc4bef90	-0.012447253
144	0x3b965e48	0.004588876
145	0xbddb69f2	-0.10713567
146	0x3cda955b	0.026682546
147	0x3b6b3345	0.0035888713
148	0xbc5db9a5	-0.013533031
149	0x3db0eda5	0.08639077
150	0x3be11ea3	0.0068701073
151	0x3e333771	0.17501618
152	0x3dfc2810	0.12312329
153	0xbb97ad2e	-0.004628799
154	0xbbcf42d3	-0.0063251047
155	0x3c7b1f23	0.015327248
156	0xb9cbfd4b	-0.00038907895
157	0xbe286e5c	-0.16448349
158	0xbe0648bb	-0.13113682
159	0xbda68263	-0.08130338
160	0xbddbfaca	-0.107411936
161	0xbe047bd3	-0.1293786
162	0xbe3821b1	-0.17981602
163	0xbe02cc1d	-0.12773176
164	0x3d2f0c51	0.042736355
165	0x3dd58df0	0.10427463
166	0x3d99fb2a	0.07518609
167	0xbb651d9d	-0.0034960278
168	0x3d4417e8	0.04787436
169	0x3ba6fd05	0.0050960802
170	0xbcd7aca3	-0.026327437
171	0xbca14f91	-0.01969126
172	0xbcdb72f7	-0.026788218
173	0x3d622a82	0.05521632
174	0x3df60ccf	0.12014162
175	0x3db80a92	0.08986391
176	0xbd1440a7	-0.03619447
177	0x3d5ef4c7	0.054432657
178	0x3ce29dc0	0.027663112
179	0x3e6dadd0	0.23210835
180	0x3dd7aec2	0.10531379
181	0xbddf8d88	-0.10915667
182	0x3dd7f1b2	0.105441466
183	0xbda42594	-0.0801498
184	0x3e0a88d7	0.13528763
185	0xbd28402a	-0.041076817
186	0xbd915b4c	-0.070974916
187	0x3c635028	0.013874091
188	0xbdfa54d2	-0.122232094
189	0x3d827349	0.06369645
190	0xbdd1ae97	-0.102383785
191	0x3d3314bb	0.043720942
192	0x3e021d57	0.12706505
193	0xbe1c7cff	-0.15282057
194	0x3e6346bf	0.22194956
195	0xbdcccf6a	-0.100004986
196	0xbe741f4e	-0.23840067
197	0x3c7951ba	0.015217239
198	0xbc2b7185	-0.010464077
199	0x3ca8e4ba	0.020616878
200	0x3c296341	0.010338605
201	0x3cab6480	0.020921946
202	0xbcb5450e	-0.022127654
203	0xbc032656	-0.0080047455
204	0x3bb2e05f	0.005458876
205	0xbd0276df	-0.031851646
206	0xbc2dcbf7	-0.010607711
207	0x3de5c7c4	0.11219743
208	0xbd9e01b6	-0.0771517
209	0xbcee2e24	-0.029074736
210	0x3da32c9b	0.07967492
211	0x3d0094fa	0.031392075
212	0x3e2a6de7	0.16643487
213	0xbda02570	-0.07819641
214	0x3d202e53	0.03910668
215	0xbdac543c	-0.08414504
216	0x3e535570	0.2063806
217	0x3d9e439d	0.0772774
218	0x3d8e7819	0.069565006
219	0x3ca5ef5d	0.020255739
220	0xbc1d10fb	-0.009586568
221	0x3d6916cb	0.056906503
222	0xbdadd8e9	-0.08488638
223	0xbae7611a	-0.001765284
224	0x3e2770a6	0.16351566
225	0xbdbf120f	-0.09329616
226	0x3e2cf48e	0.16890165
227	0x3e0c30a0	0.13690424
228	0xbdd6eeea	-0.10494788
229	0xbe0427e3	-0.1290584
230	0x3d2d0b92	0.042247362
231	0x3e3594d5	0.17732556
232	0x3e22cbe1	0.15898086
233	0x3b0094da	0.0019619972
234	0xbc32ccbb	-0.010913069
235	0xbea3a44a	-0.3196128
236	0x3db0d189	0.08633716
237	0xbdeae8fd	-0.1147022
238	0xbdd0015a	-0.10156508
239	0xbcba5b3f	-0.022748588
240	0xbcf4cde5	-0.029883334
241	0xbe2628fd	-0.16226573
242	0x3d37c5f2	0.04486651
243	0x3b1ac305	0.0023614776
244	0xbb51573f	-0.0031942872
245	0x3d658226	0.056032322
246	0xbe3e0200	-0.1855545
247	0xbd53ebed	-0.05173867
248	0xbde1f2d8	-0.11032647
249	0x3dcbb22b	0.09946092
250	0xbcdf19b7	-0.027233941
251	0xbd861b41	-0.06548167
252	0x3dd4b650	0.10386336
253	0xbd766e2a	-0.060163654
254	0xbd34e968	-0.044167906
255	0xbd9b2a43	-0.0757642

hidden_layer2.bias f4 [32]
0	0x3dcc9221	0.099888094
1	0xbeb3f907	-0.3515093
2	0xbd21df04	-0.039519325
3	0x3f81eb80	1.0149994
4	0xbf251fbd	-0.64501554
5	0xbd0bfc3c	-0.034176096
6	0x3d2ba6d8	0.04190716
7	0xbdcd66cc	-0.100293726
8	0x3dec1aad	0.115285255
9	0xbe48a40c	-0.19593829
10	0xbe84b012	-0.2591558
11	0xbdb8c798	-0.090224445
12	0xbec202c7	-0.37892744
13	0xbdd19a42	-0.102345005
14	0xbdbb1db5	-0.091365255
15	0xbe8216a5	-0.254079
16	0xbddd1bae	-0.10796295
17	0xbe80e01e	-0.25170988
18	0xbf3941c0	-0.7236595
19	0xbe4d76cc	-0.20064849
20	0xbebd8bf3	-0.37020835
21	0xbd348dbe	-0.04408049
22	0x3ba118e3	0.004916297
23	0xbd907e26	-0.07055311
24	0x3f2bd782	0.67125714
25	0xbd2ae896	-0.041725717
26	0xbe4fca5f	-0.20292042
27	0xbe2bbc49	-0.16771044
28	0xbd089949	-0.03334931
29	0xbe533272	-0.20624712
30	0x3ddcd1d1	0.10782207
31	0xbc2e1b4b	-0.010626624
