Comparison/TrainedModel/20-0.001-108-Agent/node_agent_105.pth (torch, 43854 bytes, 6 tensors)

input_layer.weight f4 [32, 189]
000000 1a bb c7 bd 27 f9 62 bd 22 51 02 3e 17 32 cc bd
       -0.09752484 -0.05541339 0.12726262 -0.099704914
000010 25 21 fa 3a a2 21 24 be d7 e4 81 bb 2f 1a ac 3c
       0.0019083364 -0.16028455 -0.0039640474 0.021008579
000020 c7 46 66 3d 30 6f b1 bd 13 8d d7 bd 50 e8 6a bc
       0.056219842 -0.086637855 -0.10524955 -0.014337614
000030 97 71 52 3e c6 c5 b8 3d 41 0d 92 3c 84 c1 07 be
       0.20551144 0.09022097 0.017828586 -0.13257414
000040 58 ff f8 bd 1b e5 8c 3d 61 48 27 bd 8b e3 d9 bd
       -0.12158078 0.06879636 -0.04084051 -0.106391035
000050 15 18 3b be 65 d5 db 3d f7 e9 15 be 40 34 fa bc
       -0.18270905 0.10734061 -0.14640032 -0.030542493
000060 5d 7d f7 bd df 9f ca bd 24 bb 02 bc 43 7a 51 3d
       -0.12084458 -0.09893774 -0.007979188 0.05114199
000070 ad 5d 6e be 16 19 19 3d 52 45 f8 39 5a dc a0 3e
       -0.23277922 0.03737744 0.00047353894 0.31418115
000080 f7 35 8a 3e 55 a9 b1 bd c9 20 35 3d 48 32 87 3c
       0.26994297 -0.08674876 0.04422072 0.016503468
000090 81 23 09 3c 63 dc 17 3e 45 7a 0a 3e df 99 31 bc
       0.008370281 0.14830165 0.13523205 -0.010839908
0000a0 c8 d4 8b 3e 17 13 6c 3d 43 62 53 be 2b 20 b8 bd
       0.27310777 0.057635393 -0.20642953 -0.089905106
0000b0 26 9c 9d 3d b5 33 42 3d 7a 22 5f bd 25 60 ce 3c
       0.076957986 0.047412593 -0.05447624 0.02519233
0000c0 dd 9c bd 3d 87 06 c9 b9 60 06 de 3d 6d 74 49 bd
       0.09258435 -0.0003834257 0.1084106 -0.049183298
0000d0 08 98 46 3e 47 fb 82 3d 2a 95 14 bd fd 76 91 3d
       0.19393933 0.063955836 -0.036275066 0.07102773
0000e0 0a d8 07 be f6 5b 16 3d 75 dd 04 3c e3 57 06 3e
       -0.13266006 0.036708795 0.00810944 0.13119464
0000f0 54 23 a6 bd a2 b5 2a 3c b7 a7 25 bd a7 ca 3b bf
       -0.08112207 0.010419281 -0.04044315 -0.733561
000100 8c ba 23 bf dc 5e 8c bd 28 2c 59 3e 2b 5a d5 bd
       -0.6395652 -0.068540305 0.2120825 -0.10417589
000110 96 da 41 3f 34 03 fa 3e d5 f9 b2 3e 7a ef 83 3f
       0.7572416 0.4883057 0.34956232 1.0307457
000120 97 66 56 3f 06 50 3b be 95 f2 ca bd 6d b9 11 3f
       0.8375029 -0.18292245 -0.0990955 0.5692356
000130 2f cf 68 3e ac 7f f4 3e cb f9 c4 be db ab c6 3e
       0.22735284 0.47753656 -0.38471827 0.3880299
000140 6d 21 4f bd cc b8 d0 3e ad ce f7 3d bb 23 84 bd
       -0.050568987 0.4076599 0.12099967 -0.064521275
000150 7b 3c ee 3c c7 60 6d be f4 7d 2b bd 83 cc 76 be
       0.029081574 -0.23181449 -0.041868165 -0.24101453
000160 d2 0a 76 bd 2f e1 db bd f6 b7 3d 3d 6a 13 22 ba
       -0.060068913 -0.1073631 0.046318017 -0.00061827025
000170 92 ff a8 bb 32 2a 4b 3c 4b 20 09 3e d4 f1 1b be
       -0.0051574195 0.012400197 0.13391225 -0.15228969
000180 92 17 e4 3c b3 cc 7a bd 1d 86 d9 3a 78 ae f5 bd
       0.02784327 -0.061230373 0.0016595755 -0.11996168
000190 a4 1f 26 3d dc a3 2d be d2 36 99 3d bf db b5 3b
       0.04055752 -0.16957039 0.07481159 0.0055498774
0001a0 cc 73 44 3d 2b 0b 85 3e 87 ff 90 bd 9c 83 86 3d
       0.047961995 0.25985083 -0.07079988 0.06568071
0001b0 a6 ae a1 3b f9 c7 15 3b 1d 8b 90 bc 33 2d 1d 3d
       0.00493415 0.0022854789 -0.01764446 0.038373183
0001c0 83 e0 0e bd 93 a2 df 3c 52 20 a3 3e 0f fc 61 bb
       -0.03488208 0.027299201 0.31860596 -0.0034482514
0001d0 fd 5c ba bd 5b 07 6a 3d 5c 1d a7 3d 71 ab 11 be
       -0.09099767 0.05713592 0.08159897 -0.14225556
0001e0 ff d6 00 be 9b 28 0f be 94 90 4c bd b7 f5 51 3d
       -0.12582015 -0.13980334 -0.049942568 0.051259723
0001f0 15 2d 0c be 4c c9 44 bd 5e fe c0 3d 06 5d b9 3d
       -0.13689072 -0.048043534 0.09423517 0.09050946
000200 cf fe 87 3d 30 7e f1 bb 4c b6 23 3c c9 63 a9 3d
       0.06640398 -0.007369779 0.009992193 0.08270986
000210 7d 33 6b bd f0 99 e0 3d 8d be a2 3d cc c8 95 3d
       -0.05742215 0.10966861 0.07946501 0.073136896
000220 a0 2d 6a 3d eb f0 1f bd 03 9b 31 3d 7a e7 cd bd
       0.057172418 -0.039048117 0.04336072 -0.10053916
000230 3d c6 c6 3b bf 49 07 3e 8b ab 96 bd 4b 1d 89 bd
       0.0060661123 0.13211726 -0.07356938 -0.0669504
000240 44 40 0e 3d 15 a3 8c bd a6 2b a6 bd 1b 3f 38 bd
       0.034729257 -0.06867043 -0.08113794 -0.044982057
000250 f0 b5 dc 3d 2d e6 4e 3d fc 93 0f 3e 8b 34 00 3d
       0.10776889 0.05051248 0.14021295 0.03130011
000260 7d 80 42 3c 1e 1c ba bb ae 46 96 3b 1e 7f 13 bd
       0.011871454 -0.0056796214 0.0045860624 -0.0360099
000270 2f 73 88 3d f0 14 97 bc f3 80 c3 3d cd f0 f1 bc
       0.066625945 -0.018442601 0.095460795 -0.029533768
000280 c7 d0 00 bd 42 8d d7 bd cc 44 8c bb f7 31 91 bd
       -0.031449106 -0.1052499 -0.004280662 -0.07089608
000290 ac 78 2c 3d 50 fd 82 3d 34 30 1c bd 6a 2a 13 3d
       0.04210727 0.06395972 -0.038131908 0.03592912
0002a0 ef 3e 7d 3e c0 52 c0 bd 0a 19 0d be f2 3c 33 bc
       0.24731039 -0.09390783 -0.13779083 -0.010939823
0002b0 23 f3 0e 3e 4b ca 58 3e 6b 15 c6 bb ed ea 67 3e
       0.13959937 0.21170919 -0.0060450337 0.22648211
0002c0 a0 79 7d bc 07 7e bd 3c 4b 8f 6d 3d bd d7 60 bc
       -0.015470892 0.023131384 0.057997983 -0.013723311
0002d0 25 69 53 bd b5 25 19 3e dc 66 32 3e b4 1c 0e be
       -0.051613946 0.1495579 0.1742205 -0.13878137
0002e0 fc 8f 44 bd cb f6 06 bc f1 37 9d 3e 13 14 db bc
       -0.047988877 -0.008237551 0.30706742 -0.02674297
0002f0 cf ae d0 bc b7 e0 38 3d 41 5e 85 bd 1d fb 78 be
       -0.02547398 0.04513618 -0.06512118 -0.24314542
000300 9a 4a 29 be a4 be 15 be df 81 91 3d 10 dd 5f 3d
       -0.16532364 -0.14623505 0.07104849 0.05465418
000310 72 aa 33 be 53 01 fd bd 9f 06 99 bd 03 03 25 bc
       -0.17545488 -0.12353768 -0.07471966 -0.010071519
000320 db de 97 3c 43 bf bb bd 6e 7f 03 be a7 d3 4c bd
       0.018538883 -0.0916734 -0.1284158 -0.050006535
000330 39 47 32 3d eb 64 4f bc 9c 9e 81 bc 8f 22 33 be
       0.043524954 -0.012658338 -0.015822701 -0.17493652
000340 a7 7f c6 3b d3 18 3b 3e 1f c0 67 3d 42 62 9b bd
       0.006057698 0.18271188 0.056579705 -0.075871006
000350 81 9f a7 bd 44 c5 34 3e 12 92 d9 bd d1 9b 01 bd
       -0.0818472 0.17653376 -0.10623564 -0.03164274
000360 0f 61 1c be 53 1f a2 bc 3e 4c 96 bd 48 9a ab bc
       -0.152714 -0.019790327 -0.07338761 -0.02094759
000370 2f c9 8c 3e a5 43 55 3e 91 f1 41 be e9 64 9b 3d
       0.2749724 0.20826586 -0.18939807 0.075876065
000380 12 0c c7 ba 86 5c 3b 3c 97 a1 ac 3c e5 33 d4 3d
       -0.0015186092 0.0114356335 0.021073146 0.103614606
000390 62 95 9b bd 8a 3e 69 3d 45 f0 90 3d 2d 32 23 3d
       -0.07596852 0.056944408 0.07077078 0.039842773
0003a0 b5 a3 0c 3e 6b a8 8e 3d d7 f3 8d bd a0 f3 4e be
       0.13734324 0.06965717 -0.069312744 -0.20210123
0003b0 11 7b 1c 3e 13 d3 d9 3b 4e 07 9a bd 4b 2a d0 3d
       0.15281321 0.0066474765 -0.075209245 0.10164317
0003c0 e8 32 c2 3d 6b e9 4c bd 1f 0c aa bd b3 ef 17 3c
       0.09482366 -0.050027292 -0.08303093 0.009273457
0003d0 c3 dd 0d 3e 43 3a f9 bc ec 52 28 be 1b 6a f0 bc
       0.13854127 -0.03042329 -0.16437882 -0.02934747
0003e0 a0 9b 70 3d 52 62 64 bd b1 83 8d 3c 4b bd 3f be
       0.058742166 -0.055757828 0.01727471 -0.18724553
0003f0 1a 62 5b bf 69 d0 22 bf 72 e6 c1 be 2f cc 90 3d
       -0.85696566 -0.6359926 -0.37871128 0.07070195

input_layer.bias f4 [32]
000000 25 d3 99 3e c8 18 25 3e 98 17 44 3f 60 be 83 3f
       0.30043903 0.16122735 0.765985 1.0292473
000010 19 ff 61 3e 5e 3a 87 3e 22 b4 14 3e 68 47 3b 3e
       0.22069968 0.26411718 0.1452184 0.18288958
000020 9d 7f 5d 3e 68 79 73 3e 95 5c 60 3e 29 f5 9d 3e
       0.21630712 0.23776782 0.21910317 0.30851105
000030 94 32 9d 3e 5d 39 a3 3f 51 03 a2 3e 31 67 ad 3d
       0.3070265 1.2751881 0.31643155 0.08466948
000040 03 e4 53 3e 30 2e 4b 3e 11 8a 93 3e 1d 2d 42 3f
       0.20692448 0.19841838 0.28816274 0.7585009
000050 68 c2 69 3e c5 65 83 3e de 01 05 3e e7 c4 8d 3f
       0.22828066 0.25663581 0.12988994 1.1075715
000060 13 eb 7d 3e 4f e6 a1 3e 93 e4 2b 3f fb a8 2b 3e
       0.24796705 0.31621024 0.6714565 0.1676368
000070 40 e2 83 3e 66 dd 90 3e dd bc 9d 3e 81 06 5f 3e
       0.25758553 0.28293914 0.30808154 0.21779825

hidden_layer1.weight f4 [64, 32]
000000 e5 b4 b8 3e 7f b8 e0 3e 2f 5a 5a bf 8e 91 89 bf
       0.36075512 0.4389076 -0.8529386 -1.0747545
000010 e5 c3 85 3e 0f 8e da 3e b2 69 d7 3e 0a f9 20 3e
       0.26126018 0.42686507 0.42072827 0.15720001
000020 29 23 33 3e 3a f1 02 3f 55 c0 6e 3e cd 1f c4 3e
       0.17493881 0.5114933 0.23315556 0.38305512
000030 a6 0f e0 3e d5 0d a8 bf 8f 82 9c 3e 91 da f8 3e
       0.4376194 -1.3129221 0.30568358 0.48604253
000040 a5 81 98 3e 7f 42 d9 3e 78 3b 93 3e 5d 62 9c bf
       0.2978641 0.42433545 0.2875631 -1.2217518
000050 89 06 36 3e e2 97 82 3e cc 81 af 3e 8b 91 c9 bf
       0.1777593 0.25506502 0.34278715 -1.5747541
000060 58 e5 9b 3e 58 a5 c4 3e 10 71 83 bf 08 2b cd 3e
       0.30448413 0.38407397 -1.0268879 0.40071893
000070 b7 11 a4 3e 80 08 03 3f f9 bb a8 3d 08 03 bc 3e
       0.32044765 0.51184845 0.08238978 0.36721063
000080 36 a3 9f 3e 72 64 cc 3e 56 48 76 bf fb b8 89 bf
       0.31179208 0.39920384 -0.96204126 -1.0759577
000090 12 29 99 3e a2 a7 95 3e 8d cf d3 3e 49 d7 08 3e
       0.29914147 0.29229456 0.41369286 0.13363375
0000a0 9e 47 48 3e 90 2a 4b 3e f8 3f a8 3e 12 88 00 3f
       0.1955857 0.19840455 0.32861304 0.50207627
0000b0 56 37 76 3e 99 36 99 bf b9 a0 7c 3e eb d9 8c 3e
       0.24044546 -1.1969787 0.24670686 0.27510008
0000c0 58 8a d3 3e 47 81 a0 3e 17 ac 08 3e ea ec 99 bf
       0.41316485 0.3134863 0.13346897 -1.2025425
0000d0 a2 c0 97 3e ea 09 10 3e 6c 87 96 3e 6f eb ae bf
       0.29639155 0.14066282 0.29400194 -1.3665599
0000e0 b6 c4 9d 3e 2c 8e c1 3e 04 d5 5d bf c7 10 fa 3e
       0.3081414 0.3780378 -0.8665316 0.48840925
0000f0 fb c2 82 3e ac 60 c3 3e 00 99 80 3d 1c 03 24 3e
       0.25539383 0.38159692 0.062791824 0.16016811
000100 28 6d af 3e d8 63 26 3e d4 80 4e bf bf 1c 99 bf
       0.34262967 0.16249025 -0.80665326 -1.1961898
000110 f0 f5 95 3e 5d 53 5f 3e c0 47 95 3e 19 a6 d4 3e
       0.29289198 0.21809144 0.29156303 0.41532972
000120 46 7f 8e 3e 8a f0 b1 3e 3d d9 16 3e 57 3c da 3e
       0.27831477 0.3475383 0.14731307 0.4262416
000130 6f e7 fa 3e db 36 bd bf f7 63 03 3f 62 a5 c2 3e
       0.49004695 -1.4782366 0.5132441 0.38016802
000140 ea 74 a8 3e 7d 3e bf 3e 93 ef e2 3e cb d2 9d bf
       0.32901698 0.37352362 0.44323406 -1.2329954
000150 46 de 94 3e ab bd c3 3e 2a 99 06 3f ba 65 bf bf
       0.2907583 0.38230643 0.5257746 -1.495292
000160 fc 9d 0c 3f 02 08 63 3e 63 d0 5a bf 89 fe c4 3e
       0.54928565 0.22171023 -0.8547422 0.38475445
000170 63 9d 7e 3e 9c 18 b6 3e 4b 76 40 3e df 4d 88 3e
       0.24864726 0.3556565 0.18795125 0.2662191
000180 ca eb 17 be 48 2c dc 3c de 58 dc bd e7 60 49 3d
       -0.1483604 0.026876584 -0.107591376 0.04916468
000190 96 4e 8a bc 66 bf b2 bd e3 44 8a be e9 d7 82 bd
       -0.016883176 -0.087279126 -0.2700568 -0.06388838
0001a0 3a c6 1d 3c 98 1e 84 bd bf 76 6e 3d 86 e4 47 3d
       0.00962978 -0.06451148 0.058218714 0.04880192
0001b0 2c 61 6b 3e c0 a3 00 3e 22 d9 2a bd 81 09 da b8
       0.22986287 0.12562466 -0.04171098 -0.0001039682
0001c0 12 72 52 3c 90 98 42 be 94 a3 7b 3d a5 03 74 be
       0.012844579 -0.1900351 0.061435297 -0.23829515
0001d0 1d 9a 26 be 0e 1c 29 be 39 e2 74 3e 38 46 05 bd
       -0.16269727 -0.16514608 0.23914422 -0.03253767
0001e0 9a 1c f0 bd 7d 03 cf 3c 69 f1 13 3e 6a fb 2c be
       -0.11724205 0.025270218 0.1444756 -0.16892782
0001f0 dc 1c e7 bc 03 e8 c5 bd 86 13 18 be 4e 2e 2c bd
       -0.028212003 -0.09663393 -0.14851198 -0.042036347
000200 df 1a 08 3e 62 3d 9a 3e f2 5b 6f bf 8d 8e 83 bf
       0.132915 0.30124956 -0.9349967 -1.0277878
000210 d0 c9 a6 3e 1e ac 8d 3e 29 df 3f 3e 01 c8 b8 3e
       0.32575846 0.27670377 0.18737473 0.3609009
000220 85 3e 03 3f d4 33 e3 3e 14 ff 5e 3e 71 85 7a 3e
       0.5126727 0.4437548 0.21776992 0.24464966
000230 68 e7 83 3e d8 21 af bf ac 1e 8e 3e 2b 28 bd 3e
       0.25762486 -1.3682203 0.27757776 0.36944708
000240 e3 eb 9b 3e c9 c6 10 3f df 5e b6 3e 5e 3f af bf
       0.30453405 0.5655332 0.35619256 -1.3691213
000250 f5 16 db 3e c9 14 4a 3e 8d 88 56 3e f8 c1 c1 bf
       0.42790952 0.19734491 0.20950527 -1.513732
000260 c6 58 7d 3e 17 d0 c3 3e bb dd 49 bf 6a 59 b9 3e
       0.24740896 0.38244697 -0.7885396 0.3620103
000270 9f 19 d3 3e 0d 9b be 3e f2 6a 85 3e 93 14 8e 3e
       0.41230485 0.3722767 0.26058155 0.27750072
000280 b8 7c 7e 3e 2f e4 a5 3e e5 60 60 bf cf 8b 8a bf
       0.24852264 0.32400653 -0.8764785 -1.0823916
000290 e9 23 b3 3e 11 40 c3 3e 7a 0b a2 3e 1e 4b 8f 3e
       0.34988335 0.38134816 0.3164938 0.27986997
0002a0 6d f2 96 3e 9e 49 99 3e ec c0 97 3e 3a 88 f9 3e
       0.2948183 0.29938978 0.29639375 0.48736745
0002b0 f4 84 74 3e db 55 a9 bf 0c 11 a5 3e 46 4d e8 3e
       0.23878843 -1.3229326 0.32239568 0.45371455
0002c0 51 a1 a8 3e 89 d1 e2 3e 6d 50 5c 3e 80 8e 7f bf
       0.32935575 0.44300488 0.21515055 -0.9982681
0002d0 4c 66 85 3e b7 04 f4 3d cc d8 25 3f eb 53 c6 bf
       0.2605461 0.11914962 0.6478393 -1.549436
0002e0 af ea d2 3e 10 c9 ac 3e f2 9e 66 bf b7 3f ea 3e
       0.41194674 0.3374715 -0.9008628 0.45751736
0002f0 42 36 9d 3e 1d 56 c2 3e 25 5e 83 3d 63 66 27 3e
       0.30705458 0.37956324 0.06414441 0.16347651
000300 fa c0 94 3e 24 18 ac 3e a7 35 78 bf 58 1d 9a bf
       0.2905348 0.33612168 -0.96956867 -1.2040205
000310 8f 23 a1 3e 3f 7c d2 3e e8 32 0c 3f 04 25 86 3e
       0.31472442 0.41110417 0.54765177 0.26200116
000320 bb 9f 86 3e 40 02 be 3e 40 1f 9d 3e d1 e2 e1 3e
       0.2629374 0.37111092 0.30687904 0.4411836
000330 77 15 32 3e 6f 04 b0 bf fe 79 7e 3e 68 5f d4 3e
       0.17391 -1.3751353 0.24851224 0.4147904
000340 eb 50 ce 3e b0 e7 bf 3e d0 5d a7 3e 9e a3 ae bf
       0.4029611 0.3748145 0.3268876 -1.3643682
000350 77 c9 91 3e 25 ed 88 3e 1e 5f bb 3e 8c b1 c9 bf
       0.28474018 0.26743427 0.36596006 -1.5757308
000360 26 67 a1 3e e2 02 fb 3e 54 1b 5a bf 59 d2 68 3e
       0.3152401 0.49025637 -0.8519795 0.22736491
000370 2c 28 78 3e 10 89 a3 3e 2d 8a c5 3e 15 03 c7 3e
       0.24234074 0.31940508 0.38581982 0.3886954
000380 6f b9 b7 3d 31 34 e1 3e 89 11 50 bf 9b 16 9c bf
       0.089709155 0.4398513 -0.81276757 -1.2194399
000390 02 58 78 3e e6 19 e0 3e ec f8 e6 3e 7d 4a 29 3e
       0.24252322 0.4376976 0.45111787 0.16532321
0003a0 a4 b7 de 3e 67 08 a6 3e 41 91 46 3e 02 56 d8 3e
       0.43499482 0.32428285 0.19391347 0.4225312
0003b0 ba 7c d4 3e b8 5e a1 bf db 22 8b 3e 1a 09 c7 3e
       0.4150141 -1.2607031 0.2717503 0.3887413
0003c0 0c 20 d6 3e e6 5e 35 3e 4c 64 cc 3e be ce b2 bf
       0.41821325 0.17711982 0.3992027 -1.3969343
0003d0 d6 a2 c3 3e 27 6f fc 3e d9 89 b0 3d b7 60 d0 bf
       0.3821017 0.49303553 0.08620042 -1.6279515
0003e0 92 58 c1 3e cc 5e a8 3e 45 5c 74 bf 32 fc a0 3e
       0.37762886 0.32884824 -0.9545329 0.3144241
0003f0 42 d1 73 3e 64 04 7f 3e 9e 04 8a 3e aa 25 ac 3e
       0.23810294 0.24904019 0.26956648 0.33622485

hidden_layer1.bias f4 [64]
000000 8a f8 04 3e 39 fc 35 3e b7 2e 4a 3e d2 40 ad 3d
       0.12985435 0.17771997 0.19744383 0.08459629
000010 1e 9d a9 3d 8f ad 32 3e 30 28 34 3d d0 24 90 bc
       0.08281921 0.1744902 0.04398364 -0.017595679
000020 33 38 ae 3e 48 d2 0f 3e 81 26 12 3e ed 4b a5 3e
       0.34027252 0.1404506 0.142725 0.3228449
000030 59 e1 02 3e fc 7e e8 3c cf 4a 21 3d 25 e9 06 be
       0.12781276 0.028380863 0.039377984 -0.13174875
000040 a9 c7 3a bd a8 c9 0b be b9 9d 68 3d e7 41 26 bc
       -0.045600567 -0.13651145 0.05679104 -0.010147548
000050 69 c4 e3 bd 3f 77 a8 3c 47 b1 b4 3d 37 e2 d8 bd
       -0.11121447 0.020564673 0.088228755 -0.10590022
000060 3f 0f f2 bd 58 27 58 3e f7 66 10 3e 5f 2f 01 3d
       -0.11819314 0.21108758 0.14101778 0.031539317
000070 81 98 1a 3d 93 94 4a 3e 8d dc 8d bd fe d2 5c 3e
       0.037743095 0.19783239 -0.06926832 0.21564862
000080 cc b6 e6 bd 47 c7 e8 bd 61 c1 bb 3d f6 33 1c 3d
       -0.112653345 -0.11366134 0.091677435 0.03813549
000090 1f 39 ac 3e 0c a2 33 bc 5e 7c 0d 3e a5 56 02 3d
       0.3363733 -0.010963928 0.13816974 0.031820912
0000a0 6b 27 de 3d 0b bd 8a 3d 92 ad ad 3e db a0 7b 3d
       0.10847362 0.06774338 0.33921486 0.0614327
0000b0 5a 19 13 3f 9b af 19 3e dc 01 60 3c 98 2d df bd
       0.5746056 0.15008394 0.013672318 -0.10897368
0000c0 53 16 d5 3d a9 51 d7 3d e4 43 42 3e d7 39 08 be
       0.10404649 0.10513622 0.1897121 -0.13303314
0000d0 c5 5a 08 bd 1f b8 7a 3d 75 41 62 3d 36 de c1 bd
       -0.03328969 0.061210748 0.055238206 -0.094662115
0000e0 53 3d e5 3c 10 84 93 3e c9 25 ac 3d 99 45 97 3d
       0.027983343 0.28811693 0.084056444 0.073863216
0000f0 cf 8a b4 3d 56 3e f3 3d 30 78 ca 3d 39 12 3b 3e
       0.08815538 0.11877124 0.09886205 0.1826867

hidden_layer2.weight f4 [32, 64]
000000 32 ca 02 3f 36 8e de 3e 4e cb de 3e 0a ae 34 3e
       0.51089776 0.43467873 0.43514484 0.17644516
000010 c2 84 da 3e 32 bf 0e 3f 53 be df 3e a7 9d bd 3e
       0.4267941 0.5576049 0.43699893 0.37034342
000020 13 fa 53 bc 78 91 84 3d 6b 21 f1 3e ba 04 76 bf
       -0.01293804 0.064730585 0.47095808 -0.9610096
000030 16 dd fe 3e d5 a6 0f 3f da 5f 23 3f c9 c3 cb 3e
       0.4977805 0.5611394 0.6381813 0.3979781
000040 8f 28 f5 3e 1b d8 f8 3e 87 bc f3 3e cc 8f ba 3e
       0.47882506 0.48602375 0.47604772 0.36437833
000050 d3 30 08 3d ef cf df bd 35 43 ac bc 5e 07 da 3e
       0.033249687 -0.10928332 -0.02102814 0.42583746
000060 35 72 50 bd c4 d0 eb 3e 3c 79 e4 3e a7 92 ac 3c
       -0.050890166 0.46057713 0.44623744 0.021066023
000070 0c 79 d2 3e 60 f8 cb 3e 54 2c 01 3e df 69 f6 3e
       0.41107976 0.39837933 0.12614566 0.48127648
000080 6b 1a 4d 3f e3 26 cd 3d 02 5f 0a 3f f3 00 1a bd
       0.80118436 0.10017183 0.5405122 -0.03759856
000090 a8 34 56 3c 04 12 ad 3e 5a f7 c8 bd c5 ad 18 3f
       0.013074078 0.33802807 -0.098128036 0.5964015
0000a0 09 89 bd 3e e4 1f ff 3e c8 13 1a bf c4 64 1b 3f
       0.37018612 0.49829018 -0.60186434 0.6070063
0000b0 9d 51 1f bf 5b fa 3e 3f 12 95 01 3f d6 82 5c 3d
       -0.62233907 0.7460076 0.5061809 0.053835712
0000c0 38 41 d8 3e f9 ae 84 3d 64 68 ea 3e 60 7b b7 bc
       0.42237258 0.06478686 0.4578277 -0.022397697
0000d0 02 ed e7 3e 3d 5e 29 3f 1d 47 f3 3e b4 99 70 bd
       0.4529801 0.6615942 0.47515193 -0.058740333
0000e0 85 b7 c5 3e f2 44 e2 3e 65 fe 14 3f 69 4e fa 3e
       0.38616577 0.44193226 0.58200675 0.48887947
0000f0 5d d9 95 3e e9 0d 28 3f 3d f3 f5 3e 40 e9 95 3e
       0.29267398 0.65646225 0.4803714 0.29279518
000100 db 0a 01 3e b5 ab 4f 3e f9 88 8f 3d 2f 5a 6a 37
       0.12601797 0.20280345 0.07008547 1.3968484e-05
000110 5a d0 d7 3d 81 75 1b bd 8d eb 04 3e 5c 5e ce 3d
       0.10537787 -0.037953857 0.1298048 0.10076591
000120 6f dd 3e 3d fd 50 fb 3c 13 e4 9f 3e be 43 90 3d
       0.046597894 0.030678267 0.31228694 0.07044171
000130 95 a0 54 3e f7 18 be 3d 8b 80 1c 3d f7 cb 64 3e
       0.20764382 0.092821054 0.038208526 0.22343431
000140 39 27 28 3c e0 05 98 3d 88 07 29 3e be c1 8e 3e
       0.010263258 0.074229956 0.16506779 0.2788219
000150 6f c6 0e bd 3d 3a df 3d c6 ea 24 3c 93 84 44 3e
       -0.03485721 0.1089978 0.01006574 0.19191198
000160 07 77 6b bd b2 a4 99 bd 10 94 14 3e 21 68 86 3d
       -0.05748656 -0.07502116 0.14509606 0.0656283
000170 34 45 1f bd a3 86 a7 3c 48 e7 c1 bd 17 1e ae 3d
       -0.038884357 0.020449942 -0.094679415 0.08501833
000180 96 54 f6 3d 8f 0c 88 3d 98 92 52 bd a1 2b d1 bd
       0.12027852 0.0664302 -0.051409334 -0.102134
000190 c4 dd 15 bd 02 82 18 bd 90 6c de bd 55 1d 30 3d
       -0.036588445 -0.03723336 -0.108605504 0.042996723
0001a0 9d 27 cd 3d 40 bb 9a 3d 9b bd 10 bd ec 96 ff 3d
       0.10017321 0.07555246 -0.035337072 0.12479958
0001b0 64 c6 c1 bd 6a 25 09 3e d6 fc d0 bd 38 3a 63 3d
       -0.09461668 0.13393179 -0.10204475 0.055475444
0001c0 bb 9f d5 bd 47 14 b8 bd 80 59 c6 3c 93 61 1d 3d
       -0.10430857 -0.089882426 0.024212599 0.038423132
0001d0 81 df 8c 3e c5 6c a8 be 68 ec 35 3d d3 01 9e 3c
       0.2751427 -0.32895485 0.044414908 0.01928798
0001e0 42 06 a0 bd 17 06 55 be 65 0a fa 3d 5c c4 4d 3d
       -0.078136936 -0.20803104 0.12209014 0.05023609
0001f0 1e aa 1e be f4 23 1c be 21 73 8f 3d d0 49 07 3e
       -0.15494582 -0.1524809 0.07004381 0.13211751
000200 c5 c1 8e bd ba 62 81 3d cc 45 af bd 83 09 d0 bc
       -0.06970552 0.06317659 -0.085582346 -0.02539516
000210 32 b5 b5 bd 9e 05 e0 3d e2 13 bc bd b5 13 36 bc
       -0.08872451 0.109385714 -0.0918348 -0.011113097
000220 a3 c0 83 bc 6a 2b ce 3d c7 f8 12 be cc f7 18 be
       -0.016083067 0.10066874 -0.14352714 -0.14938277
000230 11 e9 7f bd c4 87 02 3d e8 18 40 be b7 67 2b bd
       -0.06247813 0.031867757 -0.18759501 -0.041846957
000240 cf 3f cb bc ba fd 0d be ab 11 32 bb 4b f9 d5 bc
       -0.0248107 -0.1386632 -0.0027171175 -0.026119849
000250 a5 b9 5d bc a5 ed b0 3d a3 1e e1 3b 01 72 20 3e
       -0.013533031 0.08639077 0.0068701073 0.15668489
000260 10 28 fc 3d 71 61 0b bd 31 54 12 bd 23 1f 7b 3c
       0.12312329 -0.034028474 -0.035724822 0.015327248
000270 96 07 f4 bc 4a 89 46 be bb 48 06 be b7 87 e2 bd
       -0.029788774 -0.19388309 -0.13113682 -0.11061042
000280 51 18 0c be d3 7b 04 be 5c 41 04 be 1d cc 02 be
       -0.13681151 -0.1293786 -0.12915558 -0.12773176
000290 51 0c 2f 3d 05 58 99 3d 2a fb 99 3d a9 bd 06 bd
       0.042736355 0.074874915 0.07518609 -0.032895718
0002a0 28 58 97 3c 62 18 c7 bc a3 ac d7 bc 58 c6 a0 3c
       0.018474653 -0.024303619 -0.026327437 0.019625828
0002b0 f7 72 db bc 65 7d d3 3c 12 92 b9 3c 92 0a b8 3d
       -0.026788218 0.025816629 0.02265266 0.08986391
0002c0 3d 56 86 bd c7 f4 5e 3d e0 9d e3 ba d0 ad 6d 3e
       -0.065594174 0.054432657 -0.0017365776 0.23210835
0002d0 d8 78 9b 3d a3 e1 0d be 24 00 97 3d 94 25 a4 bd
       0.075914085 -0.13855605 0.07373074 -0.0801498
0002e0 c5 db d8 3d b3 64 92 bd 30 91 cd bd 1a 45 2a bd
       0.10588793 -0.07148113 -0.10037458 -0.041569807
0002f0 c2 6f 1a be bd 7a 0c 3d 38 f2 06 be a8 a3 6a 3c
       -0.15081695 0.03429674 -0.13178337 0.014321245
000300 61 bc f7 3e 9e 19 3e 3e 27 37 2a 3f 7c 9d 14 be
       0.4838591 0.1856446 0.66490406 -0.145132
000310 41 9d 62 3e b2 6c b8 3e d2 c1 e6 3e 1f 92 eb 3e
       0.221303 0.36020428 0.45069748 0.4600992
000320 58 6f e8 bd 4c 36 bc 3c cf 79 05 3f d1 36 df bd
       -0.11349362 0.02297511 0.5213899 -0.10899127
000330 5b e1 03 3f db 97 d0 3e 5a 21 e5 3e 3c 13 20 3f
       0.5151574 0.40740857 0.44752008 0.6252935
000340 d5 66 b5 3e 08 b5 e9 3e 6b 34 db 3e ee ae 04 3f
       0.35430017 0.45645928 0.4281343 0.5182942
000350 e7 6d 2a 3e 22 0e a7 bd 3a 49 6c 3d 0e f5 ba 3e
       0.16643487 -0.081569925 0.05768702 0.36515087
000360 70 55 53 3e d8 78 2e 3f 7b f5 07 3f 75 62 03 3d
       0.2063806 0.6815314 0.5310895 0.032076318
000370 1a 23 c5 3e 19 93 18 3f a6 51 74 bc 98 5e da 3e
       0.38503343 0.59599453 -0.014912045 0.42650294
000380 13 a2 1a 3f 52 c6 b2 bd d9 22 0c 3f 43 4c 12 3e
       0.60403556 -0.08729233 0.54740673 0.14286904
000390 e7 bf 1a be 2c 68 a2 3e d4 e1 02 3d e1 13 29 3f
       -0.15112267 0.31720102 0.031953648 0.6604596
0003a0 7e 06 16 3f eb ff eb 3e e9 6f 58 3c d3 5a 9c 3e
       0.58603656 0.46093687 0.013210275 0.30538043
0003b0 13 77 1a bc 53 41 bc 3e 86 0f e8 3e 0d 86 20 3a
       -0.009427804 0.36768588 0.45324343 0.0006123491
0003c0 cc 8e 92 3e 34 4c 32 be 68 40 eb 3e 4a 25 80 3d
       0.2862457 -0.17411882 0.45947576 0.06257112
0003d0 86 0a 04 3f f7 2f d0 3e 13 ab 9f 3e ed eb 53 bd
       0.5157856 0.40661594 0.31185207 -0.05173867
0003e0 25 79 9f 3e 98 68 22 3f 19 25 ec 3e 02 3e d9 3e
       0.31147113 0.6344085 0.46122053 0.4243012
0003f0 1f 59 1b 3f 43 1e a7 3e 1d 35 92 3e 9f f7 81 3e
       0.60682863 0.32640275 0.28556147 0.25384232

hidden_layer2.bias f4 [32]
000000 74 0d 66 3e 87 7f 20 be 24 fc 4d bd 15 d7 e1 3e
       0.2246607 -0.15673648 -0.05028929 0.44109407
000010 3b cf bd 3e f4 fa dd bd 60 19 04 be 8d 74 b6 3e
       0.37072167 -0.10838881 -0.12900305 0.35635796
000020 26 34 7c be d6 b4 0a bd 6b dc b1 3e 0b 2c 6f 3f
       -0.24629268 -0.033863865 0.34738478 0.9342658
000030 59 24 3a 3d 25 ac e5 bd 55 bb 9e be 3a 68 8f be
       0.04544482 -0.112144746 -0.31002298 -0.28009206
000040 d3 5f 57 be f6 37 7f be 30 b0 05 3e 95 2a cf be
       -0.21032648 -0.24923691 0.13055491 -0.40462175
000050 cf 2a dc bd 63 4b 78 3d 28 51 90 be bd e6 d4 be
       -0.107503526 0.06061877 -0.28186917 -0.4158229
000060 18 96 3b 3f 46 4f a1 bd 97 13 4d be 2e 29 cb bd
       0.732759 -0.07876448 -0.20027004 -0.09919964
000070 9b 7f ed bd 7f 18 5e bd a3 68 f9 3e c5 98 de bc
       -0.115966044 -0.05422258 0.48712644 -0.027172456
