Comparison/TrainedModel/20-0.001-108-Agent/node_agent_16.pth (torch, 43844 bytes, 6 tensors)

input_layer.weight f4 [32, 189]
00000000: 1abb c7bd 27f9 62bd 2251 023e 1732 ccbd
00000010: 2521 fa3a a221 24be d7e4 81bb 2f1a ac3c
00000020: c746 663d 306f b1bd 138d d7bd 50e8 6abc
00000030: 9771 523e c6c5 b83d 410d 923c 84c1 07be
00000040: 58ff f8bd 1be5 8c3d 6148 27bd 8be3 d9bd
00000050: 1518 3bbe 65d5 db3d f7e9 15be 4034 fabc
00000060: 5d7d f7bd df9f cabd c973 8b3d 437a 513d
00000070: ad5d 6ebe 1619 193d 5245 f839 d5cb 273d
00000080: 4d6f 56bb 55a9 b1bd c920 353d 4832 873c
00000090: 8123 093c 63dc 173e 457a 0a3e df99 31bc
000000a0: c8d4 8b3e 1713 6c3d 4362 53be 2b20 b8bd
000000b0: 269c 9d3d b533 423d 7a22 5fbd 2560 ce3c
000000c0: dd9c bd3d 8706 c9b9 6006 de3d 6d74 49bd
000000d0: 0898 463e 7463 0f3e 2a95 14bd fd76 913d
000000e0: 0ad8 07be f65b 163d 75dd 043c e357 063e
000000f0: 5423 a6bd a2b5 2a3c b7a7 25bd 5464 9a3e
00000100: 9c0b 9f3e 5862 7b3e b415 993f a926 503e
00000110: 030f b33e 4576 4d3f 2b4c dd3d 4d2a 01bd
00000120: 2a11 403f aca6 2cbd 1b41 533e 5d15 863f
00000130: 38b1 81be d0f5 48be 25ae 52be cee6 91bd
00000140: 6d21 4fbd 31c1 003e adce f73d bb3b 3d3c
00000150: 7b3c ee3c c760 6dbe f47d 2bbd 83cc 76be
00000160: d20a 76bd 2fe1 dbbd f6b7 3d3d 6a13 22ba
00000170: 92ff a8bb 322a 4b3c 4b20 093e d4f1 1bbe
00000180: 9217 e43c b3cc 7abd 1d86 d93a 78ae f5bd
00000190: a41f 263d dca3 2dbe d236 993d bfdb b53b
000001a0: cc73 443d d8f4 5abc 87ff 90bd 9c83 863d
000001b0: a6ae a13b f9c7 153b 1d8b 90bc 332d 1d3d
000001c0: 83e0 0ebd d7b3 d33d b3eb 393d 0ffc 61bb
000001d0: fd5c babd 5b07 6a3d 5c1d a73d 71ab 11be
000001e0: ffd6 00be 9b28 0fbe 9490 4cbd b7f5 513d
000001f0: 152d 0cbe 4cc9 44bd 5efe c03d 5117 3bbe
00000200: cffe 873d 307e f1bb 4cb6 233c c963 a93d
00000210: 7d33 6bbd f099 e03d 8dbe a23d 20ca 183e
00000220: a02d 6a3d ebf0 1fbd 039b 313d 7ae7 cdbd
00000230: 3dc6 c63b bf49 073e 8bab 96bd 4b1d 89bd
00000240: 4440 0e3d 15a3 8cbd a62b a6bd 1b3f 38bd
00000250: f0b5 dc3d 2de6 4e3d fc93 0f3e 8b34 003d
00000260: 7d80 423c 1e1c babb ae46 963b 1e7f 13bd
00000270: 2f73 883d f014 97bc f380 c33d cdf0 f1bc
00000280: c7d0 00bd 428d d7bd cc44 8cbb f731 91bd
00000290: ac78 2c3d 50fd 823d 3430 1cbd 6a2a 133d
000002a0: ef3e 7d3e c052 c0bd abcd 7cbd f23c 33bc
000002b0: 23f3 0e3e 4bca 583e 6b15 c6bb edea 673e
000002c0: a079 7dbc 077e bd3c 4b8f 6d3d bdd7 60bc
000002d0: 2569 53bd b525 193e dc66 323e b41c 0ebe
000002e0: fc8f 44bd cbf6 06bc f137 9d3e 1314 dbbc
000002f0: cfae d0bc b7e0 383d 415e 85bd 1dfb 78be
00000300: 9a4a 29be a4be 15be df81 913d 10dd 5f3d
00000310: 72aa 33be 5301 fdbd 9f06 99bd 0303 25bc
00000320: dbde 973c 43bf bbbd 6e7f 03be a7d3 4cbd
00000330: 3947 323d eb64 4fbc 9c9e 81bc 8f22 33be
00000340: a77f c63b d318 3b3e 1fc0 673d 4262 9bbd
00000350: 819f a7bd 44c5 343e 1292 d9bd 735b 3c3c
00000360: 0f61 1cbe 531f a2bc 3e4c 96bd 489a abbc
00000370: 4bb5 5f3d 321b 46bc 91f1 41be e964 9b3d
00000380: 120c c7ba 865c 3b3c 97a1 ac3c e533 d43d
00000390: 6295 9bbd 8a3e 693d 45f0 903d 2d32 233d
000003a0: b5a3 0c3e 6ba8 8e3d d7f3 8dbd a0f3 4ebe
000003b0: 117b 1c3e 13d3 d93b 4e07 9abd 4b2a d03d
000003c0: e832 c23d 6be9 4cbd d465 23bd b3ef 173c
000003d0: c3dd 0d3e 433a f9bc ec52 28be 1b6a f0bc
000003e0: a09b 703d 5262 64bd b183 8d3c 4bbd 3fbe
000003f0: 42f9 2b3e 4df8 ad3e 15f2 4ebe cbe9 823f
-0.09752484 -0.05541339 0.12726262 -0.099704914 0.0019083364 -0.16028455 -0.0039640474 0.021008579
0.056219842 -0.086637855 -0.10524955 -0.014337614 0.20551144 0.09022097 0.017828586 -0.13257414
-0.12158078 0.06879636 -0.04084051 -0.106391035 -0.18270905 0.10734061 -0.14640032 -0.030542493
-0.12084458 -0.09893774 0.06809194 0.05114199 -0.23277922 0.03737744 0.00047353894 0.040965874
-0.003272015 -0.08674876 0.04422072 0.016503468 0.008370281 0.14830165 0.13523205 -0.010839908
0.27310777 0.057635393 -0.20642953 -0.089905106 0.076957986 0.047412593 -0.05447624 0.02519233
0.09258435 -0.0003834257 0.1084106 -0.049183298 0.19393933 0.14002782 -0.036275066 0.07102773
-0.13266006 0.036708795 0.00810944 0.13119464 -0.08112207 0.010419281 -0.04044315 0.3015467
0.31063545 0.24549234 1.1959748 0.20327248 0.3497239 0.8025859 0.108055435 -0.03153448
0.7502619 -0.04215114 0.20630305 1.047527 -0.2533052 -0.1962502 -0.20574243 -0.071241006
-0.050568987 0.12573697 0.12099967 0.011549885 0.029081574 -0.23181449 -0.041868165 -0.24101453
-0.060068913 -0.1073631 0.046318017 -0.00061827025 -0.0051574195 0.012400197 0.13391225 -0.15228969
0.02784327 -0.061230373 0.0016595755 -0.11996168 0.04055752 -0.16957039 0.07481159 0.0055498774
0.047961995 -0.013364039 -0.07079988 0.06568071 0.00493415 0.0022854789 -0.01764446 0.038373183
-0.03488208 0.10337036 0.045390796 -0.0034482514 -0.09099767 0.05713592 0.08159897 -0.14225556
-0.12582015 -0.13980334 -0.049942568 0.051259723 -0.13689072 -0.048043534 0.09423517 -0.18270613
0.06640398 -0.007369779 0.009992193 0.08270986 -0.05742215 0.10966861 0.07946501 0.14920855
0.057172418 -0.039048117 0.04336072 -0.10053916 0.0060661123 0.13211726 -0.07356938 -0.0669504
0.034729257 -0.06867043 -0.08113794 -0.044982057 0.10776889 0.05051248 0.14021295 0.03130011
0.011871454 -0.0056796214 0.0045860624 -0.0360099 0.066625945 -0.018442601 0.095460795 -0.029533768
-0.031449106 -0.1052499 -0.004280662 -0.07089608 0.04210727 0.06395972 -0.038131908 0.03592912
0.24731039 -0.09390783 -0.061719578 -0.010939823 0.13959937 0.21170919 -0.0060450337 0.22648211
-0.015470892 0.023131384 0.057997983 -0.013723311 -0.051613946 0.1495579 0.1742205 -0.13878137
-0.047988877 -0.008237551 0.30706742 -0.02674297 -0.02547398 0.04513618 -0.06512118 -0.24314542
-0.16532364 -0.14623505 0.07104849 0.05465418 -0.17545488 -0.12353768 -0.07471966 -0.010071519
0.018538883 -0.0916734 -0.1284158 -0.050006535 0.043524954 -0.012658338 -0.015822701 -0.17493652
0.006057698 0.18271188 0.056579705 -0.075871006 -0.0818472 0.17653376 -0.10623564 0.011496413
-0.152714 -0.019790327 -0.07338761 -0.02094759 0.054616254 -0.012091445 -0.18939807 0.075876065
-0.0015186092 0.0114356335 0.021073146 0.103614606 -0.07596852 0.056944408 0.07077078 0.039842773
0.13734324 0.06965717 -0.069312744 -0.20210123 0.15281321 0.0066474765 -0.075209245 0.10164317
0.09482366 -0.050027292 -0.039892033 0.009273457 0.13854127 -0.03042329 -0.16437882 -0.02934747
0.058742166 -0.055757828 0.01727471 -0.18724553 0.16794303 0.339785 -0.20209534 1.0227598

input_layer.bias f4 [32]
00000000: 5d8c d33d 63fe 82bc 5a35 373d f557 403f
00000010: 7cca ac3d 1b93 ae3d 78dd 973b 0514 afbd
00000020: c8fe 673d 256d 083d a81c 143e de4e 6d3d
00000030: 3784 333e 586a 023c 2d87 e83d 80c7 ed3c
00000040: d03c 693c 7615 0dbd cae5 fc3d b0e0 393c
00000050: 5816 a53d 4812 b23d f9cc 53bd d0bc d03c
00000060: 8975 d53d d06f 213e d723 573d dac2 4ebd
00000070: f7d7 013e d308 893d 1ecf 423e 109b 4b3c
0.103295065 -0.015990442 0.044728614 0.7513421 0.08437058 0.08524152 0.0046345554 -0.0854874
0.056639463 0.033307213 0.14464056 0.05793654 0.17530905 0.007959925 0.11353908 0.029025793
0.01423569 -0.034444295 0.12348516 0.011345074 0.08060902 0.08694893 -0.05170915 0.025480658
0.10422809 0.1576531 0.052524414 -0.050478794 0.1268004 0.06691136 0.19024321 0.0124271065

hidden_layer1.weight f4 [64, 32]
00000000: 79dd 913d e41c 083e 7916 083c 6920 203d
00000010: d789 85bd e72d 003e 1e3d 593d 9f7b 3ebe
00000020: bb94 09be 0f6f 6c3e 524e e8bd 4247 9b3d
00000030: 2429 c03d 8ff6 c53d 72c3 95bc 3b5a 2f3e
00000040: cb6c 6dbd 39e9 8d3d 8da3 bfbc ca56 96bd
00000050: 07eb f3bd 1797 41bd 0219 bf3c 9857 c5bc
00000060: 53cf a73c 6606 9e3d 4988 43be 29e0 e23d
00000070: 4c41 3e3b 4340 2d3e be88 53be 2c15 243d
00000080: 0afe b63c 7e3d 553d 68f4 83bd c28a 583d
00000090: 4107 8dbc 5f77 49bc 26c3 1d3d 553d 37be
000000a0: 40c5 f9bd f3d7 f1bd 4d17 4ebc 8bf5 333e
000000b0: 9aa7 c1bd 9998 c23d 425d 78bd 76db 3fbd
000000c0: f000 9c3d 295e 04bd f8ee 48be 60ed ef3b
000000d0: cc62 fe3b 3b95 29be 1851 11bd 794d bd3d
000000e0: 4eba c3bc 031f 7b3d 6b4c fbbc 7dbd 3e3e
000000f0: be95 81bd e802 243c 671d 63be 8bec 08be
00000100: 518d f03b 53f3 04be bd2d 4d3e f969 0d3d
00000110: ac8e 28bd 5c7f edbd e79b 5abd 92da c23d
00000120: 7b35 91bd e793 943c d3a2 66be 3444 e43d
00000130: d383 063e 3798 4bbd a054 183e 02b5 9f3d
00000140: 8763 afbc 21a5 c23c e6e4 fe3d de6a a73d
00000150: 42a6 f7bc 932a 473d 8cf3 553e 9bb9 7d3d
00000160: 4cc4 5a3e f6f6 f5bd a398 0c3e ce3e 933d
00000170: 0494 e0bd 13dd 313d 7f3f fbbd b64c 1ebd
00000180: f686 f3bd 26ee 383d 5cc0 9cbd e760 493d
00000190: 1923 0dbc ff71 85bd b8ed 70be 6278 3bbd
000001a0: 4a55 f43c 66a8 32bd 1051 813d f41a 663d
000001b0: 5c22 723e ff6f 203e c61a 05bd 0713 be3c
000001c0: 452a fc3c b117 25be db9a 933d 6537 54be
000001d0: 5cbe 29be e9e4 1dbe 2c5b 7c3e 0aa6 c2ba
000001e0: 1e58 a7bd 0e6a bf3c a9bd 333e 2b2f 0dbe
000001f0: 1853 2bbc f4b8 b0bd 24f2 04be d3e8 c2bc
00000200: 1e5a fabd 0a07 bf3d 98e2 a93d c7b9 d8be
00000210: a9a1 f43c 999d 343d f5fc fbbc b257 083c
00000220: b5a8 613e 178b 3f3e 5cae e9bd d8b8 d43d
00000230: 9e45 efbc d7d5 9f3c eca2 8d3d fd18 b63c
00000240: cf38 06bd a83e 483e 35f1 ae3d 923a ecbd
00000250: e46b fd3d 0480 93bd 02b9 b13c 4a7f b83b
00000260: dfe9 cbbc 0cd8 cb3d 534c b03e ac0e 883d
00000270: 7eff b33d a64d 543e bf26 77bd 7d8b 54bc
00000280: 6d54 cd3e 1854 9c3e 8f14 b33c d908 743f
00000290: df9f ea3e c880 fb3e 7a6e 803e cc9f e73a
000002a0: a4cf d13e e523 9d3e 7f61 d23e e973 783e
000002b0: 8b83 953e 375d ad3d 4ef6 843e 4d65 443d
000002c0: 917e 29bd cef6 c23d 194b 953e 5240 063e
000002d0: 4b3f e53e 74c4 763e 5806 d43e b7fd 033b
000002e0: 01a2 0a3f c0bd f43e 8229 9c3e 8f39 0e3e
000002f0: 2941 ec3e fd4e 293d b9c0 8a3e b6ef 20be
00000300: abda 27bd da8c 70bc 6a08 78bc a5ce 49bc
00000310: 7434 a3bc f61c b23d 8b41 253e d989 9bbd
00000320: 6c1d 9ebd bc0b 933b b5a6 86bd 27ef 8e3d
00000330: d6da 49be 87b7 9f3b 1e46 abbd 7078 663d
00000340: 291a 3e3d 9f83 b2bb e71e 87bc 3237 1bbe
00000350: 7d9c 70bc 57a3 47bd 13d9 c1ba 4ebe 22bd
00000360: 6a2e 3fbd 34a3 193e 013b 973d ac76 e9bd
00000370: 51d6 bbbd 0f7c 0dbd dbd6 c23d 51b5 a03d
00000380: ae4e 40be 22ae 7a3e 7c15 b93d fb17 18bf
00000390: c17d 5dbd 43ce 443e 302a 603e 4f51 65be
000003a0: e7e1 0d3e d94c b43d bb14 0dbe f32d 9d3e
000003b0: fb2a c53d 2c67 8e3d ded2 1d3d c531 f23c
000003c0: 0d4b 553d 29d3 3ebe f53d fb3d d0a1 35be
000003d0: 4337 9d3d 2519 513e 81d6 88bd a67f 09be
000003e0: 9bc1 6f3d fe1c 243d 8952 ff3c 6bcb 893c
000003f0: 647d b0bd fc24 bb3d 1400 39bd a348 cb3b
0.07122321 0.13292271 0.008306139 0.03909341 -0.065204315 0.1251751 0.0530368 -0.18601845
-0.13435642 0.2308924 -0.113430634 0.07581951 0.09382847 0.09666168 -0.018281672 0.17124264
-0.05796508 0.06929249 -0.023393417 -0.073407724 -0.11910062 -0.04726323 0.023327354 -0.02408962
0.020484602 0.07716064 -0.19094957 0.110779114 0.002903062 0.16919045 -0.20657632 0.040059254
0.022337932 0.052060597 -0.06443101 0.052866705 -0.017215373 -0.012296527 0.038516186 -0.1789449
-0.121958256 -0.11808767 -0.0125787975 0.17574136 -0.094557956 0.09501762 -0.060635813 -0.046840154
0.07617366 -0.03231636 -0.1962241 0.0073219985 0.0077632423 -0.16560833 -0.035477728 0.09243292
-0.023892548 0.061308872 -0.030676087 0.18626972 -0.06327389 0.0100104585 -0.22179185 -0.13371484
0.007341065 -0.12983446 0.20036979 0.03452489 -0.041151688 -0.115965575 -0.053371336 0.09514345
-0.07090279 0.018136932 -0.2252305 0.11145821 0.13136224 -0.04970571 0.14876032 0.077981964
-0.021409763 0.02376038 0.12446003 0.0817468 -0.030230645 0.048624586 0.20893687 0.061944585
0.21363944 -0.12009995 0.13730101 0.071897134 -0.10965732 0.043423723 -0.1226797 -0.038647376
-0.11890976 0.04514899 -0.07653877 0.04916468 -0.008614325 -0.06515884 -0.23528183 -0.045769103
0.029825825 -0.04361763 0.063142896 0.05617805 0.2364592 0.15667723 -0.032496236 0.023202432
0.030781874 -0.16122319 0.07207271 -0.20724256 -0.16576523 -0.15419354 0.24644154 -0.0014850509
-0.08171104 0.023366 0.17552818 -0.13787524 -0.010456823 -0.08629027 -0.12982994 -0.02379266
-0.1222422 0.093275145 0.082951725 -0.42329237 0.029862242 0.04409561 -0.030760268 0.008321689
0.22037013 0.18705402 -0.114102095 0.10386819 -0.029208 0.019511146 0.069158405 0.022228712
-0.03276902 0.19555151 0.085421 -0.11534609 0.12374094 -0.072021514 0.021694664 0.0056304084
-0.024891792 0.09953317 0.3443323 0.066434234 0.08788966 0.20732746 -0.060339686 -0.01297271
0.40103474 0.30532908 0.021860389 0.95326 0.45825097 0.4912169 0.25084287 0.0017671525
0.4097873 0.30691448 0.4109001 0.24262966 0.29201922 0.08465045 0.25969166 0.04794817
-0.04138047 0.095197305 0.29158857 0.13110474 0.4477485 0.24098378 0.4141109 0.002014024
0.5415345 0.47801018 0.30500418 0.13889144 0.46143463 0.041335095 0.2710016 -0.15716442
-0.040980022 -0.014682019 -0.015138725 -0.012317334 -0.019922473 0.0869693 0.16138284 -0.07594652
-0.077204555 0.004487483 -0.065747656 0.069792084 -0.19712386 0.004874173 -0.08362983 0.056267202
0.046411667 -0.0054478194 -0.016494228 -0.15157774 -0.014685747 -0.048739757 -0.0014789425 -0.03973227
-0.046675123 0.15003663 0.07384301 -0.11399588 -0.09171737 -0.03454214 0.09513637 0.07847083
-0.18780014 0.24480489 0.09037301 -0.5941159 -0.054075006 0.19219308 0.21891093 -0.22394298
0.13855706 0.0880372 -0.1377744 0.3069912 0.096273385 0.06953272 0.038531177 0.029564748
0.052073527 -0.18635239 0.12267677 -0.17737508 0.07676556 0.20419748 -0.066815384 -0.134276
0.058534246 0.04006671 0.031167286 0.01682063 -0.08617666 0.091379136 -0.04516609 0.0062037273

hidden_layer1.bias f4 [64]
00000000: 0e2d c8ba ad7b e63d bc38 823d 7f73 a73d
00000010: f17b 55be 3219 043f c15b 273b 246d 90be
00000020: 8b08 0abe 29be 1b3e e4f1 62be 0761 ef3e
00000030: bf16 53be 6828 7dbe 551a 21bd d7ac fabe
00000040: 82f0 aabe 5588 fabe 690e 75be 5074 86be
00000050: 150d 10be 0ed2 36be e329 ac3d 9320 97be
00000060: 3f0f f2bd ee91 33be 3960 cabd f901 643d
00000070: e0d1 3b3c 754d c0bd cc34 9ebe d86a 3e3f
00000080: 9860 e6be f9cd e0bd 040a 92be 8c18 063f
00000090: 4269 2bbe 880f a93e f52a 013e 6322 8ebe
000000a0: 3cca 003e e96d 40be 12fe bdbd febd 113d
000000b0: e4d6 303d fb03 f4bd e77f a8bd 50ab bdbe
000000c0: 1fbb c73d a4cf 2d3f aff4 e93d d178 b5be
000000d0: edb4 b1be d92d 1ebe 63f7 8cbe a5e0 81bd
000000e0: 4631 79be bf41 38be b0c4 debc 893a 63be
000000f0: be97 54be a617 0c3e 7fbe 2dbe 919d aabd
-0.0015272216 0.11254058 0.063584775 0.08176326 -0.20848061 0.51600945 0.0025536867 -0.28208268
-0.13479821 0.15209259 -0.22162586 0.46753713 -0.20614146 -0.24722445 -0.039331753 -0.4895999
-0.33386618 -0.48932138 -0.23931278 -0.26260614 -0.1406749 -0.17853567 0.08406427 -0.2951704
-0.11819314 -0.17536137 -0.09881634 0.055665944 0.011463612 -0.09389774 -0.30899656 0.7438178
-0.4499557 -0.10976786 -0.28523266 0.52381206 -0.16739371 0.33019662 0.12614043 -0.2776061
0.12577146 -0.18791927 -0.09276976 0.03558158 0.043173686 -0.11914822 -0.082275204 -0.37044764
0.097524874 0.6789496 0.11423623 -0.35443738 -0.34708348 -0.15447177 -0.2753249 -0.06341676
-0.24335203 -0.1799383 -0.027193397 -0.22190298 -0.2076101 0.13680896 -0.169672 -0.08330835

hidden_layer2.weight f4 [32, 64]
00000000: bb36 4b3e f112 c13c fdb1 4b3e 7d24 073e
00000010: 2a36 b53e f0e8 e53e fcc9 a7bc d0c0 6f3e
00000020: ca89 9ebd 1f35 863d 5690 bd3e 9c8c 3b3e
00000030: 2bde d23e 806e ea3e 29f1 2a3e c997 9a3e
00000040: 2a90 bc3e 99a0 c93e 1f2e cd3e 312c 823e
00000050: b660 783b 152e 883e 0332 bcbc 80db 393e
00000060: 3572 50bd 618f b43e c4b3 b63e 224c b03c
00000070: 3095 5bbd 2082 923e 8a3c e33e d1e8 c93e
00000080: 6abc 353f 339c e23d 0376 df3e 589c a53e
00000090: 58f2 79bd d9f5 debc 0223 21be cf4d 073f
000000a0: 3430 973e 94ad d63e 1ffb 0abd 1c25 073e
000000b0: 3ab7 4ebe 89ff 1e3f 935f a53d 5886 bd3e
000000c0: f518 11bd 3289 363e 5e83 1fbc 4a84 ab3e
000000d0: 4bdc b03e f7e5 143f e7b6 be3e 4d41 b8bd
000000e0: 7e84 783e 6343 a73e 8b40 af3d 25d0 c83e
000000f0: 61d3 453e 80cb 553e 1ffe da3e 2ed5 7a3e
00000100: accc 30bc 2bcb 123e 9213 2abd 2f5a 6a37
00000110: 7575 92bd 5116 03be a20e 383d 8577 693c
00000120: 2625 a23d 92ca 13ba 16a6 0c3e e2e4 b0ba
00000130: f7ce 703d bd0e 683c 53d6 87bd d2c2 723c
00000140: 97b2 a5bd 7717 1bbd 89a3 963d e819 2a3e
00000150: 6fc6 0ebd 3d3a df3d c6ea 243c 10e3 e13d
00000160: 0777 6bbd 8b20 0fbc d251 b6bc 2168 863d
00000170: f773 ae3c e593 06be c791 ebbd 6077 51bd
00000180: a7d6 f4bb 8f0c 883d fbc0 a0bd ab8f 22be
00000190: 256a cebb 4716 c8bd 906c debd 2ca1 acbd
000001a0: 9802 783d 881f 5dbc 6042 4f3d 0d99 5f3e
000001b0: 04b1 40bd 4a56 513b 1c1b 26bd 383a 633d
000001c0: 9b64 9dbc 4714 b8bd 4e4f 0fbd 9361 1d3d
000001d0: 9053 e73d 57fc 8ebe 4712 63bd 49c4 43bc
000001e0: c483 03be 75b3 abbc 7f17 f4ba 4813 92be
000001f0: 33d1 1ebe 4718 f0bc 832c e0b5 d3fd 9b3d
00000200: eb17 25bd 9f98 bd3d f82b 53bd 8309 d0bc
00000210: e8f1 c5bd c31d 0e3e edbb 7fbd b3cd 953c
00000220: a3c0 83bc 6a2b ce3d 89b7 20be ccf7 18be
00000230: da8d abbd b141 e13c fbfd 21be cd6b a7bd
00000240: 30b3 2abd 13be 46be 854c bfbc ed85 d3bc
00000250: a5b9 5dbc 8865 693d a31e e13b 7137 333e
00000260: 1028 fc3d 2ead 97bb 0915 27bd 231f 7b3c
00000270: 4bfd cbb9 0188 47be 4366 24be 6382 a6bd
00000280: e150 38be d37b 04be 078b 21be 1745 50be
00000290: 510c 2f3d 40e9 153c 2afb 993d b4cd 06bd
000002a0: 7c43 973c 142d c7bc a3ac d7bc f9ce 483d
000002b0: f772 dbbc 9de8 103c cf0c f63d e662 193d
000002c0: a740 14bd 8ee2 33bd c09d e23c d0ad 6d3e
000002d0: 9b49 823d 0af3 1ebe 94a6 de3c 9425 a4bd
000002e0: d788 0a3e 01cf e2bd 4c5b 91bd aa59 d8bc
000002f0: 7cba 47be 4973 823d ed5a 11be bb14 333d
00000300: 471f 4dbd ff7c 1cbe 8828 983d 46a2 c3bd
00000310: 826f 83bd a5d7 35be 8e80 0cbc 9023 033e
00000320: bf9b 2ebc aa37 cb3c 2166 073e 69fc 18be
00000330: 4399 2c3e 6e4e 003e 2ecd 3fbc 7653 8c3e
00000340: ea2b 083e 23a9 003e 69e7 6e3e 5433 523e
00000350: 4e43 0c3e f718 843d 5539 2b3d bada 44be
00000360: 7055 533e ce04 4c3e 8f7d 593e acd4 ba3c
00000370: f430 d53b b1db 593e b679 a53d 4940 9fbd
00000380: fd9a a23e d0d0 b4bd 5569 283e 2caf b83d
00000390: eaee d6bd e056 d3be 8e30 273d d106 b63e
000003a0: 5e0e 853e c21f 313e 79da a8bc d709 c7bc
000003b0: 0ea2 b13d 70d9 24bd 6bf2 cebd 4b42 083e
000003c0: db26 cfbc face 93be c12c 1f3d af53 323e
000003d0: ca94 263e 6f44 743e d48f 07bd edeb 53bd
000003e0: fd43 1ebd 19b2 563e b719 dfbc ddf1 9e3d
000003f0: fb9b 823e 48ba 37bd 0264 e33d 020e 483d
0.19845097 0.023568602 0.19892116 0.13197513 0.35392886 0.4490428 -0.020482056 0.23413396
-0.07741125 0.06553101 0.37024182 0.18315357 0.41185126 0.4578743 0.16693558 0.30193928
0.36828738 0.3938034 0.4007425 0.2542434 0.003789944 0.26597658 -0.022973066 0.18150139
-0.050890166 0.3526564 0.35684025 0.021520678 -0.053609073 0.28614902 0.44382125 0.39435437
0.7099062 0.11064949 0.43644723 0.32345843 -0.061022133 -0.027216839 -0.1573601 0.528531
0.29528964 0.41929305 -0.033930894 0.1319775 -0.20187083 0.62108666 0.0807487 0.3701656
-0.03542419 0.17825773 -0.00973591 0.33499366 0.3454307 0.581634 0.37248918 -0.0899683
0.24269292 0.326686 0.085572325 0.39221302 0.19318916 0.2087841 0.42772004 0.24495384
-0.010790985 0.14335315 -0.04152257 1.3968484e-05 -0.071513094 -0.12801482 0.04493583 0.014249687
0.07917242 -0.00056377903 0.13735232 -0.0013495947 0.058791127 0.01416367 -0.06632676 0.014816957
-0.08090704 -0.037864175 0.073554106 0.16611445 -0.03485721 0.1089978 0.01006574 0.11029637
-0.05748656 -0.008735786 -0.022255812 0.0656283 0.02129553 -0.13142355 -0.11502414 -0.051139235
-0.0074718776 0.0664302 -0.07849308 -0.15875117 -0.0062992745 -0.09769874 -0.108605504 -0.084291786
0.06054935 -0.013496287 0.05060041 0.21835728 -0.047043815 0.0031942301 -0.040553197 0.055475444
-0.019213011 -0.089882426 -0.03498774 0.038423132 0.11295235 -0.27926895 -0.055437353 -0.0119486535
-0.12843233 -0.020959595 -0.0018622725 -0.28530335 -0.1550949 -0.029308451 -1.6702255e-06 0.076167725
-0.040306013 0.09257626 -0.051555604 -0.02539516 -0.096652806 0.1387854 -0.06243508 0.018286562
-0.016083067 0.10066874 -0.15695013 -0.14938277 -0.083766654 0.027497144 -0.15819542 -0.08174858
-0.041674793 -0.19408445 -0.023351917 -0.025820697 -0.013533031 0.056981593 0.0068701073 0.17501618
0.12312329 -0.004628799 -0.040791545 0.015327248 -0.00038907895 -0.19485475 -0.16054635 -0.08130338
-0.17999603 -0.1293786 -0.15775691 -0.20338856 0.042736355 0.009149849 0.07518609 -0.032911018
0.018464796 -0.024313487 -0.026327437 0.04902551 -0.026788218 0.008844522 0.12014162 0.037447833
-0.03619447 -0.04391723 0.027663112 0.23210835 0.063616954 -0.155224 0.02717904 -0.0801498
0.13528763 -0.11074639 -0.070974916 -0.026409943 -0.19504732 0.06369645 -0.14194842 0.043720942
-0.050078657 -0.15282057 0.07429606 -0.095524356 -0.06417753 -0.17758043 -0.008575572 0.12806535
-0.01065725 0.024806816 0.13222553 -0.14940037 0.1685534 0.12529919 -0.0117066335 0.27407426
0.13298002 0.1256452 0.23330463 0.20527393 0.1369755 0.06450074 0.041802723 -0.19224063
0.2063806 0.19923708 0.21239303 0.022806488 0.00650608 0.21275212 0.08079855 -0.07775933
0.31758872 -0.0882889 0.16446431 0.090177864 -0.10494788 -0.41277218 0.04081779 0.35552076
0.25987524 0.17297271 -0.020611988 -0.024296684 0.086734876 -0.040246427 -0.10104831 0.13306539
-0.025287082 -0.28868848 0.03886104 0.17414735 0.16267696 0.2385423 -0.03309615 -0.05173867
-0.038639057 0.20966376 -0.027233941 0.077609755 0.2550963 -0.044855386 0.11103059 0.048841484

hidden_layer2.bias f4 [32]
00000000: 86c4 fb3d 303e 8a3c 8db7 19bd 92a8 efbd
00000010: 1097 34bd 1091 b83c 7965 69be 2e2b 73bd
00000020: ed2f 3ebe c525 85be 32d8 c63d 0e83 293d
00000030: 6088 03be 6bef 32bd ef8b 7bbd 4b67 ffbd
00000040: ff84 e6bd 0fde dcbd 3d4b 3b3d f862 2bbd
00000050: 0fe5 41be 57b1 a9bd dfc8 b8bc 7b60 b43d
00000060: ec44 5abd 2baa 323d b8cd c5bd 0cac d7bd
00000070: 89d7 b93d e84e a1bc 8b31 6bbe 61e5 28bd
0.12293343 0.016875356 -0.037528563 -0.11702074 -0.044089377 0.022530109 -0.22792615 -0.05936735
-0.1857297 -0.26005378 0.09709205 0.04138475 -0.12844992 -0.043685358 -0.061412748 -0.124708734
-0.11255836 -0.10784542 0.04572605 -0.04184243 -0.18935035 -0.08285778 -0.02255672 0.08807465
-0.053288385 0.043619316 -0.09658378 -0.10530862 0.09074313 -0.019690946 -0.22968118 -0.041234378
