Comparison/TrainedModel/20-0.001-108-Agent/node_agent_32.pth (torch, 43844 bytes, 6 tensors)

input_layer.weight f4 [32, 189]
-0.09752484 -0.05541339 0.12726262 -0.099704914 0.0019083364 -0.16028455 -0.0039640474 0.021008579
0.056219842 -0.086637855 -0.10524955 -0.014337614 0.20551144 0.09022097 0.017828586 -0.13257414
-0.12158078 0.06879636 -0.04084051 -0.106391035 -0.18270905 0.10734061 -0.14640032 -0.030542493
-0.12084458 -0.09893774 0.23486435 0.05114199 -0.23277922 0.03737744 0.00047353894 0.040965874
-0.003272015 -0.08674876 0.04422072 0.016503468 0.008370281 0.14830165 0.13523205 -0.010839908
0.27310777 0.057635393 -0.20642953 -0.089905106 0.076957986 0.047412593 -0.05447624 0.02519233
0.09258435 -0.0003834257 0.1084106 -0.049183298 0.19393933 0.063955836 -0.036275066 0.07102773
-0.13266006 0.036708795 0.00810944 0.13119464 -0.08112207 0.010419281 -0.04044315 0.18990782
0.11482296 0.44184923 0.24803165 -0.37945855 -0.461422 0.15625466 0.13177815 0.5122894
0.3645753 0.23553328 -0.43296137 0.26017383 -0.42679107 0.8628781 -0.8650537 1.1478486
-0.050568987 0.3357601 0.12099967 -0.064521275 0.029081574 -0.23181449 -0.041868165 -0.24101453
-0.060068913 -0.1073631 0.046318017 -0.00061827025 -0.0051574195 0.012400197 0.13391225 -0.15228969
0.02784327 0.18161334 0.0016595755 -0.11996168 0.04055752 -0.16957039 0.07481159 0.0055498774
0.047961995 -0.013364039 -0.07079988 0.06568071 0.00493415 0.0022854789 -0.01764446 0.038373183
-0.03488208 0.027299201 0.045390796 -0.0034482514 -0.09099767 0.05713592 0.08159897 -0.14225556
-0.12582015 -0.13980334 -0.049942568 0.051259723 -0.13689072 -0.048043534 0.09423517 -0.18270613
0.06640398 -0.007369779 0.009992193 0.08270986 -0.05742215 0.10966861 0.07946501 0.073136896
0.057172418 -0.039048117 0.04336072 -0.10053916 0.0060661123 0.37496203 -0.07356938 -0.0669504
0.034729257 -0.06867043 -0.08113794 -0.044982057 0.10776889 0.05051248 0.14021295 0.03130011
0.011871454 -0.0056796214 0.24742967 -0.0360099 0.066625945 -0.018442601 0.095460795 -0.029533768
-0.031449106 -0.1052499 -0.004280662 -0.07089608 0.04210727 0.30680496 -0.038131908 0.27877325
0.24731039 -0.09390783 -0.13779083 -0.010939823 0.13959937 0.21170919 -0.0060450337 0.22648211
-0.015470892 0.023131384 0.057997983 -0.013723311 -0.051613946 0.1495579 0.1742205 -0.13878137
-0.047988877 -0.008237551 0.30706742 -0.02674297 -0.02547398 0.04513618 -0.06512118 -0.24314542
-0.16532364 -0.14623505 0.07104849 0.05465418 -0.17545488 -0.12353768 -0.07471966 -0.010071519
0.018538883 -0.0916734 -0.1284158 -0.050006535 0.043524954 -0.012658338 -0.015822701 -0.17493652
0.006057698 0.18271188 0.056579705 -0.075871006 -0.0818472 0.17653376 -0.10623564 0.90720093
-0.152714 -0.019790327 -0.07338761 -0.02094759 0.054616254 -0.012091445 -0.18939807 0.075876065
-0.0015186092 0.0114356335 0.021073146 0.103614606 -0.07596852 0.056944408 0.07077078 0.039842773
0.13734324 0.06965717 -0.069312744 -0.20210123 0.15281321 0.0066474765 -0.075209245 0.10164317
0.09482366 -0.050027292 -0.08303093 0.009273457 0.13854127 -0.03042329 -0.16437882 -0.02934747
0.058742166 -0.055757828 0.01727471 -0.18724553 -0.16821808 0.22249015 -0.0065147206 -0.060076714
00000000: 1abb c7bd 27f9 62bd 2251 023e 1732 ccbd
00000010: 2521 fa3a a221 24be d7e4 81bb 2f1a ac3c
00000020: c746 663d 306f b1bd 138d d7bd 50e8 6abc
00000030: 9771 523e c6c5 b83d 410d 923c 84c1 07be
00000040: 58ff f8bd 1be5 8c3d 6148 27bd 8be3 d9bd
00000050: 1518 3bbe 65d5 db3d f7e9 15be 4034 fabc
00000060: 5d7d f7bd df9f cabd 4880 703e 437a 513d
00000070: ad5d 6ebe 1619 193d 5245 f839 d5cb 273d
00000080: 4d6f 56bb 55a9 b1bd c920 353d 4832 873c
00000090: 8123 093c 63dc 173e 457a 0a3e df99 31bc
000000a0: c8d4 8b3e 1713 6c3d 4362 53be 2b20 b8bd
000000b0: 269c 9d3d b533 423d 7a22 5fbd 2560 ce3c
000000c0: dd9c bd3d 8706 c9b9 6006 de3d 6d74 49bd
000000d0: 0898 463e 47fb 823d 2a95 14bd fd76 913d
000000e0: 0ad8 07be f65b 163d 75dd 043c e357 063e
000000f0: 5423 a6bd a2b5 2a3c b7a7 25bd 3277 423e
00000100: 4d28 eb3d 103a e23e 02fc 7d3e 6448 c2be
00000110: 813f ecbe 3901 203e daf0 063e 6625 033f
00000120: 9da9 ba3e a32f 713e 1dad ddbe 8135 853e
00000130: 5c84 dabe 94e5 5c3f 2974 5dbf b4ec 923f
00000140: 6d21 4fbd bfe8 ab3e adce f73d bb23 84bd
00000150: 7b3c ee3c c760 6dbe f47d 2bbd 83cc 76be
00000160: d20a 76bd 2fe1 dbbd f6b7 3d3d 6a13 22ba
00000170: 92ff a8bb 322a 4b3c 4b20 093e d4f1 1bbe
00000180: 9217 e43c d9f8 393e 1d86 d93a 78ae f5bd
00000190: a41f 263d dca3 2dbe d236 993d bfdb b53b
000001a0: cc73 443d d8f4 5abc 87ff 90bd 9c83 863d
000001b0: a6ae a13b f9c7 153b 1d8b 90bc 332d 1d3d
000001c0: 83e0 0ebd 93a2 df3c b3eb 393d 0ffc 61bb
000001d0: fd5c babd 5b07 6a3d 5c1d a73d 71ab 11be
000001e0: ffd6 00be 9b28 0fbe 9490 4cbd b7f5 513d
000001f0: 152d 0cbe 4cc9 44bd 5efe c03d 5117 3bbe
00000200: cffe 873d 307e f1bb 4cb6 233c c963 a93d
00000210: 7d33 6bbd f099 e03d 8dbe a23d ccc8 953d
00000220: a02d 6a3d ebf0 1fbd 039b 313d 7ae7 cdbd
00000230: 3dc6 c63b 06fb bf3e 8bab 96bd 4b1d 89bd
00000240: 4440 0e3d 15a3 8cbd a62b a6bd 1b3f 38bd
00000250: f0b5 dc3d 2de6 4e3d fc93 0f3e 8b34 003d
00000260: 7d80 423c 1e1c babb 345e 7d3e 1e7f 13bd
00000270: 2f73 883d f014 97bc f380 c33d cdf0 f1bc
00000280: c7d0 00bd 428d d7bd cc44 8cbb f731 91bd
00000290: ac78 2c3d 8a15 9d3e 3430 1cbd 5ebb 8e3e
000002a0: ef3e 7d3e c052 c0bd 0a19 0dbe f23c 33bc
000002b0: 23f3 0e3e 4bca 583e 6b15 c6bb edea 673e
000002c0: a079 7dbc 077e bd3c 4b8f 6d3d bdd7 60bc
000002d0: 2569 53bd b525 193e dc66 323e b41c 0ebe
000002e0: fc8f 44bd cbf6 06bc f137 9d3e 1314 dbbc
000002f0: cfae d0bc b7e0 383d 415e 85bd 1dfb 78be
00000300: 9a4a 29be a4be 15be df81 913d 10dd 5f3d
00000310: 72aa 33be 5301 fdbd 9f06 99bd 0303 25bc
00000320: dbde 973c 43bf bbbd 6e7f 03be a7d3 4cbd
00000330: 3947 323d eb64 4fbc 9c9e 81bc 8f22 33be
00000340: a77f c63b d318 3b3e 1fc0 673d 4262 9bbd
00000350: 819f a7bd 44c5 343e 1292 d9bd 523e 683f
00000360: 0f61 1cbe 531f a2bc 3e4c 96bd 489a abbc
00000370: 4bb5 5f3d 321b 46bc 91f1 41be e964 9b3d
00000380: 120c c7ba 865c 3b3c 97a1 ac3c e533 d43d
00000390: 6295 9bbd 8a3e 693d 45f0 903d 2d32 233d
000003a0: b5a3 0c3e 6ba8 8e3d d7f3 8dbd a0f3 4ebe
000003b0: 117b 1c3e 13d3 d93b 4e07 9abd 4b2a d03d
000003c0: e832 c23d 6be9 4cbd 1f0c aabd b3ef 173c
000003d0: c3dd 0d3e 433a f9bc ec52 28be 1b6a f0bc
000003e0: a09b 703d 5262 64bd b183 8d3c 4bbd 3fbe
000003f0: 5c41 2cbe 75d4 633e 7079 d5bb 0013 76bd

input_layer.bias f4 [32]
0.2700677 0.8797141 0.044728614 0.05056873 0.2501722 0.24863705 -0.077532 -0.055067033
0.23591852 0.13613977 0.26961324 0.044210717 0.34543592 -0.01305149 0.30429444 0.043360345
0.01423569 -0.034444295 0.29790896 0.011345074 0.22119302 0.26549098 -0.045669753 0.025480658
0.85296637 0.327774 -0.038575172 0.13735266 0.26914322 1.2871103 0.31972107 0.0124271065
00000000: 5046 8a3e f134 613f 5a35 373d 2821 4f3d
00000010: 9216 803e b69a 7e3e 19c9 9ebd f88d 61bd
00000020: a094 713e 3968 0b3e bf0a 8a3e 4c16 353d
00000030: fadc b03e ebd5 55bc 7bcc 9b3e 9e9a 313d
00000040: d03c 693c 7615 0dbd 8687 983e b0e0 393c
00000050: 6c80 623e 6fee 873e 3510 3bbd d0bc d03c
00000060: 015c 5a3f fed1 a73e 0001 1ebd 2da6 0c3e
00000070: 24cd 893e 08c0 a43f 7bb2 a33e 109b 4b3c

hidden_layer1.weight f4 [64, 32]
0.012577172 0.08775775 0.008306139 0.115307964 -0.12561007 0.062292818 0.031009251 -0.18601845
-0.19015937 0.1593507 -0.17175058 0.042813357 0.02967062 0.09666168 -0.08481643 0.17124264
-0.05796508 0.06929249 -0.08618252 -0.073407724 -0.16707963 -0.1004118 -0.011308323 -0.02408962
-0.041187618 0.023204712 -0.20403183 0.061493218 -0.047476772 0.07925375 -0.24980624 0.040059254
0.037932333 0.07604012 -0.06443101 0.08439607 -0.0012558082 0.0038898007 0.07004543 -0.1789449
-0.105436385 -0.10278887 0.003587358 0.17574136 -0.07799646 0.09501762 -0.044391327 -0.046840154
0.07617366 -0.03231636 -0.18011609 0.0073219985 0.024275942 -0.14948589 -0.035477728 0.09243292
-0.0029842162 0.07769918 0.00085309317 0.16721097 -0.04744666 0.028056521 -0.20473936 -0.13371484
0.14377205 -0.14183562 0.20036979 0.03452489 0.10729666 0.023190321 -0.08770231 0.09514345
0.07309103 0.025607612 -0.09482565 0.073983416 0.24411978 -0.063007586 0.2588633 0.06695387
-0.021409763 0.02376038 0.24664864 0.0817468 0.13602115 0.22068204 0.13283248 0.061944585
0.4030922 0.020955903 0.10119357 -0.2337212 0.058009543 -0.9528684 0.052114908 -0.038647376
-0.109988965 0.057929207 -0.07653877 0.04916468 -0.0026819003 -0.07116497 -0.24227512 -0.045769103
0.040682428 -0.034689706 0.076974325 0.065919705 0.24838188 0.15667723 -0.025867755 0.03695413
0.030781874 -0.16122319 0.08204112 -0.20724256 -0.15203217 -0.15146856 0.25947344 -0.0014850509
-0.09547457 0.035739113 0.17552818 -0.13787524 0.0010643695 -0.0749047 -0.11745941 -0.02379266
0.14658663 -1.8406905 0.082951725 0.16881116 0.30012125 0.27975538 -0.23054966 0.03872986
0.48630136 0.43584833 0.17649515 -0.098579936 0.23211187 0.05823358 0.31490344 0.031586207
-0.03276902 0.19555151 0.33763283 -0.11534609 0.42369458 0.20558485 -0.12719522 0.0056304084
-1.0348892 0.3714597 0.2457996 0.43578693 0.39003804 0.39919323 0.23850912 -0.01297271
-0.05550952 -0.037705716 0.021860389 0.116276994 0.051192384 0.08970888 -0.046137437 -0.028643534
-0.016925223 -0.046904188 -0.031551793 0.15125518 -0.09911613 0.08465045 -2.9207064e-05 0.04794817
-0.04138047 0.095197305 -0.09962344 0.13110474 -0.014773496 -0.17246395 0.28492844 0.002014024
0.09874523 0.030213509 -0.03557972 0.10893501 0.0063858046 0.023904623 -0.20463362 -0.15716442
-0.04179859 -0.010166145 -0.015138725 -0.012317334 -0.025078071 0.088976994 0.16138284 -0.07594652
-0.077311754 0.0037463808 -0.06573649 0.075007536 -0.19660391 0.004874173 -0.083791696 0.056267202
0.046411667 -0.0054478194 -0.01626405 -0.15157774 -0.014533825 -0.047550347 0.0030633623 -0.03973227
-0.046675123 0.15061116 0.07384301 -0.11302699 -0.09095946 -0.03454214 0.09495413 0.07847083
-0.24775507 0.09833309 0.09037301 -0.060712498 -0.10597813 0.111671686 0.07074268 -0.19353932
0.08755771 -0.013286955 -0.16990656 0.08220395 0.023420312 0.06953272 -0.06769704 0.03624893
0.052073527 -0.18635239 0.04881741 -0.17737508 0.07692884 0.16815355 -0.26176384 -0.134276
0.0025494043 -0.012869529 -0.08334093 -0.019152274 -0.09909364 -0.118228905 -0.028563261 0.0062037273
00000000: 7c10 4e3c 56ba b33d 7916 083c 9526 ec3d
00000010: ed9f 00be c126 7f3d 1d07 fe3c 9f7b 3ebe
00000020: 23b9 42be d42c 233e 62df 2fbe 0f5d 2f3d
00000030: cd0f f33c 8ff6 c53d 3db4 adbd 3b5a 2f3e
00000040: cb6c 6dbd 39e9 8d3d 7680 b0bd ca56 96bd
00000050: ec16 2bbe b4a4 cdbd 8b46 39bc 9857 c5bc
00000060: 59b4 28bd cf17 be3c b8ed 50be 50e0 7b3d
00000070: 0177 42bd ca4f a23d 35cd 7fbe 2c15 243d
00000080: ef5e 1b3d ecba 9b3d 68f4 83bd d9d7 ac3d
00000090: ee99 a4ba 07ec 7e3b fa73 8f3d 553d 37be
000000a0: 08ef d7bd f982 d2bd e119 6b3b 8bf5 333e
000000b0: 9cbc 9fbd 9998 c23d aed3 35bd 76db 3fbd
000000c0: f000 9c3d 295e 04bd 5a70 38be 60ed ef3b
000000d0: 57de c63c d412 19be 1851 11bd 794d bd3d
000000e0: d792 43bb bf20 9f3d 1da2 5f3a 5a39 2b3e
000000f0: 6e57 42bd cad6 e53c 32a7 51be 8bec 08be
00000100: fb38 133e 5b3d 11be bd2d 4d3e f969 0d3d
00000110: 5abe db3d a1f9 bd3c 459d b3bd 92da c23d
00000120: c0b0 953d 0ec7 d13c f333 c2bd 9e84 973d
00000130: 89fa 793e 1f0a 81bd bb89 843e 1c1f 893d
00000140: 8763 afbc 21a5 c23c 7691 7c3e de6a a73d
00000150: 2149 0b3e 79fa 613e 3d05 083e 9bb9 7d3d
00000160: 1a62 ce3e b7ab ab3c 933e cf3d 9c54 6fbe
00000170: 6a9b 6d3d 2fef 73bf 7176 553d b64c 1ebd
00000180: e541 e1bd 2d47 6d3d 5cc0 9cbd e760 493d
00000190: d2c2 2fbb f1be 91bd f816 78be 6278 3bbd
000001a0: 9ea2 263d cb16 0ebd b7a4 9d3d e900 873d
000001b0: d257 7e3e ff6f 203e 9de8 d3bc 375d 173d
000001c0: 452a fc3c b117 25be 2d05 a83d 6537 54be
000001d0: 52ae 1bbe 931a 1bbe b4d9 843e 0aa6 c2ba
000001e0: 2c88 c3bd 2d63 123d a9bd 333e 2b2f 0dbe
000001f0: 5082 8b3a a367 99bd 8f8e f0bd d3e8 c2bc
00000200: ce1a 163e bf9b ebbf 98e2 a93d d5dc 2c3e
00000210: 7ea9 993e 193c 8f3e 3615 6cbe 34a3 1e3d
00000220: 7efc f83e 8327 df3e 25bb 343e 47e4 c9bd
00000230: bcae 6d3e 5686 6e3d 063b a13e 8a60 013d
00000240: cf38 06bd a83e 483e 36de ac3e 923a ecbd
00000250: 7fee d83e d684 523e 773f 02be 4a7f b83b
00000260: 4077 84bf f72f be3e e4b2 7b3e 771f df3e
00000270: 11b3 c73e 0e63 cc3e bc3b 743e 7d8b 54bc
00000280: f35d 63bd 4f71 1abd 8f14 b33c a222 ee3d
00000290: 1baf 513d 4ab9 b73d 9cfa 3cbd d8a5 eabc
000002a0: c4a6 8abc 9b1e 40bd 743c 01bd a3e2 1a3e
000002b0: 66fd cabd 375d ad3d b101 f5b7 4d65 443d
000002c0: 917e 29bd cef6 c23d 6007 ccbd 5240 063e
000002d0: 890c 72bc 649a 30be 24e2 913e b7fd 033b
000002e0: f03a ca3d 5282 f73c 0abc 11bd 5219 df3d
000002f0: 0340 d13b a1d3 c33c 7a8b 51be b6ef 20be
00000300: 0035 2bbd e78f 26bc 6a08 78bc a5ce 49bc
00000310: 8770 cdbc 9239 b63d 8b41 253e d989 9bbd
00000320: a055 9ebd d785 753b daa0 86bd 8d9d 993d
00000330: 8952 49be 87b7 9f3b fb9a abbd 7078 663d
00000340: 291a 3e3d 9f83 b2bb 2f3c 85bc 3237 1bbe
00000350: 481f 6ebc 27c4 42bd b1c2 483b 4ebe 22bd
00000360: 6a2e 3fbd d039 1a3e 013b 973d b27a e7bd
00000370: f448 babd 0f7c 0dbd 5077 c23d 51b5 a03d
00000380: 81b3 7dbe dc62 c93d 7c15 b93d abad 78bd
00000390: 100b d9bd 20b4 e43d 8ae1 903d 2c2f 46be
000003a0: 7551 b33d 87b1 59bc fcfb 2dbe 8b5a a83d
000003b0: f4db bf3c 2c67 8e3d bfa4 8abd c279 143d
000003c0: 0d4b 553d 29d3 3ebe c4f4 473d d0a1 35be
000003d0: de8c 9d3d 7230 2c3e e905 86be a67f 09be
000003e0: e813 273b b8da 52bc a6ae aabd 3be5 9cbc
000003f0: 9bf1 cabd ff21 f2bd 80fd e9bc a348 cb3b

hidden_layer1.bias f4 [64]
-0.00089061836 0.13398431 0.3033323 0.09507875 0.08009784 0.12279912 0.0019440658 -0.07343257
-0.12678179 0.12972267 0.16879559 -0.15056978 0.12884295 0.026398346 -0.038888436 -0.16571742
0.39507285 -0.16829818 0.038649827 -0.051441655 -0.11121447 0.06514946 0.09606847 -0.19057564
-0.11819314 0.021606525 0.09328627 0.044834778 -0.010999992 0.09807381 -0.08324941 0.16744088
-0.14492199 -0.10765586 -0.008695103 0.048070192 -0.16739371 0.017605824 0.1108688 -0.05751436
0.090085 0.026100475 -0.13776882 0.03568995 0.014394215 0.07723312 -0.11762455 -0.113914795
0.032071445 0.103899494 0.12024172 -0.0891936 -0.11229658 0.036297586 0.09612455 -0.091664195
0.75726974 0.15074745 -0.027193397 0.0695177 0.05025897 0.10898867 0.06469917 0.12545024
00000000: 6378 69ba 2f33 093e 5f4e 9b3e a6b8 c23d
00000010: 560a a43d 1b7e fb3d 06d0 fe3a d163 96bd
00000020: 16d3 01be 05d6 043e c0d8 2c3e f72e 1abe
00000030: 68ef 033e 5841 d83c 7b49 1fbd d4b1 29be
00000040: fd46 ca3e 5c56 2cbe 484f 1e3d 7cb4 52bd
00000050: 69c4 e3bd 156d 853d 8cbf c43d 4326 43be
00000060: 3f0f f2bd 2b00 b13c df0c bf3d aca4 373d
00000070: 4f39 34bc ecda c83d ab7e aabd 9f75 2b3e
00000080: 6e66 14be ad7a dcbd e875 0ebc 40e5 443d
00000090: 4269 2bbe 173a 903c 2e0f e33d 2d94 6bbd
000000a0: 7c7e b83d aad0 d53c 4513 0dbe a02f 123d
000000b0: b7d5 6b3c 662c 9e3d 24e5 f0bd 294c e9bd
000000c0: 595d 033d 42c9 d43d 4a41 f63d 22ab b6bd
000000d0: c0fb e5bd c7ac 143d f3dc c43d 70ba bbbd
000000e0: 6edc 413f 8a5d 1a3e b0c4 debc 4c5f 8e3d
000000f0: 5adc 4d3d 7435 df3d 0081 843d 0776 003e

hidden_layer2.weight f4 [32, 64]
-0.017255727 0.018669495 -0.027622892 0.120421104 0.34930155 0.112752594 -0.030328397 -0.09330643
-0.038245652 0.021318497 0.33918828 -0.17369622 0.3958132 0.44719344 0.16700965 0.3267023
0.27781197 0.38430098 0.3912395 0.21306111 0.033249687 0.2442906 -0.022285465 -0.008313254
-0.050890166 0.364705 0.3759995 0.007015807 -0.033411365 0.28142655 0.42502525 0.02394796
0.6966743 0.10017183 0.41891664 -0.039276764 -0.061022133 0.2641992 -0.14609621 0.52542526
0.26758048 0.39607015 -0.019038066 0.12631825 -0.22290167 0.27320704 0.03918719 0.35429442
-0.08887103 0.059071567 -0.015741404 0.363533 0.34684262 0.5936765 0.33285245 -0.0617667
-0.20739053 0.32129157 0.085572325 0.37965748 0.17741875 0.20440032 0.43581304 -0.09199011
-0.010790985 0.14335315 -0.04152257 1.3968484e-05 -0.071513094 -0.12801482 0.04493583 0.014249687
0.07917242 -0.00056377903 0.13735232 -0.0013495947 0.058791127 0.01416367 -0.06632676 0.014816957
-0.08090704 -0.037864175 0.073554106 0.16611445 -0.03485721 0.1089978 0.01006574 0.11029637
-0.05748656 -0.008735786 -0.022255812 0.0656283 0.02129553 -0.13142355 -0.11502414 -0.051139235
-0.0074718776 0.0664302 -0.07849308 -0.15875117 -0.0062992745 -0.09769874 -0.108605504 -0.084291786
0.06054935 -0.013496287 0.05060041 0.21835728 -0.047043815 0.0031942301 -0.040553197 0.055475444
-0.019213011 -0.089882426 -0.03498774 0.038423132 0.11295235 -0.27926895 -0.055437353 -0.0119486535
-0.12843233 -0.020959595 -0.0018622725 -0.28530335 -0.1550949 -0.029308451 -1.6702255e-06 0.076167725
-0.040306013 0.09257626 -0.14223927 -0.02539516 -0.09435922 0.1387854 -0.06243508 0.018286562
-0.047602616 0.10066874 -0.20372754 -0.14938277 -0.08359211 0.0225418 -0.15819542 -0.07063899
-0.051547036 -0.1663261 -0.022671558 -0.024523342 -0.013533031 0.042904112 0.0068701073 0.17501618
0.12312329 -0.07034657 -0.056382556 0.015327248 -0.00038907895 -0.21350196 -0.17683142 -0.08130338
-0.16272762 -0.1293786 -0.13290618 -0.12773176 0.042736355 0.053193692 0.07518609 -0.031608235
0.0010457081 -0.046027027 -0.026327437 0.04902551 -0.026788218 0.05521632 0.12014162 0.033012915
-0.03619447 0.054432657 0.027663112 0.20399624 0.056792002 -0.15652272 0.018312735 -0.0801498
-0.013168304 -0.094374254 -0.070974916 -0.045178164 -0.17564256 0.06369645 -0.15185529 0.043720942
0.15856121 -0.18157896 0.19789837 -0.100004986 0.16147499 0.015217239 0.006779262 0.04573336
-0.07631706 0.05933139 0.40860236 -0.0080047455 0.3637295 0.22541945 -0.00732606 0.49482206
0.6135382 0.17221957 0.29663476 0.3632918 0.16643487 0.26360524 0.032017592 -0.021942519
0.2063806 0.4744734 0.39465606 0.020255739 -0.00037581578 0.40442058 0.24942948 -0.001765284
0.3489315 -0.09329616 0.18312389 0.13063826 -0.10494788 0.3234342 0.024091242 0.5582981
0.45948482 0.3209206 -0.010913069 -0.031904627 0.09520508 -0.1147022 -0.10622179 0.2397328
0.0016196279 -0.16226573 0.04486651 0.4470407 0.37110502 0.25591218 0.25011912 -0.05173867
-0.7497947 0.35716313 -0.027233941 0.18140775 0.40028894 -0.04041381 0.33640882 -0.07577013
00000000: e25b 8dbc c5f0 983c 6749 e2bc 579f f63d
00000010: a7d7 b23e d5ea e63d 4273 f8bc 7117 bfbd
00000020: 79a7 1cbd 21a4 ae3c 16aa ad3e 6cdd 31be
00000030: 07a8 ca3e 8af6 e43e 9404 2b3e 8645 a73e
00000040: 5f3d 8e3e 19c3 c43e 8b50 c83e b12c 5a3e
00000050: d330 083d 5127 7a3e 0290 b6bc 5134 08bc
00000060: 3572 50bd 9dba ba3e 0283 c03e dbe4 e53b
00000070: 5bda 08bd 2417 903e e99c d93e 832e c43c
00000080: 3f59 323f e326 cd3d 3e7c d63e ace0 20bd
00000090: 58f2 79bd 1e45 873e 3f9a 15be 4582 063f
000000a0: 4f00 893e b5c9 ca3e b8f5 9bbc 9259 013e
000000b0: 5640 64be cbe1 8b3e bf82 203d 1466 b53e
000000c0: 0402 b6bd 07f5 713d 1ef4 80bc ff20 ba3e
000000d0: 5b95 b13e 2ffb 173f a36b aa3e 14ff 7cbd
000000e0: 2f5e 54be 5480 a43e 8b40 af3d 7762 c23e
000000f0: 43ad 353e 514e 513e e322 df3e 5065 bcbd
00000100: accc 30bc 2bcb 123e 9213 2abd 2f5a 6a37
00000110: 7575 92bd 5116 03be a20e 383d 8577 693c
00000120: 2625 a23d 92ca 13ba 16a6 0c3e e2e4 b0ba
00000130: f7ce 703d bd0e 683c 53d6 87bd d2c2 723c
00000140: 97b2 a5bd 7717 1bbd 89a3 963d e819 2a3e
00000150: 6fc6 0ebd 3d3a df3d c6ea 243c 10e3 e13d
00000160: 0777 6bbd 8b20 0fbc d251 b6bc 2168 863d
00000170: f773 ae3c e593 06be c791 ebbd 6077 51bd
00000180: a7d6 f4bb 8f0c 883d fbc0 a0bd ab8f 22be
00000190: 256a cebb 4716 c8bd 906c debd 2ca1 acbd
000001a0: 9802 783d 881f 5dbc 6042 4f3d 0d99 5f3e
000001b0: 04b1 40bd 4a56 513b 1c1b 26bd 383a 633d
000001c0: 9b64 9dbc 4714 b8bd 4e4f 0fbd 9361 1d3d
000001d0: 9053 e73d 57fc 8ebe 4712 63bd 49c4 43bc
000001e0: c483 03be 75b3 abbc 7f17 f4ba 4813 92be
000001f0: 33d1 1ebe 4718 f0bc 832c e0b5 d3fd 9b3d
00000200: eb17 25bd 9f98 bd3d 2ca7 11be 8309 d0bc
00000210: 683f c1bd c31d 0e3e edbb 7fbd b3cd 953c
00000220: f6fa 42bd 6a2b ce3d f49d 50be ccf7 18be
00000230: 5732 abbd 95a9 b83c fbfd 21be 2dab 90bd
00000240: fc22 53bd 6451 2abe b4b9 b9bc 2de5 c8bc
00000250: a5b9 5dbc 39bc 2f3d a31e e13b 7137 333e
00000260: 1028 fc3d dd11 90bd 65f1 66bd 231f 7b3c
00000270: 4bfd cbb9 42a0 5abe 4c13 35be 6382 a6bd
00000280: 12a2 26be d37b 04be 8f18 08be 1dcc 02be
00000290: 510c 2f3d a1e1 593d 2afb 993d a377 01bd
000002a0: 2410 893a d686 3cbd a3ac d7bc f9ce 483d
000002b0: f772 dbbc 822a 623d cf0c f63d 8d38 073d
000002c0: a740 14bd c7f4 5e3d c09d e23c 64e4 503e
000002d0: bb9e 683d 7e47 20be 9704 963c 9425 a4bd
000002e0: dfbf 57bc 4a47 c1bd 4c5b 91bd bd0c 39bd
000002f0: a5db 33be 4973 823d f47f 1bbe bb14 333d
00000300: df5d 223e d6ef 39be dfa5 4a3e 6acf ccbd
00000310: b359 253e ba51 793c 9224 de3b e752 3b3d
00000320: 1e4c 9cbd 7905 733d 5434 d13e 5626 03bc
00000330: c13a ba3e 5bd4 663e 720f f0bb 5159 fd3e
00000340: d710 1d3f 545a 303e 83e0 973e 6201 ba3e
00000350: e76d 2a3e 44f7 863e e124 033d ccc0 b3bc
00000360: 7055 533e 2dee f23e 5c10 ca3e 5def a53c
00000370: 2409 c5b9 3710 cf3e 716a 7f3e 1a61 e7ba
00000380: 26a7 b23e 0f12 bfbd d484 3b3e 09c6 053e
00000390: eaee d6bd 2b99 a53e ff5a c53c a0ec 0e3f
000003a0: 9841 eb3e b44f a43e bbcc 32bc 6dae 02bd
000003b0: e2fa c23d fde8 eabd cf8a d9bd 847c 753e
000003c0: b249 d43a fd28 26be f2c5 373d 85e2 e43e
000003d0: 7a01 be3e ec06 833e 9d0f 803e edeb 53bd
000003e0: 8cf2 3fbf 16de b63e b719 dfbc f4c2 393e
000003f0: acf2 cc3e f488 25bd c73d ac3e 5f2d 9bbd

hidden_layer2.bias f4 [32]
0.0018373795 0.016875356 -0.101411805 -0.016995823 -0.2665252 0.02463473 0.17152593 -0.013404392
0.00033485895 -0.1723819 -0.1773502 -0.068905406 0.21479487 -0.26388633 -0.07696115 -0.2818841
-0.13948776 -0.3276946 0.007894597 -0.12690996 0.013683889 0.4587073 -0.0987264 0.086095035
0.13980599 0.04521935 -0.25853312 -0.07122378 -0.0621423 -0.22281344 -0.1552402 -0.0599237
00000000: 3ad4 f03a 303e 8a3c feb0 cfbd d33a 8bbc
00000010: fe75 88be c6ce c93c 7ea4 2f3e 189e 5bbc
00000020: 0290 af39 e184 30be 4a9b 35be 471e 8dbd
00000030: 30f3 5b3e 1c1c 87be cf9d 9dbd 1d53 90be
00000040: e1d5 0ebe 96c7 a7be 5758 013c aff4 01be
00000050: 6432 603c afdb ea3e 1131 cabd 9852 b03d
00000060: 4d29 0f3e ed37 393d 745e 84be c6dd 91bd
00000070: ed88 7ebd 3529 64be 49f7 1ebe 8e72 75bd
