Comparison/TrainedModel/5-0.001-54-Agent/node_agent_13.pth (torch, 29252 bytes, 6 tensors)

input_layer.weight f4 [32, 75]
0	0x3e5e9340	0.21735859
1	0x3df4b255	0.11948077
2	0x3d9d2877	0.07673734
3	0xbd63b2f8	-0.0555906
4	0xbcf69aba	-0.030103076
5	0x3d97bed7	0.07409447
6	0x3c20012a	0.0097659025
7	0x3d330ec3	0.04371525
8	0x3e0cf99b	0.13767092
9	0xbd6c7f48	-0.057738572
10	0x3e03bf2c	0.12865895
11	0xbd921d38	-0.07134479
12	0xbcba14d8	-0.022715017
13	0xbdde432a	-0.10852654
14	0xbd890de0	-0.066920996
15	0x3d7643a8	0.060123116
16	0xbd448537	-0.047978606
17	0xbd0f44b2	-0.034977622
18	0x410351be	8.207457
19	0x40ae5e09	5.448979
20	0x3a04eee6	0.0005070999
21	0x3f9d5d4b	1.2294096
22	0xbd692212	-0.056917258
23	0xbe612782	-0.21987727
24	0xbe1c38ef	-0.15256093
25	0x3d8839b3	0.0665163
26	0x3deea82a	0.116531685
27	0x3caed417	0.021341367
28	0x3d1e3ef6	0.038634263
29	0x3e03a0fe	0.12854382
30	0xbca3cb00	-0.019994259
31	0xbe52969f	-0.2056527
32	0xbd9b242e	-0.0757526
33	0xbd9604d6	-0.07325141
34	0xbd76f0da	-0.060288288
35	0x3d1095ae	0.035298996
36	0x3d5811f2	0.05275149
37	0x3df55698	0.11979407
38	0x3bd06785	0.0063599967
39	0x3ce7ed03	0.028311258
40	0xbe6185b0	-0.22023654
41	0x3f9f1346	1.2427757
42	0x3da57dcf	0.08080637
43	0x3d944b43	0.072409175
44	0x3dbc3cb3	0.09191265
45	0x3df7108f	0.12063705
46	0x3c92b013	0.017906224
47	0x3bffec1f	0.0078101302
48	0xbda03f60	-0.07824588
49	0x3e3ea647	0.18618117
50	0xbc2faece	-0.010722829
51	0x3e4bfda5	0.19920976
52	0x3f8c811a	1.0976899
53	0xbd8ed9bc	-0.06975123
54	0xbb1140f7	-0.0022163966
55	0x3d220407	0.039554622
56	0xbbc447da	-0.0059900107
57	0xbddcbfca	-0.10778768
58	0x3d8ff114	0.07028404
59	0x3f8abb5e	1.083843
60	0x3c57c2a0	0.013168961
61	0x3ddb444b	0.10706385
62	0xbde2d227	-0.1107524
63	0xbd048c70	-0.032360494
64	0x3e570eff	0.21001814
65	0xbd03b74f	-0.03215724
66	0x3c6e1958	0.01453241
67	0xbd145b1d	-0.036219705
68	0x3daac7ff	0.083389275
69	0xbd6555a3	-0.055989873
70	0xbe1df1ab	-0.1542422
71	0xbcaea80f	-0.021320371
72	0x3dc7e737	0.097608976
73	0x3e339577	0.17537485
74	0x3cf30712	0.029666457
75	0xbdc097e3	-0.0940397
76	0x3dc492a0	0.09598279
77	0x3d68583f	0.056724783
78	0xbd539168	-0.051652342
79	0xbdc6dd8d	-0.09710226
80	0xbb151d28	-0.0022752974
81	0xbe1886b9	-0.14895143
82	0xbc0a32d2	-0.008434968
83	0xbd4329f9	-0.04764745
84	0xbe1fd8f9	-0.15610112
85	0xbd8aee7f	-0.06783771
86	0x3dbd401a	0.09240742
87	0x3e0cc4fb	0.13747017
88	0x3d4aab53	0.049479794
89	0x3dfb9507	0.12284284
90	0x3d7f06d0	0.062262356
91	0x3c700822	0.0146503765
92	0x3a9af238	0.0011821454
93	0x40ec7f4b	7.3905387
94	0x40cd38bf	6.413177
95	0x3da1d228	0.07901412
96	0x3e90c677	0.28276417
97	0xbdf4cd3b	-0.11953207
98	0xbde183dd	-0.11011479
99	0x3bdae818	0.0066804998
100	0xba38c129	-0.0007047826
101	0xbd33ffe1	-0.043945197
102	0xbe3fc80d	-0.18728657
103	0x3be2f003	0.0069255843
104	0x3d7e75cd	0.062124062
105	0x3d6a5987	0.057214286
106	0x3d7fd718	0.06246099
107	0x3d9a20c8	0.07525784
108	0xbdd5686b	-0.10420307
109	0x3ddb00c8	0.106935084
110	0xbd80682f	-0.062698714
111	0x3d01094e	0.031503014
112	0xbe9bea19	-0.3045204
113	0xbc9d57c7	-0.019206895
114	0xbdc926a2	-0.09821822
115	0x3e24da91	0.16099001
116	0x3e7fd0c6	0.24981984
117	0x3c980a22	0.01855952
118	0xbe3935fc	-0.18087
119	0xbd0c710c	-0.034287497
120	0x3dfd2c2f	0.12361943
121	0xbd84fa13	-0.0649301
122	0xbca563ef	-0.020189254
123	0xbe11bd3d	-0.14232345
124	0x3e2303a3	0.15919356
125	0x3cd38518	0.0258203
126	0xbd15aaab	-0.036539715
127	0x3e801f60	0.25023937
128	0xbdd650ba	-0.10464616
129	0xbd8bca3d	-0.06825683
130	0x3d2e5c77	0.04256865
131	0x3d516b9d	0.05112802
132	0x3d292d8e	0.04130321
133	0xbd21a0e0	-0.039460063
134	0x3ea5455f	0.32279488
135	0x3d60ca5d	0.05488049
136	0xbe33e8da	-0.17569295
137	0x3d00ad0d	0.031415034
138	0xbdcc114d	-0.09964237
139	0xbd3cf0fd	-0.04612826
140	0x3d109be9	0.035304938
141	0xbce0b56a	-0.027430255
142	0xbd63acf5	-0.055584867
143	0x3d199f33	0.03750534
144	0x3dabef22	0.0839522
145	0x3e40c5e9	0.18825497
146	0xbb88155f	-0.0041529383
147	0xbe75a175	-0.23987372
148	0x3dc7e4b7	0.09760421
149	0xbe08d0fe	-0.13360974
150	0x3e6444e2	0.22291902
151	0xbcc2c21c	-0.0237742
152	0xbd2af490	-0.04173714
153	0x3d87270a	0.06599243
154	0xbd57ff9a	-0.052733995
155	0x3d0885ff	0.033330914
156	0xbda06707	-0.07832151
157	0x3badc55b	0.0053030676
158	0x3c549817	0.012975714
159	0xbc27953d	-0.010228452
160	0xbe3f7987	-0.18698703
161	0xbda3da9f	-0.08000683
162	0xbc0a94ff	-0.008458375
163	0xbda35072	-0.07974328
164	0xbd15d172	-0.036576696
165	0xbe093dfb	-0.1340255
166	0xbe1009bf	-0.14066218
167	0x3d9301c3	0.071780704
168	0x40fe6c8b	7.95075
169	0x40ad1751	5.4090962
170	0xbcb4beec	-0.022063695
171	0x3ec07006	0.37585467
172	0xbdf3c6c5	-0.11903147
173	0x3d2202ba	0.03955338
174	0x3d2d825e	0.042360656
175	0xbda16c4a	-0.078819826
176	0x3d85175a	0.064985946
177	0x359328fb	1.096428e-06
178	0xbdc1371d	-0.0943434
179	0xbe832e3d	-0.25621215
180	0xbdb9043d	-0.090340115
181	0xbde98d83	-0.11403944
182	0x3cfce3a3	0.030870264
183	0xbdb48e27	-0.08816176
184	0xbde34dc0	-0.11098814
185	0x3cf28e52	0.02960888
186	0x3dc76623	0.09736278
187	0xbbe0e1f5	-0.0068628737
188	0x3d3e43ff	0.046451565
189	0x3e0e17c4	0.13876253
190	0xbd3a2331	-0.045443717
191	0x3f07ae52	0.53000367
192	0xbdba611f	-0.09100556
193	0xbe06be73	-0.13158588
194	0xbd27c7a0	-0.04096186
195	0x3d7261ff	0.059175488
196	0x3de27902	0.11058237
197	0xbd2a66bb	-0.041601878
198	0xbc474664	-0.0121627785
199	0xbe634c53	-0.22197084
200	0xbce64eaf	-0.028113691
201	0xbe1f7940	-0.15573597
202	0x3f1ab218	0.60428
203	0x3d51b942	0.051202066
204	0x3e10b02c	0.14129704
205	0xbd83e0b5	-0.06439344
206	0xbeb72b58	-0.35775256
207	0x3c0b7a54	0.008513052
208	0xbd72dcdb	-0.059292655
209	0x3ec78dd1	0.38975385
210	0xbd0fd9e5	-0.03511991
211	0x3d6ea898	0.058266252
212	0xbe3a9a97	-0.18223034
213	0x3ce42dc5	0.027853856
214	0xbe4c23f5	-0.19935592
215	0xbda2d2e5	-0.07950381
216	0x3d8c392e	0.06846844
217	0x3d1318ef	0.03591245
218	0x3d7d305f	0.06181371
219	0x3d02c397	0.03192481
220	0xbd40d59c	-0.047078714
221	0x3ccf7adf	0.025327144
222	0xbc936edc	-0.017997198
223	0x3e1d515e	0.1536307
224	0x3d07b478	0.033131093
225	0xbcc7fa95	-0.024411479
226	0xbe6a1f3d	-0.22863479
227	0x3e0d8005	0.13818367
228	0xbd21e050	-0.03952056
229	0x3d4ed89b	0.05049954
230	0x3da94f63	0.08267095
231	0x3e27dfb7	0.16393934
232	0xbd13f147	-0.036118772
233	0xbc55f2c0	-0.013058364
234	0xbd9d54f0	-0.07682216
235	0xbe213cab	-0.15745799
236	0xbe7e0592	-0.24806812
237	0x3e13398a	0.14377418
238	0xbe0c90d0	-0.13727117
239	0xbc923fa7	-0.017852617
240	0xbcfdc922	-0.030979697
241	0xbc5e3bbf	-0.013564049
242	0x3dc8c9e2	0.09804131
243	0x40b0c487	5.52399
244	0x40b84e5b	5.759565
245	0xbc1f3b0c	-0.009718668
246	0x3cd5bb70	0.026090354
247	0xbda24043	-0.07922413
248	0xbda4cb24	-0.080465585
249	0xbc938c6e	-0.018011298
250	0xbd039424	-0.0321237
251	0x3b242d23	0.0025051318
252	0xbeab0edb	-0.3340977
253	0x3dcc098e	0.0996276
254	0xbd85df03	-0.06536677
255	0x3e2b3e7e	0.16723058

input_layer.bias f4 [32]
0	0x3f8e449f	1.1114691
1	0x3ec4038c	0.38283956
2	0x3f0c91b0	0.549098
3	0x3e563331	0.20917965
4	0x3f9ac202	1.2090456
5	0xbd54d1f1	-0.05195803
6	0x3da8bc5e	0.08239053
7	0x3e47fa59	0.19529094
8	0x3f92b1dc	1.1460528
9	0x3f88000c	1.0625014
10	0x3f900200	1.125061
11	0x3f8d5edc	1.1044574
12	0x3f875858	1.0573835
13	0x3f9e15b5	1.2350374
14	0x3f21b46a	0.63165915
15	0x3c915720	0.01774174
16	0x3f899117	1.0747403
17	0x3e966499	0.29373625
18	0x3eedff0d	0.4648365
19	0x3d638e3f	0.05555558
20	0x3f238306	0.638718
21	0x3f8debf0	1.1087627
22	0x3f871451	1.0553075
23	0x3ef375d1	0.47550824
24	0x3f81591e	1.0105321
25	0x3f84922e	1.035711
26	0x3f9b825e	1.214916
27	0xbd6b0e85	-0.057386894
28	0x3cb42828	0.021991804
29	0x3dc2623e	0.094913945
30	0x3f8e42da	1.1114151
31	0x3f92582f	1.1433161

hidden_layer1.weight f4 [64, 32]
0	0xbc8e304b	-0.017357012
1	0x3ddcb5df	0.10776877
2	0x3e48879a	0.19582978
3	0x3d354ca0	0.04426253
4	0xbd98d0fe	-0.07461737
5	0x3dbe388a	0.09288128
6	0x3dfcf56a	0.123514965
7	0x3badd004	0.0053043384
8	0xbdd366c3	-0.103223346
9	0x3d120eed	0.035658766
10	0xbc761bef	-0.015021308
11	0xbd524c90	-0.051342547
12	0xbd399367	-0.04530659
13	0xbd9dc3bf	-0.07703351
14	0x3cbd41ff	0.023102758
15	0xbd412b00	-0.04716015
16	0xbab0f1e3	-0.0013499822
17	0xbde25a07	-0.110523276
18	0x3d80952f	0.062784545
19	0xbe1deec4	-0.15423113
20	0xbdff12fd	-0.124547936
21	0xbd38f7b5	-0.045158107
22	0x3d229647	0.039694097
23	0xbe1b5668	-0.1516968
24	0x3d140df7	0.03614613
25	0xbe5083ab	-0.20362727
26	0xbd51b347	-0.051196363
27	0x3dbedb69	0.09319193
28	0x3c9f59f4	0.019452073
29	0xbd6309a0	-0.0554291
30	0xbda24347	-0.079229884
31	0xbe3d8802	-0.18508914
32	0x3f7c6c10	0.9860239
33	0x3fc1f65f	1.5153311
34	0x3fd64a63	1.6741451
35	0x40095bba	2.1462235
36	0x3f74e981	0.956688
37	0x4018573e	2.3803248
38	0x4013e49b	2.310828
39	0x3f9158d3	1.1355232
40	0x3f5588d4	0.8341191
41	0x3f79a89b	0.97522897
42	0x3f919000	1.137207
43	0x3f8517ae	1.0397851
44	0x3f6d55ae	0.9270886
45	0x3f7c62b1	0.9858809
46	0x3f143349	0.57890755
47	0xbd0fc253	-0.03509743
48	0x3f76690f	0.96254057
49	0x403733fd	2.862548
50	0x3eea11f2	0.45716816
51	0xbe7e6e5e	-0.24846789
52	0x3f5644d2	0.8369876
53	0x3f7c175b	0.9847314
54	0x3f689660	0.90854454
55	0x40086a37	2.1314828
56	0x3f87acb7	1.0599583
57	0x3f69b132	0.91286004
58	0x3f79c8a6	0.9757179
59	0x3e180000	0.1484375
60	0xbdac292a	-0.08406289
61	0xbadb1b2b	-0.0016716471
62	0x3f79f0db	0.9763314
63	0x3f596df2	0.8493339
64	0x3f82aa32	1.020819
65	0x3fb81fda	1.438472
66	0x3fc724d3	1.5558113
67	0x400605f7	2.094114
68	0x3f8001d4	1.0000558
69	0x4007a3de	2.1193767
70	0x400e545e	2.2238994
71	0x3f5b410d	0.85646135
72	0x3f8750d3	1.057154
73	0x3f752a82	0.95767987
74	0x3f97c008	1.1855478
75	0x3f881464	1.0631223
76	0x3f931699	1.1491271
77	0x3f544832	0.8292266
78	0x3ea988e3	0.3311225
79	0x3be98305	0.0071262144
80	0x3f86ef0b	1.05417
81	0x40356feb	2.834956
82	0x3ee03f65	0.43798366
83	0xbe42adb9	-0.19011582
84	0x3f2cdaef	0.67521566
85	0x3f6e4f09	0.9308935
86	0x3f849b97	1.0359982
87	0x4011e668	2.279688
88	0x3f94c04e	1.1621187
89	0x3fa0fed1	1.2577764
90	0x3f6c1e1f	0.9223346
91	0xbce90578	-0.02844499
92	0x3c8c8325	0.017152378
93	0xbe3a43bf	-0.18189906
94	0x3fa60df3	1.2973007
95	0x3f7d2c81	0.9889603
96	0xbcbd72d5	-0.023126045
97	0xbd536a47	-0.051615026
98	0x3d1be5e7	0.03806105
99	0x3d93f583	0.07224562
100	0x3df6c461	0.12049175
101	0x3e09865f	0.13430165
102	0xbdf201e7	-0.11816769
103	0x3dc7c714	0.09754768
104	0x3c268f33	0.010165977
105	0xbe37b667	-0.17940675
106	0xbe4e0fd8	-0.20123231
107	0xbe0e8101	-0.13916399
108	0x3e3da829	0.1852118
109	0xbe3d98e8	-0.1851536
110	0x3d3836bd	0.044974077
111	0xbe03d34d	-0.12873574
112	0x3e3ddfb6	0.1854237
113	0xbd22d20f	-0.03975111
114	0x3cc44477	0.023958428
115	0x3da87034	0.08224526
116	0xbe2122be	-0.1573591
117	0xbdd46dd6	-0.10372512
118	0xbd86952b	-0.0657142
119	0xbd04b272	-0.03239674
120	0x3dd7df77	0.105406694
121	0xbdf21414	-0.11820236
122	0xbda5919f	-0.08084416
123	0xbd3e566b	-0.046469133
124	0x3d8a8a64	0.06764677
125	0xbe254c9d	-0.16142507
126	0xbd1d1bc0	-0.038356543
127	0x3bf6edc2	0.007535667
128	0xbd4a08ab	-0.049324673
129	0x3d5cbfff	0.05389404
130	0x3d9d590c	0.07683
131	0xbc40c5a2	-0.011765869
132	0x3dd1b1c2	0.10238983
133	0xbe438117	-0.19092213
134	0xbe142eea	-0.14471021
135	0x3daf301b	0.08554097
136	0x3c039c9e	0.008032946
137	0xbdec3c80	-0.11534977
138	0x3d28911f	0.041154023
139	0xbe5d3ec5	-0.21605976
140	0xbe36dbd3	-0.17857294
141	0x3d11f410	0.035633147
142	0xbe0fa795	-0.14028771
143	0x3d8f7283	0.07004263
144	0x3ddf57a2	0.109053865
145	0xbd47a3af	-0.048740085
146	0x3d21045b	0.039310794
147	0xbb70c6b3	-0.0036739528
148	0xbdd0d488	-0.10196787
149	0xbdcae89b	-0.09907647
150	0x3d405890	0.04695946
151	0x3d94796f	0.07249724
152	0xbe53ee7f	-0.20696448
153	0x3db94532	0.09046401
154	0x3ced2090	0.028946191
155	0xbd779ea5	-0.06045403
156	0xbc044212	-0.008072393
157	0xbd5f2fdf	-0.054489013
158	0x3d4b9a8f	0.049707945
159	0x3d22d16b	0.039750498
160	0x3f8ddd4c	1.108316
161	0x3f8fba98	1.1228819
162	0x3fd041fe	1.6270139
163	0x3fdd20f4	1.7275681
164	0x3f5d0314	0.8633282
165	0x40002b21	2.0026324
166	0x40023d1d	2.03498
167	0x3f5b71d9	0.8572059
168	0x3f817de9	1.011655
169	0x3f872f3b	1.0561289
170	0x3f916733	1.1359619
171	0x3f89c585	1.0763403
172	0x3f6aaa5a	0.91666186
173	0x3f5f7861	0.8729306
174	0x3f10d7b6	0.5657915
175	0xbe0466a8	-0.12929785
176	0x3f7d1059	0.9885307
177	0x401baefb	2.432555
178	0x3f2a3f73	0.66503066
179	0xbc71abe9	-0.014750459
180	0x3f9777e8	1.1833467
181	0x3f82f0f4	1.0229783
182	0x3f850b7c	1.039413
183	0x40002936	2.0025153
184	0x3f91ce1b	1.1391023
185	0x3f8c00a2	1.0937693
186	0x3f80e65a	1.0070298
187	0x3deb3147	0.11484008
188	0x3c09ca69	0.008410075
189	0xbe08b247	-0.13349257
190	0x3f7572be	0.9587821
191	0x3f713d2a	0.94233954
192	0x3d53dc3e	0.05172371
193	0x3fb52456	1.4151714
194	0x3f8da656	1.1066387
195	0x40a39d29	5.1129346
196	0x3deea3fb	0.116523705
197	0x40559778	3.33737
198	0x40a5a3e5	5.1762567
199	0x405009d2	3.2505994
200	0x3df2c070	0.11853111
201	0x3e0df63e	0.13863465
202	0x3e6dc1a2	0.23218396
203	0x3e81386f	0.25238368
204	0x3e02f7d1	0.12789847
205	0x3d496ab0	0.04917401
206	0x3f57ca6f	0.84293264
207	0xbdc7b9d8	-0.09752244
208	0x3e2bd023	0.16778617
209	0x408cfd5b	4.405927
210	0x3f668526	0.9004692
211	0x3df3475d	0.11878846
212	0x3f66020f	0.8984689
213	0x3da13398	0.07871169
214	0x3d996b45	0.07491163
215	0x4058bcca	3.3865228
216	0xbde7ae8e	-0.113125905
217	0x3e35f35d	0.17768617
218	0x3e536741	0.20644857
219	0xbe864f77	-0.26232502
220	0x3d114596	0.035466753
221	0xbd09b41e	-0.03361904
222	0x3cea1889	0.028576152
223	0x3d8d0a92	0.06886782
224	0xbb7a3be2	-0.0038182666
225	0xbdd01955	-0.10161082
226	0x3d6b280b	0.057411235
227	0xbd34c75f	-0.044135448
228	0xbde0127e	-0.10941027
229	0xbd093004	-0.033493057
230	0x3dc0d23e	0.094151005
231	0xbe25fe1e	-0.1621022
232	0xbe188d28	-0.14897597
233	0xbe3ae6de	-0.18252131
234	0x3e13f360	0.14448309
235	0xbe1d1f49	-0.15343966
236	0x3c8376ba	0.016047824
237	0x3cb8f4fd	0.022577757
238	0xbe07b823	-0.13253836
239	0xbc7c22b0	-0.0153891295
240	0x3cdebcf1	0.027189704
241	0xbe183951	-0.14865614
242	0x3cfe6ce3	0.03105778
243	0xbd66e46e	-0.05637019
244	0xbc1fc26a	-0.009750942
245	0xbe210c94	-0.15727454
246	0x3e3697c5	0.17831333
247	0xbc244fcf	-0.0100287935
248	0x3d590ea5	0.05299248
249	0x3c30ccc1	0.010791005
250	0xbc444460	-0.0119791925
251	0xbe05ff8c	-0.13085765
252	0xbda263a5	-0.07929162
253	0xbe037183	-0.1283627
254	0xbc1386fb	-0.00900435
255	0x3d9d6106	0.076845214

hidden_layer1.bias f4 [64]
0	0xbdb01b21	-0.085989244
1	0x3f120bf8	0.5704951
2	0x3f199a12	0.6000072
3	0xbd8797de	-0.06620763
4	0xbe197ab4	-0.14988214
5	0x3ee22403	0.441681
6	0xbf11740d	-0.56817704
7	0xbd0b5c55	-0.0340236
8	0x3edefaf6	0.43550843
9	0xbd79f547	-0.06102493
10	0x3d2cf521	0.04222596
11	0x3ecd04a6	0.4004261
12	0x3dc4ef0f	0.09615909
13	0xbdcaeb58	-0.099081695
14	0xbdb0a528	-0.08625251
15	0xbeb4a994	-0.35285628
16	0x3e07b99c	0.13254398
17	0x3cec6637	0.028857334
18	0x3e53ebf0	0.20695472
19	0xbcc11b20	-0.023572505
20	0x3ece387a	0.40277463
21	0xbcb7f1d0	-0.022454172
22	0x3ec373ae	0.38174194
23	0x3d79a51b	0.060948472
24	0xbe130e75	-0.14360984
25	0x3d13a1f6	0.03604313
26	0x3cb0badd	0.021573478
27	0xbe4ff15e	-0.20306918
28	0x3eac9449	0.33706883
29	0x3db1bbe3	0.08678415
30	0x3ea33b78	0.3188131
31	0x3f6a466b	0.915137
32	0x3f2ccd7a	0.6750103
33	0x3e93e76b	0.28887495
34	0xbb41155a	-0.002946219
35	0x3d410708	0.047125846
36	0xbdb0522f	-0.08609425
37	0xbde11d5e	-0.109919295
38	0x3ed8dbae	0.42355102
39	0xbd38747c	-0.045032963
40	0xbd12df88	-0.035857707
41	0xbda7a0a9	-0.0818494
42	0xbe26fdc9	-0.16307749
43	0x3ef72214	0.48268187
44	0x3cbae5c7	0.022814645
45	0x3f2a4ebc	0.6652639
46	0xbda51be6	-0.08061962
47	0x3f47555d	0.7786463
48	0xbe27e7c2	-0.16397002
49	0x3f311737	0.6917605
50	0x3e0c5370	0.13703704
51	0x3d9f507a	0.077790216
52	0x3f15c79d	0.5850771
53	0xbd4ef778	-0.050528973
54	0xbcdde3b8	-0.027086124
55	0x3e2c62ef	0.16834615
56	0x3f01f231	0.5076018
57	0x3dce4da3	0.10073402
58	0x3ede1c09	0.43380764
59	0x3f14576e	0.5794591
60	0xbddfdfcc	-0.10931358
61	0xbe0ead57	-0.13933311
62	0x3e008de3	0.12554125
63	0xbd9ca904	-0.07649425

hidden_layer2.weight f4 [32, 64]
0	0xbd96b54e	-0.073588
1	0xbcbc85ff	-0.023013113
2	0x3cd12be7	0.02553363
3	0xbd3a69ec	-0.04551117
4	0x3beaa0b8	0.0071602724
5	0x3df5fec7	0.120114855
6	0x3d2b2165	0.041779894
7	0x3cc6182e	0.024181452
8	0xbdadfe73	-0.08495798
9	0xbc1e0a49	-0.009646007
10	0xbc5c2070	-0.013435468
11	0xbd9c5651	-0.07633651
12	0x3dab51e2	0.08365227
13	0x3d901ee7	0.07037144
14	0x3dfc96aa	0.123334244
15	0x3dda9ab0	0.106740355
16	0xbe023713	-0.12716322
17	0xbd9f46be	-0.07777165
18	0xbd082236	-0.03323575
19	0xbc65e92a	-0.014032641
20	0xbde0c730	-0.10975492
21	0xbd9fffc4	-0.07812455
22	0x3cc8eff4	0.024528481
23	0x3e1c56d7	0.15267502
24	0xbdebe367	-0.11517983
25	0x3d992949	0.07478578
26	0xbd66a538	-0.05630991
27	0xbbf678c3	-0.00752172
28	0x3ce5bc50	0.028043896
29	0x3d23a126	0.039948605
30	0xbd8220da	-0.06353922
31	0x3dcb0449	0.09912927
32	0xbddd3d75	-0.108027376
33	0x3c3feaca	0.011713693
34	0x3ba81403	0.0051293387
35	0x3db01b49	0.08598954
36	0xbdaf2203	-0.08551409
37	0xbd09408f	-0.033508833
38	0xbd6e6742	-0.058203943
39	0x3cad23c2	0.021135215
40	0xbdeadabd	-0.11467502
41	0xbd3bd0a8	-0.045853287
42	0x3d40f4bf	0.047108408
43	0x3d07379f	0.03301203
44	0x3d0c7407	0.03429034
45	0xbd49b308	-0.049243003
46	0x3c462ec6	0.012096113
47	0x3e1d0de5	0.15337332
48	0x3d9cd5ed	0.076579906
49	0x3b9274b8	0.0044694804
50	0xbd4051c2	-0.04695297
51	0xbe1d63f3	-0.15370159
52	0xbda170c1	-0.07882834
53	0xbc6b5cff	-0.014365434
54	0x3c76320b	0.01502658
55	0xbbe1b04b	-0.006887471
56	0xbcfb938f	-0.03071001
57	0x3e1cb954	0.15305072
58	0xbdae040b	-0.08496865
59	0x3e29faf3	0.16599636
60	0x3d8716ff	0.06596183
61	0xbce4e253	-0.027939951
62	0x3d66031a	0.0561553
63	0x3e2f7bbb	0.17137043
64	0x3dadc5c4	0.084849864
65	0x3b626ecd	0.0034550906
66	0xbd9120fe	-0.07086371
67	0xbcc265f4	-0.023730256
68	0x3e7380b0	0.23779559
69	0x3ca05734	0.019572832
70	0x3e34e33f	0.17664813
71	0xbe5996e4	-0.21248966
72	0x3d12e8f4	0.035866693
73	0x3d087897	0.03331813
74	0xbd8dff88	-0.06933504
75	0xbdba7d7b	-0.09105965
76	0xbda67c9f	-0.08129238
77	0x3d070f13	0.03297336
78	0x3e2b7f0d	0.16747685
79	0x3db5ec45	0.088829555
80	0xbd19867f	-0.03748178
81	0x3d7c544f	0.06160384
82	0x3dbd1b12	0.09233679
83	0x3e3d4e1a	0.18486825
84	0x3d0fed6d	0.035138536
85	0xbdb9c08f	-0.09069931
86	0x3d185734	0.03719254
87	0xbd9aeee5	-0.07565097
88	0xbd77d120	-0.06050217
89	0x3d66221d	0.056184877
90	0xbc9b5f1e	-0.018966254
91	0x3d440e65	0.04786529
92	0x3dd75b32	0.10515441
93	0x3e1abb3e	0.1511049
94	0xbd00b03f	-0.03141808
95	0xbe25c47d	-0.16188236
96	0xbda7c524	-0.081918985
97	0xbdfabdc5	-0.12243227
98	0xbd695875	-0.056969125
99	0xbcca9cef	-0.024733035
100	0x3e10fe5a	0.14159527
101	0xbdf0251b	-0.11725827
102	0x3b2dfe58	0.0026549306
103	0x3e498ab2	0.19681814
104	0x3e10142a	0.14070192
105	0xbdbd8bd0	-0.09255183
106	0x3e2a00b5	0.16601832
107	0x3e1b4801	0.15164186
108	0x3de9e4f2	0.11420621
109	0xbcf6aeec	-0.030112706
110	0xbd7bd455	-0.061481792
111	0x3dc54c81	0.096337326
112	0x3d98c6b4	0.074597746
113	0xbdd29230	-0.10281789
114	0x3db82296	0.08990972
115	0xbd081861	-0.033226375
116	0xbb593134	-0.00331409
117	0xbdba8e98	-0.09109229
118	0x3e3b3579	0.18282117
119	0xbd6675ab	-0.05626456
120	0xbd1db92a	-0.038506664
121	0x3d80acd8	0.06282967
122	0x3d22abf7	0.03971478
123	0xbd20fd16	-0.03930386
124	0xbdc490c5	-0.09597925
125	0x3e82df30	0.25560904
126	0x3dfd82af	0.123784415
127	0x3db9d5bb	0.09073969
128	0xbe856ef3	-0.2606121
129	0x3f6ba3f0	0.92047024
130	0x3f538edc	0.8263986
131	0xbdc861cb	-0.097842775
132	0xbc8b3b0a	-0.016995925
133	0x3f691a20	0.9105549
134	0xbfb89bfd	-1.4422604
135	0x3e06a16f	0.1314752
136	0x3f24b257	0.64334625
137	0x3def0550	0.11670935
138	0x3c4fe796	0.012689492
139	0x3f2531e3	0.64529246
140	0xbd504744	-0.050849214
141	0x3c932cfe	0.01796579
142	0xbd625929	-0.05526081
143	0xbfa8a605	-1.3175665
144	0x3d19cf55	0.037551243
145	0x3c874875	0.016514042
146	0x3f26255d	0.6490076
147	0x3d8a4661	0.06751705
148	0x3f3e762c	0.74399066
149	0xbd1a608c	-0.03768973
150	0x3f4b3616	0.79379404
151	0x3ddf15fb	0.10892864
152	0xbcf142f7	-0.029450877
153	0xbc360f94	-0.011112113
154	0xbc66f354	-0.0140961
155	0x3d3ff461	0.046863917
156	0x3f3396a2	0.7015172
157	0xbdcda6a7	-0.10041552
158	0x3f08d5b6	0.53451097
159	0x3f3b2ace	0.7311219
160	0x3f3ffb1b	0.7499253
161	0x3f40e748	0.7535291
162	0x3e48c02b	0.19604556
163	0xbc839717	-0.016063256
164	0xbdc040b2	-0.0938734
165	0xbe98564f	-0.29753348
166	0x3f26453f	0.6494941
167	0xbc303f35	-0.010757257
168	0x3dacc61e	0.08436225
169	0x3a781e25	0.0009464941
170	0xbd2b77d4	-0.041862324
171	0x3f5e8952	0.86928284
172	0x3d9c3051	0.07626403
173	0x3f569bc5	0.83831435
174	0x3cfbc2c0	0.030732512
175	0x3f74f6f8	0.95689344
176	0x3e032e61	0.12810661
177	0x3f7b5c09	0.9818731
178	0x3cfb2140	0.030655503
179	0x3d5854eb	0.05281536
180	0x3f6d156c	0.9261081
181	0x3cb1a74b	0.021686217
182	0xbe0518e1	-0.12997772
183	0xbe200b87	-0.15629397
184	0x3f5b7763	0.85729045
185	0xbdcfde12	-0.101497784
186	0x3f52f229	0.8240076
187	0x3f53c1d6	0.82717645
188	0xbb787546	-0.0037911697
189	0x3d251a71	0.04030842
190	0xbe37e416	-0.17958102
191	0xbbf80f54	-0.0075701866
192	0x3c097677	0.008390061
193	0xbcbf92a7	-0.023385359
194	0x3c7144d7	0.014725885
195	0x3d806f5c	0.0627124
196	0x3d119843	0.0355456
197	0x3d047517	0.032338228
198	0xb935cf96	-0.00017338837
199	0x3b98a169	0.0046579135
200	0x3c65cc6d	0.01402579
201	0xbe16b905	-0.14719017
202	0x3d01a3ab	0.031650227
203	0xbd4a98c3	-0.04946209
204	0x3e2dee41	0.16985418
205	0xbdf5cb18	-0.12001628
206	0x3b2aa64f	0.002603907
207	0x3db4bc9f	0.08825039
208	0x3ea7e4e9	0.32791832
209	0xbd94960b	-0.07255181
210	0xbd2f39ce	-0.042779736
211	0x3d98583e	0.07438706
212	0x3c73d376	0.014881959
213	0xbc8fc7c2	-0.017551307
214	0xbd304752	-0.043036766
215	0x3e592b92	0.21208027
216	0x3e09660d	0.13417836
217	0xbcfe1148	-0.0310141
218	0xbe841da9	-0.2580388
219	0x3cbd505d	0.02310961
220	0xbda9a482	-0.082833305
221	0x3d4d60b2	0.050141044
222	0xbd9b63a7	-0.075873666
223	0xbdfd8a86	-0.12379937
224	0xbd6b10f1	-0.057389203
225	0x3da375b8	0.079814374
226	0x3ddbfc5d	0.10741494
227	0xbdc8f5bd	-0.09812496
228	0xbddc40e0	-0.107545614
229	0xbe2b2311	-0.16712596
230	0x3da99bd8	0.08281678
231	0x3e1e71a5	0.1547304
232	0xbd2dad1c	-0.042401418
233	0x3df21fc5	0.11822466
234	0xbd6ecab7	-0.058298793
235	0x3d232be0	0.039836764
236	0x3db79769	0.08964426
237	0xbd85a0ba	-0.06524797
238	0xbe898266	-0.268573
239	0xbd0d88cc	-0.034554288
240	0x3a69ff07	0.00089262467
241	0xbdccaa9e	-0.0999348
242	0xbd63d0c2	-0.05561901
243	0xba1a4459	-0.00058848184
244	0x3d9d3a60	0.0767715
245	0x3e068d83	0.1313992
246	0x3c2b699c	0.010462191
247	0xbd589dd0	-0.052884877
248	0xb8899d54	-6.561974e-05
249	0xbe085d03	-0.13316731
250	0xbda8cf08	-0.08242613
251	0x3d258fc9	0.040420327
252	0xbce22824	-0.027607031
253	0xbbed058a	-0.0072333263
254	0xbdcdef8a	-0.10055454
255	0x3dc4db63	0.09612157

hidden_layer2.bias f4 [32]
0	0x3b961a80	0.0045807958
1	0x3d0156d8	0.03157696
2	0x3f0e39c2	0.5555688
3	0x3da0be2c	0.078487724
4	0xbdf6763c	-0.1203427
5	0x3cbd62eb	0.023118457
6	0xbb870b62	-0.00412123
7	0xbf25c531	-0.64754015
8	0xbd3ea6f2	-0.04654593
9	0x3bbdd8c0	0.005793661
10	0x3dde8e08	0.10866934
11	0xbd7503bb	-0.05981801
12	0xbd9a6dcd	-0.07540474
13	0xbde6af34	-0.11263886
14	0xbda0fa78	-0.07860273
15	0xbc1615b0	-0.009160444
16	0xbdee2a30	-0.116291404
17	0xbd5cffbf	-0.053954836
18	0x3cf7c7c2	0.03024662
19	0x3da58cda	0.08083506
20	0xbb1ca3c0	-0.0023901314
21	0x3db8ee62	0.09029843
22	0x3d95571a	0.07292004
23	0xbddad1b2	-0.106845275
24	0x3d7afdc4	0.061277166
25	0xbd5243c6	-0.051334165
26	0x3bf44a2b	0.0074551306
27	0xbcc636a8	-0.024195984
28	0x3cd2d420	0.025735915
29	0xbd67a4ff	-0.056553837
30	0x3d33fe03	0.043943416
31	0x3d563df4	0.052305177
