Comparison/TrainedModel/5-0.001-54-Agent/node_agent_53.pth (torch, 29252 bytes, 6 tensors)

input_layer.weight f4 [32, 75]
00000000: 4093 5e3e 55b2 f43d 7728 9d3d f8b2 63bd
00000010: ba9a f6bc d7be 973d 2a01 203c c30e 333d
00000020: 9bf9 0c3e 487f 6cbd 2cbf 033e 381d 92bd
00000030: d814 babc 2a43 debd e00d 89bd a843 763d
00000040: 3785 44bd b244 0fbd 9732 0f40 9e25 f33f
00000050: e6ee 043a d34b 3340 1222 69bd 8227 61be
00000060: ef38 1cbe b339 883d 2aa8 ee3d 17d4 ae3c
00000070: f63e 1e3d fea0 033e 00cb a3bc 9f96 52be
00000080: 2e24 9bbd d604 96bd daf0 76bd ae95 103d
00000090: f211 583d 9856 f53d 8567 d03b 03ed e73c
000000a0: b085 61be c3da 3540 cf7d a53d 434b 943d
000000b0: b33c bc3d 8f10 f73d 13b0 923c 1fec ff3b
000000c0: 603f a0bd 47a6 3e3e ceae 2fbc a5fd 4b3e
000000d0: 493e 1dbd bcd9 8ebd f740 11bb 0704 223d
000000e0: da47 c4bb cabf dcbd 14f1 8f3d 2df4 55bd
000000f0: a0c2 573c 4b44 db3d 27d2 e2bd 708c 04bd
00000100: ff0e 573e 4fb7 03bd bff4 2f40 1d5b 14bd
00000110: ffc7 aa3d a355 65bd abf1 1dbe 0fa8 aebc
00000120: 37e7 c73d 7795 333e 1207 f33c e397 c0bd
00000130: a092 c43d 3f58 683d 6891 53bd 8ddd c6bd
00000140: 281d 15bb b986 18be d232 0abc f929 43bd
00000150: f9d8 1fbe 7fee 8abd 1a40 bd3d fbc4 0c3e
00000160: 53ab 4a3d 0795 fb3d d006 7f3d 2208 703c
00000170: 38f2 9a3a 290d 0d40 5419 0040 28d2 a13d
00000180: e736 2d40 3bcd f4bd dd83 e1bd 18e8 da3b
00000190: 29c1 38ba e1ff 33bd 0dc8 3fbe 03f0 e23b
000001a0: cd75 7e3d 8759 6a3d 18d7 7f3d c820 9a3d
000001b0: 6b68 d5bd c800 db3d 2f68 80bd 4e09 013d
000001c0: 19ea 9bbe c757 9dbc a226 c9bd 91da 243e
000001d0: b3c2 2940 220a 983c fc35 39be 0c71 0cbd
000001e0: 2f2c fd3d 13fa 84bd ef63 a5bc 3dbd 11be
000001f0: a303 233e 1885 d33c abaa 15bd bfa9 83bd
00000200: ba50 d6bd 3dca 8bbd 775c 2e3d 9d6b 513d
00000210: 8e2d 293d e0a0 21bd 187f 073c 5dca 603d
00000220: dae8 33be 0dad 003d 4d11 ccbd fdf0 3cbd
00000230: e99b 103d 7b25 2c40 f5ac 63bd 339f 193d
00000240: 22ef ab3d e9c5 403e 5f15 88bb 75a1 75be
00000250: b7e4 c73d fed0 08be e244 643e 1cc2 c2bc
00000260: 90f4 2abd 0a27 873d 9aff 57bd ff85 083d
00000270: 0767 a0bd 5bc5 ad3b 1798 543c 3d95 27bc
00000280: 8779 3fbe 9fda a3bd ff94 0abc 7250 a3bd
00000290: 72d1 15bd fb3d 09be bf09 10be c301 933d
000002a0: 98d1 0e40 3dc7 f43f ecbe b4bc 99a6 2d40
000002b0: c5c6 f3bd ba02 223d 5e82 2d3d 4a6c a1bd
000002c0: 5a17 853d fb28 9335 1d37 c1bd 3d2e 83be
000002d0: 3d04 b9bd 838d e9bd a3e3 fc3c 278e b4bd
000002e0: c04d e3bd 528e f23c 2366 c73d f5e1 e0bb
000002f0: ff43 3e3d c417 0e3e 3123 3abd 1fc2 3540
00000300: 1f61 babd 73be 06be a0c7 27bd ff61 723d
00000310: 0279 e23d bb66 2abd 6446 47bc 534c 63be
00000320: af4e e6bc 4079 1fbe 4c64 063e 42b9 513d
00000330: 2cb0 103e b5e0 83bd 582b b7be 547a 0b3c
00000340: dbdc 72bd 4a95 aabd e5d9 0fbd 98a8 6e3d
00000350: 979a 3abe c52d e43c f523 4cbe e5d2 a2bd
00000360: a37e 3640 ef18 133d 5f30 7d3d 97c3 023d
00000370: 9cd5 40bd df7a cf3c dc6e 93bc 5e51 1d3e
00000380: 78b4 073d 95fa c7bc 3d1f 6abe 0580 0d3e
00000390: 50e0 21bd 9bd8 4e3d 634f a93d b7df 273e
000003a0: 47f1 13bd c0f2 55bc f054 9dbd ab3c 21be
000003b0: 9205 7ebe 8a39 133e d090 0cbe a73f 92bc
000003c0: 22c9 fdbc bf3b 5ebc e2c9 c83d 0ddb 1040
000003d0: 0066 ea3f 0c3b 1fbc 60fa 3040 4340 a2bd
000003e0: 24cb a4bd 6e8c 93bc 2494 03bd 232d 243b
000003f0: db0e abbe 8e09 cc3d 03df 85bd 7e3e 2b3e
0.21735859 0.11948077 0.07673734 -0.0555906 -0.030103076 0.07409447 0.0097659025 0.04371525
0.13767092 -0.057738572 0.12865895 -0.07134479 -0.022715017 -0.10852654 -0.066920996 0.060123116
-0.047978606 -0.034977622 2.2374628 1.8995855 0.0005070999 2.801503 -0.056917258 -0.21987727
-0.15256093 0.0665163 0.116531685 0.021341367 0.038634263 0.12854382 -0.019994259 -0.2056527
-0.0757526 -0.07325141 -0.060288288 0.035298996 0.05275149 0.11979407 0.0063599967 0.028311258
-0.22023654 2.8414772 0.08080637 0.072409175 0.09191265 0.12063705 0.017906224 0.0078101302
-0.07824588 0.18618117 -0.010722829 0.19920976 -0.038389478 -0.06975123 -0.0022163966 0.039554622
-0.0059900107 -0.10778768 0.07028404 -0.052234817 0.013168961 0.10706385 -0.1107524 -0.032360494
0.21001814 -0.03215724 2.749313 -0.036219705 0.083389275 -0.055989873 -0.1542422 -0.021320371
0.097608976 0.17537485 0.029666457 -0.0940397 0.09598279 0.056724783 -0.051652342 -0.09710226
-0.0022752974 -0.14895143 -0.008434968 -0.04764745 -0.15610112 -0.06783771 0.09240742 0.13747017
0.049479794 0.12284284 0.062262356 0.0146503765 0.0011821454 2.2039282 2.001546 0.07901412
2.706476 -0.11953207 -0.11011479 0.0066804998 -0.0007047826 -0.043945197 -0.18728657 0.0069255843
0.062124062 0.057214286 0.06246099 0.07525784 -0.10420307 0.106935084 -0.062698714 0.031503014
-0.3045204 -0.019206895 -0.09821822 0.16099001 2.6525085 0.01855952 -0.18087 -0.034287497
0.12361943 -0.0649301 -0.020189254 -0.14232345 0.15919356 0.0258203 -0.036539715 -0.06428861
-0.10464616 -0.06825683 0.04256865 0.05112802 0.04130321 -0.039460063 0.008270048 0.05488049
-0.17569295 0.031415034 -0.09964237 -0.04612826 0.035304938 2.6897876 -0.055584867 0.03750534
0.0839522 0.18825497 -0.0041529383 -0.23987372 0.09760421 -0.13360974 0.22291902 -0.0237742
-0.04173714 0.06599243 -0.052733995 0.033330914 -0.07832151 0.0053030676 0.012975714 -0.010228452
-0.18698703 -0.08000683 -0.008458375 -0.07974328 -0.036576696 -0.1340255 -0.14066218 0.071780704
2.2315426 1.9123303 -0.022063695 2.7132933 -0.11903147 0.03955338 0.042360656 -0.078819826
0.064985946 1.096428e-06 -0.0943434 -0.25621215 -0.090340115 -0.11403944 0.030870264 -0.08816176
-0.11098814 0.02960888 0.09736278 -0.0068628737 0.046451565 0.13876253 -0.045443717 2.8399732
-0.09100556 -0.13158588 -0.04096186 0.059175488 0.11058237 -0.041601878 -0.0121627785 -0.22197084
-0.028113691 -0.15573597 0.13124198 0.051202066 0.14129704 -0.06439344 -0.35775256 0.008513052
-0.059292655 -0.08329256 -0.03511991 0.058266252 -0.18223034 0.027853856 -0.19935592 -0.07950381
2.8514793 0.03591245 0.06181371 0.03192481 -0.047078714 0.025327144 -0.017997198 0.1536307
0.033131093 -0.024411479 -0.22863479 0.13818367 -0.03952056 0.05049954 0.08267095 0.16393934
-0.036118772 -0.013058364 -0.07682216 -0.15745799 -0.24806812 0.14377418 -0.13727117 -0.017852617
-0.030979697 -0.013564049 0.09804131 2.2633698 1.8312378 -0.009718668 2.7652817 -0.07922413
-0.080465585 -0.018011298 -0.0321237 0.0025051318 -0.3340977 0.0996276 -0.06536677 0.16723058

input_layer.bias f4 [32]
00000000: 7573 2d40 2246 3240 d0fa 3640 bf2a 3840
00000010: b234 3640 4cd2 f9bd b8d9 12be 495e 3140
00000020: bac3 3240 0f9f 833f 420b 3740 01b7 3140
00000030: 450e 2c40 da66 3640 5dcb 3640 2a67 a23f
00000040: ac40 2e40 37ef a83f 0ad1 a73f cef8 273d
00000050: c5f9 3440 49dc 3040 287b bbbd 0e4c 833d
00000060: a029 2840 ef83 2c40 56fa 3640 850e 6bbd
00000070: 2828 b43c 3e62 c23d f0cc 2f40 6fd6 3040
2.710172 2.7855306 2.8590584 2.877609 2.8469663 -0.12198314 -0.14340866 2.7713797
2.7931962 1.0282916 2.8600621 2.7767947 2.688371 2.8500276 2.8561623 1.2687733
2.7226973 1.3198003 1.3110669 0.041008763 2.8277447 2.7634451 -0.091543496 0.06410991
2.6275406 2.6955526 2.8590293 -0.057386894 0.021991804 0.094913945 2.7468834 2.763088

hidden_layer1.weight f4 [64, 32]
00000000: 4b30 8ebc dfb5 dc3d 9a87 483e a04c 353d
00000010: fed0 98bd 8a38 be3d 6af5 fc3d 04d0 ad3b
00000020: c366 d3bd ed0e 123d ef1b 76bc 904c 52bd
00000030: 6793 39bd bfc3 9dbd ff41 bd3c 002b 41bd
00000040: e3f1 b0ba 075a e2bd 2f95 803d c4ee 1dbe
00000050: fd12 ffbd b5f7 38bd 4796 223d 6856 1bbe
00000060: f70d 143d ab83 50be 47b3 51bd 69db be3d
00000070: f459 9f3c a009 63bd 4743 a2bd 0288 3dbe
00000080: b4db a73f 86cf 9e3f 1c14 a03f b70a a23f
00000090: dc7f a03f 11cc c93d 3b17 1fbf fa88 a63f
000000a0: 19c2 9c3f 0423 bc3e 6553 933f 8abf b43f
000000b0: 24c1 9e3f 6632 ac3f 8c3b b03f 5595 0cbf
000000c0: 82b4 a93f c65c 413f 20ae 4bbf 493d 6abe
000000d0: efb6 913f eecb a43f 5d85 1e39 bfcb 9dbd
000000e0: d65f af3f 7a7c 9c3f ad06 a93f 0000 183e
000000f0: 2a29 acbd 2b1b dbba dbf6 aa3f f97a 903f
00000100: 9034 ad3f 1b79 ac3f 1d96 993f 4145 ba3f
00000110: 6c23 a73f a3ab 47bd 7ac9 42bf 5845 9f3f
00000120: 9b66 ba3f 3a71 fa3e 7e2a a33f 908d b83f
00000130: fe2a bc3f c24c 993f 773b 963f ba05 05bf
00000140: 1642 b63f a6c5 813f 0b2e 2abf 4a4b 29be
00000150: 6d61 8e3f f6b0 9e3f bf4f 1a3d 40f9 9f3d
00000160: c6da bd3f 58ab c93f df14 a33f 7805 e9bc
00000170: 2583 8c3c bf43 3abe 9c57 d53f a66b a33f
00000180: 9d4b 54bc 476a 53bd e7e5 1b3d 83f5 933d
00000190: 1fc7 053e 5f86 093e e701 f2bd 14c7 c73d
000001a0: 14a9 a63c e04b 2dbe d80f 4ebe bc1a 04be
000001b0: 0215 483e e334 33be bd36 383d 4dd3 03be
000001c0: b74c 483e 0fd2 22bd 7744 c43c 4f3a bd3d
000001d0: 7aee 16be 8697 bfbd b37b 63bd 72b2 04bd
000001e0: 45aa ec3d a33b ddbd 7ccd 90bd 6b56 3ebd
000001f0: 648a 8a3d 9d4c 25be d2e4 e6bc afe3 903c
00000200: ab08 4abd ffbf 5c3d 0c59 9d3d a2c5 40bc
00000210: c2b1 d13d 1781 43be ea2e 14be 1b30 af3d
00000220: 9e9c 033c 803c ecbd 1f91 283d c53e 5dbe
00000230: d3db 36be 10f4 113d 95a7 0fbe 8372 8f3d
00000240: a257 df3d afa3 47bd 5b04 213d b3c6 70bb
00000250: 88d4 d0bd 9be8 cabd 9058 403d 6f79 943d
00000260: 7fee 53be 3245 b93d 9020 ed3c a59e 77bd
00000270: 1242 04bc df2f 5fbd 8f9a 4b3d 6bd1 223d
00000280: 0aa1 b33f 9788 943f 7cd6 a63f 19cf a83f
00000290: e9ab 913f fc49 76bd 6389 3abf c0f1 ab3f
000002a0: 7c06 b03f 0046 043f d51c 9a3f c0f0 b53f
000002b0: e0e5 983f 78cc 9a3f 9641 b53f 54a2 23bf
000002c0: 9d81 a83f 70cd 333f 23a9 dabe 390e 10bd
000002d0: 4de2 c93f bc99 a53f b786 843d 4117 edbc
000002e0: 8928 ba3f 12cf b03f 1383 a93f 4731 eb3d
000002f0: 69ca 093c 47b2 08be 78b9 a63f 08c3 993f
00000300: b662 d6bd b9d0 10be 14c3 ae3d b115 403c
00000310: 477d e3bc fdd2 ef3c fdfe 683d 5449 9c3d
00000320: d542 3cbc a3e9 573c b670 22be 052c da3d
00000330: 8c06 adbc 2c7a 9cbd 129c 90bd d8b9 c7bd
00000340: a9a3 913c b82a 783d af42 623d 5d47 f33d
00000350: 3df2 2d3e ece6 bebd d54c af3b f43f 37be
00000360: 76da 85be dedc 883c 5f8f 8a3d 774f 86be
00000370: 9645 113d 1eb4 09bd a134 a0bd 61f1 7fbd
00000380: 7f2b 303d 7225 ccbd d057 263d 19a6 81bd
00000390: e627 a2bd 0430 09bd 3ed2 c03d 90f8 48be
000003a0: 439e ebbd d81a 08be 5b2d 023e 7873 f3bd
000003b0: 5172 173d 05a9 783d c957 12be b022 7cbc
000003c0: cb86 563d 5139 18be e36c fe3c cfcb 6bbd
000003d0: 569f c2bb 7ec0 08be 18c0 633e 2221 c83b
000003e0: 21d9 be3d f8a0 203d 3b7a a33c 8cff 05be
000003f0: a563 a2bd 8371 03be c540 b33c 314c da3d
-0.017357012 0.10776877 0.19582978 0.04426253 -0.07461737 0.09288128 0.123514965 0.0053043384
-0.103223346 0.035658766 -0.015021308 -0.051342547 -0.04530659 -0.07703351 0.023102758 -0.04716015
-0.0013499822 -0.110523276 0.062784545 -0.15423113 -0.124547936 -0.045158107 0.039694097 -0.1516968
0.03614613 -0.20362727 -0.051196363 0.09319193 0.019452073 -0.0554291 -0.079229884 -0.18508914
1.3113923 1.2407081 1.2506137 1.265952 1.253902 0.09853376 -0.6214482 1.3010552
1.2246734 0.36745465 1.1509825 1.4120953 1.2402692 1.345288 1.3768172 -0.5491536
1.3258212 0.75532186 -0.7956257 -0.22874941 1.1383952 1.2874734 0.00015117736 -0.07704877
1.3701122 1.2225487 1.3205162 0.1484375 -0.08406289 -0.0016716471 1.3356584 1.1287528
1.3531666 1.3474458 1.1998936 1.4552385 1.3057685 -0.04874767 -0.7608868 1.2443037
1.4562563 0.4891451 1.2747343 1.4418201 1.470062 1.197655 1.1736897 -0.51961863
1.4238918 1.0138443 -0.66476506 -0.16532627 1.1123482 1.2397754 0.037673708 0.078112125
1.4832389 1.5755415 1.2740744 -0.02844499 0.017152378 -0.18189906 1.6667361 1.2767227
-0.012957481 -0.051615026 0.03806105 0.07224562 0.1306424 0.13430165 -0.11816769 0.09754768
0.020344295 -0.16923475 -0.20123231 -0.12900823 0.19539264 -0.17500643 0.044974077 -0.12873574
0.19560514 -0.03975111 0.023958428 0.09239637 -0.14739409 -0.09355073 -0.05553789 -0.03239674
0.11555914 -0.108023904 -0.07070443 -0.046469133 0.06764677 -0.16142507 -0.028185282 0.017686693
-0.049324673 0.05389404 0.07683 -0.011765869 0.10238983 -0.19092213 -0.14471021 0.08554097
0.008032946 -0.11534977 0.041154023 -0.21605976 -0.17857294 0.035633147 -0.14028771 0.07004263
0.109053865 -0.048740085 0.039310794 -0.0036739528 -0.10196787 -0.09907647 0.04695946 0.07249724
-0.20696448 0.09046401 0.028946191 -0.06045403 -0.008072393 -0.054489013 0.049707945 0.039750498
1.403352 1.1604184 1.3034205 1.3188201 1.1380588 -0.06012915 -0.72865885 1.3433151
1.3751979 0.5166931 1.2040049 1.4214096 1.1945152 1.2093649 1.416064 -0.6391957
1.3164555 0.7023535 -0.42707166 -0.035169814 1.5772187 1.2937541 0.06471007 -0.028941752
1.454362 1.3813193 1.3243126 0.11484008 0.008410075 -0.13349257 1.302535 1.2012644
-0.10468046 -0.14142121 0.08533302 0.011723922 -0.027769698 0.029275412 0.0568838 0.07631174
-0.011490543 0.013178262 -0.15863308 0.10652927 -0.021121286 -0.0764049 -0.07061018 -0.09752244
0.017778235 0.060587615 0.055239376 0.11878846 0.16986938 -0.093213886 0.0053497353 -0.1789549
-0.26143235 0.01670688 0.06765627 -0.26232502 0.035466753 -0.03361904 -0.07822538 -0.062486056
0.04301023 -0.099680796 0.04061109 -0.06330509 -0.07917766 -0.033493057 0.094151005 -0.19626069
-0.115047954 -0.1329149 0.12712614 -0.11887258 0.036974255 0.060708065 -0.142913 -0.0153891295
0.052374642 -0.14865614 0.03105778 -0.057567414 -0.0059394045 -0.1335468 0.22241247 0.0061074654
0.09318758 0.03921601 0.019955745 -0.13085765 -0.07929162 -0.1283627 0.02188147 0.106590636

hidden_layer1.bias f4 [64]
00000000: 211b b0bd ac9b fa3f 4b8c 0540 248e 65bd
00000010: b47a 19be e998 f03f d96c 51be f329 3dbb
00000020: b50a 0640 a8b4 c9bc aaab 0540 47a2 fd3f
00000030: c5ff 823c 58eb cabd b2fd 0440 6710 cf3d
00000040: 6a6f fc3d fab5 0240 c284 ed3f 201b c1bc
00000050: afbd 0240 d0f1 b7bc d0b9 9fbd b5af 0940
00000060: 750e 13be b1f7 803d 380b e93c dab4 fc3f
00000070: d1de 0840 d983 a23d 60d3 0f40 3c70 0d40
00000080: 9e2f 1640 e1e8 f13f 195d 0940 4765 1340
00000090: 2f52 b0bd 5e1d e1bd 7f72 0340 7c74 38bd
000000a0: 532f ee3f 6bc7 9fbd c9fd 26be 7726 f73f
000000b0: 9bba 0540 f90a 0140 bdad a4bd bbc4 0f40
000000c0: fade 0cbe 5842 0840 7731 1640 49ce 943d
000000d0: eb14 fe3f 78f7 4ebd 20a7 15bc 194d 133e
000000e0: b7d7 ff3f a1a1 cd3d 0a92 0cbe ee69 0740
000000f0: 4275 c6bd 57ad 0ebe e3fd 0740 e4c4 913e
-0.085989244 1.9578757 2.0866878 -0.05604376 -0.14988214 1.8796664 -0.20451678 -0.0028864115
2.0944035 -0.024622276 2.0886025 1.9815148 0.015991101 -0.099081695 2.0779843 0.101105504
0.12325938 2.042357 1.855614 -0.023572505 2.0428274 -0.022454172 -0.07799113 2.1513493
-0.14360984 0.062972434 0.028447732 1.9742692 2.1385996 0.07935304 2.2472763 2.2099752
2.3466563 1.8899194 2.1463072 2.3030565 -0.08609425 -0.109919295 2.0538633 -0.045032963
1.8608192 -0.07801708 -0.16307749 1.9308614 2.0895145 2.0162947 -0.080409504 2.2463825
-0.13756934 2.1290493 2.346769 0.07265908 1.9850134 -0.050528973 -0.009134084 0.14384879
1.9987706 0.10040594 -0.13727584 2.1158404 -0.09690334 -0.13933311 2.124871 0.28470528

hidden_layer2.weight f4 [32, 64]
00000000: 4eb5 96bd b7a9 2ebd 62cd a83b ec69 3abd
00000010: b8a0 ea3b c7fe f53d 6521 2b3d cfb2 903c
00000020: 64f1 d2bd 490a 1ebc d88b 99bc 7252 adbd
00000030: 4f91 c03d e71e 903d 87c0 d13d 8cdd f43d
00000040: 7335 ecbd e9b1 bebd 9772 63bd 2ae9 65bc
00000050: 30c7 e0bd c4ff 9fbd f4ef c83c 67ce 083e
00000060: 67e3 ebbd 1ad9 ad3d 38a5 66bd c378 f6bb
00000070: 50bc e53c a735 443d 676b abbd 273e a13d
00000080: 9317 00be caea 3f3c 1d38 7dbc 954c 8c3d
00000090: 0322 afbd 8f40 09bd 42dc 96bd c223 ad3c
000000a0: e1aa 0bbe 2b24 09bd bff4 403d ee55 433c
000000b0: a155 493c c0b1 82bd c62e 463c 7660 0b3e
000000c0: edd5 9c3d 146f 80bc d421 74bd 3424 18be
000000d0: 1fe2 cabd ff5c 6bbc 0b32 763c 534d ad3b
000000e0: e352 5ebd 792d 293e 0b04 aebd 6f6d 173e
000000f0: ff16 873d 53e2 e4bc 7e1a 2b3d bb7b 2f3e
00000100: c4c5 ad3d 9aab 4e3e efe8 013e f465 c2bc
00000110: b080 733e 6794 243e 7230 183e 4f22 2abe
00000120: 9a1c 5d3e b6a3 303d 6d40 e83d 803b fc3d
00000130: 34db 4dbd 130f 073d 0dcd a63e 1ec8 e63d
00000140: 32bb 3dbc 74e7 873e 324f 853e 1a4e 3d3e
00000150: 428e 063e 8fc0 b9bd f4f4 8d3d 3d87 913d
00000160: 20d1 77bd 3947 b43d ebea d7bc 3414 513d
00000170: 5503 5e3e 11cf 3d3e e6e7 0f3e 25b3 2a3e
00000180: 070a c73d c5d2 13bc f280 053e da28 003e
00000190: 5afe 103e 1b25 f0bd 0d07 4a3e b28a 493e
000001a0: 1b50 963e 72a6 7ebd b500 2a3e 4fb5 ad3e
000001b0: b8f3 8d3e a6cb 273e 7a64 afbc 1fac 853e
000001c0: 4f97 463d 69f2 3c3d dc8c 7c3e 1b1c 1dbd
000001d0: 8e27 473e 988e babd 7935 3b3e 77a6 0cbd
000001e0: d28d 203e af85 e73d 0fc3 a43d f45c 113e
000001f0: 0560 e5bd 30df 823e a33c b83e 5934 db3e
00000200: f36e 85be da11 673f 7be5 4b3f 3776 dcbd
00000210: 0a3b 8bbc c445 513f cea7 233e c9fa ed3d
00000220: d01a 1c3f 145d 933d 3031 323f 69f5 273f
00000230: b101 573c fe2c 933c ef88 263f d99e f4bb
00000240: 321f 213d 8103 3c3f 5292 433f 6146 8a3d
00000250: 29e6 233f 8c60 1abd 4c2e dc3d ea2f 603f
00000260: f742 f1bc fd1a 99bc 04dc 34bd c421 233f
00000270: 1e22 243f 190f c9bd 1ea5 073f e1e5 3a3f
00000280: 315e 373f fa21 433f e4e9 1f3f 3b48 293f
00000290: b240 c0bd 4f56 98be e995 2b3f 353f 30bc
000002a0: 3a1e 523f 8cb7 39bc d477 2bbd 54d0 653f
000002b0: 160b 523f acf3 4f3f a93e 49bd acbf 3a3f
000002c0: 573f 1d3e 8863 6e3f 4225 3c3f 1f56 6d3d
000002d0: 3d12 603f 4ba7 b13c 4a5c 15be 6a44 0fbe
000002e0: 9c67 5a3f 9c6d cabd 6e5c cf3b ec71 3d3f
000002f0: 4360 8bbc 711a 253d 14d1 033f a59d 93bb
00000300: 7776 093c 1126 04bd c8f1 8b3b f556 843d
00000310: 4398 113d cf3e 623d 96cf 35b9 312e f0bb
00000320: d8ff 673a c3dc 04be a176 953c 6c7f 73bd
00000330: 04a0 123e 18cb f5bd 4fa6 2a3b 8a78 893d
00000340: abbc 9c3e aa9c afbd e14b 4fbd 3e58 983d
00000350: 95fe 103d c2c7 8fbc dad5 b4bc 595e 3a3e
00000360: 0d66 093e 35e3 66bd 93b3 80be 5d50 bd3c
00000370: c43d 93bd 7975 ed3c 9d2d b3bd 82ef 1cbe
00000380: 243a 80bd f550 cf3d 091a 9d3d 86e3 eebd
00000390: e040 dcbd 1123 2bbe c458 933d a571 1e3e
000003a0: d548 96bd 1fdb da3d b7ca 6ebd eca8 023d
000003b0: 4fb2 773d 83aa 9dbd 4b93 87be b079 31bd
000003c0: 07ff 693a 095b dfbd 392f abbd a6d6 943b
000003d0: eba5 8a3d 838d 063e 2c5f 2a3c 80c5 93bd
000003e0: 0e14 22bc aaec 1fbe eb9a 6cbd 3a38 f03c
000003f0: a0cd d0bc 8a05 edbb f4e4 04be 63db c43d
-0.073588 -0.04264232 0.0051514367 -0.04551117 0.0071602724 0.120114855 0.041779894 0.017663388
-0.10299948 -0.009646007 -0.01874344 -0.08462991 0.094027154 0.07037144 0.102418 0.11956319
-0.11533632 -0.093112774 -0.055529203 -0.014032641 -0.10975492 -0.07812455 0.024528481 0.13359986
-0.11517983 0.084886745 -0.05630991 -0.00752172 0.028043896 0.04790273 -0.08370095 0.07873183
-0.12508993 0.011713693 -0.015455273 0.06850544 -0.08551409 -0.033508833 -0.073662296 0.021135215
-0.13639404 -0.033481758 0.047108408 0.011922343 0.012288482 -0.06381559 0.012096113 0.13611016
0.076579906 -0.015677966 -0.059602574 -0.1485756 -0.099064104 -0.014365434 0.01502658 0.005288759
-0.054278266 0.16521253 -0.08496865 0.1478784 0.06596183 -0.027939951 0.04177331 0.17137043
0.084849864 0.20182648 0.12686513 -0.023730256 0.23779559 0.16072236 0.1486223 -0.1661465
0.21592942 0.043124877 0.11340413 0.12316036 -0.050257877 0.03297336 0.32578316 0.11268638
-0.011580275 0.26543772 0.26036984 0.18486825 0.13140205 -0.09069931 0.06931487 0.07105873
-0.06050217 0.08802647 -0.026357135 0.051044658 0.21680959 0.18536021 0.14053306 0.166699
0.097187094 -0.009022419 0.1303747 0.12515584 0.14159527 -0.11725827 0.19729252 0.19681814
0.2935799 -0.062170453 0.16601832 0.3392739 0.27725005 0.1638628 -0.021410216 0.2610788
0.048484143 0.046129618 0.24663109 -0.03835688 0.19448683 -0.09109229 0.18282117 -0.03433844
0.156791 0.11304795 0.08045017 0.14195615 -0.11199955 0.25560904 0.35983762 0.42813376
-0.2606121 0.90261614 0.79647034 -0.10764735 -0.016995925 0.8174708 0.15981981 0.11620099
0.6097841 0.071954876 0.69606304 0.6560884 0.013122962 0.01796579 0.65052694 -0.007465225
0.03933639 0.73442847 0.7639514 0.06751705 0.6402307 -0.03768973 0.10751018 0.8757311
-0.029450877 -0.018689627 -0.044155136 0.637234 0.6411456 -0.09817333 0.52986324 0.7300702
0.716281 0.7622372 0.62466264 0.6612584 -0.0938734 -0.29753348 0.6702562 -0.010757257
0.8207737 -0.011335265 -0.041862324 0.8977101 0.82048166 0.8123119 -0.049132023 0.7294872
0.15356193 0.9312062 0.7349435 0.05794346 0.8752783 0.021686217 -0.14585987 -0.13990942
0.85314345 -0.098841876 0.006328157 0.74001956 -0.017013675 0.04030842 0.514909 -0.0045048767
0.008390061 -0.032262865 0.004270766 0.06461898 0.0355456 0.05523568 -0.00017338837 -0.007329725
0.00088500744 -0.12974839 0.018245043 -0.05944769 0.14318854 -0.12001628 0.002603907 0.06712444
0.30612692 -0.08574803 -0.050609473 0.07438706 0.03539904 -0.017551307 -0.022074629 0.18200053
0.13417836 -0.056369025 -0.25137004 0.02310961 -0.07189515 0.02898668 -0.087489344 -0.1532574
-0.062610894 0.10122863 0.076709814 -0.116644904 -0.107545614 -0.16712596 0.07194665 0.1547304
-0.0733811 0.10686325 -0.058298793 0.031899378 0.060472783 -0.07698538 -0.26479563 -0.04332894
0.00089262467 -0.109060355 -0.083586164 0.0045421897 0.067699276 0.1313992 0.010398667 -0.072154045
-0.009892477 -0.15617624 -0.05776493 0.029323686 -0.025488675 -0.0072333263 -0.12977964 0.09612157

hidden_layer2.bias f4 [32]
00000000: 509c 0bbc 4dbf 503f 52e7 033e 7fb8 893d
00000010: 0777 0bbe 7462 093c d020 433b e484 933d
00000020: 0e3a 14bd 390c 6fbc 16cd ac3f 1daa 79bd
00000030: c6b1 cbbd 34af e6bd 766c d3bd b015 16bc
00000040: 302a eebd 7814 55bd 449e a13f 4bcb 8c3d
00000050: c0a3 1cbb ac91 9d3d 87a4 223d 986b 15bd
00000060: 92de 913d aede 5ebc b425 0f3c a836 c6bc
00000070: dfa3 8ebf 1623 63bd a1d5 0e3d db9b 9c3d
-0.0085211545 0.815419 0.1288121 0.06724643 -0.13619624 0.008385289 0.0029774196 0.07203081
-0.036188178 -0.014590316 1.3500087 -0.06095325 -0.09946017 -0.11263886 -0.10323422 -0.009160444
-0.116291404 -0.052021474 1.2626424 0.068747126 -0.0023901314 0.076938 0.039707687 -0.036479563
0.0712253 -0.013602896 0.0087370165 -0.024195984 -1.114376 -0.055453382 0.0348717 0.076469146
