Comparison/TrainedModel/5-0.001-54-Agent/node_agent_24.pth (torch, 29252 bytes, 6 tensors)

input_layer.weight f4 [32, 75]
0	0x3e5e9340	0.21735859
1	0x3df4b255	0.11948077
2	0x3d9d2877	0.07673734
3	0xbd63b2f8	-0.0555906
4	0xbcf69aba	-0.030103076
5	0x3d97bed7	0.07409447
6	0x3c20012a	0.0097659025
7	0x3d330ec3	0.04371525
8	0x3e0cf99b	0.13767092
9	0xbd6c7f48	-0.057738572
10	0x3e03bf2c	0.12865895
11	0xbd921d38	-0.07134479
12	0xbcba14d8	-0.022715017
13	0xbdde432a	-0.10852654
14	0xbd890de0	-0.066920996
15	0x3d7643a8	0.060123116
16	0xbd448537	-0.047978606
17	0xbd0f44b2	-0.034977622
18	0x40205ec5	2.5057843
19	0x4062896f	3.5396383
20	0x3a04eee6	0.0005070999
21	0x3fa3b801	1.2790529
22	0xbd692212	-0.056917258
23	0xbe612782	-0.21987727
24	0xbe1c38ef	-0.15256093
25	0x3d8839b3	0.0665163
26	0x3deea82a	0.116531685
27	0x3caed417	0.021341367
28	0x3d1e3ef6	0.038634263
29	0x3e03a0fe	0.12854382
30	0xbca3cb00	-0.019994259
31	0xbe52969f	-0.2056527
32	0xbd9b242e	-0.0757526
33	0xbd9604d6	-0.07325141
34	0xbd76f0da	-0.060288288
35	0x3d1095ae	0.035298996
36	0x3d5811f2	0.05275149
37	0x3df55698	0.11979407
38	0x3bd06785	0.0063599967
39	0x3ce7ed03	0.028311258
40	0xbe6185b0	-0.22023654
41	0x3dda8402	0.1066971
42	0x3da57dcf	0.08080637
43	0x3d944b43	0.072409175
44	0x3dbc3cb3	0.09191265
45	0x3df7108f	0.12063705
46	0x3c92b013	0.017906224
47	0x3bffec1f	0.0078101302
48	0xbda03f60	-0.07824588
49	0x3e3ea647	0.18618117
50	0xbc2faece	-0.010722829
51	0x3e4bfda5	0.19920976
52	0xbd1d3e49	-0.038389478
53	0xbd8ed9bc	-0.06975123
54	0xbb1140f7	-0.0022163966
55	0x3d220407	0.039554622
56	0xbbc447da	-0.0059900107
57	0x3f8552ea	1.0415928
58	0x3d8ff114	0.07028404
59	0xbd55f42d	-0.052234817
60	0x3f94ce96	1.1625545
61	0x3ddb444b	0.10706385
62	0xbde2d227	-0.1107524
63	0xbd048c70	-0.032360494
64	0x3e570eff	0.21001814
65	0xbd03b74f	-0.03215724
66	0x3c6e1958	0.01453241
67	0xbd145b1d	-0.036219705
68	0x3daac7ff	0.083389275
69	0xbd6555a3	-0.055989873
70	0xbe1df1ab	-0.1542422
71	0xbcaea80f	-0.021320371
72	0x3dc7e737	0.097608976
73	0x3fa991be	1.3247602
74	0x3cf30712	0.029666457
75	0xbdc097e3	-0.0940397
76	0x3dc492a0	0.09598279
77	0x3d68583f	0.056724783
78	0xbd539168	-0.051652342
79	0xbdc6dd8d	-0.09710226
80	0xbb151d28	-0.0022752974
81	0xbe1886b9	-0.14895143
82	0xbc0a32d2	-0.008434968
83	0xbd4329f9	-0.04764745
84	0xbe1fd8f9	-0.15610112
85	0xbd8aee7f	-0.06783771
86	0x3dbd401a	0.09240742
87	0x3e0cc4fb	0.13747017
88	0x3d4aab53	0.049479794
89	0x3dfb9507	0.12284284
90	0x3d7f06d0	0.062262356
91	0x3c700822	0.0146503765
92	0x3a9af238	0.0011821454
93	0x401f5bad	2.4899704
94	0x406b0696	3.672277
95	0x3da1d228	0.07901412
96	0x3f9a9a28	1.2078295
97	0xbdf4cd3b	-0.11953207
98	0xbde183dd	-0.11011479
99	0x3bdae818	0.0066804998
100	0xba38c129	-0.0007047826
101	0xbd33ffe1	-0.043945197
102	0xbe3fc80d	-0.18728657
103	0x3be2f003	0.0069255843
104	0x3d7e75cd	0.062124062
105	0x3d6a5987	0.057214286
106	0x3d7fd718	0.06246099
107	0x3d9a20c8	0.07525784
108	0xbdd5686b	-0.10420307
109	0x3ddb00c8	0.106935084
110	0xbd80682f	-0.062698714
111	0x3d01094e	0.031503014
112	0xbe9bea19	-0.3045204
113	0xbc9d57c7	-0.019206895
114	0xbdc926a2	-0.09821822
115	0x3e24da91	0.16099001
116	0xbd8485c1	-0.06470824
117	0x3c980a22	0.01855952
118	0xbe3935fc	-0.18087
119	0xbd0c710c	-0.034287497
120	0x3dfd2c2f	0.12361943
121	0xbd84fa13	-0.0649301
122	0xbca563ef	-0.020189254
123	0xbe11bd3d	-0.14232345
124	0x3e2303a3	0.15919356
125	0x3cd38518	0.0258203
126	0xbd15aaab	-0.036539715
127	0xbd83a9bf	-0.06428861
128	0xbdd650ba	-0.10464616
129	0xbd8bca3d	-0.06825683
130	0x3d2e5c77	0.04256865
131	0x3d516b9d	0.05112802
132	0x3f994f02	1.1977236
133	0xbd21a0e0	-0.039460063
134	0x3c077f18	0.008270048
135	0x3f9b0be8	1.2113008
136	0xbe33e8da	-0.17569295
137	0x3d00ad0d	0.031415034
138	0xbdcc114d	-0.09964237
139	0xbd3cf0fd	-0.04612826
140	0x3d109be9	0.035304938
141	0xbce0b56a	-0.027430255
142	0xbd63acf5	-0.055584867
143	0x3d199f33	0.03750534
144	0x3dabef22	0.0839522
145	0x3e40c5e9	0.18825497
146	0xbb88155f	-0.0041529383
147	0xbe75a175	-0.23987372
148	0x3fa083e2	1.2540247
149	0xbe08d0fe	-0.13360974
150	0x3e6444e2	0.22291902
151	0xbcc2c21c	-0.0237742
152	0xbd2af490	-0.04173714
153	0x3d87270a	0.06599243
154	0xbd57ff9a	-0.052733995
155	0x3d0885ff	0.033330914
156	0xbda06707	-0.07832151
157	0x3badc55b	0.0053030676
158	0x3c549817	0.012975714
159	0xbc27953d	-0.010228452
160	0xbe3f7987	-0.18698703
161	0xbda3da9f	-0.08000683
162	0xbc0a94ff	-0.008458375
163	0xbda35072	-0.07974328
164	0xbd15d172	-0.036576696
165	0xbe093dfb	-0.1340255
166	0xbe1009bf	-0.14066218
167	0x3d9301c3	0.071780704
168	0x3cfe3e83	0.031035667
169	0x3d09d977	0.033654656
170	0xbcb4beec	-0.022063695
171	0xbdc90509	-0.098154135
172	0xbdf3c6c5	-0.11903147
173	0x3d2202ba	0.03955338
174	0x3d2d825e	0.042360656
175	0xbda16c4a	-0.078819826
176	0x3d85175a	0.064985946
177	0x359328fb	1.096428e-06
178	0xbdc1371d	-0.0943434
179	0xbe832e3d	-0.25621215
180	0xbdb9043d	-0.090340115
181	0xbde98d83	-0.11403944
182	0x3cfce3a3	0.030870264
183	0xbdb48e27	-0.08816176
184	0xbde34dc0	-0.11098814
185	0x3cf28e52	0.02960888
186	0x3dc76623	0.09736278
187	0xbbe0e1f5	-0.0068628737
188	0x3d3e43ff	0.046451565
189	0x3e0e17c4	0.13876253
190	0xbd3a2331	-0.045443717
191	0x3d695058	0.056961387
192	0xbdba611f	-0.09100556
193	0xbe06be73	-0.13158588
194	0xbd27c7a0	-0.04096186
195	0x3d7261ff	0.059175488
196	0x3de27902	0.11058237
197	0xbd2a66bb	-0.041601878
198	0xbc474664	-0.0121627785
199	0xbe634c53	-0.22197084
200	0xbce64eaf	-0.028113691
201	0xbe1f7940	-0.15573597
202	0x3e06644c	0.13124198
203	0x3d51b942	0.051202066
204	0x3e10b02c	0.14129704
205	0xbd83e0b5	-0.06439344
206	0xbeb72b58	-0.35775256
207	0xbca2fae6	-0.019895028
208	0xbd72dcdb	-0.059292655
209	0xbdaa954a	-0.08329256
210	0xbd821af8	-0.063528
211	0x3d6ea898	0.058266252
212	0xbe3a9a97	-0.18223034
213	0x3ce42dc5	0.027853856
214	0xbe4c23f5	-0.19935592
215	0xbda2d2e5	-0.07950381
216	0x3d8c392e	0.06846844
217	0x3d1318ef	0.03591245
218	0x3d7d305f	0.06181371
219	0x3d02c397	0.03192481
220	0xbd40d59c	-0.047078714
221	0x3ccf7adf	0.025327144
222	0xbc936edc	-0.017997198
223	0x3e003a60	0.12522268
224	0x3d07b478	0.033131093
225	0xbcc7fa95	-0.024411479
226	0xbe6a1f3d	-0.22863479
227	0x3e0d8005	0.13818367
228	0xbd21e050	-0.03952056
229	0x3d4ed89b	0.05049954
230	0x3da94f63	0.08267095
231	0x3e27dfb7	0.16393934
232	0xbd13f147	-0.036118772
233	0xbc55f2c0	-0.013058364
234	0xbd9d54f0	-0.07682216
235	0xbe213cab	-0.15745799
236	0xbe7e0592	-0.24806812
237	0x3e13398a	0.14377418
238	0xbe0c90d0	-0.13727117
239	0xbc923fa7	-0.017852617
240	0xbcfdc922	-0.030979697
241	0xbc5e3bbf	-0.013564049
242	0x3dc8c9e2	0.09804131
243	0x3d7c9f27	0.061675217
244	0xbc8dc75f	-0.017306982
245	0xbc1f3b0c	-0.009718668
246	0xbd1696ff	-0.036765095
247	0xbda24043	-0.07922413
248	0xbda4cb24	-0.080465585
249	0xbc938c6e	-0.018011298
250	0xbd039424	-0.0321237
251	0x3b242d23	0.0025051318
252	0xbeab0edb	-0.3340977
253	0x3dcc098e	0.0996276
254	0xbd85df03	-0.06536677
255	0x3e2b3e7e	0.16723058

input_layer.bias f4 [32]
0	0x3f8ff8df	1.1247824
1	0x3f9cc3ec	1.2247291
2	0x3d432be2	0.04764927
3	0x3d9ab82c	0.07554659
4	0x3f9d7c51	1.2303563
5	0xbdb6f46c	-0.089333385
6	0xbde2df37	-0.11077731
7	0x3c536480	0.012902379
8	0x3f954519	1.1661712
9	0x3f8919a8	1.0710955
10	0x3d031ff7	0.032012906
11	0x3f904a85	1.1272742
12	0x3f85d96e	1.0456979
13	0x3fa07f73	1.2538894
14	0x3dcf1f2c	0.101133674
15	0x3c226dcc	0.009913873
16	0x3f8f2a69	1.1184818
17	0x3c4d5330	0.0125320405
18	0xbdae52f6	-0.08511917
19	0x3d91c0f6	0.071168825
20	0x3f9ec9cd	1.2405335
21	0xbd3db830	-0.046318233
22	0x3f873761	1.0563775
23	0xbe26ff7c	-0.16308397
24	0x3f824d8c	1.0179915
25	0x3f8a1953	1.0788978
26	0x3f9f26d5	1.2433726
27	0xbd6b0e85	-0.057386894
28	0x3cb42828	0.021991804
29	0x3dc2623e	0.094913945
30	0x3f9009a9	1.1252948
31	0x3f944a1c	1.1585116

hidden_layer1.weight f4 [64, 32]
0	0xbc8e304b	-0.017357012
1	0x3ddcb5df	0.10776877
2	0x3e48879a	0.19582978
3	0x3d354ca0	0.04426253
4	0xbd98d0fe	-0.07461737
5	0x3dbe388a	0.09288128
6	0x3dfcf56a	0.123514965
7	0x3badd004	0.0053043384
8	0xbdd366c3	-0.103223346
9	0x3d120eed	0.035658766
10	0xbc761bef	-0.015021308
11	0xbd524c90	-0.051342547
12	0xbd399367	-0.04530659
13	0xbd9dc3bf	-0.07703351
14	0x3cbd41ff	0.023102758
15	0xbd412b00	-0.04716015
16	0xbab0f1e3	-0.0013499822
17	0xbde25a07	-0.110523276
18	0x3d80952f	0.062784545
19	0xbe1deec4	-0.15423113
20	0xbdff12fd	-0.124547936
21	0xbd38f7b5	-0.045158107
22	0x3d229647	0.039694097
23	0xbe1b5668	-0.1516968
24	0x3d140df7	0.03614613
25	0xbe5083ab	-0.20362727
26	0xbd51b347	-0.051196363
27	0x3dbedb69	0.09319193
28	0x3c9f59f4	0.019452073
29	0xbd6309a0	-0.0554291
30	0xbda24347	-0.079229884
31	0xbe3d8802	-0.18508914
32	0x3f86bccd	1.0526367
33	0x3f89d5c9	1.0768367
34	0xbce29d78	-0.027662978
35	0xbc1e5bb8	-0.009665422
36	0x3f825858	1.018321
37	0x3d894f52	0.06704582
38	0x3e0c34ef	0.13692068
39	0x3d8be973	0.06831636
40	0x3f682a71	0.9068976
41	0x3f86aa1f	1.0520667
42	0xbd3d4b66	-0.046214484
43	0x3f8c64df	1.0968283
44	0x3f7bf9e0	0.98428154
45	0x3f879e93	1.0595268
46	0x3de8a897	0.11360281
47	0xbca87d99	-0.020567702
48	0x3f80165c	1.0006824
49	0xbd0ae8a3	-0.033913266
50	0xbb23f1d1	-0.002501596
51	0xbe830fb1	-0.2559791
52	0x3f661102	0.898697
53	0x3ce157f4	0.02750776
54	0x3f7b17b1	0.98083025
55	0xc05c6994	-3.443944
56	0x3f8f4f35	1.1196047
57	0x3f78cfe9	0.97192246
58	0x3f842fc7	1.032708
59	0x3e180000	0.1484375
60	0xbdac292a	-0.08406289
61	0xbadb1b2b	-0.0016716471
62	0x3f84d8aa	1.0378621
63	0x3f68a43f	0.9087562
64	0x3f80eedb	1.0072893
65	0x3f8d61dc	1.1045489
66	0xbe3471b4	-0.176215
67	0x3da6e3af	0.08148896
68	0x3f7be02a	0.9838892
69	0xbda3b337	-0.07993167
70	0x3c208210	0.009796634
71	0xbdb670b0	-0.08908212
72	0x3f85daad	1.045736
73	0x3f73cd6c	0.95235324
74	0xbc9b878c	-0.018985532
75	0x3f848ea4	1.035603
76	0x3f901ce4	1.1258817
77	0x3f525bf0	0.82171535
78	0xbe404ecf	-0.18780063
79	0x3cb9810a	0.022644538
80	0x3f815687	1.0104531
81	0xbd88d484	-0.06681159
82	0xbda231b0	-0.079196334
83	0xbe4c3768	-0.19943011
84	0x3f488220	0.78323555
85	0xbdf0e689	-0.11762721
86	0x3f832a33	1.0247253
87	0xc02e11b7	-2.7198312
88	0x3f926661	1.1437494
89	0x3f9e48a3	1.2365917
90	0x3f65d90a	0.897843
91	0xbce90578	-0.02844499
92	0x3c8c8325	0.017152378
93	0xbe3a43bf	-0.18189906
94	0x3fa3c9cc	1.2795959
95	0x3f787d5b	0.9706628
96	0xbcb10fbe	-0.021613952
97	0xbd785b3f	-0.060633894
98	0x3d1be5e7	0.03806105
99	0x3d93f583	0.07224562
100	0x3df9c3a5	0.12195519
101	0x3e09865f	0.13430165
102	0xbdf201e7	-0.11816769
103	0x3dc7c714	0.09754768
104	0x3c40d054	0.011768419
105	0xbe3601f1	-0.17774178
106	0xbe4e0fd8	-0.20123231
107	0xbe0d0f68	-0.13775408
108	0x3e3f4dc5	0.1868201
109	0xbe3c1f03	-0.18371205
110	0x3d3836bd	0.044974077
111	0xbe0a5a03	-0.13510899
112	0x3e3f870f	0.18703865
113	0xbd22d20f	-0.03975111
114	0x3cc44477	0.023958428
115	0x3dbd3a4f	0.09239637
116	0xbe206030	-0.15661693
117	0xbdd07b05	-0.10179714
118	0xbd835592	-0.064128056
119	0xbd04b272	-0.03239674
120	0x3ddae3c4	0.10687974
121	0xbdeecf3c	-0.116606206
122	0xbda29f9d	-0.079406
123	0xbd3e566b	-0.046469133
124	0x3d8a8a64	0.06764677
125	0xbe254c9d	-0.16142507
126	0xbd16cafc	-0.036814675
127	0x3c13ac49	0.009013244
128	0xbd4a08ab	-0.049324673
129	0x3d5cbfff	0.05389404
130	0x3d9d590c	0.07683
131	0xbc40c5a2	-0.011765869
132	0x3dd1b1c2	0.10238983
133	0xbe438117	-0.19092213
134	0xbe142eea	-0.14471021
135	0x3daf301b	0.08554097
136	0x3c039c9e	0.008032946
137	0xbdec3c80	-0.11534977
138	0x3d28911f	0.041154023
139	0xbe5d3ec5	-0.21605976
140	0xbe36dbd3	-0.17857294
141	0x3d11f410	0.035633147
142	0xbe0fa795	-0.14028771
143	0x3d8f7283	0.07004263
144	0x3ddf57a2	0.109053865
145	0xbd47a3af	-0.048740085
146	0x3d21045b	0.039310794
147	0xbb70c6b3	-0.0036739528
148	0xbdd0d488	-0.10196787
149	0xbdcae89b	-0.09907647
150	0x3d405890	0.04695946
151	0x3d94796f	0.07249724
152	0xbe53ee7f	-0.20696448
153	0x3db94532	0.09046401
154	0x3ced2090	0.028946191
155	0xbd779ea5	-0.06045403
156	0xbc044212	-0.008072393
157	0xbd5f2fdf	-0.054489013
158	0x3d4b9a8f	0.049707945
159	0x3d22d16b	0.039750498
160	0x3f9af794	1.2106805
161	0x3f83f3ca	1.0308774
162	0xbc67e59d	-0.014153865
163	0x3bf55d17	0.007487904
164	0x3f7708f7	0.96498054
165	0xbdbb9f9b	-0.09161302
166	0x3d3d0b83	0.046153557
167	0x3d821235	0.06351129
168	0x3f8e91aa	1.1138203
169	0x3f95393f	1.1658095
170	0xbce0dfcc	-0.027450465
171	0x3f949804	1.1608891
172	0x3f8166b9	1.0109473
173	0x3f7b0bf3	0.9806511
174	0x3ded3a8b	0.11583432
175	0xbdec1699	-0.11527748
176	0x3f880082	1.0625155
177	0xbe8ddab7	-0.2770593
178	0x3e5eea5d	0.2176909
179	0xbd100e39	-0.035169814
180	0x3fb3495d	1.4006764
181	0x3b221dd3	0.0024737015
182	0x3f91ed32	1.1400511
183	0xc032bd24	-2.7927942
184	0x3f9e663f	1.2374953
185	0x3f985700	1.190155
186	0x3f8c891d	1.0979344
187	0x3deb3147	0.11484008
188	0x3c09ca69	0.008410075
189	0xbe08b247	-0.13349257
190	0x3f8707c0	1.054924
191	0x3f8565be	1.0421674
192	0xbd9748f8	-0.073869646
193	0xbdcd6539	-0.10029072
194	0x3d855b56	0.065115616
195	0x3d26cf8b	0.040725272
196	0xbac1720f	-0.0014758724
197	0x3cefd2fd	0.029275412
198	0x3d68fefd	0.0568838
199	0x3dd7ae5b	0.105313025
200	0x3c6717b2	0.0141047705
201	0x3c857bc6	0.016294371
202	0xbdc87989	-0.09788806
203	0x3e08bc0a	0.13352981
204	0x3c32a2c4	0.010903064
205	0xbd58909c	-0.052872285
206	0xbd2a6e17	-0.041608896
207	0xbdc7b9d8	-0.09752244
208	0x3d326ef5	0.043562848
209	0x3d782ab8	0.060587615
210	0x3d6242af	0.055239376
211	0x3df3475d	0.11878846
212	0x3e517d95	0.20458062
213	0xbd8381e5	-0.0642126
214	0xbba0b356	-0.004904191
215	0xc0296333	-2.6466796
216	0xbe6fac4b	-0.23405568
217	0x3d39129a	0.045183755
218	0x3dbed579	0.093180604
219	0xbe864f77	-0.26232502
220	0x3d114596	0.035466753
221	0xbd09b41e	-0.03361904
222	0xbd749653	-0.059713673
223	0xbd1bbc0c	-0.038021132
224	0xbba0e2ca	-0.004909848
225	0xbe24ec84	-0.16105849
226	0x3d6b280b	0.057411235
227	0xbd34c75f	-0.044135448
228	0xbde78204	-0.113040954
229	0xbd093004	-0.033493057
230	0x3dc0d23e	0.094151005
231	0xbe25fe1e	-0.1621022
232	0xbe1e0e11	-0.15435053
233	0xbe398541	-0.18117239
234	0x3e13f360	0.14448309
235	0xbe1c51dd	-0.15265603
236	0x3c35f163	0.011104914
237	0x3c9f018a	0.019409914
238	0xbe07b823	-0.13253836
239	0xbc0113e9	-0.007878282
240	0x3c884043	0.016632205
241	0xbe183951	-0.14865614
242	0x3cfe6ce3	0.03105778
243	0xbd897909	-0.06712539
244	0xbd6807e1	-0.05664814
245	0xbddb03f5	-0.10694114
246	0x3e32ae01	0.1744919
247	0xbc244fcf	-0.0100287935
248	0x3d4b9e79	0.04971168
249	0x3b62d49a	0.0034611584
250	0xbc611231	-0.013737247
251	0xbe05ff8c	-0.13085765
252	0xbda263a5	-0.07929162
253	0xbe037183	-0.1283627
254	0xbc5bfee6	-0.013427472
255	0x3d9492d9	0.072545715

hidden_layer1.bias f4 [64]
0	0xbdb01b21	-0.085989244
1	0x3f2cfdb6	0.6757463
2	0x3f253946	0.6454052
3	0xbd84744a	-0.06467493
4	0xbe197ab4	-0.14988214
5	0x3f154aff	0.5831756
6	0xbea035a8	-0.31290936
7	0xbd2369c7	-0.0398958
8	0x3ee48dfb	0.44639573
9	0xbd6fddc8	-0.058561116
10	0x3ca594d2	0.020212565
11	0x3eba751c	0.36417472
12	0x3d3be7c4	0.045875326
13	0xbdcaeb58	-0.099081695
14	0xbd5f3f10	-0.0545035
15	0x3dfa4862	0.12220837
16	0x3e0cca51	0.13749053
17	0x3f1be15e	0.6089076
18	0x3f0499d4	0.51797223
19	0xbcc11b20	-0.023572505
20	0x3ed5da3a	0.41768056
21	0xbcb7f1d0	-0.022454172
22	0x3f0c9eb4	0.5492966
23	0x3f32dc32	0.6986724
24	0xbe130e75	-0.14360984
25	0x3d13a504	0.036046043
26	0x3f1489cb	0.58022755
27	0x3e0cd233	0.1375206
28	0x3f0b0ff6	0.5432123
29	0x3dabbb02	0.08385278
30	0xbd99e9cf	-0.075152986
31	0x3dad5b1d	0.08464644
32	0x3f272596	0.65291727
33	0x3eb8cb8c	0.36092794
34	0x3d763730	0.060111225
35	0x3f4befca	0.79662764
36	0xbdb0522f	-0.08609425
37	0xbde11d5e	-0.109919295
38	0x3f20334b	0.62578267
39	0xbd38747c	-0.045032963
40	0xbd1457b8	-0.036216468
41	0xbda3d951	-0.08000434
42	0xbe26fdc9	-0.16307749
43	0x3f135fc1	0.57567984
44	0x3cc6145c	0.02417963
45	0x3f2d9074	0.6779854
46	0xbd47219b	-0.048616033
47	0x3f4cfad1	0.80070215
48	0xbe0cdefa	-0.13756934
49	0x3f0b7252	0.54471314
50	0x3e275747	0.16341887
51	0x3d9f507a	0.077790216
52	0x3f2bf96c	0.6717746
53	0xbd4ef778	-0.050528973
54	0xbd0b091c	-0.033944234
55	0x3e2c62ef	0.16834615
56	0x3ed0b0a2	0.4075976
57	0x3e003e65	0.12523802
58	0x3f15dd87	0.5854115
59	0x3f40ecf4	0.7536156
60	0xbe0ddda9	-0.13854088
61	0xbe0ead57	-0.13933311
62	0x3e1b7899	0.15182723
63	0xbd3747a0	-0.04474604

hidden_layer2.weight f4 [32, 64]
0	0xbd96b54e	-0.073588
1	0x3ee3e7dc	0.44512832
2	0x3f014016	0.5048841
3	0xbd3a69ec	-0.04551117
4	0x3beaa0b8	0.0071602724
5	0x3f1c3cd5	0.6103032
6	0x3e07872e	0.1323516
7	0x3cc6182e	0.024181452
8	0x3eb14cf0	0.3462901
9	0xbc1e0a49	-0.009646007
10	0xbce5c800	-0.028049469
11	0x3ec21bc5	0.3791181
12	0x3dab51e2	0.08365227
13	0x3d901ee7	0.07037144
14	0x3dfc96aa	0.123334244
15	0x3dda9ab0	0.106740355
16	0xbe023713	-0.12716322
17	0x3ed617c3	0.41815004
18	0x3ee86531	0.45389703
19	0xbc65e92a	-0.014032641
20	0x3eb4d864	0.35321343
21	0xbd9fffc4	-0.07812455
22	0x3f0aa4d3	0.5415775
23	0x3f258ec9	0.64671
24	0xbdebe367	-0.11517983
25	0x3dd6e479	0.104927965
26	0x3ed7a70c	0.42119634
27	0x3ef3c984	0.47614682
28	0x3f05e185	0.5229724
29	0x3d23a126	0.039948605
30	0xbd8220da	-0.06353922
31	0x3dcb0449	0.09912927
32	0x3ec7987c	0.38983524
33	0x3eea6df4	0.45787013
34	0x3ba81403	0.0051293387
35	0x3f120649	0.5704084
36	0xbdaf2203	-0.08551409
37	0xbd09408f	-0.033508833
38	0x3ed1a96c	0.4094957
39	0x3cad23c2	0.021135215
40	0xbdeadabd	-0.11467502
41	0xbd3bd0a8	-0.045853287
42	0x3d40f4bf	0.047108408
43	0x3f084abe	0.5323905
44	0x3d0c7407	0.03429034
45	0x3ede4f21	0.43419746
46	0x3c462ec6	0.012096113
47	0x3f27ba10	0.65518284
48	0x3d9cd5ed	0.076579906
49	0x3efaa851	0.4895654
50	0xbd4051c2	-0.04695297
51	0xbe1d63f3	-0.15370159
52	0x3ecfd222	0.40590006
53	0xbc6b5cff	-0.014365434
54	0x3c76320b	0.01502658
55	0xbbe1b04b	-0.006887471
56	0x3edda240	0.4328785
57	0x3e1cb954	0.15305072
58	0x3ecc66b7	0.39922115
59	0x3f2c81e5	0.67385703
60	0x3d35d0fd	0.04438876
61	0xbce4e253	-0.027939951
62	0x3d66031a	0.0561553
63	0x3e2f7bbb	0.17137043
64	0x3dadc5c4	0.084849864
65	0x3f596b6a	0.84929526
66	0x3f445a92	0.767007
67	0xbcc265f4	-0.023730256
68	0x3e7380b0	0.23779559
69	0x3f5f0037	0.871097
70	0x3f04a2c8	0.51810884
71	0xbe3d4cee	-0.18486378
72	0x3f5db3e8	0.8660264
73	0x3d30a3b6	0.043124877
74	0x3c69db7e	0.014273522
75	0x3f443e18	0.7665725
76	0xbda67c9f	-0.08129238
77	0x3d070f13	0.03297336
78	0x3e2b7f0d	0.16747685
79	0x3db5ec45	0.088829555
80	0xbd19867f	-0.03748178
81	0x3f6c106c	0.9221256
82	0x3f6a796e	0.91591537
83	0x3e3d4e1a	0.18486825
84	0x3f6085ba	0.8770405
85	0xbdb9c08f	-0.09069931
86	0x3f6da025	0.92822486
87	0x3f461bfa	0.7738644
88	0xbd77d120	-0.06050217
89	0x3cd0c813	0.025486028
90	0x3f5c6d46	0.8610424
91	0x3f5870c3	0.8454706
92	0x3f70fc5f	0.9413509
93	0x3e1abb3e	0.1511049
94	0xbd0b72eb	-0.03404514
95	0x3b8b2479	0.0042462912
96	0x3f495d18	0.78657675
97	0x3f38f470	0.7224798
98	0xbd695875	-0.056969125
99	0x3f54d289	0.8313375
100	0x3e10fe5a	0.14159527
101	0xbdf0251b	-0.11725827
102	0x3f51aea7	0.81907123
103	0x3e498ab2	0.19681814
104	0x3e10142a	0.14070192
105	0xbdaf18bb	-0.08549639
106	0x3e2a00b5	0.16601832
107	0x3f82c3de	1.0216024
108	0x3de9e4f2	0.11420621
109	0x3f567143	0.83766574
110	0xbd7bd455	-0.061481792
111	0x3f7d20b3	0.9887802
112	0x3d46974f	0.048484143
113	0x3f3be629	0.7339807
114	0x3db82296	0.08990972
115	0xbd081861	-0.033226375
116	0x3f5868f3	0.8453514
117	0xbdba8e98	-0.09109229
118	0x3e3b3579	0.18282117
119	0xbd6675ab	-0.05626456
120	0x3f510c29	0.8165918
121	0x3db50864	0.08839491
122	0x3f67d3b4	0.9055741
123	0x3f5d72a1	0.86503035
124	0xbdb6260d	-0.08893976
125	0x3e82df30	0.25560904
126	0x3dfd82af	0.123784415
127	0x3db9d5bb	0.09073969
128	0xbe856ef3	-0.2606121
129	0x3f0f1d92	0.55904496
130	0x3ecb83d2	0.39749008
131	0xbdc879f2	-0.09788884
132	0xbc8b3b0a	-0.016995925
133	0x3ee26ba0	0.44222736
134	0xbbec5ea7	-0.007213432
135	0x3e0154e2	0.12630036
136	0x3e9143cc	0.28372037
137	0x3dcfb61f	0.10142159
138	0x3d7bb362	0.06145037
139	0x3e9bcb2d	0.30428448
140	0xbc319da3	-0.010840806
141	0x3c932cfe	0.01796579
142	0xbdb1db12	-0.086843625
143	0xbccb8e20	-0.024848044
144	0x3d11bf7d	0.035583008
145	0x3ea01550	0.3126626
146	0x3ebe36e8	0.37151265
147	0x3d8a4661	0.06751705
148	0x3eb2f46b	0.349521
149	0xbd1a608c	-0.03768973
150	0x3edb246c	0.42801225
151	0x3ef17536	0.47159737
152	0xbcf142f7	-0.029450877
153	0xbd92c977	-0.071673326
154	0x3ea4c6b5	0.3218285
155	0xbdc1a635	-0.094555296
156	0x3e97dc4d	0.29660264
157	0xbdcec6b4	-0.10096493
158	0xbe238c7c	-0.1597156
159	0xb9d31c33	-0.00040266066
160	0x3eb30e1d	0.34971705
161	0x3edaf134	0.42762148
162	0xbdf4d42d	-0.11954532
163	0x3e921710	0.2853322
164	0xbdc040b2	-0.0938734
165	0xbe98564f	-0.29753348
166	0x3ea16d65	0.31528774
167	0xbc303f35	-0.010757257
168	0x3db99c26	0.09062986
169	0xbbb242bc	-0.0054400843
170	0xbd2b77d4	-0.041862324
171	0x3f0316d2	0.51206696
172	0x3d97f128	0.07419044
173	0x3ed61ef1	0.4182048
174	0xbc85fab8	-0.016354904
175	0x3eaa8688	0.33305764
176	0x3e1d3f57	0.15356193
177	0x3f02f9d3	0.5116245
178	0xbb8a6972	-0.004223996
179	0x3d5854eb	0.05281536
180	0x3f04b1f4	0.51834035
181	0x3cb1a74b	0.021686217
182	0xbdfdc958	-0.12391919
183	0xbe200b87	-0.15629397
184	0x3ef4cb88	0.47811532
185	0xbdf10f87	-0.1177054
186	0x3ec78789	0.38970593
187	0x3eaa134e	0.33217853
188	0x3c0a62c7	0.008446402
189	0x3d251a71	0.04030842
190	0xbe52177a	-0.20516768
191	0xbd211e92	-0.039335795
192	0x3c097677	0.008390061
193	0xbcae92c6	-0.021310221
194	0x3c897494	0.016779222
195	0x3d89c97c	0.06727883
196	0x3d119843	0.0355456
197	0x3d0cc349	0.034365926
198	0xb935cf96	-0.00017338837
199	0x3c24b39a	0.010052586
200	0x3c10f565	0.008847569
201	0xbe0a1c69	-0.134874
202	0x3d03a42e	0.032138996
203	0xbd476d74	-0.048688367
204	0x3e2dee41	0.16985418
205	0xbdf5cb18	-0.12001628
206	0x3b2aa64f	0.002603907
207	0x3db4bc9f	0.08825039
208	0x3eaa1190	0.33216524
209	0xbd95b95a	-0.07310744
210	0xbd2f030a	-0.042727508
211	0x3d98583e	0.07438706
212	0x3c8215ed	0.015879596
213	0xbc8fc7c2	-0.017551307
214	0xbd12fcb0	-0.035885513
215	0x3e4de986	0.20108613
216	0x3e09660d	0.13417836
217	0xbcfe1148	-0.0310141
218	0xbe876127	-0.2644131
219	0x3cbd505d	0.02310961
220	0xbdb2baae	-0.087270126
221	0x3d6058c2	0.054772146
222	0xbd887a15	-0.0666391
223	0xbdf527cf	-0.119704835
224	0xbd5c9d67	-0.053861048
225	0x3da4e3da	0.08051272
226	0x3ddbfc5d	0.10741494
227	0xbdcd1506	-0.100137755
228	0xbddc40e0	-0.107545614
229	0xbe2b2311	-0.16712596
230	0x3da82575	0.08210269
231	0x3e1e71a5	0.1547304
232	0xbd38f558	-0.045155853
233	0x3e01395e	0.1261954
234	0xbd6ecab7	-0.058298793
235	0x3d2a0d63	0.041516673
236	0x3dbf0c91	0.09328569
237	0xbd87beb7	-0.06628173
238	0xbe859a0a	-0.26094085
239	0xbd0138bf	-0.031548258
240	0x3a69ff07	0.00089262467
241	0xbdc75ebb	-0.09734865
242	0xbd63d0c2	-0.05561901
243	0xba1a4459	-0.00058848184
244	0x3da25c1d	0.079277255
245	0x3e068d83	0.1313992
246	0x3c1e2c2d	0.009654087
247	0xbd589dd0	-0.052884877
248	0x3adbb5fd	0.0016762611
249	0xbe085d03	-0.13316731
250	0xbda00524	-0.078134805
251	0x3d3e073b	0.046393614
252	0xbcb8578f	-0.022502689
253	0xbbed058a	-0.0072333263
254	0xbdc2bbc9	-0.095084734
255	0x3dc4db63	0.09612157

hidden_layer2.bias f4 [32]
0	0x3ed41a87	0.4142649
1	0x3ea55af8	0.32295966
2	0x3eb69d99	0.35667112
3	0x3da6c0ff	0.0814228
4	0xbdf2fc15	-0.11864487
5	0xbc8d3a95	-0.017239848
6	0xbb917e9a	-0.004440141
7	0x3e8a2552	0.26981598
8	0xbe823060	-0.25427532
9	0x3b092770	0.0020928048
10	0x3dde8e08	0.10866934
11	0xbd528620	-0.051397443
12	0x3e3a4928	0.1819197
13	0xbde6af34	-0.11263886
14	0xbdc3371b	-0.09531995
15	0xbc1615b0	-0.009160444
16	0xbdee2a30	-0.116291404
17	0xbd6afb35	-0.057368476
18	0xbd64f352	-0.05589611
19	0x3db38cf4	0.08767119
20	0xbb1ca3c0	-0.0023901314
21	0x3db8ee62	0.09029843
22	0x3d95571a	0.07292004
23	0x3c31420d	0.01081897
24	0xbd4f483f	-0.05060601
25	0xbde1868a	-0.110119894
26	0x3ba1cf5f	0.0049380506
27	0xbcc636a8	-0.024195984
28	0xbe55539b	-0.20832674
29	0x3da4d25c	0.08047935
30	0x3d215e90	0.039396822
31	0x3d6e4a1c	0.058176145
