Comparison/TrainedModel/20-0.001-99-Agent/node_agent_55.pth (torch, 42692 bytes, 6 tensors)

input_layer.weight f4 [32, 180]
00000000: 1333 ff3d df91 003e ffe7 423d 1f06 81bc
00000010: 8b1c 93bd b574 c43d 58fe 2f3d 1a2f d9bc
00000020: eca6 87be 63d4 19bd 8b67 b3bd 450d 0cbd
00000030: 4fac 683c 618f 003e bfe0 26be cb3c f83d
00000040: 7deb 61bd 958f c03d 6d6f 843e 8e5b 88bc
00000050: 978d 223e cbd5 273e 6afb 66bc 7268 fe3c
00000060: fde9 d0bd ef77 3fbe 43ff 763e 9b29 013e
00000070: 21ff 14be 1f68 ebbd b75a 7f3d 9714 cfbd
00000080: 22cb 063c 4871 883d 19fa 013e 074c 053e
00000090: 6bdf 5bbd d313 72bd 535f 77bd 0463 133d
000000a0: 13e7 ffbd d6bc 3a3d b410 cc3d f281 27be
000000b0: 7a18 81bb 8817 723c 0e5a 633e 9db5 eebd
000000c0: 8dc7 013e 7a1f f13c c282 333e b55e 1bbd
000000d0: 5e9a 47bd 0f5f 7a3c 7f2e 243d 552c f03c
000000e0: 6390 c53d debb 173c 1281 d13d b4c6 183e
000000f0: 49a9 343f 74a5 4a3e c124 17be da0d 16bd
00000100: b865 5dbd 4610 82be afb1 213f ed2a df3e
00000110: 9620 233f 71ad f43e 4283 15bd d017 e33e
00000120: 3de4 0a3f 5423 923d 8d83 dbbe 990f 533f
00000130: 2384 cbbe 7f13 c13e 1bb1 8abf e1b6 443f
00000140: 3c51 9bbd f23e 553d 4356 003e ca37 04be
00000150: a36b be3c 569b ccbd 65ff aa3d 3e6a 063e
00000160: 8d8f fa3d 7aeb d8bd 22a2 92bc 1593 74bd
00000170: 8f9f 063e aa5c c43d af4f d53c 6d49 453e
00000180: 32cc febd ca03 0fbe b103 843d f862 e73d
00000190: 02ce 663b 9e87 813d 4074 88bb cdfb f03c
000001a0: cf48 c13c a220 35be f6f8 a5bd 49db b43b
000001b0: 53f5 fdbd 9059 1a3d f00f 9ebd 3bd7 2b3d
000001c0: 6d2f 793d 0335 2d3d 588b d03d 8a77 f83c
000001d0: b13c 833d 8d30 e03d 0515 783c 5578 34be
000001e0: d6bf 2d3c fb48 a13b b792 6a3e 8d44 efbc
000001f0: f007 393e 822b 50be cb3a 763d df88 be3d
00000200: 6904 803c 889c 013e 3312 a13c 7525 5e3d
00000210: 5d31 e83d d7c7 433d aaff e2bd ac40 9abd
00000220: 7d3c 79bd a7e8 09bd 42eb 80bd d289 383d
00000230: 161a 923d 8abf d53d b305 95bc f844 813c
00000240: 98ce ab3d c721 0cbe b7d2 333e 3383 f03d
00000250: fc7d ad3d 7a3e b8bd 3f8c 5f3d 687b 5bbd
00000260: 637b cb3d 0bb7 613d 0f85 1f3d 426d f0bd
00000270: 3815 e6bd b6eb 8bbc a2fc c33d 8320 963d
00000280: 3f72 79bd b141 49be e2bc 63be 418c 913d
00000290: 2272 183e 9581 6e3d 23af 70bc 3310 06bd
000002a0: ab77 003e 5d29 b0bd ae88 0cbc aba9 02be
000002b0: 171e 78bd 6a06 9e3d 1599 6dbd f2ab 8a3d
000002c0: 37f9 ad3d 2f7f c1bc eb30 bf3b 0ada a53d
000002d0: 59d8 b93d d581 e93d 443f 1b3e b723 aa3d
000002e0: 8c58 383e 7b25 313d 1a9e bcbd 39d2 1d3e
000002f0: 77ff adbd 6d41 f83b 2561 07be af57 3d3d
00000300: 4bf8 593d 7fea 2b3c 7510 25bd 34ab 91be
00000310: 48c9 db3d b72f 623c 5ea8 ae3b 06b4 063e
00000320: bd17 92bd c256 71bd cbca b7bb e390 fbbd
00000330: 0f5b ea3d 3f6f 1dbd 9486 403c bdbb d43d
00000340: ca7e 543d add5 69bd 8f9d 82bd 6988 adbd
00000350: 2d38 75be 4a8d cfbd eea3 24bd fb58 1a3e
00000360: 32fe 42bc 15a5 f7bc 20f3 a43b 1b90 07bd
00000370: 36ff 333e c7f1 88bd 2ff0 74bd 17c5 15be
00000380: c84d d5bd 1f5e 61bd e3c4 1a3d ba1b 933d
00000390: daa7 38bd 79de 92bd b126 abbd 0a1e c43d
000003a0: 1475 003e 1bda c6bd 5025 e43d 9670 46be
000003b0: a866 063e 1f21 6bbd 130d e0bd 5c9f 0a3e
000003c0: f753 2f3f a7b8 91bd 9bd7 3ebb 812a 363e
000003d0: 75a1 dd3d cd72 6f3d ecc7 123f 9160 f73e
000003e0: a059 cc3e f0b0 3c3f 1d1f e3bd cb42 f83e
000003f0: 7f7a 043f 95a4 a83c 5aab 7cbe d11e 683f
0.124609135 0.12555645 0.04758453 -0.01574999 -0.071831785 0.095925726 0.04296717 -0.026511718
-0.2649454 -0.037556063 -0.08759984 -0.034192342 0.014201238 0.12554695 -0.16296671 0.1212097
-0.05515622 0.09402386 0.2586626 -0.01664522 0.15874325 0.1639015 -0.014098028 0.031055663
-0.1020088 -0.18698095 0.24120812 0.12613527 -0.14550449 -0.11494469 0.06234237 -0.10111349
0.008227142 0.06662232 0.12693061 0.13017283 -0.053679865 -0.059100937 -0.060393643 0.0359831
-0.12495246 0.045590244 0.09964123 -0.16358164 -0.0039396854 0.014776118 0.22202322 -0.11655734
0.12673779 0.029433955 0.17530349 -0.037932117 -0.0487312 0.015281453 0.040083405 0.029318014
0.0964668 0.0092611 0.10229696 0.14919549 0.7057081 0.19789678 -0.14760114 -0.036634304
-0.054052085 -0.2540304 0.6316175 0.43587437 0.637216 0.47788575 -0.03650213 0.44354105
0.54254514 0.071356446 -0.42873803 0.82445675 -0.3974925 0.37710187 -1.0835298 0.7684155
-0.075838536 0.052061982 0.12532906 -0.12911907 0.023244685 -0.099905655 0.08349494 0.13126466
0.122344114 -0.105917886 -0.017899577 -0.05971058 0.13146804 0.09587987 0.026038973 0.19266291
-0.12441291 -0.13966289 0.064460166 0.11298174 0.0035218005 0.06324695 -0.0041642487 0.029416943
0.023594288 -0.1768823 -0.08104126 0.005519305 -0.124003075 0.03768307 -0.077178836 0.041953307
0.060836244 0.042286884 0.10182828 0.030330438 0.0640806 0.1094676 0.01514173 -0.17624028
0.010604819 0.00492203 0.2290753 -0.029207492 0.18069434 -0.20329097 0.060114663 0.0930345
0.015627103 0.12657368 0.019661998 0.05423494 0.1133754 0.047798004 -0.1108392 -0.075318664
-0.0608487 -0.03366914 -0.06294872 0.04505331 0.07133882 0.10436924 -0.018191194 0.015779957
0.08389014 -0.1368476 0.1756085 0.11743774 0.08471295 -0.089962915 0.05457711 -0.053584486
0.099356435 0.055106204 0.038945254 -0.11739589 -0.11234516 -0.01708017 0.0956967 0.0733042
-0.06089997 -0.19653966 -0.22240022 0.071068294 0.14887288 0.058229048 -0.014690193 -0.032730293
0.1254565 -0.086016394 -0.008577509 -0.12760036 -0.06057557 0.07716067 -0.05800732 0.06771077
0.084947996 -0.023620216 0.005834689 0.08098228 0.09074468 0.114017166 0.15160853 0.08307593
0.18002528 0.043248635 -0.09209843 0.15412225 -0.08495992 0.0075761587 -0.13220651 0.0462262
0.053215306 0.01049292 -0.040298898 -0.2845093 0.10731751 0.013805321 0.0053301295 0.13154611
-0.07133434 -0.05892063 -0.0056088916 -0.12283494 0.11443149 -0.03843617 0.011750836 0.10387371
0.051878728 -0.057088543 -0.06377708 -0.08473284 -0.2394721 -0.101343706 -0.040195398 0.15073006
-0.011901425 -0.030230084 0.0050338656 -0.033096414 0.17577824 -0.0668674 -0.05979937 -0.14625965
-0.10415226 -0.0550214 0.037785422 0.07183023 -0.04508195 -0.071713395 -0.08356989 0.09576042
0.12544662 -0.09709569 0.11139929 -0.19378886 0.13125098 -0.057404634 -0.10939994 0.13537353
0.68487495 -0.07115298 -0.002912021 0.17789651 0.10821811 0.058459092 0.57336307 0.48315862
0.39912128 0.73707485 -0.11089919 0.4848846 0.51749414 0.020586291 -0.2467474 0.9067202

input_layer.bias f4 [32]
00000000: 4fd4 433c bbf9 803d 20ab 483e 20c3 2d3e
00000010: 7472 313f c55c 87bc 3c17 7f3c ad31 bd3d
00000020: b284 763c bb19 073d 5976 133b f80d 883d
00000030: 10e9 e23c f49e b23d 85c8 dd3d 23cb 2fbd
00000040: f0a6 af3d 02fc d73b bb37 733d 9826 4e3d
00000050: ac8a 583d 85fc c5bc df82 7e3d 8c11 243d
00000060: e02f c3bc 4f9b e63c f1a2 353d 9937 a03d
00000070: 3ac0 ee3d 80b6 ea3d 80db da3d 3608 da3d
0.011952474 0.06297632 0.19596529 0.16968966 0.69315267 -0.016523728 0.015569504 0.092379905
0.015046285 0.032983523 0.002250096 0.06643289 0.027699023 0.08721724 0.10829262 -0.042918336
0.08576763 0.006591321 0.05937932 0.050329775 0.052866623 -0.024168262 0.062136527 0.040055797
-0.02382654 0.028150229 0.044344846 0.078231044 0.11657758 0.1146059 0.106863976 0.10646097

hidden_layer1.weight f4 [64, 32]
00000000: d797 c2bd 1a98 edbd ed76 efbd d8c1 723a
00000010: cb07 2fbe e277 92bd a1b1 c0bc f186 c43d
00000020: d0ce 7bbd c43e bd3d d209 b63d c161 6abd
00000030: 2512 edbd be19 c33d 617d 43bd e994 77be
00000040: f9ae 8dbb 8bb0 2a3e d1d3 753c f8a8 3bbc
00000050: abcb d1bd 84c6 fcbb 93ae 14be d919 07be
00000060: d588 84bd 8723 9fbe 63d7 9cbc 30d8 873c
00000070: b3ee a63c 4f2a cdbc 1d51 163d 47d7 1d3d
00000080: f5ba fe3e c874 283f 2f12 2b3f 41f9 b83e
00000090: 8da5 acbc 9345 0b3f f28c d83e fe2e 133f
000000a0: e33e e33d a70c fa3e bd4e 3bbc 5800 3e3f
000000b0: f808 523f ea9a d23e 9a4b 0b3f 42ff 083f
000000c0: 0428 ec3e 9489 e23e afce c43e 4ec7 aa3e
000000d0: 87c8 6c3f ec30 c03e 0db1 743e 09e4 063f
000000e0: f4d6 083f 84a4 193f 4db1 0f3f fccc 863e
000000f0: 9264 223f 840c 333f 8a37 373f 9838 ee3e
00000100: b51a db3e e9dc 3d3f d8ca 993e fbe8 db3e
00000110: 028e fdbd 2331 283f 6359 103f 72b8 de3e
00000120: f9cb 9c3f e8df 2b3f b7d0 103d 5705 213f
00000130: c21a 8b3f e2bd 203f b60c 583f 9a69 023f
00000140: 227d 6f3f 362b 193f 4845 0f3f 637a 023f
00000150: df53 443e d27c e63e 1091 ab3e 5190 273f
00000160: da3b 173f 5639 4d3f 71b6 533f e4ca cf3e
00000170: 95c0 0f3f 5289 4f3f 96f2 403f 31b7 f63e
00000180: 7cd1 673b 565a bc3d 9b49 973e d3bb 41be
00000190: ed18 3dbf 5c77 9e3e 6562 983d dc78 3a3e
000001a0: 4c0e 3a3e 0e46 4b3e 607e 98bd 2f76 663e
000001b0: e9d0 8f3e 70d8 d43e 6579 883e ffec f33e
000001c0: 6171 923e 8d78 f43d 695c 243e a426 1c3e
000001d0: ab46 553e f6c5 0d3e c2a2 863e 4ed6 8c3e
000001e0: 1e11 b13e 8af4 533e 2437 b73e d18e 1c3e
000001f0: 37b3 4b3e 1ce2 943e 6e04 6d3e 1007 cc3d
00000200: 48ad 793e 2960 713c fadf 713c 964d bfbc
00000210: 7df1 1abd 8b04 b8bd 4803 e63c 4b83 c0bd
00000220: 95c3 1dbd 7b40 bfbd 0493 bc3c e36a 0ebd
00000230: 6f63 2cbe c269 edbd 98d6 48bd e4a4 10be
00000240: f6a8 7ebd bc9e 42bd 5ad1 303d 2275 93bd
00000250: a996 43be 665f 4abd ef22 2abe 2ecd b5bd
00000260: 5a38 8abd b398 0abd 9d89 1f3e df64 fbbd
00000270: 0cc4 5c3d 096e 65bd 9d27 843c 340d 993c
00000280: 81cf 473e 0754 d53e a63f 223f c257 b5bd
00000290: 6de8 7fbf 9d83 cd3e 4426 c83e e43e 973e
000002a0: 20fb a63e bc06 b73e 5000 25bd 6a3e cb3e
000002b0: f97b 0b3f 4b09 8b3e c8a3 5a3e 9897 6b3e
000002c0: 3479 033f 15e7 4c3e bfa9 a53e 9980 e93e
000002d0: 9bc8 923e 8b8f bd3e 7c74 873e 4c9a 7d3e
000002e0: 1ca9 6e3e 42fe c33e 30c8 3d3e af8d 8f3e
000002f0: 94e9 8a3e c35b dd3e c487 af3e 5092 b03e
00000300: 5cc3 123e 5c1a b23e e6ca 6f3f eae4 5b3f
00000310: d498 8fbf d07d 8e3e 27be ad3e e676 753e
00000320: ff36 033f 2252 013f fbc9 bebd eac9 903e
00000330: 613b 173f 4e52 813c eee2 903e 9fba 593e
00000340: 0884 b93e b7ca c93e 0637 a23e 1a91 bf3e
00000350: 43bd a83e 1f69 fd3e b157 193e a4dc 913e
00000360: 1a60 d33e 7570 d43e ce79 c13e 86de 763e
00000370: e39b 733e 571e ed3e 0ef2 f43e 330e 263e
00000380: f8ab e83e f3d8 373f c695 c03e fe54 f23e
00000390: 12ca d9bd b74e 2c3f 62f7 143f 7653 c33e
000003a0: dfc7 ac3f 1767 5c3f c3f1 7fbd edd9 333f
000003b0: 1d5c 493f f162 253f 69bf 183f 529d 063f
000003c0: b1ea 7b3f de6d f33e d7a4 2a3f f314 133f
000003d0: e2ac fc3e fec5 323f a2c4 073f 2f38 283f
000003e0: 165f 0c3f 5447 763f f9ec 473f 1951 e13e
000003f0: ea1c 3b3f 9b22 2a3f 8d04 263f 2934 f93e
-0.095016174 -0.11601277 -0.11692605 0.00092604524 -0.17092817 -0.07151772 -0.0235222 0.095960505
-0.06147653 0.09240487 0.08888592 -0.05722213 -0.115757264 0.09526394 -0.047726993 -0.24177898
-0.004323837 0.16668908 0.015004114 -0.0114538595 -0.10243925 -0.0077140946 -0.1451972 -0.13193454
-0.06471411 -0.31081793 -0.019145673 0.016582578 0.020377493 -0.025044588 0.03669845 0.038535383
0.49752012 0.65803194 0.6682462 0.36127666 -0.021075035 0.54403037 0.42295033 0.5749358
0.11095979 0.48837778 -0.011432347 0.74219275 0.82044935 0.41133815 0.54412234 0.5351449
0.4612428 0.4424559 0.38438937 0.33355182 0.9249348 0.37537324 0.23895665 0.52691704
0.5345299 0.60016656 0.56129915 0.26328266 0.6343471 0.6994097 0.7156912 0.46527553
0.42793813 0.7416521 0.3003757 0.42951187 -0.123806015 0.65699977 0.56386393 0.43500096
1.2249748 0.6713853 0.035355296 0.6289877 1.0867541 0.6278974 0.84394395 0.50942385
0.9355031 0.5983156 0.5596509 0.50968 0.1917262 0.45017105 0.3350911 0.65454584
0.590757 0.8016561 0.8270026 0.4058448 0.5615323 0.8106891 0.75370157 0.4818664
0.0035372665 0.09196918 0.29548344 -0.18919306 -0.7386616 0.3095044 0.07440642 0.18210167
0.18169516 0.19850942 -0.07445979 0.22506021 0.28089073 0.4157138 0.26655117 0.4764175
0.28602126 0.11937056 0.16050877 0.15249115 0.20827739 0.13845047 0.2629605 0.27507252
0.34583372 0.20698753 0.35784256 0.15288855 0.19892584 0.29078758 0.23146221 0.099622846
0.24382508 0.014732399 0.014762873 -0.023352426 -0.037827957 -0.089852415 0.028077736 -0.09400042
-0.0385166 -0.093384705 0.023019321 -0.034769904 -0.16834806 -0.11592437 -0.049032778 -0.14125401
-0.062172852 -0.047514662 0.043168403 -0.07200076 -0.19100441 -0.049407385 -0.16614889 -0.088770255
-0.067490295 -0.03383703 0.15579839 -0.12275099 0.053897902 -0.05601314 0.01613217 0.018683054
0.1951275 0.4166567 0.6337837 -0.08854629 -0.9996403 0.40139475 0.39091694 0.2954017
0.32613468 0.35747325 -0.0402835 0.39696056 0.5448604 0.27155527 0.2135154 0.23007047
0.51356816 0.20010026 0.32356068 0.45605925 0.28668675 0.37023577 0.26456058 0.24765891
0.23306698 0.3827992 0.18533397 0.28037784 0.2713133 0.4323407 0.34283268 0.34486628
0.14332336 0.34785736 0.93668973 0.8589617 -1.1218514 0.27830362 0.33934137 0.23971137
0.5125579 0.5051595 -0.093158685 0.28279048 0.5907498 0.015786316 0.28298134 0.21262597
0.36233544 0.39412472 0.31682605 0.3741539 0.32956895 0.49494264 0.14974858 0.28488648
0.41284257 0.41492048 0.37788242 0.24108323 0.23789935 0.4631221 0.47840923 0.16216354
0.45443702 0.71815413 0.37614268 0.4733047 -0.10634245 0.6730761 0.58189976 0.38149613
1.3498496 0.860948 -0.06248642 0.70254403 0.7865618 0.646041 0.5966707 0.525838
0.98404986 0.4754476 0.66657776 0.5745384 0.4935065 0.6983336 0.5303441 0.6571073
0.5483259 0.9620259 0.78095967 0.44007185 0.73090994 0.66459054 0.64850694 0.48672608

hidden_layer1.bias f4 [64]
00000000: 3ac9 013e 6ebe a93d 3148 e03d da3f a93d
00000010: de9e 4abe 85c6 11bd 53f2 b13d 4a03 243e
00000020: eaec 6f3d 50a9 e13c 71bc 5a3d f41f c3ba
00000030: 446a fb3b 7163 54bc f6f4 76bd 3993 a13c
00000040: 7efb 12be 93d1 b2bc 7d39 a63b d9f1 34be
00000050: 9918 3fbe cc47 463f 6c89 f9bd 668e 2b3e
00000060: 2f6a 1a3d 4885 debc 5b31 583d e3fd 33be
00000070: 36b4 1abe e531 8dbb 9fb0 0bbe b3b9 203e
00000080: 184a 823d 8077 5cbd 8435 99bc d388 66be
00000090: 45e2 97bd 567c 0bbe ff49 0bbe f04f 173e
000000a0: 97da bbbd b9b8 43bd 5a91 053e d48a 9fbd
000000b0: 22a0 0b3d d960 fd3e 4fb2 023e acbb febd
000000c0: d867 34be fb4d 2cbd 6820 1abe d21f b93d
000000d0: ba52 183d ae19 9fbc c78b cebd 4bd9 e2bd
000000e0: 6ab8 9dbc 7c7c 22bd 0285 48be 224a 1ebe
000000f0: 21f2 c2bc ee72 00be b95f f83d ac2c 6cbd
0.12674418 0.08288275 0.109512694 0.08264132 -0.19787166 -0.035589714 0.08688798 0.1601688
0.05857555 0.027546555 0.053402368 -0.0014886842 0.00767258 -0.012963162 -0.060292207 0.019723522
-0.14353749 -0.021828448 0.005072771 -0.17670383 -0.18661727 0.77453303 -0.12184414 0.1675354
0.03769892 -0.027163163 0.052781444 -0.17577319 -0.15107808 -0.0043089264 -0.13641594 0.15695839
0.063617885 -0.0538249 -0.018702276 -0.22513132 -0.07416204 -0.13621649 -0.13602446 0.14776587
-0.09172552 -0.047783587 0.13043728 -0.07790151 0.03408826 0.4948795 0.12763332 -0.12438139
-0.17617738 -0.042066555 -0.15051425 0.09039272 0.03718827 -0.019421425 -0.10085254 -0.110766016
-0.019252975 -0.0396695 -0.19581988 -0.15457967 -0.023797097 -0.12543842 0.12127633 -0.05765979

hidden_layer2.weight f4 [32, 64]
00000000: b2ff f73d adb2 39bf 2b65 adbd 607f 73be
00000010: 7b70 333d 5cbd 423e bd6e 86bc c54c 1ebe
00000020: 3cbb 03bd 3d48 683d 68c6 383e 9bed 093e
00000030: 449f 2c3e b176 273c 2737 f13b 3967 11bd
00000040: 8319 42be 9b32 ed3c e314 603d ecf4 87bc
00000050: edc6 27bd 24e6 fb3b 1ac6 debd 61d9 693c
00000060: 889e e43d 03b0 af3c 5f35 0b3e 4410 bc3c
00000070: 3bd2 24bd 85b9 103d d71b 98bd 2d19 3c3e
00000080: 9c7c bd3d ef07 843e 0526 79bd e82b 3e3e
00000090: efe2 793e f65a ae3d 43db 10bd 4c4a 233e
000000a0: 33d2 843e 30e9 313e ed8f dfbd fc2c 993b
000000b0: 536c f73c 9182 51be f521 f33d b537 763e
000000c0: 7d4e 25bd 1707 8abd dd3e 0f3d 47c1 a23d
000000d0: c9f1 39be c462 09bd 91c4 ccbd fdf4 283d
000000e0: a87a 65be c055 0b3e c004 9f3c f35e 243e
000000f0: 1c5c db3d c796 9dbd 21ac 833e eef3 4d3d
00000100: d010 703d ff52 f03d a293 3fbd cc48 56be
00000110: 7074 42be d87a 4bbe 17fb 4ebe 0132 a2bd
00000120: 8845 193d ab13 1abd 8436 f1bd eb6b 88bc
00000130: 7f1f b8bd 393c d03d 6bd3 a63c 4a49 e3bd
00000140: f26a 16bd 1d0a f13d 30fd adbc c27c 213d
00000150: 558e d3bd 72c9 a5bd 6b7d 86bd 3b91 10bd
00000160: 7ae3 343e 2d77 ef3d 2953 34bd d31f c3bd
00000170: cbf7 95bd b2bb ed3d d06c c6bb eaab 143d
00000180: 6b86 7e3e e324 9ebd 3ca9 27bc 55d3 a8bc
00000190: 7286 ab3c 31be c4bd b701 e63d 61d9 a83c
000001a0: c0fd 9b3d 6823 e93d f3ce 263d 416f 6bbc
000001b0: c375 8ebd 3e8c ddbd f02f 803d 7146 413d
000001c0: 87bf 3bbd c929 ae3d 78ff 7dbc 645b 00be
000001d0: a542 72be 0b70 5bbe 0ee0 b8bd 13f6 a33d
000001e0: a647 c33c 1fae 7f3b 1574 babd 85da 38bc
000001f0: 312e 99bd a67b 89bd a44e 32bd b771 27bd
00000200: 1020 2b3d 3595 4b3e 78d6 16be 12c0 c73d
00000210: d678 78bd dd26 35bb 098b 463c 9eb6 51be
00000220: f3c4 08bd 5a20 7b3e c346 9a3e b75d 73bc
00000230: 61a5 343e 1ac6 1c3e 2fbf eabc 1571 373c
00000240: 57ab 9f3d c5c8 dbbc b978 f53c cc1e 193d
00000250: 8b76 343e 1174 c83c b6d7 f2bc 14eb a83e
00000260: a8f6 853e e441 a53d 848a c13d 6972 dc3e
00000270: 76c9 c53e 6c72 3b3e 4f5b 06bd f6ec 603e
00000280: c03e 083e d337 943e 63c5 263e 121c 683e
00000290: 72d6 443e ad90 d73d afc7 04be 86f7 a43e
000002a0: 0f45 52be 6b18 cfbd c8c8 d4bd 9ad1 4c3e
000002b0: 2ce9 a03e 0799 203e d6eb 9ebd e964 0a3d
000002c0: 8d2d bf3d 93ef 8e3d 6924 07be 0d6c 323e
000002d0: 4dc1 d53d f8c0 953e 90e2 71be 0e57 743e
000002e0: b2ff 0a3d 9b00 2a3e a645 603e bafe 853e
000002f0: c0b6 1e3e 03de 6c3d 29a6 be3c dec3 3e3e
00000300: 2962 d1bd 4007 a8bd 4b0a 483e 9e7f e13e
00000310: f3dc 94bd 5ecb 373e 23bf db3e 625d 363e
00000320: 7975 013f 01ad df3d fc4c 223e 3e1b 7e3e
00000330: 19ff 193e 442a 8a3d 0bda 543c 66e5 933e
00000340: acb9 463e 2f0f 713e eac9 b33e 381f d73b
00000350: ec98 cb3d 021d d7be 1bd7 d43c d4fb 5a3e
00000360: 3999 3f3e 1059 dc3b 4ff9 d23e 24e7 2a3e
00000370: 4e8d ac3e d332 a63e a588 8bbd 3ac1 643e
00000380: ab25 d6bd 5e18 373e 1fb8 ef3e 0a52 8d3e
00000390: 15e8 223e 85eb 483e 9930 30be 677b 483e
000003a0: 3743 6a3c d6fa 953e 7016 11be e07e e73e
000003b0: 28e1 363e 1a4a f1be 6d1c a93d 05c0 d23e
000003c0: c843 323e 9cbb e33c 91d3 2abd e864 6a3e
000003d0: 7dbe a63e a752 723e 7cef 003e f853 903e
000003e0: 80d3 a33e f016 ae3e e8af 853e d64c b23e
000003f0: 6791 8b3e 3757 933e 7b69 8e3e 0998 7c3d
0.12109317 -0.7253826 -0.08466562 -0.23779058 0.04380844 0.19017547 -0.016410226 -0.15458973
-0.032160982 0.056709517 0.18044436 0.13469546 0.1685763 0.010221169 0.007361311 -0.03549883
-0.18955044 0.028954795 0.05470742 -0.01659628 -0.040961195 0.007687347 -0.108776286 0.014273019
0.1116305 0.021446234 0.13594578 0.022956975 -0.040239554 0.035333175 -0.07427185 0.18368979
0.09252283 0.25787303 -0.060827274 0.18571436 0.24402975 0.08513443 -0.035365354 0.15946311
0.2594162 0.1737411 -0.109161235 0.004674552 0.03020302 -0.20459963 0.11871711 0.24044688
-0.040358055 -0.067396335 0.03497206 0.07947021 -0.1815864 -0.033541456 -0.099984296 0.041249264
-0.22410071 0.1360693 0.019411445 0.16051845 0.10710928 -0.07694774 0.2571726 0.050281458
0.058609784 0.1173458 -0.046771653 -0.20926207 -0.1898973 -0.1987108 -0.2021297 -0.07919694
0.037419826 -0.037616413 -0.11777976 -0.016653022 -0.089903824 0.101677366 0.020364484 -0.11097963
-0.036723085 0.11769507 -0.021238893 0.03942562 -0.10329882 -0.08095063 -0.0656689 -0.035294753
0.176649 0.11692653 -0.04402462 -0.09527554 -0.073226534 0.11608066 -0.006055452 0.036296763
0.24855964 -0.07721879 -0.01023322 -0.020608583 0.020938132 -0.09606589 0.11230796 0.020611467
0.07616758 0.11383706 0.040724706 -0.014369787 -0.06956055 -0.10817765 0.06259143 0.04718632
-0.04583695 0.08504064 -0.015502803 -0.12534863 -0.23658235 -0.2142946 -0.0902711 0.08005919
0.023837876 0.0039013696 -0.09104172 -0.011282568 -0.074795134 -0.06713037 -0.04353203 -0.04087993
0.041778624 0.19881137 -0.14730251 0.097534314 -0.060662113 -0.0027641573 0.0121181095 -0.20479819
-0.03339095 0.2452406 0.30132112 -0.014853886 0.17641212 0.15309945 -0.028655617 0.011196394
0.07796352 -0.026829133 0.029964792 0.037382886 0.17623346 0.024469407 -0.029643875 0.3299185
0.26164746 0.08069208 0.09450248 0.43056038 0.38630265 0.18305367 -0.032801922 0.21965393
0.13305187 0.2894884 0.16286235 0.22666958 0.1922243 0.105256416 -0.12966798 0.32220095
-0.20534156 -0.10112079 -0.103898585 0.20001832 0.31427896 0.15683375 -0.07759826 0.03378764
0.0933486 0.06979289 -0.13197483 0.1742403 0.1043726 0.29248786 -0.23621583 0.23861334
0.033935256 0.16601793 0.21901569 0.26170903 0.15499401 0.057828914 0.02327259 0.18629405
-0.10223801 -0.08204508 0.19535176 0.44042677 -0.07268705 0.17948672 0.42919263 0.1780906
0.50569874 0.1092167 0.1584968 0.2481508 0.15038718 0.06746343 0.012991439 0.28885955
0.19406766 0.23540948 0.35114986 0.006565001 0.09941277 -0.4201432 0.025981477 0.21385127
0.18710794 0.0067244843 0.41205832 0.16689736 0.33701557 0.3246065 -0.06813172 0.22339335
-0.10456403 0.17880389 0.4682016 0.27601653 0.15908845 0.19621094 -0.17206039 0.19578324
0.014298252 0.29292935 -0.14168715 0.45213985 0.17859328 -0.47126848 0.08257375 0.41162124
0.17408669 0.02779942 -0.04170567 0.22890055 0.32567206 0.23664342 0.12591356 0.28189063
0.319973 0.34001875 0.26110768 0.34824246 0.2725937 0.28777477 0.2781485 0.06166843

hidden_layer2.bias f4 [32]
00000000: 5c73 343d dfc2 67be b48e 203e 792a e0be
00000010: bf8e 14bc 81c4 4a3e 54b6 373e 6080 2c3e
00000020: b4cd 0ebe 4571 a2be 5f6a 18be c84e 02be
00000030: 7c48 a23e 50b7 26be cdf8 19be d2f9 e1bd
00000040: e10e b13e 8094 dabc e6c0 38be 763a 45be
00000050: 03a0 07bd c2e7 e73e f1d7 cebe c2f8 5cbd
00000060: 110e dbbd ce0a febc edbd 58bf 1d83 00be
00000070: 0d63 a43e 1034 f7bd 150e 14bf e129 25bf
0.044055328 -0.22632931 0.15679437 -0.43782404 -0.009067236 0.19801523 0.17940646 0.16845846
-0.13945657 -0.31727043 -0.14884327 -0.12725365 0.31695926 -0.16280866 -0.15036316 -0.110339776
0.34581664 -0.026682138 -0.18042335 -0.19260582 -0.033111583 0.45294005 -0.40399125 -0.05394817
-0.10696042 -0.031011011 -0.84664804 -0.12550016 0.3210682 -0.12070477 -0.5783399 -0.6451703
