Comparison/TrainedModel/20-0.001-99-Agent/node_agent_37.pth (torch, 42692 bytes, 6 tensors)

input_layer.weight f4 [32, 180]
0	0x3dc8986f	0.097946994
1	0x3dca891f	0.09889435
2	0x3d42e7ff	0.04758453
3	0xbd2db8c7	-0.042412546
4	0xbdc9b761	-0.0984943
5	0x3d8dda07	0.06926351
6	0x3d2ffe58	0.04296717
7	0xbcd92f1a	-0.026511718
8	0xbe87a6ec	-0.2649454
9	0xbd19d463	-0.037556063
10	0xbdb3678b	-0.08759984
11	0xbd0c0d45	-0.034192342
12	0x3c68ac4f	0.014201238
13	0x3e008f61	0.12554695
14	0xbe26e0bf	-0.16296671
15	0x3df83ccb	0.1212097
16	0xbd61eb7d	-0.05515622
17	0x3f0c66c8	0.5484433
18	0x3e6d91d2	0.23200157
19	0xbd31636d	-0.04330771
20	0x3e074023	0.1320806
21	0x3e27d5cb	0.1639015
22	0xbc66fb6a	-0.014098028
23	0x3cfe6872	0.031055663
24	0xbdd0e9fd	-0.1020088
25	0xbe3f77ef	-0.18698095
26	0x3e76ff43	0.24120812
27	0x3dcbb897	0.09947317
28	0xbe14ff21	-0.14550449
29	0xbe11018b	-0.14160745
30	0x3d7f5ab7	0.06234237
31	0xbdcf1497	-0.10111349
32	0x3c06cb22	0.008227142
33	0x3d887148	0.06662232
34	0x3e01fa19	0.12693061
35	0x3e054c07	0.13017283
36	0xbd5bdf6b	-0.053679865
37	0xbd7213d3	-0.059100937
38	0xbd775f53	-0.060393643
39	0x3efb1614	0.49040282
40	0xbdffe713	-0.12495246
41	0x3d3abcd6	0.045590244
42	0x3dcc10b4	0.09964123
43	0xbe2781f2	-0.16358164
44	0xbb81187a	-0.0039396854
45	0xbc42beff	-0.011886357
46	0x3e480cf2	0.19536188
47	0xbdeeb59d	-0.11655734
48	0x3dccf485	0.10007576
49	0x3b35a4ba	0.0027716593
50	0x3e183569	0.14864124
51	0xbd1b5eb5	-0.037932117
52	0xbd479a5e	-0.0487312
53	0x3c7a5f0f	0.015281453
54	0x3d242e7f	0.040083405
55	0x3cf02c55	0.029318014
56	0x3dc59063	0.0964668
57	0xbc8e8d37	-0.01740132
58	0x3d9ae654	0.07563463
59	0x3dfaf2ab	0.122533165
60	0xbd8e5531	-0.06949843
61	0x3f0e87b1	0.556758
62	0xbe948ec0	-0.2901516
63	0xbf39e196	-0.7260984
64	0x3e732d2a	0.23747697
65	0x3ce4d0a4	0.027931519
66	0xbdc368ae	-0.095414504
67	0xbea30b6d	-0.31844655
68	0x3f04d719	0.5189071
69	0x3f7f4a03	0.9972231
70	0x3c712f0b	0.014720689
71	0x3d391acf	0.045191582
72	0x3e85a284	0.26100552
73	0x3e9e1496	0.3087508
74	0xbe9945e0	-0.29936123
75	0x3eab0200	0.33399963
76	0xbd0caf12	-0.034346648
77	0x3f490fdd	0.7853983
78	0x3eb523cf	0.35378882
79	0x3ec7a8af	0.38995883
80	0xbd9b513c	-0.075838536
81	0x3f06a285	0.52591735
82	0x3f146a78	0.5797496
83	0xbe0437ca	-0.12911907
84	0x3cbe6ba3	0.023244685
85	0xbdcc9b56	-0.099905655
86	0x3daaff65	0.08349494
87	0x3e066a3e	0.13126466
88	0x3dfa8f8d	0.122344114
89	0xbe07c33b	-0.13258068
90	0xbc92a222	-0.017899577
91	0xbd749315	-0.05971058
92	0x3e069f8f	0.13146804
93	0x3dc45caa	0.09587987
94	0x3cd54faf	0.026038973
95	0x3e45496d	0.19266291
96	0xbdfecc32	-0.12441291
97	0xbe0f03ca	-0.13966289
98	0x3d8403b1	0.064460166
99	0x3de762f8	0.11298174
100	0x3b66ce02	0.0035218005
101	0x3d81879e	0.06324695
102	0xbb887440	-0.0041642487
103	0x3cf0fbcd	0.029416943
104	0x3cc148cf	0.023594288
105	0xbe3520a2	-0.1768823
106	0xbda5f8f6	-0.08104126
107	0x3bb4db49	0.005519305
108	0xbdfdf553	-0.124003075
109	0x3d1a5990	0.03768307
110	0xbd9e0ff0	-0.077178836
111	0x3d2bd73b	0.041953307
112	0x3d792f6d	0.060836244
113	0x3d2d3503	0.042286884
114	0x3dd08b58	0.10182828
115	0x3cf8778a	0.030330438
116	0x3d833cb1	0.0640806
117	0x3de0308d	0.1094676
118	0x3c781505	0.01514173
119	0xbe347855	-0.17624028
120	0xbc838b53	-0.016057646
121	0x3ba148fb	0.00492203
122	0x3e4f45a5	0.20241411
123	0xbcef448d	-0.029207492
124	0x3e3907f0	0.18069434
125	0xbe502b82	-0.20329097
126	0x3d763acb	0.060114663
127	0x3dbe88df	0.0930345
128	0x3c800469	0.015627103
129	0x3e019c88	0.12657368
130	0x3ca11233	0.019661998
131	0x3d5e2575	0.05423494
132	0x3de8315d	0.1133754
133	0x3d43c7d7	0.047798004
134	0xbde2ffaa	-0.1108392
135	0xbd9a40ac	-0.075318664
136	0xbd793c7d	-0.0608487
137	0xbd09e8a7	-0.03366914
138	0xbd80eb42	-0.06294872
139	0x3d3889d2	0.04505331
140	0x3d921a16	0.07133882
141	0x3dd5bf8a	0.10436924
142	0xbc9505b3	-0.018191194
143	0x3c8144f8	0.015779957
144	0x3dabce98	0.08389014
145	0xbe0c21c7	-0.1368476
146	0x3e33d2b7	0.1756085
147	0x3df08333	0.11743774
148	0x3dad7dfc	0.08471295
149	0xbdb83e7a	-0.089962915
150	0x3d5f8c3f	0.05457711
151	0xbd5b7b68	-0.053584486
152	0x3dcb7b63	0.099356435
153	0x3d61b70b	0.055106204
154	0x3d1f850f	0.038945254
155	0xbdf06d42	-0.11739589
156	0x3eaf2465	0.34207454
157	0xbc8bebb6	-0.01708017
158	0x3dc3fca2	0.0956967
159	0x3d962083	0.0733042
160	0xbd79723f	-0.06089997
161	0xbe4941b1	-0.19653966
162	0xbe63bce2	-0.22240022
163	0x3d918c41	0.071068294
164	0x3f1a7178	0.6032939
165	0x3d6e8195	0.058229048
166	0xbc70af23	-0.014690193
167	0xbd061033	-0.032730293
168	0x3e0077ab	0.1254565
169	0xbdb0295d	-0.086016394
170	0xbc0c88ae	-0.008577509
171	0xbe02a9ab	-0.12760036
172	0xbd781e17	-0.06057557
173	0x3d9e066a	0.07716067
174	0xbd6d9915	-0.05800732
175	0x3d8aabf2	0.06771077
176	0x3dadf937	0.084947996
177	0xbcc17f2f	-0.023620216
178	0x3bbf30eb	0.005834689
179	0x3da5da0a	0.08098228
180	0x3d549690	0.0519014
181	0x3d99f4b6	0.07517378
182	0x3e1b3f44	0.15160853
183	0x3d352d57	0.044232693
184	0x3e10921d	0.14118238
185	0x3b905c68	0.004405547
186	0xbdbc9e1a	-0.09209843
187	0x3e1dd239	0.15412225
188	0xbdadff77	-0.08495992
189	0x3bf8416d	0.0075761587
190	0xbe076125	-0.13220651
191	0x3d3d57af	0.0462262
192	0x3d59f84b	0.053215306
193	0x3c2bea7f	0.01049292
194	0xbd251075	-0.040298898
195	0xbe91ab34	-0.2845093
196	0x3ddbc948	0.10731751
197	0x3f3ee2b9	0.745647
198	0xbd0944ec	-0.033512995
199	0x3dbddb08	0.092702925
200	0xbde1a4b0	-0.1101774
201	0xbd7156c2	-0.05892063
202	0xbbb7cacb	-0.0056088916
203	0xbdfb90e3	-0.12283494
204	0x3dea5b0f	0.11443149
205	0xbd1d6f3f	-0.03843617
206	0x3c408694	0.011750836
207	0x3d852eb7	0.06503051
208	0x3d547eca	0.051878728
209	0xbdc477cf	-0.09593164
210	0xbd829d8f	-0.06377708
211	0xbdad8869	-0.08473284
212	0xbe75382d	-0.2394721
213	0xbdcf8d4a	-0.101343706
214	0xbd24a3ee	-0.040195398
215	0x3e1a58fb	0.15073006
216	0xbc42fe32	-0.011901425
217	0xbcf7a515	-0.030230084
218	0x3ba4f320	0.0050338656
219	0x3f32e0f7	0.6987452
220	0x3e33ff36	0.17577824
221	0xbd88f1c7	-0.0668674
222	0xbd74f02f	-0.05979937
223	0xbe15c517	-0.14625965
224	0xbdd54dc8	-0.10415226
225	0xbdc03c11	-0.09386457
226	0xba8aa025	-0.0010576291
227	0x3d931bba	0.07183023
228	0xbdabe0bc	-0.08392474
229	0xbde26b60	-0.110556364
230	0xbdfab37d	-0.12241266
231	0x3dc41e0a	0.09576042
232	0x3e007514	0.12544662
233	0xbdc6da1b	-0.09709569
234	0x3de42550	0.11139929
235	0xbe467096	-0.19378886
236	0x3e0666a8	0.13125098
237	0xbdc51d87	-0.096247725
238	0xbe17cceb	-0.14824264
239	0x3dc5b1bc	0.09653041
240	0xbc9cc4fe	-0.019136902
241	0xbd91b8a7	-0.07115298
242	0x3efd48a4	0.49469483
243	0x3f86bd8d	1.0526596
244	0x3dc399a9	0.09550793
245	0x3eaeefb1	0.34167245
246	0xbdfc4393	-0.12317576
247	0x3eb5fa80	0.3554268
248	0x3db6d3ab	0.08927091
249	0xbefcaf72	-0.49352604
250	0xbd59b2d8	-0.053149074
251	0xbe5a1a45	-0.21299084
252	0xbec8ca07	-0.39216635
253	0x3e9e3891	0.30902532
254	0x3f97cb04	1.185883
255	0xbd09bef4	-0.033629373

input_layer.bias f4 [32]
0	0x3ee121a1	0.4397097
1	0x3f418792	0.7559749
2	0x3eecfc66	0.46286315
3	0x3f780a72	0.9689094
4	0x3f116979	0.56801564
5	0x3ec10f7b	0.37707123
6	0x3ed9be91	0.42528203
7	0x3f979cc4	1.1844716
8	0x3e458d59	0.19292201
9	0xbcb99a00	-0.02265644
10	0x3ed95dc4	0.4245435
11	0x3d95a56d	0.07306943
12	0x3f380a9a	0.71891177
13	0x3c81f25e	0.01586264
14	0x3cd53784	0.026027448
15	0x3ebbdae7	0.36690447
16	0x3f111a2c	0.5668056
17	0x3edccaf2	0.43123585
18	0x3ef15217	0.47132942
19	0x3ee71c8f	0.45138976
20	0x3d4a4c20	0.049389005
21	0x3ec1d490	0.37857485
22	0x3ee4227b	0.44557557
23	0x3ee9e380	0.4568138
24	0x3ecace95	0.39610735
25	0xbd9a13d1	-0.07523311
26	0x3edec7c9	0.435118
27	0x3ef18e64	0.47178948
28	0x3e8388a7	0.25690195
29	0x3f48b763	0.78404826
30	0x3cf527be	0.029926177
31	0x3f046550	0.5171709

hidden_layer1.weight f4 [64, 32]
0	0xbdaf3d10	-0.085565686
1	0xbdc2ad0f	-0.095056646
2	0xbdfca6c9	-0.12336499
3	0x3c86fb76	0.016477328
4	0xbe2841d6	-0.16431364
5	0xbd84eee4	-0.06490877
6	0xbbb74a52	-0.0055935765
7	0x3de924f8	0.11384004
8	0xbd39fd2b	-0.045407455
9	0x3dca8377	0.09888356
10	0x3d973045	0.073822536
11	0xbd61d105	-0.055130977
12	0xbdd034da	-0.10166331
13	0x3deac475	0.114632525
14	0xbd2881fc	-0.041139588
15	0xbe6d1ab5	-0.23154719
16	0x3c97bcb7	0.018522603
17	0x3e3a7ffe	0.18212888
18	0x3cb527df	0.022113739
19	0xbc772c86	-0.015086299
20	0xbdac865f	-0.08424067
21	0xbb40bdf3	-0.0029410094
22	0xbe0ceddd	-0.13762613
23	0xbe09bf3c	-0.13451856
24	0xbd965d7e	-0.07342051
25	0xbe9a77c7	-0.30169508
26	0xbb0a39d7	-0.0021091604
27	0x3c8ee516	0.017443221
28	0x3d192e01	0.03739739
29	0xbb1f78b6	-0.0024333424
30	0x3d733917	0.059380617
31	0x3d4e25e2	0.050329097
32	0x3d399b4f	0.04531413
33	0x3e116add	0.14200921
34	0x3dce868f	0.10084259
35	0xbd591b2a	-0.05300442
36	0x3e265286	0.16242418
37	0xbdbe816b	-0.09302028
38	0xbdaf44b1	-0.08558024
39	0xbd9c96d2	-0.07645954
40	0x3e314c3b	0.17314236
41	0xbd0c42cb	-0.034243386
42	0x3d31aa2b	0.043375175
43	0x3d6540c7	0.05596998
44	0x3ccf9dc0	0.025343776
45	0x3cc3bde4	0.023894258
46	0xbd731ead	-0.059355427
47	0xbdee63c8	-0.116401255
48	0xbda96d81	-0.08272839
49	0xbe04b42b	-0.12959354
50	0xbdc74def	-0.097316615
51	0xbdd38a4d	-0.10329113
52	0x3c8fd65e	0.017558273
53	0xbdb55d6c	-0.088557094
54	0xbdbf946f	-0.09354483
55	0xbd9dda0f	-0.07707607
56	0xbd8cc1c9	-0.06872899
57	0xbc405057	-0.0117379045
58	0x3d45e40e	0.048313193
59	0xbde37dd2	-0.11107983
60	0x3e3d40be	0.18481728
61	0x3cefa95a	0.029255558
62	0x3d576193	0.05258329
63	0xbdbdc0d2	-0.09265293
64	0xbe0d6cda	-0.13811055
65	0xbc9fe7a8	-0.019519642
66	0xbe4c3bad	-0.1994464
67	0x3db11793	0.086470746
68	0xbceb690e	-0.028736617
69	0x3d57a675	0.05264898
70	0xbd53bdfa	-0.051694848
71	0xbe3ba22f	-0.18323587
72	0xbda162ea	-0.078801945
73	0xbcb26815	-0.021778146
74	0x3bf0508b	0.00733382
75	0xbc423382	-0.011853101
76	0x3e02b40a	0.12763992
77	0x3d9eb270	0.07748878
78	0x3dde2710	0.10847294
79	0xbd5625d9	-0.052282188
80	0x3dd3debe	0.10345219
81	0xbd7b4190	-0.061341822
82	0xbda686c8	-0.08131176
83	0xbe199d17	-0.15001331
84	0xbe0329ba	-0.12808886
85	0xbdeac413	-0.114631794
86	0xbddcac9b	-0.107751094
87	0x3db4302b	0.0879825
88	0xbc95fd74	-0.018309332
89	0xbd422745	-0.04740073
90	0x3bed86fc	0.0072487574
91	0xbd029d01	-0.03188801
92	0xbd090b8a	-0.03345827
93	0x3b0491fc	0.0020228615
94	0x3d157ceb	0.036496084
95	0xbd955829	-0.07292206
96	0xbe3c2e1b	-0.18376963
97	0xbdfff3fb	-0.124977075
98	0xbdf9068b	-0.12159451
99	0xbe21ad98	-0.15788877
100	0x3db49156	0.08816783
101	0x3d7e750b	0.06212334
102	0xbdfd1a33	-0.12358513
103	0x3bb8db4b	0.005641376
104	0xbdb7bf4e	-0.08972035
105	0xbd2ffde1	-0.042966727
106	0xbd987e60	-0.07445979
107	0xbcfaaa0f	-0.030598668
108	0x3aec0d55	0.0018009344
109	0x3e3baa0c	0.18326586
110	0x3d941de2	0.07232262
111	0x3e800700	0.2500534
112	0x3d1e71bb	0.03868268
113	0xbe096ccc	-0.13420409
114	0xbd998769	-0.074965306
115	0xbda30aef	-0.0796107
116	0xbd717240	-0.058946848
117	0xbdefa29a	-0.11700936
118	0x3d2c0fe7	0.042007353
119	0x3d83974f	0.06425344
120	0x3dca3463	0.09873273
121	0xbd355c5b	-0.04427753
122	0x3dc2184f	0.09477293
123	0xbd5c1ed2	-0.05374033
124	0xbc1f448b	-0.009720932
125	0x3d3d1acf	0.046168145
126	0xbc5e448f	-0.01356615
127	0xbe0eebc0	-0.13957119
128	0x3e86d919	0.26337507
129	0x3cf70e00	0.030158043
130	0x3c71dffa	0.014762873
131	0xbd0b22e6	-0.03396883
132	0xbd07c990	-0.03315121
133	0xbda945c3	-0.08265259
134	0x3d52c93a	0.051461436
135	0xbd9107e7	-0.070815854
136	0xbd09f8af	-0.03368443
137	0xbd939026	-0.072052285
138	0x3cbc9304	0.023019321
139	0xbc8594b3	-0.016306257
140	0xbe1d957d	-0.15389057
141	0xbde4224a	-0.111393526
142	0xbcc9d143	-0.024635917
143	0xbdec62a2	-0.1154225
144	0xbd172c74	-0.03690763
145	0xbce00913	-0.027348077
146	0x3d7fc0cf	0.062439736
147	0xbd7c6ecf	-0.061629113
148	0xbe3c7dcd	-0.18407364
149	0xbd649fc3	-0.055816423
150	0xbe1c07f2	-0.15237406
151	0xbd9a466a	-0.07532962
152	0xbd47c87f	-0.048775192
153	0xbc927702	-0.017879013
154	0x3e337656	0.1752561
155	0xbdcb3633	-0.09922447
156	0x3d9c5f63	0.07635381
157	0xbd1024ec	-0.03519146
158	0x3d2aef0d	0.041731883
159	0x3d301d4e	0.042996697
160	0x3ed53543	0.41642198
161	0xbf40baff	-0.75285333
162	0x3e9b9ac7	0.30391523
163	0xbfbc062e	-1.4689386
164	0xbf33d2af	-0.7024335
165	0x3f08ba64	0.5340941
166	0x3f1837d8	0.5946021
167	0xbfbecb5c	-1.490581
168	0x3ea16630	0.31523275
169	0xba127b7f	-0.00055878604
170	0x3ed000b7	0.40625545
171	0x3e58e151	0.21179701
172	0xbf3148f4	-0.6925194
173	0xbbb1388b	-0.005408352
174	0xbdad6f40	-0.08468485
175	0x3eca136c	0.39467943
176	0xbf1a28fc	-0.6021879
177	0x3ea76f6e	0.32702202
178	0x3ee48dc3	0.44639406
179	0x3f13b847	0.5770306
180	0xbd4d9e1a	-0.050199606
181	0x3f01d007	0.5070805
182	0x3ed4ed02	0.41587073
183	0x3ed7ff33	0.4218689
184	0x3eb16530	0.34647512
185	0x3d4e7c9c	0.050411806
186	0x3e9842e9	0.29738548
187	0x3eee0b92	0.46493202
188	0x3ec0a152	0.37623078
189	0xbf3ce926	-0.73793256
190	0x3ccff92d	0.025387371
191	0x3ef50a9d	0.4785966
192	0xbdea17fc	-0.11430356
193	0x3c617aab	0.0137621565
194	0x3cd63c1b	0.026151707
195	0xbcbeeb5d	-0.02330559
196	0xbe46b4ab	-0.19404857
197	0xbdaa61f5	-0.08319465
198	0x3b067b17	0.0020520145
199	0xbce6afca	-0.028159995
200	0x3da3f5b7	0.08005851
201	0x3da75382	0.08170225
202	0xbdf70298	-0.120610416
203	0xbde823cf	-0.11334955
204	0x3dca3689	0.09873683
205	0xbe56ecdb	-0.2098879
206	0xbda5c22b	-0.08093675
207	0xbe1729de	-0.14762065
208	0x3a8d5468	0.0010782601
209	0x3d504e17	0.050855722
210	0xbd36ed1f	-0.04465973
211	0x3cf04459	0.029329466
212	0xbe1dc2f1	-0.15406395
213	0x3e12def4	0.14342862
214	0xbdf12b60	-0.11775851
215	0xbd768112	-0.060181685
216	0xbcf71036	-0.030159097
217	0x3cecb6af	0.028895704
218	0xbda43e12	-0.080196515
219	0xbd0b3872	-0.033989377
220	0xbd38580a	-0.045005836
221	0x3d0d6bed	0.034526754
222	0x3daca776	0.08430378
223	0xbe39c2e1	-0.18140747
224	0xbdf05eb7	-0.117368154
225	0xbcf84f13	-0.030311143
226	0xbe02caa2	-0.12772611
227	0xbd0e0a24	-0.03467764
228	0xbb8cb57f	-0.004294097
229	0xbd1879e4	-0.03722562
230	0xbd1f3241	-0.038866285
231	0xbe43b3bf	-0.19111536
232	0x3bb38d6a	0.0054795044
233	0x3d9ce65c	0.07661125
234	0xbd815c10	-0.06316388
235	0x3dd31600	0.103069305
236	0x3e09b5a8	0.13448203
237	0x3d309d73	0.043118905
238	0xbd96fe21	-0.0737269
239	0xbcb5b48a	-0.022180814
240	0x3e0bafff	0.13641356
241	0xbe409611	-0.18807246
242	0xbcd05425	-0.025430748
243	0xbe0d8a23	-0.13822226
244	0xbcb0f023	-0.021598881
245	0x3d8df6ac	0.069318146
246	0x3d488bce	0.048961453
247	0x3d7a3d02	0.061093338
248	0xbe0b3e79	-0.1359805
249	0x3e34e2bf	0.17664622
250	0xbd7099bc	-0.058740363
251	0xbd12924c	-0.03578405
252	0x3e015abc	0.12632269
253	0xbd046ce9	-0.032330427
254	0xbd848413	-0.06470504
255	0xbd10e425	-0.035373826

hidden_layer1.bias f4 [64]
0	0x3e0c401e	0.13696334
1	0x3d2c592c	0.04207723
2	0xbbfdfdf4	-0.007751221
3	0x3d1f045c	0.038822517
4	0xbe34dff7	-0.17663561
5	0x3e30fd1e	0.17284057
6	0x3db74500	0.089487076
7	0x3d900e93	0.0703403
8	0x3eb8fe09	0.36131313
9	0x3e63ecd4	0.22258312
10	0x3e4e9354	0.20173389
11	0x3e55dbf7	0.20884691
12	0x3e24e674	0.16103536
13	0x3df2b63a	0.11851163
14	0xbd76f4f6	-0.060292207
15	0x3de7c44e	0.11316739
16	0xbe506cf4	-0.20354062
17	0x3e428c55	0.18998845
18	0x3e877fad	0.26464596
19	0xbe479ccb	-0.19493406
20	0x3db2a26c	0.08722386
21	0x3f0335b9	0.5125385
22	0x3ed4fb1f	0.4159784
23	0x3ea5979b	0.32342228
24	0x3dc9bd1e	0.09850524
25	0xbcde8548	-0.027163163
26	0x3ed76580	0.42069626
27	0x3d73aa3e	0.059488527
28	0x3e716edf	0.2357745
29	0x3eb4e94b	0.35334238
30	0x3eb5b034	0.35485995
31	0x3ec36a99	0.38167265
32	0x3d824a18	0.063617885
33	0x3da073cf	0.07834589
34	0x3e9948a8	0.29938245
35	0x3ce55cc9	0.027998345
36	0x3eed778f	0.46380278
37	0x3e104408	0.14088452
38	0xbe0b49ff	-0.13602446
39	0x3e7e23ec	0.2481839
40	0xbd8bd8a6	-0.06828432
41	0x3eabfb8d	0.33590356
42	0x3ea5f49a	0.3241318
43	0x3e1b0af7	0.15140902
44	0x3e8a9391	0.2706571
45	0x3e2b0461	0.16700889
46	0x3e01d530	0.12678981
47	0x3e0c77cc	0.13717574
48	0x3ed427ad	0.4143652
49	0x3ec71510	0.38883257
50	0xbd509ee8	-0.050932795
51	0x3ea2144c	0.3165611
52	0x3eff85c0	0.4990673
53	0x3cca4417	0.02469067
54	0x3de24790	0.11048806
55	0x3dc976ae	0.098370895
56	0x3e8fdc39	0.28097704
57	0xbd810904	-0.06300548
58	0x3dca7088	0.09884745
59	0xbe0339f6	-0.12815079
60	0x3e9a3d9a	0.30125123
61	0x3d95e137	0.07318347
62	0x3ebac1ef	0.36476085
63	0x3ec31f26	0.38109702

hidden_layer2.weight f4 [32, 64]
0	0x3e02d805	0.12777717
1	0xbe21abfa	-0.1578826
2	0x3dcceaa2	0.1000569
3	0xbe37ce1b	-0.17949717
4	0x3d33707b	0.04380844
5	0x3d45f79e	0.04833185
6	0xbbcd27aa	-0.006260832
7	0x3ca8220c	0.020524047
8	0xbe07e352	-0.1327031
9	0x3d667ec1	0.056273226
10	0x3c3fe6ee	0.011712773
11	0x3d0165e7	0.031591322
12	0x3dab155d	0.08353684
13	0x3da79692	0.08183016
14	0x3bf13727	0.007361311
15	0xbe20a653	-0.15688448
16	0xbe37b46f	-0.17939924
17	0x3ce76c7b	0.02824997
18	0xbd4c302d	-0.04985063
19	0xbd3e00a4	-0.04638733
20	0xbe1d22d7	-0.15345322
21	0xbd3834b7	-0.044972148
22	0xbda24fa2	-0.07925345
23	0x3db4ffe1	0.088378675
24	0xbccce773	-0.025012707
25	0x3cafb003	0.021446234
26	0xbd0548ca	-0.03254012
27	0xbd748977	-0.05970141
28	0xbca41e9b	-0.020034125
29	0xbdc567c2	-0.09638931
30	0xbd981bd7	-0.07427185
31	0x3dbfc746	0.0936418
32	0x3dbd7c9c	0.09252283
33	0x3e279cdf	0.16368435
34	0xbe4f4637	-0.20241629
35	0x3c6af864	0.0143414475
36	0x3e26ab2a	0.16276231
37	0xbdb361c6	-0.08758883
38	0xbd10db43	-0.035365354
39	0x3e1729dc	0.14762062
40	0x3e84d233	0.2594162
41	0x3d7610a6	0.06007447
42	0xbdd734b9	-0.10508103
43	0xbdf0f461	-0.117653616
44	0xbd6c4038	-0.05767843
45	0x3d5dd363	0.054156672
46	0x3e013f6f	0.12621854
47	0x3dd09692	0.10184969
48	0xbdf68dd6	-0.12038772
49	0xbd8a0717	-0.067396335
50	0x3d910e1a	0.07082768
51	0x3c151a13	0.009100455
52	0xbd9111b7	-0.07083457
53	0xbdde8a08	-0.10866171
54	0xbdc44a82	-0.09584524
55	0x3c63d338	0.013905339
56	0xbe537586	-0.206503
57	0x3da8f055	0.08248965
58	0xbd3f833d	-0.046756018
59	0x3d7d70a8	0.061875015
60	0x3d410105	0.047120113
61	0xbe396ce2	-0.18107942
62	0x3e1383fd	0.14405818
63	0x3cad70ea	0.021172006
64	0x3d8bb6a5	0.06821946
65	0x3ea4f2aa	0.32216388
66	0xbc79a807	-0.015237815
67	0xbe347104	-0.17621237
68	0xbe39d951	-0.18149306
69	0xbe48c1ca	-0.19605175
70	0xbe00263f	-0.1251459
71	0xbd33289e	-0.043739907
72	0x3d8439c4	0.064563304
73	0xbd2495ba	-0.040181853
74	0xbc77d97a	-0.015127534
75	0xbc81024e	-0.01574817
76	0xbdb2383d	-0.08702133
77	0x3e04937f	0.1294689
78	0x3ca6d36b	0.020364484
79	0xbdda7a0a	-0.10667808
80	0xbcd7d0dd	-0.026344711
81	0x3deb17d7	0.114791565
82	0xbca54de3	-0.02017874
83	0x3d37611b	0.04477034
84	0xbdd0d844	-0.101974994
85	0xbda6bfaf	-0.081420295
86	0xbd4cd42a	-0.050007023
87	0xbc8210ca	-0.015877146
88	0x3e444276	0.19165978
89	0x3def772d	0.11692653
90	0xbc550f52	-0.013004141
91	0xbdbe5375	-0.09293262
92	0xbd76733d	-0.060168494
93	0x3df475c1	0.11936522
94	0x3ba306ff	0.0049751992
95	0x3dd25c78	0.10271543
96	0x3e7e866b	0.24855964
97	0xbd9914ba	-0.074746564
98	0x3bec7b0c	0.007216817
99	0xbc195bf5	-0.009360303
100	0x3cc0fe81	0.023558857
101	0xbd91ad6b	-0.07113155
102	0x3de601b7	0.11230796
103	0x3c99f455	0.018793264
104	0x3d9bfdc0	0.07616758
105	0x3e039f23	0.12853675
106	0x3d2a0655	0.041509945
107	0xbbeca965	-0.007222342
108	0xbd87dba9	-0.06633694
109	0x3cd964e2	0.026537362
110	0x3d755530	0.059895694
111	0x3d4d6f39	0.0501549
112	0xbd24a09e	-0.04019224
113	0x3dbf1b6f	0.093314044
114	0xbc565bea	-0.013083437
115	0xbdfcbd82	-0.12340833
116	0xbe11a4fa	-0.1422309
117	0xbe49abc8	-0.19694436
118	0xbdd19dda	-0.10235186
119	0x3dbffa55	0.09373919
120	0x3e72ae38	0.23699272
121	0x3d7b530d	0.0613585
122	0xbda808df	-0.08204817
123	0xbb86e6e3	-0.0041168793
124	0xbc6e4fa9	-0.01454536
125	0xbd2ae41b	-0.041721445
126	0xbd232053	-0.03982575
127	0xbd06d14a	-0.032914437
128	0x3d1c650c	0.038182303
129	0xbe0d8b7c	-0.1382274
130	0xbbf63c8a	-0.007514541
131	0xbd01565f	-0.03157651
132	0xbd9eb651	-0.07749618
133	0x3dcc1e92	0.09966768
134	0xbd375d9a	-0.044767
135	0xbda8f30d	-0.08249483
136	0x3dcebd85	0.10094742
137	0x3ebd7423	0.37002668
138	0x3ec1c021	0.37841895
139	0x3deada37	0.114674024
140	0x3e9fb6a5	0.31194034
141	0x3df961f7	0.121768884
142	0xbceabf2f	-0.028655617
143	0xbda82e33	-0.08211937
144	0xbd91d6d7	-0.071210556
145	0x3e810768	0.25200963
146	0x3e02692a	0.1273543
147	0x3ca6030b	0.020265123
148	0x3e4badb6	0.19890484
149	0x3e9bdee2	0.30443484
150	0x3d94d29b	0.07266732
151	0x3eb70e8a	0.3575328
152	0x3e2919fd	0.1651382
153	0x3da541e4	0.08069208
154	0x3e2d1009	0.16900648
155	0x3f0bb21c	0.5456865
156	0x3eaf5f86	0.34252566
157	0x3e392b7b	0.18082993
158	0xbc44d512	-0.012013691
159	0x3dcb2114	0.099184185
160	0x3e083ec0	0.13305187
161	0x3ee03c09	0.43795803
162	0x3e6fbd32	0.23412016
163	0x3ebd27b0	0.36944342
164	0x3df6de98	0.12054175
165	0x3e3b0db6	0.18266949
166	0xbe04c7af	-0.12966798
167	0x3edb3f6c	0.42821825
168	0xbe64ed9f	-0.2235627
169	0xbd668ea5	-0.05628838
170	0x3dfee235	0.12445489
171	0x3e88dffa	0.2673338
172	0x3e93a2cc	0.28835142
173	0x3d81d8fb	0.06340214
174	0xbda59d26	-0.08086614
175	0x3e181bea	0.14854398
176	0xbf11a1e0	-0.56887627
177	0x3d989526	0.07450323
178	0xbe068545	-0.13136776
179	0x3e9f7297	0.31142113
180	0xbec662c5	-0.3874723
181	0x3e2ed61d	0.17073865
182	0x3cf50b3f	0.02991259
183	0x3eb5a03e	0.35473818
184	0x3e637f72	0.22216585
185	0x3d7dacaf	0.061932262
186	0xbee0a8ce	-0.43878788
187	0x3e25833d	0.16163345
188	0x3e82768e	0.25481075
189	0x3e68d81f	0.22738694
190	0x3d50648a	0.05087713
191	0x3e8db9b9	0.27680758
192	0xbe001274	-0.1250704
193	0x3d1f0c97	0.038830366
194	0xbd53baeb	-0.05169193
195	0x3def3f2d	0.11681972
196	0xbd83882e	-0.064224586
197	0x3ee9b5b5	0.45646444
198	0xbdd87fbd	-0.10571239
199	0xbd83b14c	-0.06430301
200	0x3f2330ac	0.6374614
201	0x3ed1e930	0.4099822
202	0x3f0e5355	0.55595905
203	0x3efd299f	0.49445817
204	0x3ef1eb57	0.47249863
205	0x3d8a2a44	0.06746343
206	0x3c54da0b	0.012991439
207	0x3c989c39	0.01862918
208	0xbdc78924	-0.097429544
209	0x3f3ea225	0.7446616
210	0x3f17ae40	0.5925026
211	0x3c9f11cb	0.019417664
212	0x3eb503bb	0.3535441
213	0xbf069148	-0.5256543
214	0xbe8e13cd	-0.27749482
215	0x3efea2b2	0.49733502
216	0xbde603c0	-0.11231184
217	0x3bdc5910	0.0067244843
218	0x3f1715b9	0.5901752
219	0x3ef9a1c9	0.48756245
220	0xbe94e910	-0.29084063
221	0x3f0ede53	0.5580799
222	0xbe83a7b9	-0.257139
223	0xbbdb7e74	-0.006698424
224	0xbdd625ab	-0.10456403
225	0x3ec9c250	0.3940606
226	0x3f26c4e4	0.6514418
227	0x3f132e52	0.57492554
228	0xbeb789cd	-0.3584732
229	0x3ed72d59	0.42026785
230	0xbe303099	-0.17206039
231	0x3ef816d7	0.48454925
232	0x3c6a4337	0.014298252
233	0x3ecbe2b0	0.39821386
234	0x3ec6be81	0.38817218
235	0x3f3d1ced	0.7387226
236	0x3ef09c05	0.46994033
237	0xbdc7c63c	-0.09754607
238	0x3db8d658	0.09025258
239	0x3f32d9c4	0.69863534
240	0xbe30f6ad	-0.172816
241	0xbe5e1785	-0.2168866
242	0xbd2ad391	-0.04170567
243	0x3eee4993	0.46540508
244	0xbe9f2ddd	-0.31089678
245	0xbd9f06fa	-0.077650025
246	0x3f22c743	0.635853
247	0x3f07783f	0.52917856
248	0x3f0df640	0.5545387
249	0xbb5473f7	-0.0032417753
250	0xbe3db51a	-0.18526116
251	0x3d393d87	0.045224693
252	0x3ef54aa5	0.47908512
253	0x3f091c30	0.53558636
254	0x3f10d484	0.56574273
255	0xbe632750	-0.22182965

hidden_layer2.bias f4 [32]
0	0x3dfaf0e3	0.12252977
1	0x3ca62358	0.020280525
2	0x3c87c9bb	0.016575685
3	0x3d99930d	0.07498751
4	0x3d2adfff	0.041717526
5	0x3d559de0	0.052152514
6	0x3e62328d	0.22089596
7	0xbd7bf207	-0.061510112
8	0xbd482e22	-0.04887212
9	0x3d8f7b9b	0.07005998
10	0x3eb94c9f	0.3619127
11	0x3d17c465	0.03705253
12	0x3ea69394	0.32534468
13	0x3d47b928	0.048760563
14	0xba1ea90a	-0.00060524105
15	0xbdecff72	-0.1157216
16	0x3c8ff7eb	0.017574271
17	0x3e37e797	0.17959438
18	0x3ddbdac2	0.10735084
19	0x3c25a3cb	0.010109852
20	0xbd8ab9c6	-0.06773715
21	0x3e3dae69	0.18523563
22	0x3df2b011	0.11849988
23	0xbcf3ad5b	-0.029745748
24	0x3e3776f4	0.17916471
25	0xbba31da5	-0.004977899
26	0xbe123732	-0.14278868
27	0xbd985ab6	-0.07439177
28	0xbd48fdf2	-0.049070306
29	0x3cb98964	0.02264852
30	0xbd535edf	-0.051604148
31	0xbd1f119d	-0.038835157
