Comparison/TrainedModel/20-0.001-99-Agent/node_agent_15.pth (torch, 42692 bytes, 6 tensors)

input_layer.weight f4 [32, 180]
0	0x3dc8986f	0.097946994
1	0x3dca891f	0.09889435
2	0x3d42e7ff	0.04758453
3	0xbd2db8c7	-0.042412546
4	0xbdc9b761	-0.0984943
5	0x3d8dda07	0.06926351
6	0x3d2ffe58	0.04296717
7	0xbcd92f1a	-0.026511718
8	0xbe87a6ec	-0.2649454
9	0xbd19d463	-0.037556063
10	0xbdb3678b	-0.08759984
11	0xbd0c0d45	-0.034192342
12	0x3c68ac4f	0.014201238
13	0x3e008f61	0.12554695
14	0xbe26e0bf	-0.16296671
15	0x3df83ccb	0.1212097
16	0xbd61eb7d	-0.05515622
17	0x3dc08f95	0.09402386
18	0x3e6d91d2	0.23200157
19	0xbd31636d	-0.04330771
20	0x3e074023	0.1320806
21	0x3e27d5cb	0.1639015
22	0xbc66fb6a	-0.014098028
23	0x3cfe6872	0.031055663
24	0xbdd0e9fd	-0.1020088
25	0xbe3f77ef	-0.18698095
26	0x3e76ff43	0.24120812
27	0x3dcbb897	0.09947317
28	0xbe14ff21	-0.14550449
29	0xbe11018b	-0.14160745
30	0x3d7f5ab7	0.06234237
31	0xbdcf1497	-0.10111349
32	0x3c06cb22	0.008227142
33	0x3d887148	0.06662232
34	0x3e01fa19	0.12693061
35	0x3e054c07	0.13017283
36	0xbd5bdf6b	-0.053679865
37	0xbd7213d3	-0.059100937
38	0xbd775f53	-0.060393643
39	0x3d136304	0.0359831
40	0xbdffe713	-0.12495246
41	0x3d3abcd6	0.045590244
42	0x3dcc10b4	0.09964123
43	0xbe2781f2	-0.16358164
44	0xbb81187a	-0.0039396854
45	0xbc42beff	-0.011886357
46	0x3e480cf2	0.19536188
47	0xbdeeb59d	-0.11655734
48	0x3dccf485	0.10007576
49	0x3b35a4ba	0.0027716593
50	0x3e183569	0.14864124
51	0xbd1b5eb5	-0.037932117
52	0xbd479a5e	-0.0487312
53	0x3c7a5f0f	0.015281453
54	0x3d242e7f	0.040083405
55	0x3cf02c55	0.029318014
56	0x3dc59063	0.0964668
57	0xbc8e8d37	-0.01740132
58	0x3d9ae654	0.07563463
59	0x3dfaf2ab	0.122533165
60	0xbd8e5531	-0.06949843
61	0x3e4aa574	0.19789678
62	0xbe1724c1	-0.14760114
63	0xbe1dbb96	-0.1540359
64	0xbd99e977	-0.07515233
65	0xbe43380f	-0.19064353
66	0xbdc368ae	-0.095414504
67	0xbd1d444a	-0.038395204
68	0x3e3f5f6b	0.18688743
69	0xbd469570	-0.04848236
70	0x3d8954ce	0.06705628
71	0xbda8f3a7	-0.08249598
72	0xbde1fbd0	-0.110343575
73	0xbe097921	-0.13425113
74	0x3e0c2ee7	0.13689767
75	0x3ca31072	0.019905303
76	0x3e5c4112	0.21509197
77	0x3d586845	0.052833814
78	0xbecb2d1c	-0.39682853
79	0x3e24d695	0.16097482
80	0xbd9b513c	-0.075838536
81	0x3ea26567	0.3171799
82	0x3e005643	0.12532906
83	0xbe0437ca	-0.12911907
84	0x3cbe6ba3	0.023244685
85	0x3e532a65	0.20621641
86	0x3daaff65	0.08349494
87	0x3e066a3e	0.13126466
88	0x3dfa8f8d	0.122344114
89	0xbe07c33b	-0.13258068
90	0xbc92a222	-0.017899577
91	0xbd749315	-0.05971058
92	0x3e069f8f	0.13146804
93	0x3dc45caa	0.09587987
94	0x3cd54faf	0.026038973
95	0x3e45496d	0.19266291
96	0xbdfecc32	-0.12441291
97	0xbe0f03ca	-0.13966289
98	0x3d8403b1	0.064460166
99	0x3de762f8	0.11298174
100	0x3b66ce02	0.0035218005
101	0x3d81879e	0.06324695
102	0xbb887440	-0.0041642487
103	0x3cf0fbcd	0.029416943
104	0x3cc148cf	0.023594288
105	0xbe3520a2	-0.1768823
106	0xbda5f8f6	-0.08104126
107	0x3bb4db49	0.005519305
108	0xbdfdf553	-0.124003075
109	0x3d1a5990	0.03768307
110	0xbd9e0ff0	-0.077178836
111	0x3d2bd73b	0.041953307
112	0x3d792f6d	0.060836244
113	0x3d2d3503	0.042286884
114	0x3dd08b58	0.10182828
115	0x3cf8778a	0.030330438
116	0x3d833cb1	0.0640806
117	0x3de0308d	0.1094676
118	0x3c781505	0.01514173
119	0xbe347855	-0.17624028
120	0xbc838b53	-0.016057646
121	0x3ba148fb	0.00492203
122	0x3e4f45a5	0.20241411
123	0xbcef448d	-0.029207492
124	0x3e3907f0	0.18069434
125	0xbe502b82	-0.20329097
126	0x3d763acb	0.060114663
127	0x3dbe88df	0.0930345
128	0x3c800469	0.015627103
129	0x3e019c88	0.12657368
130	0x3ca11233	0.019661998
131	0x3d5e2575	0.05423494
132	0x3de8315d	0.1133754
133	0x3d43c7d7	0.047798004
134	0xbde2ffaa	-0.1108392
135	0xbd9a40ac	-0.075318664
136	0xbd793c7d	-0.0608487
137	0xbd09e8a7	-0.03366914
138	0xbd80eb42	-0.06294872
139	0x3d3889d2	0.04505331
140	0x3ec142b5	0.37746206
141	0x3dd5bf8a	0.10436924
142	0xbc9505b3	-0.018191194
143	0x3c8144f8	0.015779957
144	0x3dabce98	0.08389014
145	0xbe0c21c7	-0.1368476
146	0x3e33d2b7	0.1756085
147	0x3df08333	0.11743774
148	0x3dad7dfc	0.08471295
149	0xbdb83e7a	-0.089962915
150	0x3d5f8c3f	0.05457711
151	0xbd5b7b68	-0.053584486
152	0x3dcb7b63	0.099356435
153	0x3d61b70b	0.055106204
154	0x3d1f850f	0.038945254
155	0xbdf06d42	-0.11739589
156	0xbde61538	-0.11234516
157	0xbc8bebb6	-0.01708017
158	0x3dc3fca2	0.0956967
159	0x3d962083	0.0733042
160	0xbd79723f	-0.06089997
161	0xbe4941b1	-0.19653966
162	0xbe63bce2	-0.22240022
163	0x3d918c41	0.071068294
164	0x3e187222	0.14887288
165	0x3d6e8195	0.058229048
166	0xbc70af23	-0.014690193
167	0xbd061033	-0.032730293
168	0x3e0077ab	0.1254565
169	0xbdb0295d	-0.086016394
170	0xbc0c88ae	-0.008577509
171	0xbe02a9ab	-0.12760036
172	0xbd781e17	-0.06057557
173	0x3ec43dcd	0.383284
174	0xbd6d9915	-0.05800732
175	0x3d8aabf2	0.06771077
176	0x3dadf937	0.084947996
177	0xbcc17f2f	-0.023620216
178	0x3bbf30eb	0.005834689
179	0x3da5da0a	0.08098228
180	0x3d549690	0.0519014
181	0x3d99f4b6	0.07517378
182	0x3e1b3f44	0.15160853
183	0x3d352d57	0.044232693
184	0x3e10921d	0.14118238
185	0x3b905c68	0.004405547
186	0xbdbc9e1a	-0.09209843
187	0x3e1dd239	0.15412225
188	0xbdadff77	-0.08495992
189	0x3bf8416d	0.0075761587
190	0xbe076125	-0.13220651
191	0x3d3d57af	0.0462262
192	0x3d59f84b	0.053215306
193	0x3c2bea7f	0.01049292
194	0xbd251075	-0.040298898
195	0xbe91ab34	-0.2845093
196	0x3ddbc948	0.10731751
197	0x3c622fb7	0.013805321
198	0xbd0944ec	-0.033512995
199	0x3dbddb08	0.092702925
200	0xbde1a4b0	-0.1101774
201	0xbd7156c2	-0.05892063
202	0xbbb7cacb	-0.0056088916
203	0xbdfb90e3	-0.12283494
204	0x3dea5b0f	0.11443149
205	0xbd1d6f3f	-0.03843617
206	0x3c408694	0.011750836
207	0x3d852eb7	0.06503051
208	0x3d547eca	0.051878728
209	0xbdc477cf	-0.09593164
210	0xbd829d8f	-0.06377708
211	0xbdad8869	-0.08473284
212	0xbe75382d	-0.2394721
213	0xbdcf8d4a	-0.101343706
214	0xbd24a3ee	-0.040195398
215	0x3e1a58fb	0.15073006
216	0xbc42fe32	-0.011901425
217	0xbcf7a515	-0.030230084
218	0x3ba4f320	0.0050338656
219	0xbd07901b	-0.033096414
220	0x3e33ff36	0.17577824
221	0xbd88f1c7	-0.0668674
222	0xbd74f02f	-0.05979937
223	0xbe15c517	-0.14625965
224	0xbdd54dc8	-0.10415226
225	0xbdc03c11	-0.09386457
226	0xba8aa025	-0.0010576291
227	0x3d931bba	0.07183023
228	0xbdabe0bc	-0.08392474
229	0xbde26b60	-0.110556364
230	0xbdfab37d	-0.12241266
231	0x3dc41e0a	0.09576042
232	0x3e007514	0.12544662
233	0xbdc6da1b	-0.09709569
234	0x3de42550	0.11139929
235	0xbe467096	-0.19378886
236	0x3e0666a8	0.13125098
237	0xbdc51d87	-0.096247725
238	0xbe17cceb	-0.14824264
239	0x3dc5b1bc	0.09653041
240	0xbc9cc4fe	-0.019136902
241	0xbd91b8a7	-0.07115298
242	0xbb3ed79b	-0.002912021
243	0x3d720b22	0.05909265
244	0x3dbdf4b5	0.0927519
245	0x3e0f39ef	0.13986944
246	0xbdfc4393	-0.12317576
247	0x3c04f62e	0.008115334
248	0xbd16dee0	-0.036833644
249	0x3e3752ad	0.17902632
250	0xbc33a269	-0.010964015
251	0xbd875ccd	-0.06609497
252	0xbe188778	-0.14895427
253	0x3b7941ab	0.0038033526
254	0x3e5ef597	0.21773373
255	0xbd2f028f	-0.04272705

input_layer.bias f4 [32]
0	0x3e953414	0.29141295
1	0xbbf35138	-0.0074254535
2	0x3e9bd3a5	0.3043491
3	0x37e634f3	2.7442793e-05
4	0x3c916261	0.017747106
5	0xbd4a4bd2	-0.049388714
6	0x3e96673e	0.29375643
7	0x3f60fa0a	0.8788153
8	0xbb5eef02	-0.0034016971
9	0xbd4089bd	-0.047006357
10	0x3e93e23c	0.2888354
11	0x3bd97c60	0.006637141
12	0xbbbd0020	-0.005767837
13	0x3ea4f677	0.32219288
14	0x3cd53784	0.026027448
15	0x3e6d6aab	0.23185222
16	0x3c13f632	0.0090308655
17	0xbd329898	-0.043602556
18	0x3ea88a76	0.32918137
19	0x3ea02559	0.31278494
20	0x3d0565c7	0.032567766
21	0x3e77cc88	0.24199116
22	0x3ea0bde1	0.31394866
23	0x3e9fcd49	0.31211308
24	0x3e813adc	0.2524022
25	0xbc04fbe8	-0.0081167
26	0x3f8279be	1.0193403
27	0x3ea9dafd	0.33174887
28	0x3ea16d55	0.31528726
29	0x3d75f67a	0.06004951
30	0x3d834acf	0.06410753
31	0x3ec1ca5e	0.37849706

hidden_layer1.weight f4 [64, 32]
0	0xbdb1d425	-0.086830415
1	0xbdcd2ced	-0.100183345
2	0xbe0104db	-0.12599508
3	0x3d441018	0.04786691
4	0xbe2b39e3	-0.16721301
5	0xbd6dbe35	-0.058042724
6	0xbc64b492	-0.013959067
7	0x3ddc73e1	0.1076429
8	0xbc32c1db	-0.010910477
9	0x3dca8377	0.09888356
10	0x3d8b110a	0.06790359
11	0xbd61d105	-0.055130977
12	0xbdd034da	-0.10166331
13	0x3dcc9294	0.09988895
14	0xbd2881fc	-0.041139588
15	0xbe744dfc	-0.23857874
16	0x3c97bcb7	0.018522603
17	0x3e424462	0.18971398
18	0x3c814711	0.015780957
19	0xbca596c6	-0.020213496
20	0xbdac865f	-0.08424067
21	0xbc277064	-0.010219667
22	0xbe1509d4	-0.1455453
23	0xbe105f10	-0.14098763
24	0xbda30299	-0.0795948
25	0xbe9a77c7	-0.30169508
26	0xbbc79d46	-0.0060917465
27	0x3c4bd693	0.012441295
28	0x3cad9530	0.021189302
29	0xba2ab821	-0.00065124227
30	0x3d733917	0.059380617
31	0x3d3864e2	0.045018084
32	0x3d399b4f	0.04531413
33	0x3e116add	0.14200921
34	0x3dce868f	0.10084259
35	0xbd591b2a	-0.05300442
36	0x3e265286	0.16242418
37	0xbdbe816b	-0.09302028
38	0xbdaf44b1	-0.08558024
39	0xbd9c96d2	-0.07645954
40	0x3e314c3b	0.17314236
41	0xbd0c42cb	-0.034243386
42	0x3d31aa2b	0.043375175
43	0x3d6540c7	0.05596998
44	0x3ccf9dc0	0.025343776
45	0x3cc3bde4	0.023894258
46	0xbd731ead	-0.059355427
47	0xbdee63c8	-0.116401255
48	0xbda96d81	-0.08272839
49	0xbe04b42b	-0.12959354
50	0xbdc74def	-0.097316615
51	0xbdd38a4d	-0.10329113
52	0x3c8fd65e	0.017558273
53	0xbdb55d6c	-0.088557094
54	0xbdbf946f	-0.09354483
55	0xbd9dda0f	-0.07707607
56	0xbd8cc1c9	-0.06872899
57	0xbc405057	-0.0117379045
58	0x3d45e40e	0.048313193
59	0xbde37dd2	-0.11107983
60	0x3e3d40be	0.18481728
61	0x3cefa95a	0.029255558
62	0x3d576193	0.05258329
63	0xbdbdc0d2	-0.09265293
64	0xbde17667	-0.110089116
65	0x3c0b4b53	0.008501845
66	0xbe2f8a07	-0.17142497
67	0x3db11793	0.086470746
68	0xba3b77d1	-0.0007151338
69	0x3da5368a	0.08067043
70	0xbcc1eeaf	-0.023673384
71	0xbe3ba22f	-0.18323587
72	0xbd4fff3d	-0.050780524
73	0xbcb26815	-0.021778146
74	0x3d10d0b7	0.035355296
75	0xbc423382	-0.011853101
76	0x3e1f65b2	0.15566137
77	0x3d9eb270	0.07748878
78	0x3dde2710	0.10847294
79	0xbcc6be6f	-0.024260728
80	0x3e06a107	0.13147365
81	0xbd087aee	-0.03332036
82	0xbd5a46ef	-0.053290304
83	0xbdf9d6df	-0.121991865
84	0xbe0329ba	-0.12808886
85	0xbdb160c3	-0.08661034
86	0xbda3494a	-0.07972963
87	0x3ded937b	0.11600395
88	0x3c1f1faa	0.009712139
89	0xbd422745	-0.04740073
90	0x3d107785	0.035270233
91	0xbb7d65d5	-0.0038665433
92	0xbbb22821	-0.0054369126
93	0x3cf61f95	0.030044356
94	0x3d157ceb	0.036496084
95	0xbd37e9b3	-0.044900607
96	0xbe46456f	-0.19362424
97	0xbdfff3fb	-0.124977075
98	0xbe04bb53	-0.12962084
99	0xbdc752dc	-0.09732601
100	0x3e1c7ec5	0.15282734
101	0x3d7e750b	0.06212334
102	0xbe0894ec	-0.13338059
103	0xbb324bd7	-0.0027205849
104	0xbdfb209a	-0.12262078
105	0x3c57fc9a	0.0131827835
106	0xbda765d1	-0.08173717
107	0xbcfaaa0f	-0.030598668
108	0x3aec0d55	0.0018009344
109	0x3e31e7b2	0.17373541
110	0x3d941de2	0.07232262
111	0x3e758b3f	0.239789
112	0x3d1e71bb	0.03868268
113	0xbe096ccc	-0.13420409
114	0xbdaeea3e	-0.08540772
115	0xbdb76de0	-0.08956504
116	0xbd717240	-0.058946848
117	0xbe021c04	-0.12706
118	0x3d0376df	0.032095786
119	0x3d559543	0.0521443
120	0x3db4d529	0.088297196
121	0xbd355c5b	-0.04427753
122	0x3db37d1e	0.087640986
123	0xbd8285c0	-0.06373167
124	0xbcb79375	-0.02240918
125	0x3d3d1acf	0.046168145
126	0xbc5e448f	-0.01356615
127	0xbe17cdd5	-0.14824612
128	0x3f29b444	0.6629069
129	0x3d774215	0.060365755
130	0x3ed35332	0.4127441
131	0x3b821f19	0.0039709923
132	0x3cf97cf7	0.030455096
133	0xbda945c3	-0.08265259
134	0x3ee61e44	0.44944966
135	0x3ea3dbc5	0.32003608
136	0xbd0d86ce	-0.034552388
137	0xbc80ed7f	-0.015738247
138	0x3ed6f682	0.41984946
139	0xbc8594b3	-0.016306257
140	0xbe1d957d	-0.15389057
141	0x3e9336cf	0.28752753
142	0xbcc9d143	-0.024635917
143	0x3e8f3c00	0.27975464
144	0xbd172c74	-0.03690763
145	0xbce00913	-0.027348077
146	0x3eea69be	0.457838
147	0x3eaab0f3	0.33338127
148	0xbe3c7dcd	-0.18407364
149	0x3eac3514	0.33634245
150	0x3e734f1d	0.23760648
151	0x3ea575e1	0.32316497
152	0x3eb25118	0.34827495
153	0xbc927702	-0.017879013
154	0x3f0deab9	0.55436283
155	0x3e96d11d	0.29456416
156	0x3ef46b4a	0.47738105
157	0xbd1024ec	-0.03519146
158	0x3d2aef0d	0.041731883
159	0x3edfc793	0.4370695
160	0x3e948932	0.29010922
161	0x3def99c3	0.116992496
162	0x3e214c3c	0.15751737
163	0xbe0a7cb4	-0.13524133
164	0x3c8b3f41	0.016997935
165	0x3d90b2cd	0.070653535
166	0x3eda2294	0.42604506
167	0xbf3a0c65	-0.7267516
168	0x3d1c925a	0.03822551
169	0x3c11acfb	0.008891339
170	0x3e899f88	0.26879525
171	0x3cd29147	0.02570404
172	0x3e2bec73	0.16789417
173	0x3eabe7f5	0.33575407
174	0xbdad6f40	-0.08468485
175	0x3e7d347c	0.24727052
176	0x3e38eb08	0.18058407
177	0xbdcfce60	-0.10146785
178	0x3e997e78	0.299793
179	0x3ee0afed	0.4388422
180	0xbd37d211	-0.04487807
181	0x3eb20913	0.34772548
182	0x3e8c6596	0.27421254
183	0x3e976106	0.2956621
184	0x3e4e2524	0.20131356
185	0x3d060603	0.032720577
186	0xbfa434ed	-1.2828652
187	0x3ea531d0	0.32264566
188	0x3eaa174b	0.33220896
189	0x3dc90c3b	0.09816786
190	0xbc10704c	-0.008815836
191	0x3ead5fdf	0.33862206
192	0xbdb1df5f	-0.08685183
193	0x3d28cfe4	0.041213885
194	0x3d5b8f4a	0.053603448
195	0xbcbeeb5d	-0.02330559
196	0xbe46b4ab	-0.19404857
197	0xbd6452b2	-0.055742927
198	0x3cf1b1df	0.02950376
199	0xba39a9ad	-0.00070824736
200	0x3ddc2e53	0.10751023
201	0x3da75382	0.08170225
202	0xbdbec9fb	-0.093158685
203	0xbde823cf	-0.11334955
204	0x3e013793	0.12618856
205	0xbe56ecdb	-0.2098879
206	0xbda5c22b	-0.08093675
207	0xbdf61b23	-0.12016895
208	0x3ce9b7ba	0.02852999
209	0x3da05fab	0.07830747
210	0xbc8cf7c2	-0.017207984
211	0x3d68936b	0.056781214
212	0xbe1dc2f1	-0.15406395
213	0x3e2efb42	0.17088035
214	0xbdb8f2c3	-0.09030678
215	0xbd060fd5	-0.032729942
216	0xbb316dc0	-0.0027073473
217	0x3cecb6af	0.028895704
218	0xbd580aed	-0.052744795
219	0xbbd6399d	-0.0065376298
220	0xbc8fcd9f	-0.017554102
221	0x3d7ddd2b	0.0619785
222	0x3daca776	0.08430378
223	0xbe1da693	-0.15395574
224	0xbde3bfcb	-0.11120566
225	0xbcf84f13	-0.030311143
226	0xbe01d56b	-0.12679069
227	0xbd0e0a24	-0.03467764
228	0xbc00c9ab	-0.007860581
229	0xbcffc2c2	-0.031220797
230	0xbd23f20e	-0.040025763
231	0xbe43b3bf	-0.19111536
232	0x3b390de7	0.0028237046
233	0x3d9ce65c	0.07661125
234	0xbd84da8a	-0.064869955
235	0x3dd31600	0.103069305
236	0x3e09b5a8	0.13448203
237	0x3cfb76d2	0.030696306
238	0xbd96fe21	-0.0737269
239	0xbcc3c4b4	-0.023897506
240	0x3e0bafff	0.13641356
241	0xbe2fc4ed	-0.17164965
242	0xbcde103c	-0.02710735
243	0xbe0f5087	-0.13995562
244	0xbc836656	-0.016040009
245	0x3d8a9308	0.06766325
246	0x3d41b0e1	0.047287825
247	0x3d73eae9	0.0595502
248	0xbe0d2d63	-0.13786845
249	0x3e34e2bf	0.17664622
250	0xbd76aa99	-0.06022129
251	0xbd1989ef	-0.03748506
252	0x3df23514	0.1182653
253	0xbcdd0c57	-0.026983423
254	0xbd848413	-0.06470504
255	0xbd17ad91	-0.03703076

hidden_layer1.bias f4 [64]
0	0x3e08abdb	0.13346808
1	0x3d2c592c	0.04207723
2	0x3ca60da0	0.020270169
3	0x3cfc616c	0.030808173
4	0x3e56dc42	0.20982459
5	0x3db9e9cf	0.090777986
6	0x3def7d9a	0.116938785
7	0x3d8ca65c	0.06867668
8	0x3df5ec8c	0.12008008
9	0x3ddf97f7	0.10917657
10	0x3de526ba	0.11189027
11	0x3dd462f9	0.1037044
12	0x3d61fcbb	0.055172663
13	0x3df2b63a	0.11851163
14	0x3d32dee0	0.04366958
15	0x3df2c1c2	0.118533626
16	0xbe3044dd	-0.1721377
17	0xbcb0fb45	-0.02160419
18	0x3e15f967	0.1464592
19	0xbe2c5085	-0.16827591
20	0xbd57a968	-0.052651793
21	0x3dbfb4a3	0.093606256
22	0xbe0f6c95	-0.14006265
23	0x3e7e8dc3	0.24858765
24	0x3dc9bd1e	0.09850524
25	0xbcde8548	-0.027163163
26	0x3e70a22f	0.23499368
27	0xbd58dccf	-0.052944954
28	0xbe39d358	-0.18147027
29	0x3e3046af	0.17214464
30	0xbe105b47	-0.1409732
31	0x3dfce2b6	0.12347929
32	0x3d824a18	0.063617885
33	0x3c5feb2a	0.013666907
34	0x3e0dbf09	0.13842405
35	0x3d2c10ab	0.042008083
36	0xbd9a7785	-0.07542328
37	0x3cbef717	0.023311181
38	0xbe145638	-0.14486015
39	0x3e1b6b8a	0.15177742
40	0xbd8bd8a6	-0.06828432
41	0x3e3a8677	0.18215357
42	0x3e7a49be	0.24442193
43	0x3d3bef73	0.045882653
44	0x3d8dcf2a	0.06924279
45	0x3e2be431	0.16786267
46	0x3e06c6c5	0.13161762
47	0x3d39ca1a	0.045358755
48	0xbd6a695c	-0.057229385
49	0xbd6ca79c	-0.057777032
50	0xbd509ee8	-0.050932795
51	0x3e4e0c97	0.2012199
52	0x3e0e2959	0.1388296
53	0xbb881c9b	-0.0041538007
54	0x3c934eee	0.017981973
55	0xbb626ff6	-0.0034551597
56	0x3e1d4792	0.15359333
57	0x3e8913d5	0.26772943
58	0xbe2aaea5	-0.16668184
59	0xbe0339f6	-0.12815079
60	0x3dc3516b	0.095370136
61	0xbbac0ce2	-0.005250559
62	0x3e3457b9	0.17611589
63	0xbe0093ad	-0.12556334

hidden_layer2.weight f4 [32, 64]
0	0x3db7926a	0.08963473
1	0xbe21abfa	-0.1578826
2	0x3dcceaa2	0.1000569
3	0xbe37ce1b	-0.17949717
4	0x3cc80103	0.024414545
5	0x3e222e6e	0.15838024
6	0xbbcd27aa	-0.006260832
7	0x3ca821f4	0.020524003
8	0xbe2a4b64	-0.16630322
9	0x3e123eca	0.14281765
10	0x3df5d92d	0.120043136
11	0x3e348588	0.17629063
12	0x3de42bdb	0.11141177
13	0x3da79692	0.08183016
14	0x3dc065d4	0.09394422
15	0xbe2a00b9	-0.16601838
16	0xbe37b46f	-0.17939924
17	0x3ced329b	0.028954795
18	0xbd67c968	-0.05658856
19	0xbd3e00a4	-0.04638733
20	0xbe1414db	-0.1446108
21	0xbd4ab360	-0.04948747
22	0xbda24fa2	-0.07925345
23	0x3da3130d	0.07962618
24	0xbccce773	-0.025012707
25	0x3cafb003	0.021446234
26	0x3cad8b04	0.021184452
27	0x3d4af295	0.04954775
28	0xbca41e9b	-0.020034125
29	0xbdd71af6	-0.10503189
30	0xbd981bd7	-0.07427185
31	0x3dbfc746	0.0936418
32	0x3dbd7c9c	0.09252283
33	0x3e1e6857	0.1546949
34	0xbdde0ae8	-0.10841924
35	0xbac81842	-0.0015266018
36	0x3e252b35	0.16129763
37	0xbd8963e4	-0.06708506
38	0xbd10db43	-0.035365354
39	0x3e0d66ef	0.13808797
40	0x3e84d233	0.2594162
41	0x3d2d6bcc	0.04233913
42	0xbdebdc88	-0.115166724
43	0xbcb8b8f8	-0.022549137
44	0x3cc47b5d	0.023984605
45	0x3cfc549b	0.030802062
46	0x3de6d55b	0.11271163
47	0x3e5479af	0.20749544
48	0xbdf8aa3d	-0.121418454
49	0xbd8a0717	-0.067396335
50	0x3d910e1a	0.07082768
51	0xbb2c63be	-0.0026304568
52	0xbda83fd1	-0.08215297
53	0xbdde8a08	-0.10866171
54	0xbd601f18	-0.054717153
55	0x3c4ef65b	0.012631978
56	0xbe39a25f	-0.18128346
57	0xbd3de63b	-0.046362143
58	0xbd26ea15	-0.04075058
59	0x3d7d70a8	0.061875015
60	0x3d1ab7a4	0.03777279
61	0xbe163235	-0.1466759
62	0x3e2daa07	0.16959392
63	0x3cad70ea	0.021172006
64	0x3da953dd	0.08267949
65	0x3ea4f2aa	0.32216388
66	0xbc79a807	-0.015237815
67	0xbe347104	-0.17621237
68	0xbe39d951	-0.18149306
69	0xbe3c075b	-0.18362181
70	0xbe00263f	-0.1251459
71	0xbd19ff68	-0.03759709
72	0x3d9cb2f9	0.07651324
73	0xbce5b413	-0.028039968
74	0xbb437fdc	-0.0029830849
75	0xbbdbdc9b	-0.006709648
76	0xbd9982a3	-0.0749562
77	0x3e04937f	0.1294689
78	0x3ca6d36b	0.020364484
79	0xbdd285b3	-0.10279407
80	0xbcd7d0dd	-0.026344711
81	0x3e000a0f	0.12503837
82	0xbcc2eded	-0.023795092
83	0x3d37611b	0.04477034
84	0xbdb768b7	-0.0895552
85	0xbd8b9ea1	-0.068173654
86	0xbd4cd42a	-0.050007023
87	0xbb97d2f1	-0.0046333005
88	0x3e444276	0.19165978
89	0x3def772d	0.11692653
90	0xba6ed47a	-0.0009110641
91	0xbda21d02	-0.07915689
92	0xbd76733d	-0.060168494
93	0x3e07c85c	0.13260025
94	0x3ba306ff	0.0049751992
95	0x3dd25c78	0.10271543
96	0x3e7e866b	0.24855964
97	0xbd7fe2a0	-0.062471986
98	0x3c9877ef	0.018611876
99	0x3b7796c4	0.0037779072
100	0x3d03e4d6	0.032200657
101	0xbd70be12	-0.058775015
102	0x3dd9b52e	0.106302604
103	0x3ce5f1ba	0.028069366
104	0x3d9bfdc0	0.07616758
105	0x3e0f94df	0.14021634
106	0x3d5210df	0.05128562
107	0x3bbc1e04	0.005740883
108	0xbd5fedf1	-0.054670278
109	0x3cd5db1b	0.026105454
110	0x3d90f45b	0.07077857
111	0x3d7f75bd	0.062368143
112	0xbceeb711	-0.029140027
113	0x3dbf1b6f	0.093314044
114	0xbc565bea	-0.013083437
115	0xbde581bc	-0.112063855
116	0xbe11a4fa	-0.1422309
117	0xbe49abc8	-0.19694436
118	0xbdbb97ed	-0.09159837
119	0x3dafa485	0.085763015
120	0x3e7ff421	0.24995472
121	0x3d7b530d	0.0613585
122	0xbd9bbc57	-0.07604282
123	0xbb86e6e3	-0.0041168793
124	0xbb8b3f3b	-0.004249481
125	0xbd10f6d6	-0.03539165
126	0xbd02af8e	-0.031905703
127	0xbd06d14a	-0.032914437
128	0x3d8642ab	0.06555685
129	0xbe0d8b7c	-0.1382274
130	0xbbf63c8a	-0.007514541
131	0xbbfd5614	-0.0077312086
132	0xbe287757	-0.16451775
133	0x3e7d8541	0.24757864
134	0xbd93e740	-0.07221842
135	0xbda47645	-0.080303706
136	0xbdaf67da	-0.0856473
137	0x3ef40838	0.4766252
138	0x3f00d4e0	0.5032482
139	0x3e8ce554	0.27518713
140	0x3ed973f7	0.42471287
141	0x3df961f7	0.121768884
142	0x3ec2a400	0.38015747
143	0xbdc42556	-0.09577434
144	0xbd91d6d7	-0.071210556
145	0xbc4df0c0	-0.012569606
146	0x3eac56ab	0.33659872
147	0x3ca6030b	0.020265123
148	0x3ec69dd8	0.387923
149	0xbcb5b72d	-0.022182072
150	0xbbb7d915	-0.005610595
151	0x3f02ce25	0.510958
152	0x3e2919fd	0.1651382
153	0x3da541e4	0.08069208
154	0x3ecda44f	0.4016442
155	0x3f257cea	0.6464373
156	0x3e4f76af	0.20260118
157	0x3ee1bcd2	0.4408937
158	0xbd90b9ed	-0.070667125
159	0x3db4665c	0.08808586
160	0x3e083ec0	0.13305187
161	0x3f102083	0.5629961
162	0x3eeb05ee	0.45902961
163	0xbd0df10a	-0.0346537
164	0x3d002f0f	0.03129488
165	0x3eaa8e64	0.3331176
166	0xbde7634c	-0.11298236
167	0x3f13f306	0.577927
168	0xbe64ed9f	-0.2235627
169	0x3e41fb14	0.18943435
170	0x3ea0a201	0.313736
171	0x3ecaf731	0.39641717
172	0x3f02d256	0.511022
173	0x3c4e9b78	0.012610309
174	0xbda9bbf1	-0.082878
175	0x3e9b8524	0.30375016
176	0x3c050d65	0.008120869
177	0x3d7fc06d	0.06243937
178	0xbe068545	-0.13136776
179	0x3ee78f77	0.45226642
180	0x3cb04217	0.02151589
181	0x3df39e34	0.11895409
182	0x3e462eb0	0.19353747
183	0x3f00af23	0.5026724
184	0x3eca9b95	0.39571825
185	0x3e169368	0.14704669
186	0x3d35f28e	0.04442077
187	0x3e25833d	0.16163345
188	0x3f04471a	0.5167099
189	0x3eafcf39	0.34337786
190	0x3e8c097a	0.2735098
191	0x3e7bf088	0.24603474
192	0xbde8f6ca	-0.11375196
193	0x3d1f0c97	0.038830366
194	0xbd53baeb	-0.05169193
195	0x3def3f2d	0.11681972
196	0xbd83882e	-0.064224586
197	0xbd56e214	-0.0524617
198	0xbda047cb	-0.078261934
199	0xbd8aa27d	-0.067692734
200	0x3e08d7a1	0.13363506
201	0xbdd2e5bc	-0.102977246
202	0x3d2920e7	0.041291144
203	0xbd30f731	-0.04320449
204	0xbd5657fd	-0.052330006
205	0x3d8a2a44	0.06746343
206	0x3bd98925	0.0066386634
207	0x3cc6f493	0.024286544
208	0xbdc78924	-0.097429544
209	0x3e6867a9	0.22695793
210	0x3d9baeda	0.0760171
211	0x3c9f11cb	0.019417664
212	0xbe1bf984	-0.15231901
213	0xbe1248e2	-0.14285615
214	0xbb4dbb40	-0.0031392127
215	0xbcd7d17d	-0.026345009
216	0xbde603c0	-0.11231184
217	0x3bdc5910	0.0067244843
218	0x3da38aa4	0.07985428
219	0xbced9899	-0.029003428
220	0x3c82baf1	0.015958281
221	0x3d309624	0.043111935
222	0xbd63ef45	-0.055648107
223	0xbd69182a	-0.05690781
224	0xbdd625ab	-0.10456403
225	0xbdea45c0	-0.11439085
226	0x3e0d1b22	0.13779882
227	0x3d60de92	0.05489976
228	0xbdb63995	-0.08897702
229	0xbdcb25a1	-0.099192865
230	0xbe33df89	-0.1756574
231	0xbd3e9a02	-0.046533592
232	0x3c6a4337	0.014298252
233	0xbde2bce5	-0.11071185
234	0xbe192be3	-0.14958148
235	0x3e67bba7	0.22630177
236	0xbd293c46	-0.041317247
237	0xbd4e8bd2	-0.05042631
238	0x3daf6d6c	0.085657924
239	0x3e33da91	0.17563845
240	0xbde9dfc7	-0.11419635
241	0x3cea7cab	0.0286239
242	0xbd2ad391	-0.04170567
243	0xbd96fb66	-0.07372169
244	0xbdb91e99	-0.09039039
245	0xbd4ebdd3	-0.050474
246	0x3ddc98d8	0.1077134
247	0xbaca0394	-0.0015412443
248	0x3cd372fb	0.025811663
249	0x3cc09510	0.023508579
250	0xbd06c7c6	-0.032905363
251	0x3d393d87	0.045224693
252	0xbd52cb65	-0.051463503
253	0x3cb2f2b3	0.021844244
254	0x3d4c7406	0.049915336
255	0xbc4b2762	-0.012399526

hidden_layer2.bias f4 [32]
0	0x3d94186a	0.07231219
1	0x3d05cd7b	0.032666665
2	0xbd1a76eb	-0.037711065
3	0xbd0a9f89	-0.03384355
4	0x3d0e2ed2	0.03471262
5	0x3e26d661	0.16292717
6	0x3cf50bfa	0.029912937
7	0x3cbfc408	0.023408905
8	0xbd42b7fd	-0.047538746
9	0x3e47699d	0.19473882
10	0x3d957105	0.072969474
11	0xbd899b00	-0.06719017
12	0x3e44da42	0.19223884
13	0x3d95c206	0.07312398
14	0xbdd41f4a	-0.103575304
15	0xbd78391a	-0.06060133
16	0xbe07e6cd	-0.13271637
17	0x3e4c2086	0.19934282
18	0x3ddbdac2	0.10735084
19	0xbbca33a7	-0.006170708
20	0x3e11555c	0.14192718
21	0x3ddd0945	0.10792784
22	0x3d79a5ef	0.060949262
23	0xbe054851	-0.13015868
24	0x3db9a1ba	0.0906405
25	0x3d3a5940	0.04549527
26	0xbe44a8fe	-0.1920509
27	0xbda85ed6	-0.082212135
28	0xbdb71038	-0.0893864
29	0x3d2aaf20	0.04167092
30	0xbdb80880	-0.08985996
31	0xbdf0dcf0	-0.117608905
