Comparison/TrainedModel/20-0.001-99-Agent/node_agent_45.pth (torch, 42692 bytes, 6 tensors)

input_layer.weight f4 [32, 180]
0	0x3dc8986f	0.097946994
1	0x3e890d3d	0.26767913
2	0x3d42e7ff	0.04758453
3	0xbd2db8c7	-0.042412546
4	0xbdc9b761	-0.0984943
5	0x3d8dda07	0.06926351
6	0x3d2ffe58	0.04296717
7	0xbcd92f1a	-0.026511718
8	0xbe87a6ec	-0.2649454
9	0xbd19d463	-0.037556063
10	0xbdb3678b	-0.08759984
11	0xbd0c0d45	-0.034192342
12	0x3c68ac4f	0.014201238
13	0x3e008f61	0.12554695
14	0xbe26e0bf	-0.16296671
15	0x3df83ccb	0.1212097
16	0xbd61eb7d	-0.05515622
17	0x3dc08f95	0.09402386
18	0x3ecd33e2	0.40078646
19	0x3e007d1f	0.1254773
20	0x3e074023	0.1320806
21	0x3e27d5cb	0.1639015
22	0xbc66fb6a	-0.014098028
23	0x3cfe6872	0.031055663
24	0xbdd0e9fd	-0.1020088
25	0xbe3f77ef	-0.18698095
26	0x3e76ff43	0.24120812
27	0x3e89591b	0.26825795
28	0x3cbeb776	0.02328084
29	0x3cdea421	0.027177872
30	0x3d7f5ab7	0.06234237
31	0xbdcf1497	-0.10111349
32	0x3c06cb22	0.008227142
33	0x3d887148	0.06662232
34	0x3e01fa19	0.12693061
35	0x3e054c07	0.13017283
36	0xbd5bdf6b	-0.053679865
37	0xbd7213d3	-0.059100937
38	0xbd775f53	-0.060393643
39	0x3d136304	0.0359831
40	0xbdffe713	-0.12495246
41	0x3d3abcd6	0.045590244
42	0x3dcc10b4	0.09964123
43	0xbe2781f2	-0.16358164
44	0xbb81187a	-0.0039396854
45	0xbc42beff	-0.011886357
46	0x3e480cf2	0.19536188
47	0x3d55ec9c	0.0522276
48	0x3dccf485	0.10007576
49	0x3b35a4ba	0.0027716593
50	0x3ea2859d	0.31742564
51	0xbd1b5eb5	-0.037932117
52	0xbd479a5e	-0.0487312
53	0x3c7a5f0f	0.015281453
54	0x3d242e7f	0.040083405
55	0x3cf02c55	0.029318014
56	0x3dc59063	0.0964668
57	0xbc8e8d37	-0.01740132
58	0x3e7a4932	0.24441984
59	0x3dfaf2ab	0.122533165
60	0xbe177b9c	-0.14793247
61	0x3e4aa574	0.19789678
62	0x3d9713bc	0.07376811
63	0x3de9ac2a	0.11409791
64	0xbd3ffa10	-0.046869338
65	0x3d8a5c03	0.06755831
66	0x3e9ca6e7	0.30596086
67	0x3e87b92f	0.2650847
68	0x3ee29207	0.44252035
69	0x3ebc9566	0.36832732
70	0x3e340240	0.17578983
71	0xbde4a7b0	-0.11164796
72	0xbe18ce4d	-0.14922448
73	0x3f03186a	0.5120913
74	0x3ea90179	0.33008936
75	0xbc921ab8	-0.017835006
76	0x3de7078c	0.11280736
77	0x3ebf5b63	0.3737441
78	0xbd83051c	-0.06397459
79	0x3ef09608	0.46989465
80	0xbd9b513c	-0.075838536
81	0x3e5a3cd1	0.21312262
82	0x3e005643	0.12532906
83	0xbe0437ca	-0.12911907
84	0x3cbe6ba3	0.023244685
85	0xbdcc9b56	-0.099905655
86	0x3daaff65	0.08349494
87	0x3e066a3e	0.13126466
88	0x3dfa8f8d	0.122344114
89	0xbe07c33b	-0.13258068
90	0xbc92a222	-0.017899577
91	0x3ddf624f	0.10907423
92	0x3e069f8f	0.13146804
93	0x3dc45caa	0.09587987
94	0x3cd54faf	0.026038973
95	0x3e45496d	0.19266291
96	0xbdfecc32	-0.12441291
97	0xbe0f03ca	-0.13966289
98	0x3d8403b1	0.064460166
99	0x3de762f8	0.11298174
100	0x3b66ce02	0.0035218005
101	0x3d81879e	0.06324695
102	0xbb887440	-0.0041642487
103	0x3cf0fbcd	0.029416943
104	0x3cc148cf	0.023594288
105	0xbe3520a2	-0.1768823
106	0xbda5f8f6	-0.08104126
107	0x3bb4db49	0.005519305
108	0xbdfdf553	-0.124003075
109	0x3d1a5990	0.03768307
110	0xbd9e0ff0	-0.077178836
111	0x3d2bd73b	0.041953307
112	0x3d792f6d	0.060836244
113	0x3d2d3503	0.042286884
114	0x3dd08b58	0.10182828
115	0x3cf8778a	0.030330438
116	0x3d833cb1	0.0640806
117	0x3de0308d	0.1094676
118	0x3c781505	0.01514173
119	0xbe347855	-0.17624028
120	0x3e1c6486	0.15272722
121	0x3ba148fb	0.00492203
122	0x3e4f45a5	0.20241411
123	0xbcef448d	-0.029207492
124	0x3e3907f0	0.18069434
125	0xbe502b82	-0.20329097
126	0x3d763acb	0.060114663
127	0x3dbe88df	0.0930345
128	0x3c800469	0.015627103
129	0x3e019c88	0.12657368
130	0x3ca11233	0.019661998
131	0x3d5e2575	0.05423494
132	0x3de8315d	0.1133754
133	0x3d43c7d7	0.047798004
134	0xbde2ffaa	-0.1108392
135	0xbd9a40ac	-0.075318664
136	0xbd793c7d	-0.0608487
137	0xbd09e8a7	-0.03366914
138	0xbd80eb42	-0.06294872
139	0x3d3889d2	0.04505331
140	0x3d921a16	0.07133882
141	0x3dd5bf8a	0.10436924
142	0xbc9505b3	-0.018191194
143	0x3c8144f8	0.015779957
144	0x3dabce98	0.08389014
145	0xbe0c21c7	-0.1368476
146	0x3eb05443	0.34439287
147	0x3df08333	0.11743774
148	0x3dad7dfc	0.08471295
149	0xbdb83e7a	-0.089962915
150	0x3d5f8c3f	0.05457711
151	0xbd5b7b68	-0.053584486
152	0x3dcb7b63	0.099356435
153	0x3d61b70b	0.055106204
154	0x3d1f850f	0.038945254
155	0xbdf06d42	-0.11739589
156	0xbde61538	-0.11234516
157	0xbc8bebb6	-0.01708017
158	0x3dc3fca2	0.0956967
159	0x3d962083	0.0733042
160	0xbd79723f	-0.06089997
161	0xbe4941b1	-0.19653966
162	0xbe63bce2	-0.22240022
163	0x3e759c1e	0.23985335
164	0x3e187222	0.14887288
165	0x3d6e8195	0.058229048
166	0xbc70af23	-0.014690193
167	0xbd061033	-0.032730293
168	0x3e0077ab	0.1254565
169	0xbdb0295d	-0.086016394
170	0xbc0c88ae	-0.008577509
171	0xbe02a9ab	-0.12760036
172	0xbd781e17	-0.06057557
173	0x3d9e066a	0.07716067
174	0xbd6d9915	-0.05800732
175	0x3d8aabf2	0.06771077
176	0x3dadf937	0.084947996
177	0xbcc17f2f	-0.023620216
178	0x3bbf30eb	0.005834689
179	0x3da5da0a	0.08098228
180	0x3d549690	0.0519014
181	0x3e605426	0.219071
182	0x3e1b3f44	0.15160853
183	0x3d352d57	0.044232693
184	0x3e10921d	0.14118238
185	0x3b905c68	0.004405547
186	0xbdbc9e1a	-0.09209843
187	0x3e1dd239	0.15412225
188	0xbdadff77	-0.08495992
189	0x3bf8416d	0.0075761587
190	0xbe076125	-0.13220651
191	0x3d3d57af	0.0462262
192	0x3d59f84b	0.053215306
193	0x3c2bea7f	0.01049292
194	0xbd251075	-0.040298898
195	0xbe91ab34	-0.2845093
196	0x3ddbc948	0.10731751
197	0x3c622fb7	0.013805321
198	0x3de2115c	0.11038467
199	0x3e72473d	0.23659988
200	0xbde1a4b0	-0.1101774
201	0xbd7156c2	-0.05892063
202	0xbbb7cacb	-0.0056088916
203	0xbdfb90e3	-0.12283494
204	0x3dea5b0f	0.11443149
205	0xbd1d6f3f	-0.03843617
206	0x3c408694	0.011750836
207	0x3e55f136	0.20892796
208	0x3e487997	0.19577633
209	0x3d447813	0.047966074
210	0xbd829d8f	-0.06377708
211	0xbdad8869	-0.08473284
212	0xbe75382d	-0.2394721
213	0xbdcf8d4a	-0.101343706
214	0xbd24a3ee	-0.040195398
215	0x3e1a58fb	0.15073006
216	0xbc42fe32	-0.011901425
217	0xbcf7a515	-0.030230084
218	0x3ba4f320	0.0050338656
219	0xbd07901b	-0.033096414
220	0x3e33ff36	0.17577824
221	0xbd88f1c7	-0.0668674
222	0xbd74f02f	-0.05979937
223	0xbe15c517	-0.14625965
224	0xbdd54dc8	-0.10415226
225	0xbdc03c11	-0.09386457
226	0xba8aa025	-0.0010576291
227	0x3e5ce7b9	0.2157277
228	0xbdabe0bc	-0.08392474
229	0xbde26b60	-0.110556364
230	0x3cb001d4	0.021485247
231	0x3dc41e0a	0.09576042
232	0x3e007514	0.12544662
233	0xbdc6da1b	-0.09709569
234	0x3de42550	0.11139929
235	0xbe467096	-0.19378886
236	0x3e0666a8	0.13125098
237	0xbdc51d87	-0.096247725
238	0xbb8e5dcf	-0.004344679
239	0x3dc5b1bc	0.09653041
240	0x3ea9bcd7	0.33151886
241	0xbd91b8a7	-0.07115298
242	0x3e536b75	0.2064646
243	0x3e9c2bad	0.30502072
244	0x3e024f95	0.1272567
245	0x3ec44a76	0.3833806
246	0x3e7a744a	0.24458423
247	0x3ea4b1e9	0.32166985
248	0x3e589d67	0.21153794
249	0x3f14f412	0.5818492
250	0x3d9deab4	0.07710782
251	0xbda82ad9	-0.082112975
252	0xbe54b41a	-0.20771828
253	0x3ee59b30	0.4484496
254	0x3ef535a2	0.4789248
255	0x3d4bcdac	0.04975669

input_layer.bias f4 [32]
0	0x3e1dc5c7	0.15407477
1	0x3e2c1036	0.16803059
2	0x3c5046e8	0.012712218
3	0x3f21ed65	0.6325286
4	0x3f32b1e4	0.6980269
5	0x3d8c93f9	0.06864161
6	0x3e25086a	0.16116491
7	0x3e715125	0.2356611
8	0x3d89b3d8	0.067237556
9	0x3e0a220a	0.13489547
10	0x3de82ffe	0.11337279
11	0x3e07df7b	0.13268845
12	0x3ddec904	0.108781844
13	0x3e496714	0.19668227
14	0xbb56e8f2	-0.0032792655
15	0x3dc232da	0.094823554
16	0x3e4536bd	0.19259162
17	0x3e2b4513	0.16725568
18	0x3e448a6b	0.19193427
19	0x3e38a793	0.18032674
20	0x3f353f89	0.7080007
21	0x3de74dc3	0.11294129
22	0x3e353e4b	0.17699544
23	0x3e3a1703	0.18172841
24	0x3def1cd6	0.11675422
25	0x3dbb6652	0.091503754
26	0x3e1ff188	0.1561948
27	0x3e445f96	0.19177088
28	0x3e6063df	0.21913098
29	0x3e5352d8	0.20637071
30	0x3e4e223d	0.20130248
31	0x3e6f188b	0.23349206

hidden_layer1.weight f4 [64, 32]
0	0xbdb37c05	-0.08763889
1	0xbdcd2ced	-0.100183345
2	0xbdef76ed	-0.11692605
3	0x3c86fb76	0.016477328
4	0xbe22360a	-0.15840927
5	0xbd8588be	-0.06520222
6	0xbc2df145	-0.010616605
7	0x3dca26df	0.09870695
8	0xbd48a8af	-0.048988994
9	0x3dcef09d	0.10104487
10	0x3d9f5275	0.07779399
11	0xbd574e1b	-0.05256472
12	0xbde752e1	-0.11295105
13	0x3dd6d362	0.10489537
14	0xbd2881fc	-0.041139588
15	0xbe6e2e48	-0.23259842
16	0x3c0f8ec8	0.008762069
17	0x3e391524	0.18074471
18	0x3ca2a088	0.019851938
19	0xbc4f7f63	-0.012664649
20	0xbdab600e	-0.0836793
21	0x3be73c1f	0.0070567275
22	0xbe0e3d10	-0.13890481
23	0xbe02399c	-0.12717289
24	0xbd9a02c3	-0.07520058
25	0xbe9dbe4a	-0.30809242
26	0xbc0a9ccf	-0.008460238
27	0x3cb01245	0.021493087
28	0x3ca1ae5a	0.019736458
29	0xbc7ddcd0	-0.01549454
30	0x3d549959	0.051904056
31	0x3d55254c	0.052037522
32	0x3ce07380	0.027398825
33	0x3e29d923	0.16586737
34	0x3dce868f	0.10084259
35	0x3d276ceb	0.040875357
36	0x3e5dd8bd	0.2166471
37	0xbe10e340	-0.14149189
38	0xbd6d85c9	-0.057988916
39	0x3d33fc3c	0.04394172
40	0x3e622299	0.2208351
41	0xbd8802fe	-0.06641196
42	0xbd0d7578	-0.034535855
43	0x3e6e761b	0.23287241
44	0x3e1c5ead	0.15270491
45	0x3c154e71	0.00911294
46	0xbd731ead	-0.059355427
47	0xbda0f933	-0.07860031
48	0xb9a70c1e	-0.0003186175
49	0xbdb79dbf	-0.089656346
50	0xbda92c2c	-0.08260378
51	0xbdbe9f62	-0.093077436
52	0x3dc5479e	0.096328005
53	0xbe0aa303	-0.13538747
54	0xbdbcc75c	-0.09217712
55	0xbd8e7eef	-0.069578044
56	0xbce19ca9	-0.027540522
57	0x3dbcd07b	0.09219452
58	0x3dd3028f	0.103032224
59	0xbe1db3f6	-0.15400681
60	0x3e6b0bd8	0.22953737
61	0x3dc95033	0.0982975
62	0x3e050c02	0.12992862
63	0xbd5b1eed	-0.05349629
64	0xbde90cbf	-0.11379384
65	0x3c1f9077	0.009739033
66	0xbe2f8a07	-0.17142497
67	0x3db11793	0.086470746
68	0xbbc09058	-0.005876582
69	0x3d9aa475	0.07550899
70	0xbcdb36a4	-0.026759453
71	0xbe3acd00	-0.18242264
72	0xbd375bce	-0.044765286
73	0xbcb26815	-0.021778146
74	0x3d0632bf	0.03276324
75	0xbb5ced3b	-0.0033710736
76	0x3e242059	0.16027965
77	0x3da61a21	0.081104524
78	0x3dde2710	0.10847294
79	0xbc9db7ba	-0.019252647
80	0x3e09640f	0.13417076
81	0xbd0ebb30	-0.034846485
82	0xbd495d58	-0.049161285
83	0xbdebe040	-0.11517382
84	0xbdf837d8	-0.12120026
85	0xbdb160c3	-0.08661034
86	0xbda89f7f	-0.082335465
87	0x3de2e8af	0.11079537
88	0x3bced911	0.0063124974
89	0xbd4df56a	-0.050282873
90	0x3d2a0a49	0.041513715
91	0xbc0a9a8f	-0.008459701
92	0xbb9855c8	-0.004648898
93	0x3cdbcb54	0.026830353
94	0x3d37bf5b	0.044860225
95	0xbd437cad	-0.047726322
96	0xbc18adf9	-0.009318822
97	0x3d60725b	0.054796558
98	0xbdf9068b	-0.12159451
99	0xbf933f34	-1.1503663
100	0xbf483b80	-0.7821579
101	0x3e6edbc9	0.23326029
102	0x3d23d249	0.039995465
103	0x3e2fddca	0.1717445
104	0x3d988faa	0.07449277
105	0x3def6fc8	0.116912425
106	0x3de32b74	0.110922724
107	0x3e37afbb	0.1793813
108	0x3e34c658	0.17653787
109	0x3eb95b2e	0.36202377
110	0x3d941de2	0.07232262
111	0x3ed5b516	0.4173972
112	0x3e6c9c95	0.23106606
113	0x3d14909f	0.036270734
114	0x3dc1e4c7	0.09467464
115	0x3daa54b9	0.08316941
116	0xbf4faa15	-0.811189
117	0x3d817e5a	0.06322928
118	0x3e3c8998	0.18411863
119	0x3e5bda9a	0.21470109
120	0x3e87c268	0.26515508
121	0x3e0d503a	0.13800135
122	0x3e8e049c	0.27737892
123	0x3ddc5961	0.10759235
124	0x3e16bdd9	0.14720859
125	0x3e62c622	0.22145894
126	0x3e3c9c94	0.18419105
127	0x3cd11fdd	0.025527889
128	0x3e86d919	0.26337507
129	0x3cf70e00	0.030158043
130	0x3c71dffa	0.014762873
131	0xbd0b22e6	-0.03396883
132	0xbd07c990	-0.03315121
133	0xbda945c3	-0.08265259
134	0x3d52c93a	0.051461436
135	0xbd9107e7	-0.070815854
136	0xbd09f8af	-0.03368443
137	0xbd939026	-0.072052285
138	0x3cbc9304	0.023019321
139	0xbc8594b3	-0.016306257
140	0xbe1d957d	-0.15389057
141	0xbde4224a	-0.111393526
142	0xbcc9d143	-0.024635917
143	0xbdec62a2	-0.1154225
144	0xbd172c74	-0.03690763
145	0xbce00913	-0.027348077
146	0x3d7fc0cf	0.062439736
147	0xbd7c6ecf	-0.061629113
148	0xbe3c7dcd	-0.18407364
149	0xbd649fc3	-0.055816423
150	0xbe1c07f2	-0.15237406
151	0xbd9a466a	-0.07532962
152	0xbd47c87f	-0.048775192
153	0xbc927702	-0.017879013
154	0x3e337656	0.1752561
155	0xbdcb3633	-0.09922447
156	0x3d9c5f63	0.07635381
157	0xbd1024ec	-0.03519146
158	0x3d2aef0d	0.041731883
159	0x3d301d4e	0.042996697
160	0x3e10e46e	0.14149639
161	0x3e9f00d3	0.31055316
162	0xbe1accce	-0.1511719
163	0xbf8e8607	-1.1134652
164	0xbf5cf42c	-0.86310077
165	0x3e7b5895	0.2454551
166	0x3e9419c0	0.28925896
167	0x3e67394b	0.2258045
168	0x3e133483	0.143755
169	0x3e4b697d	0.1986446
170	0x3dff3658	0.12461537
171	0x3e4db9c6	0.20090398
172	0x3eaf964f	0.34294364
173	0x3e53ad54	0.20671588
174	0xbdad6f40	-0.08468485
175	0x3de985e2	0.11402489
176	0x3ebb6239	0.36598375
177	0x3d8f4a71	0.069966204
178	0x3e370150	0.17871594
179	0x3ea88dfa	0.3292082
180	0xbf562417	-0.8364882
181	0x3e852b4d	0.26009598
182	0x3e337444	0.1752482
183	0x3e1e2aaa	0.15445963
184	0x3d8795b5	0.06620351
185	0x3e5cb92e	0.21555015
186	0x3c0b1747	0.0084894365
187	0x3e66914f	0.22516368
188	0x3e48b066	0.1959854
189	0x3e9172cd	0.284079
190	0x3e3be3bd	0.18348594
191	0x3e72aa90	0.23697877
192	0x3dcad97c	0.09904763
193	0x3e7b2125	0.24524362
194	0x3d5b8f4a	0.053603448
195	0xbf7be712	-0.9839946
196	0xbf84f6a3	-1.0387768
197	0x3e04e441	0.12977697
198	0x3e59841d	0.21241803
199	0x3e466451	0.19374205
200	0x3ea08c43	0.3135701
201	0x3e92170c	0.28533208
202	0x3dee2576	0.11628239
203	0x3de0d57e	0.109782204
204	0x3eabfe3e	0.3359241
205	0xbc7ce4d1	-0.015435413
206	0xbda5c22b	-0.08093675
207	0x3d5b071f	0.053473588
208	0x3e7af36e	0.24506924
209	0x3e86bf9a	0.26318055
210	0x3e2556d2	0.161464
211	0x3e766c58	0.24064767
212	0xbf656104	-0.8960116
213	0x3eaac7cb	0.33355555
214	0x3d8642b4	0.06555691
215	0x3e1d829f	0.15381859
216	0x3e3d7a0d	0.1850359
217	0x3e64b7cc	0.22335738
218	0x3e2146fa	0.15749732
219	0x3e273624	0.16329247
220	0x3e3266c0	0.17422009
221	0x3e8bb153	0.27283725
222	0x3e9ef0f2	0.31043202
223	0x3c95bdea	0.018279035
224	0xbdf09c80	-0.117486
225	0xbd19e756	-0.037574135
226	0xbded4c7d	-0.115868546
227	0xbd26a354	-0.040683106
228	0xbbfeb3b7	-0.0077728885
229	0xbcc6eb91	-0.024282249
230	0xbd1cf7c3	-0.03832222
231	0xbe3cdb4e	-0.18443033
232	0x390db1d0	0.00013513048
233	0x3d8bb985	0.068224944
234	0xbd813ab2	-0.06310023
235	0x3de9fe4d	0.11425457
236	0x3e05248d	0.13002224
237	0x3d01610c	0.03158669
238	0xbd96fe21	-0.0737269
239	0xbcafa83d	-0.021442527
240	0x3e0c433d	0.13697524
241	0xbe3c5d08	-0.18394864
242	0xbcd14714	-0.025546588
243	0xbe0da2ab	-0.13831584
244	0xbd045561	-0.032307986
245	0x3d8f8690	0.07008088
246	0x3d48af0b	0.04899506
247	0x3d7c2d06	0.061566375
248	0xbe0a8f35	-0.13531192
249	0x3e34e2bf	0.17664622
250	0xbd6f5338	-0.058428973
251	0xbd11e49a	-0.035618402
252	0x3deb63d6	0.114936516
253	0xbcc894ba	-0.02448498
254	0xbd672aeb	-0.056437414
255	0xbd0e2175	-0.034699876

hidden_layer1.bias f4 [64]
0	0x3e081267	0.1328827
1	0x3df95b7e	0.12175654
2	0x3cc443db	0.023958137
3	0x3dc492ef	0.09598338
4	0xbe34dff7	-0.17663561
5	0x3d05c6c6	0.03266027
6	0x3e4c268c	0.1993658
7	0x3d8fced1	0.07021869
8	0x3dfb9734	0.12284699
9	0x3dd2fda9	0.10302288
10	0x3d3cc7f5	0.04608913
11	0x3d9c4aff	0.07631492
12	0x3d5bb302	0.053637512
13	0x3e83a198	0.25709224
14	0x3cb9719e	0.022637185
15	0x3df67c3f	0.12035417
16	0xbe3ec247	-0.18628798
17	0x3d9aa73d	0.075514294
18	0x3d7b30bb	0.06132577
19	0xbe42f4f5	-0.19038756
20	0xbe0d7d8f	-0.13817428
21	0x3dc4461a	0.09583683
22	0xbc85f79b	-0.016353419
23	0x3e3c608e	0.18396208
24	0x3e16afd3	0.14715509
25	0xbc050714	-0.008119363
26	0x3e506b09	0.2035333
27	0xbd97a45e	-0.074043974
28	0xbe0659dc	-0.13120216
29	0x3ddd6f96	0.10812299
30	0x3e95eb73	0.29281196
31	0x3e26f8cb	0.16305844
32	0x3d824a18	0.063617885
33	0xbd71f868	-0.05907479
34	0x3da1de47	0.07903724
35	0xbe392164	-0.18079144
36	0x3e609576	0.21932015
37	0xbd97d5e2	-0.07413842
38	0xbe134de4	-0.14385182
39	0x3dd58dd2	0.10427441
40	0xbd8bd8a6	-0.06828432
41	0x3dbcdf16	0.09222238
42	0x3e3510c7	0.17682181
43	0xbc9253be	-0.017862197
44	0x3b1b5bc6	0.0023705824
45	0x3e25f033	0.1620491
46	0x3dfd94aa	0.12381871
47	0xbcda6aee	-0.026662316
48	0xbd082ff0	-0.03324884
49	0xbd663024	-0.056198254
50	0xbdad86ce	-0.084729776
51	0x3e40df5b	0.18835203
52	0x3e2a2186	0.1661435
53	0x3d7b270f	0.061316546
54	0xbdb1871d	-0.08668349
55	0xbd4edfb6	-0.050506316
56	0x3e031f4c	0.12804908
57	0x3d81627e	0.06317614
58	0xbe2cf4e3	-0.16890292
59	0xbe0339f6	-0.12815079
60	0x3c8fefc2	0.01757038
61	0xbd821c44	-0.063530475
62	0x3e1cef9f	0.15325783
63	0xbe0093ad	-0.12556334

hidden_layer2.weight f4 [32, 64]
0	0x3df7ffb2	0.12109317
1	0xbe751594	-0.23934013
2	0x3dc29be4	0.0950239
3	0xbdfbe6f0	-0.12299907
4	0x3d33707b	0.04380844
5	0x3e87b523	0.26505384
6	0x3d9a37d7	0.07530182
7	0x3ca5262b	0.020159801
8	0xbe2b0bed	-0.16703768
9	0x3e7d3a5f	0.24729298
10	0x3e54fabc	0.20798773
11	0x3e4a2737	0.19741522
12	0x3e94837b	0.29006562
13	0xbdf79104	-0.120882064
14	0x3e3cdaec	0.18442887
15	0xbe487504	-0.19575888
16	0xbe37b46f	-0.17939924
17	0x3e73c6ac	0.23806256
18	0x3d7336fa	0.0593786
19	0xbca90bc6	-0.020635497
20	0x3ae2e2c9	0.0017310019
21	0xbd554b46	-0.05207374
22	0x3dbf978c	0.09355077
23	0x3ea54909	0.32282284
24	0x3e3ab55a	0.18233243
25	0x3c86652a	0.01640566
26	0x3e4a78c6	0.19772634
27	0x3e0f6f19	0.14007224
28	0x3dbe0ff2	0.09280385
29	0x3df6b1af	0.12045609
30	0xbdf6355a	-0.12021895
31	0x3ea3facd	0.32027283
32	0x3dbd7c9c	0.09252283
33	0x3ead2b33	0.3382202
34	0x3c825548	0.015909806
35	0x3cd0f5cf	0.025507836
36	0x3e26e18d	0.16296978
37	0x3dbbbdbd	0.09167049
38	0xbd10db43	-0.035365354
39	0x3eb9d456	0.36294812
40	0x3e84d233	0.2594162
41	0x3e720c82	0.23637584
42	0xbd1b9509	-0.037983928
43	0x3dec1ac5	0.115285434
44	0x3e13e7d0	0.14443898
45	0x3d11c745	0.03559043
46	0x3de59f37	0.112120084
47	0x3e90799f	0.2821779
48	0x3de80704	0.11329463
49	0xbd8a0717	-0.067396335
50	0x3cfd69b5	0.030934194
51	0x3d9b2f90	0.07577431
52	0xbdceda8d	-0.10100279
53	0x3ce8120c	0.028328918
54	0xbcebe60d	-0.02879622
55	0x3e677692	0.22603825
56	0xbe1c114b	-0.15240972
57	0x3e9896c5	0.29802528
58	0xbd11c5f2	-0.035589166
59	0x3d7d70a8	0.061875015
60	0x3e8da295	0.27663103
61	0x3d88b60c	0.06675348
62	0x3eb62609	0.35575894
63	0x3cad70ea	0.021172006
64	0x3d6abac8	0.057307035
65	0x3e943e53	0.289538
66	0xbc79a807	-0.015237815
67	0xbe3bd5d6	-0.1834329
68	0xbe39d951	-0.18149306
69	0xbe4a0d71	-0.1973169
70	0xbe10e622	-0.14150289
71	0xbd43843f	-0.04773354
72	0x3d8808a0	0.0664227
73	0xbd1d7865	-0.038444895
74	0xbc8cf1f8	-0.017205223
75	0xbc42a5ad	-0.0118803205
76	0xbdb25fd6	-0.087096855
77	0x3dda35eb	0.10654815
78	0x3ca6d36b	0.020364484
79	0xbddad1ee	-0.10684572
80	0xbcd7d0dd	-0.026344711
81	0x3e000a0f	0.12503837
82	0xbc9c866f	-0.019107072
83	0x3d37611b	0.04477034
84	0xbdde0da0	-0.108424425
85	0xbda4e6e6	-0.08051853
86	0xbd955a4f	-0.072926156
87	0xbc755189	-0.014973053
88	0x3e33ca41	0.17557622
89	0x3def772d	0.11692653
90	0xbc4874be	-0.012234865
91	0xbdbeeab4	-0.0932211
92	0xbd95752b	-0.07297739
93	0x3def191f	0.11674713
94	0xbd8085b9	-0.062755056
95	0x3d807c8a	0.06273754
96	0x3e7e866b	0.24855964
97	0xbd9a79ea	-0.075427845
98	0xbbf93666	-0.0076053618
99	0x3999c6d7	0.0002933058
100	0xbced6feb	-0.02898403
101	0xbdb853fc	-0.09000394
102	0x3de601b7	0.11230796
103	0x3ca63e95	0.020293513
104	0x3d9bfdc0	0.07616758
105	0x3e0130bb	0.12616245
106	0x3d1d7c88	0.03844884
107	0xbb9a15c6	-0.0047023026
108	0xbd8e6516	-0.06952874
109	0x3cc17520	0.02361542
110	0x3d80688b	0.0626994
111	0x3d3d8053	0.046264958
112	0xbd3dd203	-0.04634286
113	0x3dbf1b6f	0.093314044
114	0xbc565bea	-0.013083437
115	0xbe01af7e	-0.12664601
116	0xbe11a4fa	-0.1422309
117	0xbe5c6b46	-0.21525297
118	0xbdd44871	-0.103653796
119	0x3d9339ad	0.07188735
120	0x3e70e508	0.23524868
121	0x3d7b530d	0.0613585
122	0xbdad1a75	-0.08452312
123	0xbb86e6e3	-0.0041168793
124	0xbd115b63	-0.035487544
125	0xbd821076	-0.06350796
126	0xbd29c4c6	-0.041447423
127	0xbd06d14a	-0.032914437
128	0x3d0a8a51	0.033823315
129	0xbdba646b	-0.091011845
130	0xbc7993b4	-0.015232969
131	0x3e798c53	0.24369936
132	0xbd9eb651	-0.07749618
133	0x3dffecda	0.12496348
134	0x3e4ee0b1	0.202029
135	0xbdb243e6	-0.08704357
136	0xbe016cca	-0.12639156
137	0x3ebd75a0	0.37003803
138	0x3ec746ff	0.38921353
139	0x3df3a11d	0.11895964
140	0x3e9b3a4b	0.30317912
141	0xbdf86621	-0.121288545
142	0x3e62d3fd	0.2215118
143	0x3e267f9d	0.16259618
144	0xbda20751	-0.07911552
145	0x3e7c2734	0.2462433
146	0x3e22df07	0.1590539
147	0x3ca98854	0.02069489
148	0x3e9b15d0	0.3029008
149	0xbce1a2ab	-0.027543386
150	0xbeb065cd	-0.34452668
151	0x3ec43e42	0.3832875
152	0x3ee154b6	0.44009942
153	0x3da3c92a	0.079973534
154	0x3e914bb3	0.28378066
155	0x3f098701	0.53721625
156	0x3ef8e370	0.4861102
157	0x3eab6c03	0.33480844
158	0xbd99be28	-0.075069726
159	0x3eb64938	0.35602736
160	0x3e083ec0	0.13305187
161	0x3ecdb074	0.40173686
162	0x3eaf03ca	0.34182578
163	0x3dc6689b	0.09687921
164	0x3e161b68	0.14658892
165	0x3e67a1fe	0.22620389
166	0xbdfb136c	-0.12259564
167	0x3ed5b4a9	0.41739395
168	0xbe64ed9f	-0.2235627
169	0x3db421b1	0.087954886
170	0x3e12c6ed	0.14333697
171	0x3e9e0b21	0.30867866
172	0x3ed76cd7	0.42075226
173	0x3ce4d294	0.027932443
174	0xbd9f936e	-0.07791792
175	0x3e211433	0.15730362
176	0x3e8c8ef8	0.27452826
177	0x3d7fc06d	0.06243937
178	0xbdcf9365	-0.10135535
179	0x3e8fe802	0.28106695
180	0x3e939223	0.2882243
181	0x3ed2b2eb	0.4115213
182	0x3d4ae45f	0.049534198
183	0x3eae4d60	0.34043407
184	0x3e8670bd	0.26257887
185	0x3e9b3874	0.30316508
186	0x3dd07a6f	0.10179602
187	0x3e25833d	0.16163345
188	0x3ed275b4	0.41105425
189	0x3e42b9ba	0.19016162
190	0x3e229f5a	0.158811
191	0x3e7bf088	0.24603474
192	0xbde14353	-0.10999169
193	0x3d1f0c97	0.038830366
194	0xbd3e96cd	-0.046530534
195	0x3de2b08b	0.11068829
196	0xbd83882e	-0.064224586
197	0xbd4757f9	-0.04866788
198	0xbdaeaac3	-0.08528664
199	0xbd8bfcd4	-0.068353325
200	0x3e0672be	0.13129708
201	0xbdcc47df	-0.09974646
202	0x3d3ab624	0.04558386
203	0xbce303f7	-0.027711852
204	0xbd36842a	-0.044559635
205	0x3d8a2a44	0.06746343
206	0x3c511cd0	0.012763217
207	0x3cbdf274	0.0231869
208	0xbdc78924	-0.097429544
209	0x3e679165	0.22614057
210	0x3d9d4785	0.07679657
211	0x3c4cf70a	0.012510071
212	0xbe14974d	-0.14510842
213	0xbe13436c	-0.14381188
214	0xbb4dbb40	-0.0031392127
215	0xbcbe9594	-0.023264684
216	0xbdea989c	-0.11454889
217	0x3b92efa3	0.0044841333
218	0x3daa9559	0.08329267
219	0xbcb864f1	-0.02250907
220	0x3c659bee	0.014014227
221	0x3d51452b	0.051091354
222	0xbd84ebbe	-0.06490277
223	0xbd7cab73	-0.061686944
224	0xbdd625ab	-0.10456403
225	0xbde0e059	-0.10980291
226	0x3e15eeb8	0.14641845
227	0x3d721f13	0.059111666
228	0xbdb5ab8a	-0.08870609
229	0xbdbb3ce2	-0.09142472
230	0xbe303099	-0.17206039
231	0xbd16d3c0	-0.036823034
232	0x3c6a4337	0.014298252
233	0xbdd67fb3	-0.104735754
234	0xbe114685	-0.14187057
235	0x3e6b3f46	0.22973356
236	0xbd19136c	-0.037372038
237	0xbd82de6e	-0.06390081
238	0x3db275e7	0.08713894
239	0x3e39f3d5	0.18159421
240	0xbdebdf02	-0.11517145
241	0x3cea7cab	0.0286239
242	0xbd2ad391	-0.04170567
243	0xbd8660c2	-0.06561424
244	0xbdca4110	-0.09875691
245	0xbd8092f9	-0.06278033
246	0x3df56749	0.11982591
247	0x3b3474cf	0.0027535444
248	0x3ce958db	0.028484752
249	0x3ca98eab	0.020697912
250	0xbd2dd186	-0.042436145
251	0x3d393d87	0.045224693
252	0xbd2e1898	-0.042503923
253	0x3d0f586f	0.034996446
254	0x3d6b9668	0.057516485
255	0xbc4b2762	-0.012399526

hidden_layer2.bias f4 [32]
0	0xbc84ac93	-0.016195571
1	0x3ab2f0e6	0.0013652116
2	0xbba90224	-0.005157726
3	0xbd0f8df3	-0.035047483
4	0x3d1b02f1	0.037844602
5	0xbcc125fe	-0.023577686
6	0xba26edc0	-0.0006367825
7	0x3ca89df4	0.02058313
8	0xbd464d43	-0.048413526
9	0xba478df4	-0.00076124
10	0x3d20b6ad	0.039236713
11	0xbd8b50bb	-0.068025075
12	0x3deb0e5e	0.1147735
13	0x3d95f68e	0.07322417
14	0xbdcee067	-0.10101395
15	0xbd800367	-0.06250649
16	0x3c1c8d48	0.009555168
17	0x3df4da50	0.11955702
18	0xbd279faa	-0.040923752
19	0x3c1a7a2f	0.009428545
20	0x3e561229	0.20905365
21	0x3d39b9fb	0.04534338
22	0x3d4c4b83	0.0498767
23	0xbbcee69b	-0.0063141114
24	0xbe7df722	-0.24801305
25	0xbd8f0220	-0.06982827
26	0xbe672799	-0.22573699
27	0xbdcc0448	-0.09961754
28	0xbd0b31d4	-0.033983067
29	0xbe14801d	-0.14501996
30	0x3e84ea7b	0.25960144
31	0xbd2f8940	-0.0428555
