Comparison/TrainedModel/20-0.001-99-Agent/node_agent_46.pth (torch, 42692 bytes, 6 tensors)

input_layer.weight f4 [32, 180]
00000000: 6f98 c83d 1f89 ca3d ffe7 423d c7b8 2dbd
00000010: 61b7 c9bd 07da 8d3d 58fe 2f3d 1a2f d9bc
00000020: eca6 87be 63d4 19bd 8b67 b3bd 450d 0cbd
00000030: 98f9 fbbb ac49 d43d 444b 3dbe cb3c f83d
00000040: 7deb 61bd 958f c03d d291 6d3e 6d63 31bd
00000050: 2340 073e cbd5 273e 6afb 66bc 7268 fe3c
00000060: fde9 d0bd ef77 3fbe 43ff 763e 97b8 cb3d
00000070: 21ff 14be 8b01 11be b75a 7f3d 9714 cfbd
00000080: 22cb 063c 4871 883d 19fa 013e 074c 053e
00000090: 6bdf 5bbd d313 72bd 535f 77bd 0463 133d
000000a0: 13e7 ffbd d6bc 3a3d b410 cc3d f281 27be
000000b0: 7a18 81bb ffbe 42bc f20c 483e 9db5 eebd
000000c0: 85f4 cc3d baa4 353b 6935 183e b55e 1bbd
000000d0: 5e9a 47bd 0f5f 7a3c 7f2e 243d 552c f03c
000000e0: 6390 c53d 378d 8ebc 54e6 9a3d abf2 fa3d
000000f0: 3155 8ebd ef3a 343e f57a 20be 96bb 1dbe
00000100: 0af2 bdbd 0f38 43be ae68 c3bd 4a44 1dbd
00000110: 6b5f 3f3e 7095 46bd ce54 893d a7f3 a8bd
00000120: d0fb e1bd a87d 673d 4313 813d 59cc a9bd
00000130: b40e ce3c b36b db3d 3646 173c b651 48bc
00000140: 3c51 9bbd 8735 07bd 4356 003e ca37 04be
00000150: a36b be3c 569b ccbd 65ff aa3d 3e6a 063e
00000160: 8d8f fa3d 3bc3 07be 22a2 92bc 1593 74bd
00000170: 8f9f 063e aa5c c43d af4f d53c 6d49 453e
00000180: 32cc febd ca03 0fbe b103 843d f862 e73d
00000190: 02ce 663b 9e87 813d 4074 88bb cdfb f03c
000001a0: cf48 c13c a220 35be f6f8 a5bd 49db b43b
000001b0: 53f5 fdbd 9059 1a3d f00f 9ebd 3bd7 2b3d
000001c0: 6d2f 793d 8015 a73c 588b d03d 8a77 f83c
000001d0: b13c 833d 8d30 e03d 0515 783c dae2 4abe
000001e0: 538b 83bc fb48 a13b a545 4f3e 8d44 efbc
000001f0: f007 393e 822b 50be cb3a 763d df88 be3d
00000200: 6904 803c 889c 013e 3312 a13c 7525 5e3d
00000210: 5d31 e83d d7c7 433d aaff e2bd ac40 9abd
00000220: 7d3c 79bd a7e8 09bd 42eb 80bd d289 383d
00000230: 161a 923d 8abf d53d b305 95bc f844 813c
00000240: 98ce ab3d c721 0cbe b7d2 333e 3383 f03d
00000250: fc7d ad3d 7a3e b8bd 3f8c 5f3d 687b 5bbd
00000260: 637b cb3d 0bb7 613d 0f85 1f3d 426d f0bd
00000270: 3815 e6bd b6eb 8bbc a2fc c33d 8320 963d
00000280: 3f72 79bd b141 49be e2bc 63be 418c 913d
00000290: 2272 183e 5ad7 143d 23af 70bc 3310 06bd
000002a0: ab77 003e 5d29 b0bd ae88 0cbc aba9 02be
000002b0: 23e4 a8bd 6a06 9e3d 1599 6dbd f2ab 8a3d
000002c0: 37f9 ad3d 2f7f c1bc eb30 bf3b 0ada a53d
000002d0: 9096 543d b6f4 993d 443f 1b3e 572d 353d
000002e0: 1d92 103e 685c 903b 1a9e bcbd 39d2 1d3e
000002f0: 77ff adbd 6d41 f83b 2561 07be af57 3d3d
00000300: c782 3c3e 7bc3 103e 4681 b93d 34ab 91be
00000310: 48c9 db3d b72f 623c ec44 09bd 08db bd3d
00000320: b0a4 e1bd c256 71bd cbca b7bb e390 fbbd
00000330: 0f5b ea3d 3f6f 1dbd 9486 403c b72e 853d
00000340: ca7e 543d cf77 c4bd 8f9d 82bd 6988 adbd
00000350: 2d38 75be 4a8d cfbd eea3 24bd fb58 1a3e
00000360: 32fe 42bc 15a5 f7bc 20f3 a43b 1b90 07bd
00000370: 36ff 333e c7f1 88bd 2ff0 74bd 17c5 15be
00000380: c84d d5bd 113c c0bd 25a0 8aba ba1b 933d
00000390: bce0 abbd 606b e2bd 7db3 fabd 0a1e c43d
000003a0: 1475 003e 1bda c6bd 5025 e43d 9670 46be
000003b0: a866 063e 871d c5bd ebcc 17be bcb1 c53d
000003c0: b069 ba3e 25c5 3dbe c57c a03d 1fb6 dfbc
000003d0: 3d8e 82be ef39 0f3e 9343 fcbd 2ef6 043c
000003e0: e0de 16bd ad52 373e 69a2 33bc cd5c 87bd
000003f0: 4af3 b0be 6aa1 b53e 5aa5 243e 3a79 aa3e
0.097946994 0.09889435 0.04758453 -0.042412546 -0.0984943 0.06926351 0.04296717 -0.026511718
-0.2649454 -0.037556063 -0.08759984 -0.034192342 -0.007689666 0.10365614 -0.18485743 0.1212097
-0.05515622 0.09402386 0.23200157 -0.04330771 0.1320806 0.1639015 -0.014098028 0.031055663
-0.1020088 -0.18698095 0.24120812 0.09947317 -0.14550449 -0.14160745 0.06234237 -0.10111349
0.008227142 0.06662232 0.12693061 0.13017283 -0.053679865 -0.059100937 -0.060393643 0.0359831
-0.12495246 0.045590244 0.09964123 -0.16358164 -0.0039396854 -0.011886357 0.19536188 -0.11655734
0.10007576 0.0027716593 0.14864124 -0.037932117 -0.0487312 0.015281453 0.040083405 0.029318014
0.0964668 -0.01740132 0.07563463 0.122533165 -0.06949843 0.17600606 -0.15671904 -0.1540359
-0.09274681 -0.19064353 -0.095414504 -0.038395204 0.18688743 -0.04848236 0.06705628 -0.08249598
-0.110343575 0.05651632 0.06302502 -0.08290929 0.025153495 0.10713901 0.009233048 -0.012226513
-0.075838536 -0.033010032 0.12532906 -0.12911907 0.023244685 -0.099905655 0.08349494 0.13126466
0.122344114 -0.13258068 -0.017899577 -0.05971058 0.13146804 0.09587987 0.026038973 0.19266291
-0.12441291 -0.13966289 0.064460166 0.11298174 0.0035218005 0.06324695 -0.0041642487 0.029416943
0.023594288 -0.1768823 -0.08104126 0.005519305 -0.124003075 0.03768307 -0.077178836 0.041953307
0.060836244 0.020395994 0.10182828 0.030330438 0.0640806 0.1094676 0.01514173 -0.198131
-0.016057646 0.00492203 0.20241411 -0.029207492 0.18069434 -0.20329097 0.060114663 0.0930345
0.015627103 0.12657368 0.019661998 0.05423494 0.1133754 0.047798004 -0.1108392 -0.075318664
-0.0608487 -0.03366914 -0.06294872 0.04505331 0.07133882 0.10436924 -0.018191194 0.015779957
0.08389014 -0.1368476 0.1756085 0.11743774 0.08471295 -0.089962915 0.05457711 -0.053584486
0.099356435 0.055106204 0.038945254 -0.11739589 -0.11234516 -0.01708017 0.0956967 0.0733042
-0.06089997 -0.19653966 -0.22240022 0.071068294 0.14887288 0.036338188 -0.014690193 -0.032730293
0.1254565 -0.086016394 -0.008577509 -0.12760036 -0.082466386 0.07716067 -0.05800732 0.06771077
0.084947996 -0.023620216 0.005834689 0.08098228 0.0519014 0.07517378 0.15160853 0.044232693
0.14118238 0.004405547 -0.09209843 0.15412225 -0.08495992 0.0075761587 -0.13220651 0.0462262
0.18409263 0.1413707 0.0905786 -0.2845093 0.10731751 0.013805321 -0.033512995 0.092702925
-0.1101774 -0.05892063 -0.0056088916 -0.12283494 0.11443149 -0.03843617 0.011750836 0.06503051
0.051878728 -0.09593164 -0.06377708 -0.08473284 -0.2394721 -0.101343706 -0.040195398 0.15073006
-0.011901425 -0.030230084 0.0050338656 -0.033096414 0.17577824 -0.0668674 -0.05979937 -0.14625965
-0.10415226 -0.09386457 -0.0010576291 0.07183023 -0.08392474 -0.110556364 -0.12241266 0.09576042
0.12544662 -0.09709569 0.11139929 -0.19378886 0.13125098 -0.096247725 -0.14824264 0.09653041
0.36408758 -0.18532236 0.07836298 -0.027308522 -0.25499144 0.13986944 -0.12317576 0.008115334
-0.036833644 0.17902632 -0.010964015 -0.06609497 -0.34560615 0.35474712 0.16078702 0.33295614

input_layer.bias f4 [32]
00000000: e9ea 15bd 34bb 1e3e 512a 4f3e de35 f43b
00000010: cfb8 943c efaa a13d 9a06 393e 8962 813d
00000020: be4a 8f3d 3d95 093e 91f2 ed3d 607c d93b
00000030: d846 133e df0b 5f3e aad4 073e a5b2 d83d
00000040: 33bc 383e f747 323e c578 523e 3f92 533e
00000050: b410 cd3c bb8e 033e 3c58 503e 1ee9 1a3e
00000060: a888 053e a0a5 783f bac0 563e 2377 523e
00000070: ac01 643e 3472 623e 119f 2c3e 262c 973e
-0.03660098 0.155011 0.20230986 0.0074527105 0.01815453 0.07893931 0.18068925 0.06317622
0.06996678 0.13435836 0.116185315 0.006637141 0.14382493 0.21781872 0.13264719 0.10580949
0.18040542 0.17410265 0.20553882 0.20661257 0.025032379 0.12847416 0.20346159 0.1512799
0.13040411 0.97127724 0.20971957 0.2055326 0.22266263 0.22113878 0.16857554 0.2952587

hidden_layer1.weight f4 [64, 32]
00000000: 479c 9ebd 4784 d9bd 24a2 0ebe 1492 853b
00000010: ea53 2abe c579 a0bd 5160 bbbc f824 e93d
00000020: 75f8 4dbd 8695 bb3d 6289 8d3d 05d1 61bd
00000030: 49a8 e4bd 9bee c53d 4057 3ebd fdc9 74be
00000040: 3871 ff3b 8c88 303e a96f 8e3c bce1 afbc
00000050: c8b9 a9bd 9b70 13bc 18c2 12be 1614 01be
00000060: 7f0e acbd c777 9abe 19fe 57bc e7f8 243c
00000070: 823f 693c 21b8 2aba 5aac 473d 7a88 363d
00000080: 4f9b 393d dd6a 113e 8f86 ce3d 2a1b 59bd
00000090: 8652 263e 6b81 bebd b144 afbd d296 9cbd
000000a0: 3b4c 313e cb42 0cbd 2baa 313d c740 653d
000000b0: c09d cf3c e4bd c33c ad1e 73bd c863 eebd
000000c0: 816d a9bd 2bb4 04be ef4d c7bd 4d8a d3bd
000000d0: 5ed6 8f3c 6c5d b5bd 6f94 bfbd 0fda 9dbd
000000e0: c9c1 8cbd 5750 40bc 0ee4 453d d27d e3bd
000000f0: be40 3d3e 5aa9 ef3c 9361 573d d2c0 bdbd
00000100: 6776 e1bd 534b 0b3c f621 3abe c768 9a3d
00000110: d177 3bba 64de 913d 185f 09bd 2fa2 3bbe
00000120: edf5 6ebd 1568 b2bc b7d0 103d 8233 42bc
00000130: b265 1f3e 4c47 8a3d 6e65 ca3d 920a 0cbd
00000140: 27ba f93d 3fbb 30bd ef46 5abd 892b 07be
00000150: 439a 0bbe c360 b1bd 4a49 a3bd 7b93 ed3d
00000160: e74a 5aba 4527 42bd c201 d03c f246 60bc
00000170: 2700 7bbc 951f f63c eb7c 153d 6ed3 4ebd
00000180: fd09 4abe 4697 f03c 2041 f03b 90b7 20be
00000190: 1d69 bf3d 7f34 573e f73d ea3b 4bdb b83b
000001a0: 4a1d a83d 6517 ec3d 3d1c 083e 0faa fabc
000001b0: dd5e 1b3e 1502 993e ae5e 813e d3d2 b03e
000001c0: 84d6 2f3e ef12 1fbd 9c74 503d 76b1 a13c
000001d0: 9bd8 febc 4e8d d3bb 1fd3 133e c890 843e
000001e0: 113e 6d3e ed52 9fbf 7664 633e ed2e 3b3d
000001f0: a9ec 003e b642 4f3e 3874 413e 63ce 3ebd
00000200: 19d9 863e 000e f73c fadf 713c e622 0bbd
00000210: 90c9 07bd c345 a9bd 3ac9 523d e707 91bd
00000220: aff8 09bd 2690 93bd 0493 bc3c b394 85bc
00000230: 7d95 1dbe 4a22 e4bd 43d1 c9bc a262 ecbd
00000240: 742c 17bd 1309 e0bc cfc0 7f3d cf6e 7cbd
00000250: cd7d 3cbe c39f 64bd f207 1cbe 6a46 9abd
00000260: 7fc8 47bd 0277 92bc 5676 333e 3336 cbbd
00000270: 635f 9c3d ec24 10bd 0def 2a3d 4e1d 303d
00000280: 78c7 3fbd e787 b33e 7100 b43d 576f 00be
00000290: 419b 733c ecd3 a53e 7cbe bf3e eb32 703d
000002a0: 1ce9 443e a3a3 8a3e 53f9 803e 4791 d23c
000002b0: 8656 d73e 1e8b 803e 18eb 123e 059b 1f3e
000002c0: 2eb1 d03e e27b dc3d bf07 863e 8dd4 c93e
000002d0: d971 cabc 6b77 a73e 979b 8d3e ee9c 823e
000002e0: 9855 213e e665 7abf ae5d 733d b981 943e
000002f0: 38fe 843e afc7 ad3e 741b 7c3e 1467 9b3e
00000300: 5fdf b1bd e868 213f c093 213f 5deb bebc
00000310: 5729 4abe ccfe 063f d7d5 1a3f ada9 39ba
00000320: 3e94 473f 48d0 363f 27eb 0f3f cf23 e8bd
00000330: 8043 393f 2819 b83e fec9 173f bd7f d63e
00000340: 84a5 253f b9e1 243f 4e07 093f 361f 213f
00000350: f1c2 1dbe 6a41 393f f2d4 f53e 533d 243f
00000360: 391a 133f dbc0 953e 80ca 033f a753 0d3f
00000370: 5b19 113f 8b88 273f dba3 353f 27a1 c83e
00000380: c064 dabd 032b 35bd c638 26be 240a 0ebd
00000390: 2147 4ebc 93b4 59bd 311b aebd bfb3 43be
000003a0: 9e5b dcbc 1e4b a13c 54ef cebd 0016 d33d
000003b0: ed19 bc3d c570 fc3b 046c 6bbd 3f10 83bd
000003c0: e639 ff3d b34b 4dbe 555b 55bd 7eba 26be
000003d0: fb29 fdbc 9347 0f3d 7945 8f3c 5077 833c
000003e0: 233d 30be 3905 4f3e 44ed b8bd 37a3 8dbd
000003f0: 91ab b63d efb0 7bbd 03fa b1bd 0001 97bd
-0.07744651 -0.10620933 -0.13929039 0.0040762518 -0.16633573 -0.07835726 -0.022873076 0.11384004
-0.050285775 0.09159379 0.06910969 -0.055130977 -0.1116491 0.09664651 -0.046469927 -0.23905177
0.007795479 0.17239588 0.017387228 -0.021469943 -0.08287388 -0.008999015 -0.14331853 -0.12605318
-0.084012024 -0.30169508 -0.01318314 0.010069109 0.014236333 -0.00065124227 0.04874835 0.044563748
0.04531413 0.14200921 0.10084259 -0.05300442 0.16242418 -0.09302028 -0.08558024 -0.07645954
0.17314236 -0.034243386 0.043375175 0.05596998 0.025343776 0.023894258 -0.059355427 -0.116401255
-0.08272839 -0.12959354 -0.097316615 -0.10329113 0.017558273 -0.088557094 -0.09354483 -0.07707607
-0.06872899 -0.0117379045 0.048313193 -0.11107983 0.18481728 0.029255558 0.05258329 -0.09265293
-0.110089116 0.008501845 -0.18177018 0.07539516 -0.0007151338 0.07122496 -0.033537954 -0.18323587
-0.05834 -0.021778146 0.035355296 -0.011853101 0.15566137 0.0675188 0.098826274 -0.034189768
0.12193709 -0.04314732 -0.053290304 -0.13200201 -0.13633065 -0.08661034 -0.07972963 0.11600395
-0.00083272014 -0.04740073 0.025391463 -0.01368879 -0.015319861 0.030044356 0.036496084 -0.050494604
-0.19730373 0.029369008 0.0073319823 -0.15695024 0.09346221 0.2101612 0.0071485 0.005641376
0.082087114 0.115279 0.13292022 -0.030598668 0.15172906 0.298844 0.25267547 0.34535846
0.17171675 -0.038836416 0.050892457 0.01973794 -0.031109145 -0.006456054 0.14436005 0.2589171
0.23168208 -1.2447182 0.22206292 0.04569905 0.12590279 0.20240292 0.1889199 -0.046583544
0.26337507 0.030158043 0.014762873 -0.03396883 -0.03315121 -0.08265259 0.051461436 -0.070815854
-0.03368443 -0.072052285 0.023019321 -0.016306257 -0.15389057 -0.111393526 -0.024635917 -0.1154225
-0.03690763 -0.027348077 0.062439736 -0.061629113 -0.18407364 -0.055816423 -0.15237406 -0.07532962
-0.048775192 -0.017879013 0.1752561 -0.09922447 0.07635381 -0.03519146 0.041731883 0.042996697
-0.046821088 0.35064623 0.08789147 -0.12542473 0.014868558 0.32388246 0.37450016 0.05864231
0.19229549 0.2707797 0.2519022 0.02570404 0.420582 0.25106138 0.14347494 0.15586479
0.40760177 0.10765816 0.26177785 0.39419976 -0.02471249 0.32708296 0.27657768 0.25510353
0.15755308 -0.97811735 0.05941551 0.2900522 0.25975204 0.3394141 0.24619848 0.3035208
-0.08685183 0.630507 0.63116074 -0.02330559 -0.19742332 0.5273254 0.60482544 -0.00070824736
0.77960575 0.7141156 0.5621819 -0.11334955 0.7236862 0.35956693 0.5929259 0.41894332
0.6470568 0.64406925 0.5352677 0.6293825 -0.15406395 0.7236544 0.48014027 0.64156073
0.5746189 0.292487 0.51480865 0.5520577 0.56679314 0.65442723 0.7095315 0.3918545
-0.10663748 -0.044230472 -0.16232595 -0.03467764 -0.012590201 -0.053150725 -0.0850128 -0.19111536
-0.026899155 0.019689139 -0.10104242 0.103069305 0.091846325 0.007703873 -0.05747606 -0.06399583
0.12462215 -0.20048408 -0.052089054 -0.16282079 -0.030903807 0.034980368 0.017489182 0.016048104
-0.17210822 0.20216836 -0.0902963 -0.069158964 0.089194424 -0.061448034 -0.08690264 -0.073732376

hidden_layer1.bias f4 [64]
00000000: 2218 053e 2c59 2c3d f9b2 2e3c a4e8 adbd
00000010: f7df 34be e15a 9639 4b21 013f d5a0 923c
00000020: 4b36 d1bc 26fd d3bd de37 223d d655 533c
00000030: edbc 15be 3ab6 f23d d42f 86bd b008 ea3d
00000040: dd44 30be 992e 31be 34bb 113d af4c 99be
00000050: d843 34be 1b25 c63d 82d9 86be 0687 04bd
00000060: 1c9a 873d 754a 27bd e021 d13d 45df 89be
00000070: 862a abbe 94b7 9c3d 6464 01be 5b70 81bc
00000080: fefa 6b3d 07e3 82be 409f 973d 9e06 90be
00000090: 9fb4 42be 319f 98bd 297c 17be 1812 c6bd
000000a0: 16ab cbbd b96d 863d 6011 953c e3e3 35bd
000000b0: 6481 1abd 060d 313e 8a96 003e e29d 4fbe
000000c0: 299b 573e fd2c 573e e89e 50bd ebd7 02bc
000000d0: ce4a 783e 3d06 7ebc b01f 12be cdc4 82be
000000e0: 4d56 693e 4235 f5bd 5520 2bbe 1126 23be
000000f0: 8164 abbc da46 f7bd efad 62bd ad93 00be
0.12997487 0.04207723 0.010662788 -0.08491638 -0.17663561 0.0002867794 0.50441426 0.017898956
-0.025538584 -0.103510186 0.03960406 0.012898883 -0.1462285 0.11851163 -0.06552091 0.11427438
-0.1721377 -0.17302932 0.03557892 -0.29941317 -0.17604005 0.09675046 -0.2633782 -0.03235533
0.06621191 -0.040842492 0.10211539 -0.26928154 -0.3343088 0.07652202 -0.12635952 -0.015800646
0.05761241 -0.25563833 0.074034214 -0.2813005 -0.19014214 -0.07452238 -0.14793457 -0.0967142
-0.099447414 0.06563897 0.018196762 -0.044406783 -0.037721053 0.17290124 0.12557426 -0.20275071
0.21055283 0.21013255 -0.050932795 -0.007986049 0.24247286 -0.015504417 -0.142699 -0.25540772
0.22786827 -0.11973049 -0.16711552 -0.1593249 -0.020921947 -0.12074061 -0.055341657 -0.12556334

hidden_layer2.weight f4 [32, 64]
00000000: e247 e63d faab 21be 033c bb3d 7201 42be
00000010: 7b70 333d 4222 fa3c aa27 cdbb 7b22 a83c
00000020: 5d14 19be 69eb 223d 28aa 88bb 1a65 393c
00000030: 2fff 823d 9296 a73d 2737 f13b 2939 32be
00000040: 6fb4 37be b168 813c 6a67 92bd 2119 62bd
00000050: 9014 30be 9cb3 1abd 397c b8bd 7479 923d
00000060: b03d 17bd 2b8c 6c3c 81e3 4fbd 042d 94bd
00000070: b3df ebbc 8488 ecbd d71b 98bd 5d54 a23d
00000080: 5830 b13d ba22 163e f6fc 61be cea0 313c
00000090: 8e99 243e d121 d9bd 43db 10bd e1c0 0a3e
000000a0: 33d2 843e 1b2d 253d 376c f4bd 2de2 0abe
000000b0: 1a91 9dbd 9dce 133d 30f8 da3d ff78 b23d
000000c0: 8536 02be 6005 9abd 1a0e 913d 2a4e 10bc
000000d0: 3cc4 bfbd 088a debd 9ba7 d9bd 46ce 743b
000000e0: 218b 5abe 3a37 903d 92d0 3cbd a870 7d3d
000000f0: 65c0 f83c f635 34be 7558 fc3d ea70 ad3c
00000100: 6dfa 8f3d aaf2 a43e 07a8 79bc 2bbf 3fbe
00000110: 51d9 39be 998d 63be 6f7a 1fbe ff10 3fbd
00000120: 5fac 883d 337f 1bbd 9a08 49bc 4c9a 32bd
00000130: 6c74 afbd 7f93 043e 6bd3 a63c fbc6 d6bd
00000140: ddd0 d7bc bac6 eb3d 69be 4abd 1b61 373d
00000150: 98e7 cebd 02e8 a2bd 6571 6fbd b6d3 5cbc
00000160: bb7f 393e 89f6 e03d 9585 33bc c607 babd
00000170: 1c86 87bd 9373 b83d 0ca3 9bba 728e b83d
00000180: 8f60 783e 36a1 95bd f85a c2bc d7c6 9939
00000190: 9a75 c63c a4a5 cdbd 27b5 d93d 54cc c13c
000001a0: c0fd 9b3d 81f7 ca3d 3582 2f3d f786 11bd
000001b0: 5384 84bd 9297 cd3c 93e9 793d 93c8 533d
000001c0: e0a7 91bd e762 633d ea5b 56bc b0fa fbbd
000001d0: 4f33 38be c8ab 49be 7bcb cebd 8c81 b53d
000001e0: 7a40 553e bdb0 5a3d 57bc 9bbd e3e6 86bb
000001f0: 4526 39bd 5410 02bd 90ff 1dbd 4ad1 06bd
00000200: 8c36 263d 7c8b 0dbe 3ac0 42ba 0871 5a3e
00000210: 51b6 9ebd 5806 ca3d d854 52be c1b4 4cbd
00000220: 7f19 f03d cdf7 a93e 3fe0 be3e 474f e73d
00000230: 53e9 8d3e f761 f93d 8dea bfbc d996 b3bd
00000240: d7d6 91bd 3da4 733e 1093 0e3e ac14 713e
00000250: e062 8e3e a42d d3bc d0f8 5b3e b709 b03e
00000260: f6b0 ce3e edbd a13d 4535 783e 2917 013f
00000270: da95 d83e c547 9a3e c2bb e7bc 24ec ac3e
00000280: c03e 083e 53c6 c23e e1e6 9b3e a3a8 ad3e
00000290: 7024 873e 235a 553e 0667 f6bd 98ab c63e
000002a0: 9fed 64be 7e8e 8b3d 4bf2 fc3d 843d 873e
000002b0: 2da3 c53e cbb2 1f3c b04f 92bd ee65 033e
000002c0: 721a 153e 4b73 4bbd 4585 06be 742d 8e3e
000002d0: 998b ccbd 72ce 743e 2d4e 89be 85b7 a33e
000002e0: 675b 4f3e b6da 8f3e a7df 9d3d 3d83 253e
000002f0: e27c c53e e0e4 b6bd d825 073e 88f0 7b3e
00000300: 4d2f fdbd 970c 1f3d 249f 6fbd 3a36 d73e
00000310: 2e88 83bd 3c26 933e 474b a73d a92c 67be
00000320: 69cc e33e 83e8 6b3e 02bb ca3e c835 a23e
00000330: 5fc5 893e 442a 8a3d 1a42 953c 096d aa3c
00000340: 2489 c7bd b4f8 063f 28cc d73e 6ad8 b13e
00000350: 8dcd 3b3e e2cc 11be ccb9 943e 8db5 903e
00000360: 0e0b 7e3e 2e88 b03c 97d5 cc3e 3010 993e
00000370: 3ef3 a13e f313 ca3e b941 5fbd 01af 8f3e
00000380: 2a72 e2bd ce73 3d3e 0483 f43e db50 c43e
00000390: 215b 6b3e 52ef 823e dfb8 24be 2c65 993e
000003a0: aa26 8abc b622 763e fff0 543e f33c 133f
000003b0: 74a2 993e b0d9 7dbd ca8f a63d 2550 003f
000003c0: 20d8 553e 3589 06be 91d3 2abd ad2e 893e
000003d0: d6b5 7dbe 9c6f 4cbe 5bed 973d 9294 ab3e
000003e0: ec86 7f3e d03b b43e 4760 2cbd 8556 9c3d
000003f0: f859 a53e 9ad4 443d da63 c13e 6227 4bbc
0.11244179 -0.1578826 0.09142306 -0.18945864 0.04380844 0.030533914 -0.006260832 0.020524254
-0.14949174 0.039775286 -0.004170675 0.011315608 0.06396329 0.08183016 0.007361311 -0.17404617
-0.17939924 0.015796991 -0.07148631 -0.055199746 -0.17195344 -0.037768945 -0.090080686 0.071520716
-0.036924064 0.0144377155 -0.050754074 -0.072351485 -0.028793192 -0.11549476 -0.07427185 0.07926247
0.08651799 0.14661685 -0.22069153 0.0108415615 0.16074201 -0.10602153 -0.035365354 0.1355014
0.2594162 0.04032622 -0.11934703 -0.13562842 -0.076936916 0.036085714 0.10691869 0.087144844
-0.1271611 -0.075205564 0.07082768 -0.008807698 -0.093636006 -0.10866171 -0.10627671 0.0037354394
-0.21342136 0.07041784 -0.046097346 0.061875015 0.030365178 -0.1759871 0.12321559 0.021172006
0.07030187 0.32216388 -0.015237815 -0.18725269 -0.18149306 -0.22221984 -0.15574048 -0.046647068
0.06673502 -0.037963104 -0.012270117 -0.04360418 -0.085671276 0.1294689 0.020364484 -0.10487171
-0.026344711 0.115125135 -0.049497996 0.04477034 -0.10102767 -0.07954408 -0.05845775 -0.01347821
0.18115132 0.10984523 -0.010957141 -0.09083514 -0.06617376 0.09006419 -0.0011874153 0.09011544
0.24255584 -0.07306139 -0.023725018 0.0002933058 0.024225999 -0.10041359 0.10630255 0.023657002
0.07616758 0.09910489 0.042848784 -0.035529103 -0.06470551 0.025096688 0.06101377 0.051704954
-0.07112098 0.055514243 -0.013083437 -0.12303674 -0.17988323 -0.19694436 -0.100974046 0.088626
0.20825377 0.053391207 -0.07604282 -0.0041168793 -0.045202512 -0.031753853 -0.0385738 -0.032914437
0.040579364 -0.1382274 -0.00074291567 0.2133218 -0.07749618 0.09864491 -0.20540178 -0.049977068
0.11723613 0.3319687 0.3728046 0.11294418 0.27717075 0.121768884 -0.023427272 -0.08769006
-0.071210556 0.2379312 0.13923287 0.23543042 0.2780981 -0.0257786 0.21481633 0.34382412
0.40369385 0.078975536 0.2423907 0.50425965 0.42301828 0.3013288 -0.028287772 0.3377391
0.13305187 0.38041934 0.30449584 0.33917722 0.26394987 0.20835166 -0.12031369 0.3880279
-0.2235627 0.068142876 0.12350901 0.2641412 0.38601056 0.009747217 -0.071441054 0.12831852
0.1456087 -0.0496705 -0.13136776 0.27769053 -0.09987564 0.23906878 -0.26817456 0.31975952
0.20249711 0.2809655 0.07708674 0.16163345 0.3857184 -0.08930373 0.1319803 0.24603474
-0.123625375 0.038830366 -0.058501378 0.4203356 -0.064224586 0.28740108 0.08168655 -0.2257563
0.4449189 0.23037915 0.395958 0.31681657 0.26908395 0.06746343 0.018219996 0.020803945
-0.097429544 0.5272324 0.42147946 0.34735423 0.1834013 -0.14238313 0.29048002 0.28263512
0.24808905 0.02154931 0.40006706 0.29895163 0.31630892 0.39468345 -0.054506037 0.28063205
-0.11056931 0.18501207 0.47756207 0.38342938 0.22983982 0.25573212 -0.16086148 0.2996
-0.01686414 0.24036679 0.20795058 0.57514876 0.30006754 -0.06197518 0.08132894 0.5012229
0.20883226 -0.13138278 -0.04170567 0.26793423 -0.24776396 -0.1996445 0.07418319 0.33511788
0.24953812 0.35201883 -0.042084005 0.0763369 0.32295203 0.048054315 0.37771493 -0.012399526

hidden_layer2.bias f4 [32]
00000000: 5a2b d63d 148d dbbb dfff febd a294 16bd
00000010: 3069 8ebe a617 03be d694 09bd a88d e3bc
00000020: bd89 b6bd e627 a63e 8512 8f3d 393c e5bd
00000030: f632 4b3e 42e9 163d 27ba 1dbe 0db3 0bbe
00000040: e28a c83c c081 b2bc 7809 6f3d 832d e73b
00000050: a88a 0c3e 94eb 65bb 9e78 c8bc 8a99 5cbd
00000060: 6eed 1fbe b9ed 273d b197 9abe fd98 d6bd
00000070: 7e00 b9bc 509c 70bb 3637 eebd 5d84 95bc
0.104574874 -0.0067001674 -0.12451147 -0.03676284 -0.27814627 -0.1280199 -0.033589207 -0.027777508
-0.0891299 0.32452315 0.06985954 -0.11193127 0.19843659 0.036843546 -0.15403043 -0.13642521
0.024480287 -0.021790385 0.05835864 0.007054986 0.13724768 -0.0035083042 -0.024471577 -0.053857364
-0.15617916 0.040998194 -0.30193856 -0.10478399 -0.022583243 -0.0036714263 -0.116316244 -0.018251592
