Comparison/TrainedModel/20-0.001-99-Agent/node_agent_85.pth (torch, 42692 bytes, 6 tensors)

input_layer.weight f4 [32, 180]
000000 6f 98 c8 3d 1f 89 ca 3d ff e7 42 3d c7 b8 2d bd
       0.097946994 0.09889435 0.04758453 -0.042412546
000010 61 b7 c9 bd 07 da 8d 3d 58 fe 2f 3d 1a 2f d9 bc
       -0.0984943 0.06926351 0.04296717 -0.026511718
000020 ec a6 87 be 63 d4 19 bd 8b 67 b3 bd 45 0d 0c bd
       -0.2649454 -0.037556063 -0.08759984 -0.034192342
000030 4f ac 68 3c 61 8f 00 3e bf e0 26 be cb 3c f8 3d
       0.014201238 0.12554695 -0.16296671 0.1212097
000040 7d eb 61 bd 95 8f c0 3d d2 91 6d 3e 6d 63 31 bd
       -0.05515622 0.09402386 0.23200157 -0.04330771
000050 23 40 07 3e cb d5 27 3e 6a fb 66 bc 72 68 fe 3c
       0.1320806 0.1639015 -0.014098028 0.031055663
000060 fd e9 d0 bd ef 77 3f be 43 ff 76 3e 97 b8 cb 3d
       -0.1020088 -0.18698095 0.24120812 0.09947317
000070 21 ff 14 be 8b 01 11 be b7 5a 7f 3d 97 14 cf bd
       -0.14550449 -0.14160745 0.06234237 -0.10111349
000080 22 cb 06 3c 48 71 88 3d 19 fa 01 3e 07 4c 05 3e
       0.008227142 0.06662232 0.12693061 0.13017283
000090 6b df 5b bd d3 13 72 bd 53 5f 77 bd 04 63 13 3d
       -0.053679865 -0.059100937 -0.060393643 0.0359831
0000a0 13 e7 ff bd d6 bc 3a 3d b4 10 cc 3d f2 81 27 be
       -0.12495246 0.045590244 0.09964123 -0.16358164
0000b0 7a 18 81 bb 56 63 36 3b 7e 12 57 3e e9 aa d0 bd
       -0.0039396854 0.0027830205 0.21003148 -0.101888485
0000c0 85 f4 cc 3d ba a4 35 3b 69 35 18 3e b5 5e 1b bd
       0.10007576 0.0027716593 0.14864124 -0.037932117
0000d0 5e 9a 47 bd 0f 5f 7a 3c 7f 2e 24 3d 55 2c f0 3c
       -0.0487312 0.015281453 0.040083405 0.029318014
0000e0 63 90 c5 3d 37 8d 8e bc 54 e6 9a 3d ab f2 fa 3d
       0.0964668 -0.01740132 0.07563463 0.122533165
0000f0 31 55 8e bd 74 a5 4a 3e c1 24 17 be 96 bb 1d be
       -0.06949843 0.19789678 -0.14760114 -0.1540359
000100 77 e9 99 bd 0f 38 43 be a0 3d db bd 9f a8 4a 3e
       -0.07515233 -0.19064353 -0.107051134 0.19790886
000110 b6 3f 1e 3f 4b c9 72 bf b8 2c c6 3e de d9 9b 3d
       0.61815965 -0.948384 0.38705993 0.07609914
000120 6b 76 cf 3e 19 cf 8b 3e 58 33 79 3f 6e a5 1c be
       0.40520033 0.2730644 0.9734397 -0.15297481
000130 2a a6 81 be 75 48 a5 be 03 aa f8 be 03 9c 83 3e
       -0.25322086 -0.32281843 -0.4856721 0.25704965
000140 3c 51 9b bd 49 30 2b 3e 43 56 00 3e ca 37 04 be
       -0.075838536 0.16717638 0.12532906 -0.12911907
000150 a3 6b be 3c 56 9b cc bd 65 ff aa 3d 3e 6a 06 3e
       0.023244685 -0.099905655 0.08349494 0.13126466
000160 8d 8f fa 3d 3b c3 07 be 22 a2 92 bc 15 93 74 bd
       0.122344114 -0.13258068 -0.017899577 -0.05971058
000170 8f 9f 06 3e aa 5c c4 3d af 4f d5 3c 6d 49 45 3e
       0.13146804 0.09587987 0.026038973 0.19266291
000180 32 cc fe bd c3 fc ff bd b1 03 84 3d f8 62 e7 3d
       -0.12441291 -0.12499382 0.064460166 0.11298174
000190 02 ce 66 3b 9e 87 81 3d 40 74 88 bb cd fb f0 3c
       0.0035218005 0.06324695 -0.0041642487 0.029416943
0001a0 cf 48 c1 3c a2 20 35 be f6 f8 a5 bd 49 db b4 3b
       0.023594288 -0.1768823 -0.08104126 0.005519305
0001b0 53 f5 fd bd 90 59 1a 3d f0 0f 9e bd 3b d7 2b 3d
       -0.124003075 0.03768307 -0.077178836 0.041953307
0001c0 6d 2f 79 3d 03 35 2d 3d 58 8b d0 3d 8a 77 f8 3c
       0.060836244 0.042286884 0.10182828 0.030330438
0001d0 b1 3c 83 3d 8d 30 e0 3d 05 15 78 3c 55 78 34 be
       0.0640806 0.1094676 0.01514173 -0.17624028
0001e0 53 8b 83 bc fb 48 a1 3b a5 45 4f 3e 8d 44 ef bc
       -0.016057646 0.00492203 0.20241411 -0.029207492
0001f0 f0 07 39 3e 82 2b 50 be cb 3a 76 3d df 88 be 3d
       0.18069434 -0.20329097 0.060114663 0.0930345
000200 69 04 80 3c 88 9c 01 3e 33 12 a1 3c 75 25 5e 3d
       0.015627103 0.12657368 0.019661998 0.05423494
000210 5d 31 e8 3d d7 c7 43 3d aa ff e2 bd ac 40 9a bd
       0.1133754 0.047798004 -0.1108392 -0.075318664
000220 7d 3c 79 bd a7 e8 09 bd 42 eb 80 bd d2 89 38 3d
       -0.0608487 -0.03366914 -0.06294872 0.04505331
000230 16 1a 92 3d 8a bf d5 3d b3 05 95 bc f8 44 81 3c
       0.07133882 0.10436924 -0.018191194 0.015779957
000240 98 ce ab 3d c7 21 0c be b7 d2 33 3e 33 83 f0 3d
       0.08389014 -0.1368476 0.1756085 0.11743774
000250 fc 7d ad 3d 7a 3e b8 bd 3f 8c 5f 3d 55 65 1f bd
       0.08471295 -0.089962915 0.05457711 -0.038914997
000260 b1 85 e9 3d 0b b7 61 3d 0f 85 1f 3d 42 6d f0 bd
       0.11402453 0.055106204 0.038945254 -0.11739589
000270 38 15 e6 bd b6 eb 8b bc a2 fc c3 3d 83 20 96 3d
       -0.11234516 -0.01708017 0.0956967 0.0733042
000280 3f 72 79 bd b1 41 49 be e2 bc 63 be 41 8c 91 3d
       -0.06089997 -0.19653966 -0.22240022 0.071068294
000290 22 72 18 3e 95 81 6e 3d 23 af 70 bc 33 10 06 bd
       0.14887288 0.058229048 -0.014690193 -0.032730293
0002a0 ab 77 00 3e 5e 1e 92 bd ae 88 0c bc ab a9 02 be
       0.1254565 -0.07134698 -0.008577509 -0.12760036
0002b0 17 1e 78 bd 6a 06 9e 3d 15 99 6d bd f2 ab 8a 3d
       -0.06057557 0.07716067 -0.05800732 0.06771077
0002c0 37 f9 ad 3d 2f 7f c1 bc eb 30 bf 3b 0a da a5 3d
       0.084947996 -0.023620216 0.005834689 0.08098228
0002d0 90 96 54 3d b6 f4 99 3d 44 3f 1b 3e 57 2d 35 3d
       0.0519014 0.07517378 0.15160853 0.044232693
0002e0 1d 92 10 3e 68 5c 90 3b 1a 9e bc bd 39 d2 1d 3e
       0.14118238 0.004405547 -0.09209843 0.15412225
0002f0 77 ff ad bd 6d 41 f8 3b 25 61 07 be af 57 3d 3d
       -0.08495992 0.0075761587 -0.13220651 0.0462262
000300 4b f8 59 3d 7f ea 2b 3c 75 10 25 bd 34 ab 91 be
       0.053215306 0.01049292 -0.040298898 -0.2845093
000310 48 c9 db 3d b7 2f 62 3c ec 44 09 bd 08 db bd 3d
       0.10731751 0.013805321 -0.033512995 0.092702925
000320 b0 a4 e1 bd c2 56 71 bd cb ca b7 bb e3 90 fb bd
       -0.1101774 -0.05892063 -0.0056088916 -0.12283494
000330 0f 5b ea 3d 3f 6f 1d bd 94 86 40 3c b7 2e 85 3d
       0.11443149 -0.03843617 0.011750836 0.06503051
000340 ca 7e 54 3d cf 77 c4 bd 8f 9d 82 bd 69 88 ad bd
       0.051878728 -0.09593164 -0.06377708 -0.08473284
000350 2d 38 75 be 4a 8d cf bd ee a3 24 bd fb 58 1a 3e
       -0.2394721 -0.101343706 -0.040195398 0.15073006
000360 32 fe 42 bc 15 a5 f7 bc 20 f3 a4 3b 1b 90 07 bd
       -0.011901425 -0.030230084 0.0050338656 -0.033096414
000370 36 ff 33 3e c7 f1 88 bd 2f f0 74 bd 17 c5 15 be
       0.17577824 -0.0668674 -0.05979937 -0.14625965
000380 c8 4d d5 bd 45 4a 92 bd 22 1d af 3c 72 0d c1 3d
       -0.10415226 -0.07143072 0.021376196 0.094263926
000390 bc e0 ab bd 60 6b e2 bd 7d b3 fa bd 0a 1e c4 3d
       -0.08392474 -0.110556364 -0.12241266 0.09576042
0003a0 14 75 00 3e 1b da c6 bd 50 25 e4 3d 96 70 46 be
       0.12544662 -0.09709569 0.11139929 -0.19378886
0003b0 a8 66 06 3e 87 1d c5 bd eb cc 17 be bc b1 c5 3d
       0.13125098 -0.096247725 -0.14824264 0.09653041
0003c0 fe c4 9c bc a7 b8 91 bd 9b d7 3e bb 22 0b 72 3d
       -0.019136902 -0.07115298 -0.002912021 0.05909265
0003d0 b5 f4 bd 3d ef 39 0f 3e f7 c9 0a be 2d 57 61 3e
       0.0927519 0.13986944 -0.13553606 0.22005911
0003e0 66 ea b3 3e 91 62 3e bf 9e 88 a1 3e 0c 64 ad 3d
       0.3513977 -0.7436915 0.31549543 0.08466348
0003f0 c0 82 c8 3e 95 e4 62 3e 84 c0 98 3f e7 1f e6 bd
       0.39162254 0.2215751 1.1933751 -0.11236554

input_layer.bias f4 [32]
000000 1a dd 2a b8 5d bd 3e 3d 0b ed 8f 3d 2c 4e 6e bd
       -4.0737075e-05 0.04656731 0.07027634 -0.05818002
000010 7e 1a 87 3f 8b 04 48 3f 84 02 89 ba c5 b9 09 3c
       1.055496 0.7813193 -0.001045302 0.008406107
000020 7e 39 13 be 62 92 0a 3d 83 42 8f 3f 15 67 cb 3e
       -0.143774 0.033831008 1.1192173 0.39727083
000030 2e ea 0f bd 50 51 cd 3d ef 18 a7 bd fb b4 89 bd
       -0.03513544 0.10025275 -0.081590526 -0.067239724
000040 40 55 0f 3d 21 c0 3a bc 37 57 97 3d 40 41 32 3d
       0.03499341 -0.011398346 0.07389682 0.04351926
000050 c0 62 ad 3c 41 de 3f bd 99 7c a9 3d e6 26 80 3d
       0.021165252 -0.046842817 0.08275718 0.06257419
000060 33 3c a1 bc 3c c2 e9 bd 16 75 23 3d 8c d6 81 3d
       -0.019682026 -0.114140004 0.039906584 0.0633975
000070 19 4c fb 3d f9 d1 00 bc 65 c5 73 bd 8a 37 02 3e
       0.12270374 -0.007862561 -0.059514422 0.12716499

hidden_layer1.weight f4 [64, 32]
000000 95 80 b0 bd de ad d8 bd a2 1f eb bd 86 07 54 3c
       -0.08618275 -0.105800375 -0.11480643 0.012941247
000010 c0 89 2d be 35 be 6d bd 9d 59 46 bc db 36 c0 3d
       -0.16947079 -0.058042724 -0.012106326 0.09385463
000020 cb ae 4e bd 77 83 ca 3d f9 cf 8f 3d 05 d1 61 bd
       -0.050459664 0.09888356 0.070220895 -0.055130977
000030 65 ae c9 bd c5 e3 d7 3d fc 81 28 bd 72 9d 71 be
       -0.09847716 0.105414905 -0.041139588 -0.23595217
000040 cd 8f 12 3a d4 3f 46 3e 3e c0 12 3c af 89 d1 bc
       0.0005590886 0.19360286 0.008956967 -0.025578348
000050 aa b8 b2 bd 46 09 48 bc 2d 02 17 be 78 a3 17 be
       -0.08726628 -0.012209242 -0.14746924 -0.14808452
000060 6b d1 94 bd 50 0c 98 be 87 c4 25 bc e6 d6 87 3c
       -0.07266506 -0.29696894 -0.010117657 0.016581964
000070 ba 90 8f 3c dd d6 8b 3b 17 39 73 3d a6 e4 3e 3d
       0.017525066 0.004267557 0.059380617 0.046604775
000080 4d d2 6e 3f 2c 0e 80 3f 79 15 66 3f 9c 54 30 3f
       0.93289644 1.0004325 0.89876515 0.68879104
000090 6f ce 1b 3f b1 b1 81 bf 37 ea 3a 3f 2b bd 5d 3f
       0.6086187 -1.0132352 0.73013633 0.8661677
0000a0 ec a5 8e 3f e6 e1 59 3f e9 4e f4 3e c8 c6 50 3f
       1.1144385 0.8511032 0.47716454 0.81553316
0000b0 eb a8 7a 3f ef 32 50 3f 9c bc 64 3f 6f 41 4a 3f
       0.97914 0.8132772 0.89350295 0.79006094
0000c0 9e a4 2a 3f 05 3b 43 3f 59 33 29 3f 80 ad 24 3f
       0.66657436 0.7626193 0.66093975 0.6432724
0000d0 5e d6 8f 3c 3c 88 43 3f da e0 2f 3f 41 21 43 3f
       0.017558273 0.7637975 0.6870247 0.76222616
0000e0 71 06 49 3f 60 a7 7e 3f 41 fe 54 3f 7a 8a 38 3f
       0.78525454 0.99474144 0.8320046 0.720863
0000f0 14 f3 6c 3f 36 9a 71 3f 71 7a 4b 3f e4 1a 38 3f
       0.9255841 0.9437593 0.79483706 0.7191603
000100 62 8a fa bd 7f 02 4c 3c 44 cb 3e be fe ce a0 3d
       -0.12233426 0.012451767 -0.18632227 0.078519806
000110 50 3d 83 bd e9 bf 49 3d 92 93 d9 bc 91 1b 33 be
       -0.06408179 0.049255285 -0.026559625 -0.17490984
000120 cf 36 54 bd 33 b3 65 bd 8f cb c1 bc fc fa 30 bd
       -0.051810082 -0.0560791 -0.023656635 -0.043208107
000130 b2 65 1f 3e f1 b5 a5 3d 6b 88 cc 3d f0 41 07 bd
       0.15566137 0.08091343 0.09986957 -0.033021867
000140 44 f7 10 3e ee 7a 08 bd f9 c3 62 bd 84 86 0e be
       0.14156824 -0.03332036 -0.055362675 -0.13918501
000150 ba 29 03 be 0b 27 8c bd b6 6b ae bd bc ae d4 3d
       -0.12808886 -0.06843384 -0.08516638 0.103848904
000160 92 66 81 3a 45 27 42 bd fb 24 01 3d 84 c9 c4 bc
       0.0009872487 -0.04740073 0.031529408 -0.024021871
000170 07 4c 8d bc ba c0 fd 3c d3 ee 2c 3d db e8 56 bd
       -0.017248167 0.030975688 0.042219948 -0.052468162
000180 96 64 39 3d 85 74 00 3e b8 20 80 3d d9 58 e5 3e
       0.04526194 0.12544449 0.062562406 0.44794348
000190 70 23 82 bf ef 06 34 bf 28 d6 4e 3d 69 e6 96 3e
       -1.0167065 -0.7032308 0.050497204 0.29472664
0001a0 97 93 87 3e 5d 27 2e 3e c2 32 95 bf 3c 83 c5 3e
       0.2647979 0.17007203 -1.1656115 0.38576686
0001b0 8a 79 9c 3e eb a9 bd 3e 30 be d6 3e 60 7c f4 3e
       0.30561477 0.370437 0.41941977 0.4775114
0001c0 83 da 6c 3e c9 bd d0 3d 8a d8 cc 3d 6a 42 7a 3d
       0.2313023 0.10192449 0.10002239 0.061098494
0001d0 e9 b3 8a bd 3a 16 f7 3d 8a 26 56 3e 76 08 84 3e
       -0.067725964 0.12064786 0.20913139 0.25787705
0001e0 20 64 93 3e 53 39 92 3e 14 bc 9a 3e ca 58 c1 3d
       0.28787327 0.2855936 0.30221617 0.09440763
0001f0 85 2d 17 3e b4 9b af 3e 1a 0e 82 3e 56 93 a8 3c
       0.14763458 0.3429848 0.25401384 0.020578068
000200 19 d9 86 3e 00 0e f7 3c fa df 71 3c e6 22 0b bd
       0.26337507 0.030158043 0.014762873 -0.03396883
000210 90 c9 07 bd c3 45 a9 bd 3a c9 52 3d e7 07 91 bd
       -0.03315121 -0.08265259 0.051461436 -0.070815854
000220 af f8 09 bd 26 90 93 bd 04 93 bc 3c b3 94 85 bc
       -0.03368443 -0.072052285 0.023019321 -0.016306257
000230 7d 95 1d be 4a 22 e4 bd 43 d1 c9 bc a2 62 ec bd
       -0.15389057 -0.111393526 -0.024635917 -0.1154225
000240 74 2c 17 bd 13 09 e0 bc cf c0 7f 3d cf 6e 7c bd
       -0.03690763 -0.027348077 0.062439736 -0.061629113
000250 cd 7d 3c be c3 9f 64 bd f2 07 1c be 6a 46 9a bd
       -0.18407364 -0.055816423 -0.15237406 -0.07532962
000260 7f c8 47 bd 02 77 92 bc 56 76 33 3e 33 36 cb bd
       -0.048775192 -0.017879013 0.1752561 -0.09922447
000270 63 5f 9c 3d ec 24 10 bd 0d ef 2a 3d 4e 1d 30 3d
       0.07635381 -0.03519146 0.041731883 0.042996697
000280 bb 38 55 3e 54 86 af 3e e7 84 8f 3c df 2a cc 3e
       0.20822422 0.34282172 0.017519427 0.39876458
000290 14 0f 9a bf f0 db 2f bf d0 2f 8c 3e f1 b6 9e 3e
       -1.2035851 -0.68694973 0.27380228 0.30998948
0002a0 96 28 8f 3e e3 d4 64 3e 1b 21 9d bf 93 97 d4 3e
       0.27960652 0.22346835 -1.2275728 0.41521892
0002b0 87 75 df 3e e0 c8 42 3e a1 90 77 3e a9 6c 12 3e
       0.43644354 0.1902194 0.24176265 0.14299263
0002c0 67 a3 bb 3e f5 0e dd 3d d4 7f 26 3e 50 73 97 3e
       0.36648104 0.107938685 0.162597 0.29580164
0002d0 de 3b 27 bd bc 28 8e 3e f0 8c 1a 3e c1 8c 27 3e
       -0.04082858 0.27765453 0.15092826 0.16362287
0002e0 da b3 48 3d e9 91 9a 3e 50 8b 61 3c 04 5e 3a 3e
       0.048999645 0.30189446 0.013766125 0.18199927
0002f0 2c e6 22 3e f3 2b b6 3e 2a 54 69 3e aa 97 36 3e
       0.15908116 0.35580406 0.22786012 0.17831293
000300 64 48 81 3e 79 b0 bd 3e 1f da 92 3e 81 31 37 3f
       0.25250542 0.370487 0.28682038 0.7155991
000310 95 de a5 bf db ce 3d bf 28 c5 88 3e d9 64 c3 3e
       -1.2958552 -0.7414376 0.26712918 0.38162878
000320 c0 5c 0c 3f e4 28 c1 3e f3 cc 98 bf 4d 47 fd 3e
       0.54829025 0.3772651 -1.1937546 0.4946846
000330 09 83 04 3f b8 60 20 3d 11 fc b6 3e 47 35 3e 3e
       0.51762444 0.03915474 0.35739186 0.18575011
000340 22 99 8e 3e 0f c1 bf 3e c7 3c 5b 3e 5b c9 86 3e
       0.27851206 0.3745198 0.21409903 0.26325497
000350 7c 12 c9 bd ec 24 f0 3e e8 30 fa 3d 3b c7 86 3e
       -0.09817979 0.4690317 0.122163594 0.26323876
000360 df 2a 81 3e af b2 df 3e b5 96 5e 3e 1d c4 65 3e
       0.2522802 0.43691012 0.21737178 0.22438093
000370 3a c2 57 3e 50 b1 d9 3e 74 08 ea 3e df 17 63 3d
       0.21070185 0.4251809 0.45709574 0.055442687
000380 6a cb f2 bd e7 72 29 bd 5e 35 df bd 02 5b 30 bd
       -0.118552044 -0.041369345 -0.10898851 -0.04305554
000390 54 19 65 bc c2 c2 ff bc 9f 0b 35 bd de 59 46 be
       -0.0139830895 -0.031220797 -0.044200536 -0.19370219
0003a0 30 f0 ba bb 87 ca 89 3d 31 20 8c bd 00 16 d3 3d
       -0.005704902 0.06728082 -0.068420775 0.103069305
0003b0 83 a4 03 3e a7 13 dc 3c 77 4f a8 bd 10 88 d2 bc
       0.12855725 0.02686484 -0.08218282 -0.025699645
0003c0 5d 72 f9 3d 39 b6 3e be 02 d0 05 bd 4b 8a 13 be
       0.12180016 -0.186242 -0.032669075 -0.14408223
0003d0 23 f0 b0 bc 20 ef 81 3d 02 a6 2e 3d 8f c8 6a 3d
       -0.021598881 0.063444376 0.042638786 0.057320174
0003e0 84 74 10 be bf e2 34 3e a6 c3 87 bd bf 21 27 bd
       -0.14106947 0.17664622 -0.06629114 -0.040803667
0003f0 9c f7 dd 3d 6c 7c 29 bd 1e 26 98 bd be 77 28 bd
       0.10838243 -0.041378424 -0.07429145 -0.04112982

hidden_layer1.bias f4 [64]
000000 28 b9 00 3e f8 96 e6 3e 38 83 0c 3c e1 4d 06 be
       0.12570632 0.45037055 0.008576207 -0.13115646
000010 f7 df 34 be 89 3b 61 be 53 c8 40 bd 28 5e 81 3d
       -0.17663561 -0.21995367 -0.047066044 0.06316787
000020 65 35 62 bc c9 00 2b be a8 51 8d bd d4 cf bc bd
       -0.013806676 -0.16699518 -0.0690034 -0.092193276
000030 6f 07 64 be 50 e2 5e 3f db 44 20 be 6c 39 af 3d
       -0.2226846 0.87064075 -0.15651266 0.08555874
000040 2a c5 99 be 5c f7 2c 3f a3 dd 2b be 52 89 52 be
       -0.30033237 0.6756494 -0.16783766 -0.20560196
000050 eb 82 c5 be 87 0b 03 3f 4d 2b e5 bd 22 5d 5a bd
       -0.38576445 0.51189464 -0.111898996 -0.053311475
000060 1d 24 8f bd 75 53 0c bd ce 47 bc 3a 0c 5e 91 be
       -0.0698931 -0.03425928 0.0014364661 -0.28392065
000070 35 17 97 be d4 4b 18 be a8 d2 00 be e3 d4 dc bb
       -0.29509893 -0.14872676 -0.12580359 -0.0067392453
000080 ab 87 e4 bc 8e fe 5f be bf ac f1 bd 1a 85 88 be
       -0.027896723 -0.21874449 -0.11800527 -0.26664048
000090 b0 84 7a be ca ac 8e be de 16 21 be 1a 81 be bd
       -0.24464679 -0.27866203 -0.1573138 -0.09301968
0000a0 1b bb d2 bd 2e 2b 44 be f5 38 6b bc 87 c4 1f be
       -0.10289594 -0.19157097 -0.014356841 -0.15602313
0000b0 11 8d 36 be d1 d8 8b 3f e6 ab 00 3e dd 29 8d be
       -0.1782725 1.0925542 0.12565574 -0.27571002
0000c0 e2 49 7a be 18 c6 10 bd 39 69 60 3f e4 3e 68 bd
       -0.24442247 -0.035345167 0.8766056 -0.056700602
0000d0 06 ee 6f 3f d9 bb ee bd 39 f6 9e be 2a 16 8c be
       0.9372257 -0.11656923 -0.31047228 -0.2736066
0000e0 b8 5f ea bd 6b 15 35 be c8 12 29 be 2b e0 0c be
       -0.11444038 -0.17683952 -0.1651107 -0.13757388
0000f0 91 a7 ef bd 1d 9a a9 be 85 2f fb bd ad 93 00 be
       -0.11701883 -0.33125392 -0.12264923 -0.12556334

hidden_layer2.weight f4 [32, 64]
000000 64 73 e5 3d 5f 11 88 be 8b b8 bb 3d ab af 9a be
       0.1120365 -0.26575753 0.09166058 -0.3021215
000010 7b 70 33 3d 53 9d 25 3d 96 7a e3 bd 49 45 7c 3c
       0.04380844 0.04043324 -0.11107366 0.015397378
000020 d9 9a 9b bd 10 68 62 3d 85 4f ca 3e 1d cf 20 be
       -0.07597894 0.055275023 0.39513794 -0.15704007
000030 aa 29 1c 3d 28 93 d7 3d c0 73 70 3e c2 c4 2d be
       0.03812567 0.10526115 0.23481655 -0.16969588
000040 48 92 91 be b7 dc d0 3b 07 f8 45 bd f7 21 5f bd
       -0.28431916 0.0063739675 -0.04833224 -0.05447575
000050 84 fb 47 bd 30 a3 80 be 1e 03 96 bd 1b f0 74 3d
       -0.04882385 -0.25124502 -0.07324813 0.059799295
000060 7a 5c e8 bc 03 b0 af 3c cc e5 8d 3e 0f 94 f2 bc
       -0.028364409 0.021446234 0.27714384 -0.029611615
000070 ab 1b 17 bd ea 16 b2 bd d7 1b 98 bd 58 67 1f 3e
       -0.03689162 -0.08695777 -0.07427185 0.15566766
000080 99 ed ab 3d ef d8 f1 3d 68 48 84 3d ed 06 82 3e
       0.083949275 0.11808955 0.06459123 0.2539591
000090 1a 74 f2 3d e5 5c 7e 3e 43 db 10 bd b4 6c b4 3e
       0.11838551 0.24840124 -0.035365354 0.35239184
0000a0 33 d2 84 3e f5 07 fd bc 9e 33 05 be 26 9c c3 3e
       0.2594162 -0.030887583 -0.13007972 0.3820507
0000b0 00 6c 81 3e ec 7c ed 3c f7 2a e4 3d a4 c8 3c 3e
       0.2527771 0.028990231 0.111410074 0.18435913
0000c0 c5 98 ad bd 17 07 8a bd 38 23 46 3d 69 5c d3 bd
       -0.08476404 -0.067396335 0.04837343 -0.1032036
0000d0 52 3f d6 bd e1 63 41 be 2b b3 1c be a5 24 08 3a
       -0.10461296 -0.18885757 -0.15302722 0.0005193449
0000e0 da 3b 96 be 27 a4 02 3c 38 de 45 bd a8 70 7d 3d
       -0.29342538 0.007973707 -0.048307627 0.061875015
0000f0 fa d2 0c 3f 5e 34 29 be 6e 05 49 3e ea 70 ad 3c
       0.55009425 -0.16523883 0.19630978 0.021172006
000100 da b4 71 3d 6f 85 47 3d fa 3e c7 bc 68 62 45 be
       0.059010364 0.048711237 -0.024322022 -0.1927582
000110 51 d9 39 be 19 72 50 be 58 ca 11 be eb 72 5a bd
       -0.18149306 -0.20356025 -0.14237344 -0.05333225
000120 89 50 6d 3d f0 57 3b bd 36 e2 9f bc 0b 20 f8 bd
       0.057938132 -0.04573816 -0.019517045 -0.12115487
000130 61 5a c1 bd 3d 89 9d 3d b8 d8 a0 3b 49 8d e3 bd
       -0.094410665 0.07692192 0.0049086474 -0.111109324
000140 88 25 12 bd c5 75 f1 3d 06 b8 04 bd de 61 22 3d
       -0.035680324 0.11790041 -0.03240206 0.039644115
000150 17 e5 e0 bd a8 7f 5a be 11 4c 85 bd 83 96 ab bc
       -0.109811954 -0.2133776 -0.06508649 -0.020945793
000160 3b 9b 31 3e 2d 77 ef 3d 37 c5 a1 bc 52 79 c9 bd
       0.17344372 0.11692653 -0.01974736 -0.09837593
000170 87 49 9b bd d3 be e3 3d 6d 40 bc bb 38 75 a9 3d
       -0.075823836 0.11120381 -0.005744985 0.08274311
000180 31 d5 78 3e 2a fe a5 bd 7c 85 66 bb d3 d9 85 bc
       0.24300076 -0.081051186 -0.0035174778 -0.016339218
000190 65 b6 92 3c d4 75 aa bd 43 37 c7 3d b0 81 59 3c
       0.017909238 -0.08323255 0.09727337 0.013275549
0001a0 c0 fd 9b 3d 36 57 ea 3d f0 41 fd 3c bb 41 81 bc
       0.07616758 0.114424154 0.03091523 -0.015778413
0001b0 e3 43 99 bd 54 d5 83 3c 62 a9 63 3d 59 6d 32 3d
       -0.074836515 0.016092934 0.055581458 0.043561313
0001c0 59 9b 4e bd 56 38 b4 3d ea 5b 56 bc 49 e3 04 be
       -0.05044112 0.08799808 -0.013083437 -0.12977327
0001d0 ea 3d 1a be bb 12 78 be e4 b1 e0 bd 98 98 a5 3d
       -0.15062681 -0.24225895 -0.1097143 0.080857456
0001e0 8a cb 6b 3e 05 d3 57 3d 99 0b bc bd b8 e0 8a 3a
       0.23026863 0.05269148 -0.091818996 0.0010595536
0001f0 44 66 5e bd 14 d8 5c bd 52 18 49 bd 4a d1 06 bd
       -0.054296747 -0.053917006 -0.04909546 -0.032914437
000200 ee fe 51 3d c0 8b fc 3a df 99 b3 bc 6e 4b 52 3e
       0.05126851 0.0019267723 -0.021923957 0.20536587
000210 51 b6 9e bd db 99 6a 3e e6 19 3e 3e 41 32 b1 bd
       -0.07749618 0.22910254 0.18564567 -0.08652163
000220 09 e2 a0 3e 79 46 f1 3e 1e 9f bd 3e ab fe 07 3d
       0.3142245 0.4712408 0.3703546 0.033201855
000230 31 3d c8 3e f0 63 ca 3d 82 54 a0 3e 9f 4f cb bd
       0.39109185 0.09882343 0.31314474 -0.09927296
000240 2d 74 28 3e 1b 68 95 bc 3c f1 69 3e 90 84 50 3c
       0.16450568 -0.018238118 0.2284593 0.012726918
000250 82 0a da 3e 2e 52 b2 bb c8 86 fb bc b6 81 02 3f
       0.42586142 -0.0054419255 -0.030703917 0.50979173
000260 38 72 07 3f d1 d5 91 3d 94 6d cc 3e 91 a7 2e 3f
       0.5290866 0.0712086 0.3992735 0.68224436
000270 2a ce 16 3f c4 80 e3 3e 13 fd 1a bd 05 33 e5 3e
       0.5890833 0.44434178 -0.037839007 0.44765487
000280 8d 0b cf 3e 60 fc fd 3e 8c c1 e8 3e dd fe f8 3e
       0.404385 0.4960661 0.45460165 0.48631945
000290 5e 50 b7 3e a7 9e d1 3e 57 85 0a be 22 3e 0a 3f
       0.35803503 0.40941355 -0.13527428 0.5400106
0002a0 be c9 44 be d3 98 11 3e 9b a9 59 3e ff 8b d7 3e
       -0.19217584 0.14218454 0.21256106 0.42098996
0002b0 1f 12 13 3f c2 b2 37 be bd 91 a9 bd 77 5a 8f 3e
       0.57449526 -0.17939284 -0.082797505 0.27998707
0002c0 7c 2f c5 3e d0 59 79 3d 56 c3 91 be 66 01 48 3e
       0.3851279 0.060876667 -0.28469342 0.19531783
0002d0 ae 6f 11 be f5 20 df 3e 44 6b 23 3e 79 3b e4 3e
       -0.14202759 0.43579832 0.15958887 0.44576624
0002e0 6a 23 a1 3e ee bb b9 3e f0 a1 ba 3d e2 62 29 3e
       0.3147233 0.3627619 0.091129184 0.16541627
0002f0 48 70 0c 3f d0 16 9f 3e 8e 7c 8c 3e 88 f0 7b 3e
       0.5485883 0.31072092 0.27438778 0.24603474
000300 ba 8d d3 bd 9a cc 74 3f 0c 6e c6 3b f9 fd 37 3f
       -0.103297666 0.956247 0.006055599 0.71871907
000310 2e 88 83 bd 9b 4b 1d 3f bb 9a 15 3f a0 ca 71 bd
       -0.064224586 0.6144349 0.58439225 -0.05903113
000320 34 a3 69 3f c7 07 1f 3f ec 6b 17 3f 32 e2 1c 3f
       0.91264653 0.6212124 0.5914905 0.61282647
000330 bf 59 2b 3f 36 d1 39 bf 32 1b 38 3f 49 d2 e6 3c
       0.66933817 -0.72584856 0.71916497 0.028176444
000340 7e 3c 1a 3f 3e 59 b6 be d2 0d 63 3f 93 8b eb bb
       0.60248554 -0.3561496 0.88692963 -0.0071882694
000350 03 f1 29 3f 55 ca 2e 3f 40 bb 4d bb 57 ab 37 3f
       0.6638338 0.68277484 -0.0031392127 0.7174582
000360 bb f8 1c 3f 10 59 dc 3b 48 91 45 3f f0 48 40 3f
       0.6131703 0.0067244843 0.77174807 0.75111294
000370 91 1c 49 3f 8b c0 4d 3f 45 ef 63 bd f5 e2 23 3f
       0.78559214 0.8037192 -0.055648107 0.64018184
000380 c0 af 04 3f 38 ed 17 3f 45 b2 62 3f a4 65 47 3f
       0.51830673 0.5934634 0.8855327 0.77889466
000390 c7 e5 13 3f dd 18 2a 3f eb 6b 2c be c6 42 32 3f
       0.5777249 0.6644419 -0.16838042 0.6963314
0003a0 e0 eb 3b 3d 11 c3 18 3f 75 53 0a 3f eb 24 4f 3f
       0.045879245 0.5967265 0.54033595 0.8091571
0003b0 68 16 24 3f c4 14 69 bf 23 88 ae 3d de f0 80 3f
       0.6409669 -0.9104731 0.0852206 1.0073507
0003c0 d0 f0 24 3f ab 7c ea 3c 64 a8 63 bf 70 f7 13 3f
       0.6442995 0.0286239 -0.8892882 0.57799435
0003d0 24 75 48 bf 2a 19 12 3f dd 99 54 3f f9 ad 42 3f
       -0.7830374 0.5706965 0.83047277 0.7604671
0003e0 6e 94 36 3f a4 e3 2b 3f e7 84 33 bd 87 3d 39 3d
       0.71320236 0.6714423 -0.043827917 0.045224693
0003f0 1d 58 0b 3f 09 0d 4e 3f fe e1 56 3f 62 27 4b bc
       0.54431325 0.8048864 0.83938587 -0.012399526

hidden_layer2.bias f4 [32]
000000 e2 29 67 bd c1 57 1a be 3e 44 9e 3f 8a 58 56 bc
       -0.056436427 -0.15072538 1.2364576 -0.013082633
000010 14 e3 01 be a2 22 28 3d 45 0e b8 3d d8 0f 60 bd
       -0.1268428 0.041048653 0.08987097 -0.05470261
000020 77 c2 1d be 98 f0 8c be 3a 28 57 3e 50 15 46 be
       -0.15406214 -0.27527308 0.21011439 -0.19344068
000030 d6 31 c0 3f 77 dd 86 bd ea 70 f2 bd 8e f3 ef bd
       1.5015209 -0.0658521 -0.11837943 -0.11716376
000040 80 0a 16 be bd e7 8c 3e f5 96 26 3f c3 4d 2b bd
       -0.14652443 0.27520552 0.6507409 -0.041822206
000050 1c 7b b3 3d 49 9c 31 be 7c 48 b1 bd 35 0d 33 bd
       0.087637156 -0.17344774 -0.086564034 -0.043713767
000060 c0 59 3f bd d8 a7 5c 3c 1c a7 ee bd 1f f3 30 be
       -0.04671645 0.013467751 -0.11652967 -0.17280243
000070 50 82 9f bc df 0f a6 3d cd 9d bd be 9d 82 2e be
       -0.019471318 0.08108496 -0.37034455 -0.17042013
