Comparison/TrainedModel/20-0.001-63-Agent/node_agent_58.pth (torch, 38084 bytes, 6 tensors)

input_layer.weight f4 [32, 144]
00000000: 0540 e33d 245d c33d e711 3fbe 57e2 1cbe
00000010: 5bc4 4c3e a608 a3bc 43cb 003e 4b00 dfbd
00000020: 3f26 723b d373 c73b 61af bdbd b002 d33d
00000030: edac cfbd 96f7 91bb fe6e be3d a787 7a3d
00000040: 93db afbd cbdd cabd 92f3 62be 0842 e23d
00000050: 42a5 f3bd 9826 a5bd f8ed 4d3d 87ac e7bd
00000060: 397a 733e d8b4 c63d d8d6 ccbd 6f21 2ebe
00000070: 6e7e 323e 3050 75be b11a 31bd 781c 58bd
00000080: ca0d e93c 3000 57bd 4a10 913d cd97 ed3d
00000090: 7f69 7bbc 5b5b cf3d 24c3 b83c 9009 473d
000000a0: df3d d3bd df99 0d3c 73e6 e83a a614 033d
000000b0: dba2 093e 72f3 043d d51b b9bc ad85 3fbd
000000c0: 7ba1 dcbd 93fd f1bc 382a 0b3c 1bd1 eb3c
000000d0: 5dc6 e1bd 229d b3bd af7b b93c dfab b43c
000000e0: 9581 633c 3f8e 3fbe fb51 08be bdc1 a4bd
000000f0: ed33 8b3e fb6e a4bd 33c6 6bbe 65e3 c63e
00000100: b5f5 333f e7d2 e13c a3ec 893e 511c 9f3e
00000110: b10f ee3e eecb c7be a8b2 df3c 053c da3e
00000120: 9ff6 eaba 8561 62be 879b 85be 4516 5f3d
00000130: cc1d ebbe f26e d23e 7f03 0f3f a970 ca3e
00000140: f720 aebd 6f3e 673e 8a2c 55be 7beb bc3d
00000150: 5300 05bc 3d7d 17bc 5be6 713d 0546 903c
00000160: 5771 1abe 8d7e 423d 72cc e23d 184f 1a3d
00000170: fa46 043e cffd 37bc d339 5cbe d06c fcbd
00000180: 7a08 043d 513a 8e3d 49b3 073d a585 e63a
00000190: 673e 1dbd 5533 133d a56f d33c 22ec 453e
000001a0: 5fe0 823e c3c5 f9bc d731 0a3e 9f12 13be
000001b0: 2377 c83d a70c 31bd 5947 49bb 70c4 d0bd
000001c0: adf2 74bd f866 c1bd 3a89 f53c a677 9dbd
000001d0: ac44 09be 26f8 b33d a102 493d af00 1f3e
000001e0: cb95 3a3d 1f41 dabb 2bf2 643d d030 8fbd
000001f0: 27d4 64bd 1fe8 a8bd 1b6f 77bd 7a9c d0bd
00000200: da4e 53bd 599c cc3a b9e5 08be 7ae0 4f3e
00000210: 2234 26bd cb55 0c3e cff0 91bd 316e a03d
00000220: 3664 2d3e da0a debc fff2 f33d 7e71 063c
00000230: 78e7 443e 837e fe3d 4d61 65bd e5a0 bdbd
00000240: f2b3 5cbd 5d98 9f3d 4747 fa3c a978 37bd
00000250: fb18 9abc d73e d0bb 783a 843b 2fc5 26be
00000260: 20cc ccbd ab6f 003d 206a b1bd ff62 203c
00000270: 75fe 233e b701 36be efb3 643d 8aa3 e5bd
00000280: 166f 853e fbe9 0e3e 6290 e4bd 1e20 083d
00000290: 6d60 88bd 95f5 0abe bccc 243d 875c 3ebe
000002a0: 8f95 07be a2f4 d3bd 465f 18be d965 823d
000002b0: f563 38bd 47db 6ebd a0ed e43d 9757 9a3d
000002c0: 8763 213d c00a 21bd 6b89 b73d 66f9 3f3c
000002d0: ed0d 29be 9b34 69bd cab7 7a3d 074a 5c3d
000002e0: 4f92 fb3d 9517 27bd aab2 b93d 1d14 f4bc
000002f0: 23e7 15bd f85c 3cbd a663 0ebe 67ce bbbd
00000300: b1a9 0f3e bfcb 2bbe d249 b23b dd43 7b3d
00000310: a394 f8bc af60 1d3c 98dd 5c3d 89a0 4c3e
00000320: e86e 27be f45b b33d d03c d73d a81b ccbd
00000330: 46f5 c4bc 72a3 0c3e bd8b da3d e393 083c
00000340: 8f10 05be 0e16 e33d 32eb e2bd 79f5 0cbe
00000350: 4343 76bd 6099 2dbc c7b8 77bc 60ab 133e
00000360: 3e67 c33d ad9e 723d bf74 b9bd df7d c8bd
00000370: 2395 09bd b5b3 8dbe e999 293e efab f1bc
00000380: 888a f33d 355f 2dbd 2280 f63c 6504 023e
00000390: 5381 9c3d 59ca a2bd 4d2c 6d3d 240c c0bd
000003a0: 791f 963c 952a df3c df75 973d d615 b3bd
000003b0: 888d 363e 71d3 b03c bd4e 60bd 8194 853d
000003c0: e195 82bd 47ae c2bc 9bee 483c 84f6 25bd
000003d0: 984a 23bd e8f0 7c3d a1f3 46bd 785a ebbb
000003e0: 0ac8 58be 0551 903d 9545 a43d 7383 ebbd
000003f0: 7dcc 25bd 596d 2b3e e33c d6bd 46df 43bb
0.11096195 0.095392495 -0.18659173 -0.15320717 0.19996779 -0.019901585 0.12577538 -0.10888728
0.0036949066 0.0060868054 -0.092619665 0.10303247 -0.10140405 -0.0044545634 0.09298514 0.061164524
-0.08586802 -0.09905585 -0.22163227 0.11047751 -0.11896755 -0.08064002 0.050275773 -0.11312204
0.23777093 0.09702462 -0.10001916 -0.17004941 0.17431042 -0.2395637 -0.043238346 -0.052761525
0.028448958 -0.052490413 0.07083185 0.11601219 -0.015344976 0.101248465 0.022553988 0.048593104
-0.10314535 0.008642643 0.0017768875 0.032002114 0.1344103 0.03245873 -0.02259628 -0.046758343
-0.107729875 -0.029539859 0.008493952 0.028786233 -0.11024163 -0.08770205 0.022641985 0.02205461
0.013885875 -0.18706606 -0.13312523 -0.08044765 0.27188054 -0.0802898 -0.23024826 0.38845363
0.70296794 0.027566386 0.26938352 0.3107629 0.46496347 -0.39022774 0.02730687 0.42623916
-0.0017926282 -0.22107513 -0.2609522 0.054464597 -0.4592117 0.4110027 0.5586471 0.39539078
-0.08502381 0.2258241 -0.20817772 0.09224602 -0.008117753 -0.009246168 0.059057575 0.017611513
-0.15082298 0.04748397 0.11074151 0.037673086 0.129177 -0.011229946 -0.21506433 -0.12325442
0.032234646 0.06944717 0.033129964 0.0017587437 -0.03838959 0.035937626 0.025810072 0.19328359
0.25561807 -0.030489808 0.13495575 -0.14362572 0.097883485 -0.043224957 -0.0030712693 -0.101937175
-0.059801746 -0.09443468 0.029972661 -0.07688837 -0.13405102 0.08787565 0.049074773 0.15527605
0.04555301 -0.006660595 0.055895012 -0.06991732 -0.055866387 -0.082473986 -0.060408693 -0.101860955
-0.05158887 0.001561056 -0.13368882 0.20300475 -0.04057706 0.13704602 -0.07126009 0.07833517
0.16932759 -0.027104784 0.11911582 0.00820577 0.19228923 0.12426474 -0.056000996 -0.09259204
-0.053882547 0.07792733 0.030551566 -0.044792805 -0.01881074 -0.0063551473 0.0040352903 -0.16286157
-0.09999871 0.031356495 -0.0866282 0.0097892275 0.16015036 -0.17774092 0.05583566 -0.11212833
0.26061314 0.13956444 -0.11160351 0.033233754 -0.06659017 -0.13570245 0.040234312 -0.18589984
-0.13240646 -0.103493944 -0.14880094 0.06367082 -0.0450172 -0.058314588 0.11178136 0.07536238
0.039401557 -0.039316893 0.08961757 0.011717176 -0.16509219 -0.056934934 0.06121043 0.053781535
0.122837655 -0.040793974 0.090672806 -0.029794747 -0.036597382 -0.0459871 -0.139052 -0.091702275
0.14029576 -0.16776942 0.005440929 0.061344016 -0.030344313 0.009605571 0.053922266 0.19983114
-0.16350901 0.08757773 0.10509646 -0.099662125 -0.024042737 0.13734224 0.10671184 0.00833604
-0.12994598 0.11088191 -0.11080016 -0.13765515 -0.06012274 -0.0105956495 -0.015119738 0.14420843
0.09541176 0.059233356 -0.09055471 -0.09789633 -0.033589493 -0.27676168 0.16562618 -0.02950093
0.11891657 -0.042327125 0.030090395 0.12696989 0.07641854 -0.07948751 0.057903577 -0.09377316
0.018325554 0.027241984 0.07395529 -0.08744399 0.17827427 0.021585198 -0.05476259 0.065224655
-0.063762434 -0.023764743 0.012263919 -0.0405183 -0.03986606 0.061753184 -0.048572186 -0.0071824156
-0.21170059 0.07046703 0.08021084 -0.11499681 -0.04047822 0.16740932 -0.10460832 -0.002988772

input_layer.bias f4 [32]
00000000: f364 083e b881 333c c361 863e 2d12 f53e
00000010: cdec 313e 5177 053e 95e8 e2bd 87a6 e13d
00000020: 5a9b 5b3d e70b 173d 32d5 06bd 50b6 623d
00000030: 8fc4 423e 3f28 8abd adf9 6fbd e313 2a3d
00000040: 3849 6bbc acb9 e23c 0df8 b93c af69 7b3d
00000050: 0257 1e3e 7342 b23d 10c4 9ebd c1f3 5f3c
00000060: 6d4c 043e 6c54 7d3c 276d 603d bde2 9e3c
00000070: 208b 783a bdbe fb3d ed93 283d 46d8 5a3d
0.13319759 0.01095622 0.2624646 0.4786543 0.17375489 0.13033797 -0.11079518 0.11018091
0.05361495 0.036876585 -0.032918163 0.055349648 0.19020294 -0.067459576 -0.05858772 0.04152287
-0.014360718 0.027676426 0.022701288 0.061380085 0.15462878 0.087040804 -0.0775224 0.013668955
0.12919779 0.015462022 0.054791596 0.019395227 0.00094811805 0.1229224 0.041156698 0.05342891

hidden_layer1.weight f4 [64, 32]
00000000: ab26 c2bd d0f5 07be 1e7e 00bd baf6 25be
00000010: 0dec 0f3a aade 55bd 1f48 583d 4ef3 a7bc
00000020: eda8 7cbc 0323 053c fdd5 4d3e 6241 ea3d
00000030: 6d50 2a3e 47da 72bd 18aa 13bd 4f7f eebc
00000040: bbe6 6a3d 9a0d e4bc 4bdb 673d bd36 843d
00000050: c977 af3d 1614 ed3d 9411 0b3e 15cb a43e
00000060: df0d 11be f75f 0a3e bcf2 abbd 4d3c d33e
00000070: 172d f03d 6562 47be 00a7 513e 25fc 423e
00000080: 4dba d53d 0378 68bd 5fa5 fc3c 49a2 fa3e
00000090: 9628 843e d2ed 2b3e 9904 b43d 0d0e 333e
000000a0: 9896 f1bc a89c 23be e30c a33e eea5 693e
000000b0: eefd 193e dbae 943d a8e8 4bbc 62d4 82bd
000000c0: 5f3b 9d3d cdcb f1bd adc3 173e 5af3 b13e
000000d0: e2cb 263e 2507 963e a5bb de3d 21fa e53e
000000e0: 929b 3b3e addb b33e 9ece c33d ae29 073e
000000f0: c31d 163e 42fa 713d 754d 8c3e 66c9 163e
00000100: e06b 8d3d 9e11 2ebe 1c0c 5f3d c77f 943e
00000110: 3883 e4bd d55e 873e 9bc0 bc3e 532d 1c3e
00000120: a01c 343e 093c bdbc 61df 333e b8bb 873e
00000130: cbe4 233c 9a69 50bd 465e d73d 00f1 2ebd
00000140: 6eff 12be 854c 373d 0cce b73d 2446 b23e
00000150: 0db1 ba3e 425b 4f3e 783a 9a3e b0d2 653e
00000160: a07c 10be 314c ac3e 63f9 0d3e ab86 a63e
00000170: d394 753e 3d10 8a3e 5614 6a3e c4a8 8d3d
00000180: d87d 14be c9ef c33c fbd5 67bd 8e2f 8fbd
00000190: d5e3 2bbd 4fc9 833b 73a3 553e edfe 46be
000001a0: 3224 cebd 9bfa fc3d 065e c73d 2d56 123e
000001b0: efe1 233e 2844 72bc 02a6 3e3c ffdb 293d
000001c0: 93bf 663e 3578 1d3e 455b 4fbd d8ca 25be
000001d0: e357 9d3c bbd0 adbc 3b4d f2bc bd2e 88bd
000001e0: 190f a03c f8cb c13d fb44 9bba 4e05 4bbc
000001f0: 63a7 f6bc 92d9 f93c f798 b1be d8f1 abbd
00000200: 0c2a 4a3e 5b9d cdbb a0cc af3e 7b63 c23e
00000210: dfd8 1d3e 42a0 923e 47e2 fbbc 4067 623e
00000220: e08a 24be b225 3dbc f9b5 85bc 56df 193e
00000230: 691f a13e efc8 38bc 0f63 35bd e07d f5bd
00000240: 0f78 84be 15f3 fe3d c7c0 0e3e a966 683e
00000250: 3d3c ad3e c917 543e eea8 963e 8076 9ebd
00000260: 9c39 733e 56bf cb3b f070 733e 5ad1 ba3d
00000270: b832 88be 1199 893e 03c2 48bd 951b 73bd
00000280: 2e1e 2bbd 210c 58bd 4211 04be 9a30 60be
00000290: 2540 9a3d b084 90bd 286a 4f3e b18f 7dbe
000002a0: 82c6 d6b9 ab5f 9dbe 5b59 d73b fa49 013e
000002b0: 2d38 33be 6596 dc3d 7bdf cdbd ebba 993c
000002c0: f9f6 1b3d aa85 36bc 879a 9e3e 039e fa3d
000002d0: 0e6e e23d 8687 913e e30c 813e 3f62 7a3e
000002e0: f9ef a0bc 549c e23d 2e92 31be 8510 203e
000002f0: 3477 933e 163b 463e fc3a 8a3e 114a 183e
00000300: be0b cd3c 6f3a f73c 2b74 003e f0f3 e9bc
00000310: 0ea1 04be 1b6a bb3d 4d8a 943d c96f f13c
00000320: 0720 34bd 7bcb d5bd 2d07 6c3d f2b5 fabb
00000330: c1e8 51be 526d dd3c 5a60 aa3d 375d 32be
00000340: 8edb 98bd 2fb6 7cbd bc67 083e 3ca3 8abe
00000350: 57dc 26bd 360d f9bc e3e8 9bbd 745f b5bc
00000360: b50c 96bd 2104 ec3d 7c52 08bc 27d3 d3bd
00000370: eb13 e7bd ac2a 84bc de98 12be 39c5 8b3d
00000380: a859 05bd 063d 9abc 9bb6 83bd e1ee 473e
00000390: 1825 d1bd 32e9 f13d 5573 4f3d 248a 1fbe
000003a0: cc8c 7dbd fa16 903d cd32 973d 2fa5 71bd
000003b0: 869a 8abd 5b7f b63d 0493 24bb 1572 29be
000003c0: 5772 733d 13ce d63d 5126 d63c 21d4 e93c
000003d0: 8484 9637 1b89 35bd 55aa 95bd 1b83 a53e
000003e0: 7e56 b6bd 64d8 803e b1a1 873d 1912 923e
000003f0: d434 943e 31e3 d7bd d4fd edbc 1259 f2bd
-0.094800316 -0.13277364 -0.031370275 -0.162074 0.00054901914 -0.052214302 0.052803155 -0.020501759
-0.015421134 0.008126023 0.20101161 0.11438252 0.16632243 -0.059290197 -0.036050886 -0.02911344
0.057348948 -0.027838517 0.05660562 0.06455753 0.08567769 0.11576097 0.13580924 0.3218619
-0.14165448 0.1351317 -0.08395907 0.41256943 0.1172735 -0.19471128 0.20473862 0.19041498
0.10435925 -0.056755077 0.030840574 0.4895194 0.25812215 0.1678994 0.087899394 0.17485829
-0.029490754 -0.15977728 0.3184577 0.22817203 0.15038273 0.072599135 -0.012445606 -0.06388165
0.0767734 -0.1180645 0.14820738 0.34755975 0.16288713 0.29302326 0.10875634 0.44917396
0.18321064 0.35128537 0.095608935 0.13199493 0.1465979 0.059076555 0.27402845 0.14725265
0.06905341 -0.16998908 0.054454908 0.29003736 -0.111578405 0.2643954 0.36865696 0.15251665
0.17589045 -0.023099916 0.17565681 0.26510406 0.010003279 -0.05088196 0.10516028 -0.042710304
-0.14355251 0.04475071 0.08974847 0.34819138 0.36463204 0.20249656 0.30122733 0.22443652
-0.1411004 0.3365188 0.13864665 0.32524619 0.23982553 0.26965514 0.2285932 0.06916955
-0.1450113 0.02391805 -0.056600552 -0.06991492 -0.041965324 0.0040218006 0.20863132 -0.19433184
-0.100654975 0.12352487 0.097347304 0.14290686 0.16004156 -0.0147867575 0.011636259 0.04146957
0.22534017 0.15377887 -0.05062415 -0.1619066 0.019206947 -0.021217695 -0.029577842 -0.066495396
0.01953845 0.09462732 -0.0011846119 -0.012391401 -0.030109113 0.030499253 -0.34687015 -0.083957374
0.19742602 -0.0062748617 0.34335804 0.37966523 0.15414761 0.28637892 -0.030747546 0.22109699
-0.16068602 -0.011544632 -0.016322123 0.15026602 0.31469277 -0.011278375 -0.044283923 -0.119868994
-0.25872847 0.12448708 0.13940726 0.22695412 0.3383502 0.20712198 0.29425758 -0.07737446
0.23752445 0.0062178774 0.23773551 0.09121962 -0.26601195 0.26874593 -0.04901315 -0.059352476
-0.04177683 -0.052745942 -0.12897208 -0.2189354 0.07531766 -0.07056558 0.20255339 -0.24761845
-0.0004096516 -0.3073705 0.0065719313 0.12625876 -0.17501898 0.10770873 -0.10052391 0.018765887
0.03807733 -0.011140266 0.3097727 0.122371696 0.110561475 0.2842371 0.25205144 0.2445154
-0.019645678 0.110649735 -0.1734092 0.15631302 0.28801882 0.19358477 0.26998127 0.14872004
0.025030013 0.03017923 0.12544315 -0.028558701 -0.12952062 0.091510974 0.07252941 0.029472249
-0.043975856 -0.104392014 0.05762403 -0.007651084 -0.20498945 0.027029667 0.08319159 -0.17418371
-0.07463752 -0.06169718 0.13320822 -0.27077663 -0.040737476 -0.030401807 -0.07612779 -0.022140242
-0.073266424 0.11524225 -0.008320447 -0.103430085 -0.11283096 -0.016133629 -0.14316127 0.068247266
-0.032556206 -0.018827926 -0.064313136 0.19524719 -0.10212153 0.118120566 0.0506471 -0.1558004
-0.061901852 0.070356324 0.07382736 -0.058995422 -0.06767754 0.0891101 -0.0025112042 -0.16547425
0.059435215 0.10488524 0.026141318 0.028543534 1.79431e-05 -0.044320207 -0.07307879 0.32326588
-0.08903216 0.25165093 0.06622637 0.28529432 0.28946555 -0.1054138 -0.029051699 -0.11833395

hidden_layer1.bias f4 [64]
00000000: cf08 00bf 20e9 d63d dc9b 7bbe 38a9 bbbc
00000010: c8e1 b43e acca 88be 2b8d 0d3e 16d3 a4be
00000020: aa51 253d 601c 01be f4f5 94be 60d8 0fbd
00000030: 737d 8c3e a7af 273e 8af2 96be 128a dabd
00000040: b725 0dbf 4579 c73e 57f4 a2bd 9c14 073e
00000050: 5acb 863e fe3c 8abe 38b1 10bd 37eb f03d
00000060: 6fb4 b9bd e25a db3e b9ac 923d 16e0 b3bd
00000070: ba37 72be 40d1 a1be f23f 6cbe 506a a3be
00000080: 00c2 b5bc 54cf 913e c727 b0be 877e 02bf
00000090: c564 1d3e a24f 0cbd 6a4b 2abe 0863 35bd
000000a0: c49a bcbe 82a8 903d 6609 df3d 8af4 163c
000000b0: 6d0d c0be 98ef 42bd 1106 ddbd 29e2 bb3e
000000c0: 30cd 38be c5e2 f73e d081 2a3d cb5d 353e
000000d0: 0e90 cebb 9fe5 22be 88e3 27bf 6085 853d
000000e0: 5f83 243e f32a 693e 0dcb 8b3e 1065 ce3e
000000f0: 94ac ab3e 5a6c f6be 319e d8be 4067 08bf
-0.5001344 0.10493684 -0.24571174 -0.022907838 0.35328507 -0.26717126 0.13823383 -0.32192296
0.040361084 -0.1260848 -0.29093897 -0.03511846 0.2743946 0.163756 -0.29481918 -0.10670866
-0.55135673 0.3895971 -0.079567604 0.13191456 0.2632702 -0.26999658 -0.03532526 0.11763614
-0.09067618 0.42842776 0.071618505 -0.087829754 -0.2365407 -0.31604958 -0.23071268 -0.31917048
-0.022187233 0.2847849 -0.34405348 -0.50974315 0.15370472 -0.03425563 -0.1663033 -0.044283897
-0.36836827 0.0706339 0.108904645 0.009213576 -0.37510243 -0.047591776 -0.10792173 0.36695984
-0.18047023 0.484152 0.041627705 0.1771156 -0.0063037938 -0.15907906 -0.6558156 0.0651958
0.16065739 0.2277029 0.27303353 0.4031148 0.33530104 -0.4812954 -0.4230819 -0.53282547

hidden_layer2.weight f4 [32, 64]
00000000: 5593 c2bd 86be aabd 5350 1fbc 7315 c23c
00000010: 1b11 963b 6c26 8eba bc40 07be 4e2f c73d
00000020: 2626 243d aa96 74bd 7a92 1ebd 514e 393e
00000030: f4e8 92bd 8a8b 06be e945 b1bd 3779 733d
00000040: 705a 6bbd 2996 d33d ad48 e33c 5ed5 1dbe
00000050: 921d 35bd 8caa 63be e3b7 1ebe 3e10 93be
00000060: c888 14bd ae9e e93c 2fc4 573d b0f0 d63d
00000070: 0a34 2fbb 830c 083d 133e cdbd db0d 04be
00000080: fe28 0a3e 856c 493d 10c2 c9bd 82bf cfbd
00000090: 19e6 4abe ab20 94bd 842b 3cbd 5cb2 0b3d
000000a0: 29b7 38bd 4e5a db3c 4b45 183d 2340 69bd
000000b0: 17b8 6fbd 1fc7 193b 4a4c df3d fccc f1bd
000000c0: 15b7 653b 1a84 673d 0067 b7bd e76c 3abe
000000d0: d603 d2bc 2a56 68bd 379c b7bd c778 ea3c
000000e0: 3126 203e 0697 0ebe 3baf 3ebd 801f 7cbd
000000f0: 3b7c 9abd 5473 c03c 1c10 dcbd 195f f03d
00000100: 3be9 a33c 11d5 98bd af57 5ebe c5c4 2dbe
00000110: cdc8 32bd feaf 9f3d e919 8ebd 01a7 bd3b
00000120: 033f 49be fa27 253c 4057 a4bc 6aed b4bd
00000130: ce94 46bc 777e 6cbe 16e1 1e3e 244a 33be
00000140: 97ab 223d 2fc2 4cbd 580d 2e3d 7c43 9e3c
00000150: abe7 f93c 4af5 bcbc bb30 dbbc 0aaa c2bd
00000160: b5bb 17be 4fcc 603d 8b23 fc3d 1776 943d
00000170: 4278 813d 6a37 81bd db79 2cbd 8001 b1bd
00000180: 9ade ecbc 95a9 5dbc ba68 7ebd 7b25 3b3d
00000190: 2dd4 83bd 3ded bdbd 6fe0 92bd a380 41bd
000001a0: 5000 4fbd e375 73bd 902b d53d 579f dcbd
000001b0: cb34 58be 1f5b 91bd 0f71 a7bd c5ea 01bc
000001c0: c89d 753d 82eb debd 1554 773c 075e 023d
000001d0: cb88 86bb 8b90 803d 1235 dc3d 15a0 973d
000001e0: 949b 803c a0fa cdbb d2cf d8bd a546 10bd
000001f0: 7709 903d 5ee9 96bb f9c3 19be ef86 0cbe
00000200: 2259 0d3e f288 9fbe d9a4 ffbd 8a51 ff3c
00000210: 8278 303e 8a35 123d ff67 9e3d dec8 41be
00000220: 46de 333e 03ba 413d e5d2 05be a620 a0bd
00000230: 3d24 37be e3ed ee3c 47aa a13d 17d8 49be
00000240: bab4 9f3c 85dc cdbd ad57 68bc 8a48 923d
00000250: 55f6 00bc 060e bcbe c72f 403e e21b de3a
00000260: 99ce 393d dca1 47bd 0add 63be 5a8b abbd
00000270: 4908 5abe 918d 303e 178d 963c a4b2 b2be
00000280: 08b7 713e ca29 4cbd de75 4f3e 8170 edbc
00000290: 4fa4 0abe 894d dc3e 90f6 c0bc 37af 093e
000002a0: 96e8 85be 550f 21be e18c 463d a059 b1bc
000002b0: 69a6 283c 17f0 233d e7bc 733d 9282 263e
000002c0: fafc 2fba 8b51 63bc 1715 27bd 3f32 633d
000002d0: daea e6bd fb0d efbc 24d8 c63d 32cc 453d
000002e0: c2af ea3d 1220 bebd 126a 85bd 7428 3cbe
000002f0: 8a4e ce3d 186a 04be e64d 16be 06c2 ea3d
00000300: 50f3 723e f23e 0dbf 370a 82bd d3aa 383d
00000310: 9d0a 563d 3fb7 553e 2b6b 73be 38cf ea3e
00000320: a0d9 d13e 00ae f23b 8d8f 1ebe 59f1 41bd
00000330: 01d6 743d d017 1dbc 1410 ab3e 1db2 d6be
00000340: 5bbd 4f3d 362b c83b 58a2 533c 5c72 3fbe
00000350: 139d 91be 9940 ae3e 2f8c b13d 8876 08bf
00000360: 77d9 d7bd 151f c9bd 86c7 babd ce2b be3c
00000370: d202 55bb 40ea 2a3e d9bd b2bd 8d88 67be
00000380: 7222 ea3c e8b8 343d 30f9 943e 61e1 f5bd
00000390: 6368 3ebe 0ea2 c63e 145a babd 32d0 e53c
000003a0: d0d4 a7be d914 a33d 4052 96be 0ee2 8a3e
000003b0: 3a8e c63d 2a34 e9bc 300e af3d 3139 4a3d
000003c0: e577 753e b08e 2dbd db4c d23d 18be 1d3e
000003d0: 2fb6 ba3d 51fc de3d f8af fabc 5dc3 e3bc
000003e0: c8da 88bd 8f94 253f e5eb 75be da9b 40be
000003f0: 41c1 9cbd 409a 573e d13a f9bd 38a8 403e
-0.095007576 -0.08337121 -0.009723741 0.023691868 0.004579676 -0.0010845191 -0.13208288 0.097258195
0.040075444 -0.059713997 -0.03871391 0.18096282 -0.071733385 -0.13139167 -0.086559124 0.05944177
-0.057459295 0.10331375 0.027744615 -0.15413424 -0.044217654 -0.22233027 -0.15499835 -0.2872333
-0.036263257 0.028518047 0.05267733 0.10495126 -0.0026733899 0.033215057 -0.10021605 -0.1289591
0.134922 0.049175758 -0.098514676 -0.10143949 -0.19814338 -0.072327934 -0.045939937 0.034105644
-0.04509655 0.026776459 0.037175458 -0.05694593 -0.05852517 0.0023464633 0.10903223 -0.11806676
0.0035051752 0.056522466 -0.089551926 -0.18205605 -0.025636595 -0.056722797 -0.089653425 0.028622044
0.15639569 -0.13924798 -0.04655383 -0.06155348 -0.07543226 0.023492493 -0.1074526 0.117368884
0.020008674 -0.07462514 -0.21713136 -0.16969593 -0.04364853 0.0779724 -0.06938536 0.0057877307
-0.19652943 0.010080332 -0.020061135 -0.08834346 -0.012120439 -0.23095118 0.15515551 -0.17508751
0.039714422 -0.049989875 0.042493194 0.019319288 0.030505976 -0.023066182 -0.026756635 -0.095050886
-0.14817698 0.054882344 0.12311467 0.07249086 0.063217655 -0.063093975 -0.042108398 -0.08642864
-0.028914738 -0.013529201 -0.062111594 0.04569004 -0.06436954 -0.09273765 -0.071717136 -0.04724182
-0.050537407 -0.059438597 0.104086995 -0.10772579 -0.21113889 -0.07097458 -0.08175861 -0.007929509
0.059964925 -0.10884763 0.01509573 0.031827953 -0.0041056625 0.062775694 0.1075231 0.0740358
0.015699185 -0.0062859803 -0.105865136 -0.035223622 0.07033055 -0.0046054563 -0.15016164 -0.13723348
0.13803533 -0.31159168 -0.12482614 0.03116681 0.1723347 0.03569559 0.077346794 -0.18924281
0.1756526 0.047296535 -0.13068731 -0.07818727 -0.17884918 0.029166168 0.07893806 -0.19711338
0.019495357 -0.100518264 -0.01418106 0.07142742 -0.00787123 -0.3672945 0.18768226 0.0016945566
0.045363043 -0.048738346 -0.22252288 -0.083761886 -0.21292223 0.17241503 0.018377824 -0.34901917
0.23604977 -0.04984454 0.20259807 -0.02898431 -0.13539241 0.43027905 -0.02355507 0.13445745
-0.2615401 -0.15728505 0.048474196 -0.021649182 0.0102935815 0.04002389 0.059506323 0.16260746
-0.00067134167 -0.013874422 -0.040791597 0.05546784 -0.11275263 -0.029181471 0.09709194 0.04829044
0.114593044 -0.09283461 -0.06514372 -0.18374807 0.10073574 -0.12931097 -0.14678153 0.11462788
0.23725629 -0.5517417 -0.063496046 0.045084786 0.052256215 0.20870684 -0.2377135 0.4586122
0.40986347 0.0074059963 -0.15484448 -0.047349308 0.059774403 -0.009588197 0.33410704 -0.41932765
0.050717693 0.006108667 0.012917124 -0.18695968 -0.2844015 0.3403366 0.08669316 -0.53305864
-0.10539525 -0.098203816 -0.09120087 0.023214247 -0.0032502902 0.16690922 -0.08727617 -0.22610684
0.028580878 0.044121653 0.29096365 -0.12005878 -0.18594508 0.38795513 -0.09099212 0.028053377
-0.3277955 0.07962961 -0.29359627 0.2712559 0.09695096 -0.028467257 0.08547628 0.04937095
0.23971517 -0.042372406 0.10268565 0.15404546 0.0911678 0.10887969 -0.030601487 -0.027803117
-0.06682354 0.6467981 -0.24015768 -0.18809453 -0.07654048 0.21054935 -0.121694215 0.1881417

hidden_layer2.bias f4 [32]
00000000: 5e4d 5fbd bd20 0cbe ca00 563f baeb 29be
00000010: 3009 55bf 5ea2 aabd d864 bd3e 1095 633f
00000020: 8e00 8e3d b6ab 593f 13f1 0dbe f039 b5bd
00000030: 7f0a 84bd a4c9 64be d48b 3ebc 4448 663f
00000040: 948d 67bf 060d 44be 8233 943d fd9d 26be
00000050: 90b9 613f 0f13 db3d bfe3 8ebe d01e 083f
00000060: 9938 883e bc4c e33b 2cc4 b2bd f9ca a6bd
00000070: 6dbb 3ebe e579 a5be 053c cf3d 218f babe
-0.054517142 -0.13684364 0.83594954 -0.16593829 -0.83217144 -0.0833175 0.36991 0.88899326
0.069336995 0.85027635 -0.13861494 -0.08848941 -0.064473145 -0.22342545 -0.011630017 0.8995402
-0.90450406 -0.19145593 0.07236387 -0.16271205 0.8817377 0.106969945 -0.2790813 0.53172016
0.2660568 0.0069366377 -0.08728823 -0.08144183 -0.18626185 -0.3231956 0.1011887 -0.36437324
