save_model/node_agent_10.pth (torch, 24644 bytes, 6 tensors)

input_layer.weight f4 [32, 39]
000000 60 39 f3 bd 3f 6b d9 bd da c9 87 3d c2 8a cd bd
       -0.11876178 -0.10616159 0.06630297 -0.100362316
000010 3b 21 cf 3d 15 e4 fd bd 83 72 4a be e3 a6 f5 3d
       0.1011376 -0.12397019 -0.19770245 0.11994722
000020 ab 90 98 3b 4d 77 4f bd 2d 78 eb bd cb fa 52 bd
       0.0046559176 -0.050650883 -0.11497531 -0.051508706
000030 67 68 0a be 2c e9 1b 3d 20 83 b0 bb 32 e7 86 bd
       -0.13516389 0.038064167 -0.005386725 -0.06587066
000040 c9 b8 93 bc 83 72 28 bd 0d db 62 bd bb de 98 bc
       -0.018032448 -0.041124832 -0.055384684 -0.018660894
000050 da e2 63 bd ff 0d 35 3d a3 f0 b6 bd 7f c7 0b 3e
       -0.055636264 0.0442028 -0.089326166 0.1365032
000060 7d d0 7e bc bb ad f4 bd 75 3c 7a 3e 43 3c 96 bd
       -0.015552637 -0.11947199 0.24437125 -0.07335713
000070 99 f5 af 3d 83 3b d4 bd 1b 41 f1 3d e2 c6 8c 3d
       0.08591766 -0.103629135 0.11779996 0.068738714
000080 00 7a 9d 3d 7b 11 2a be 23 ef e2 bd 17 0f f1 3d
       0.07689285 -0.16608231 -0.11080768 0.11770456
000090 3e c4 b2 bd 42 14 01 3e d0 aa e0 3d f0 64 44 40
       -0.087288365 0.12605384 0.1097008 3.0686607
0000a0 3c 84 48 40 d8 4d 40 40 cd f8 e9 3c e8 3f 41 40
       3.133071 3.0047512 0.02856102 3.0195255
0000b0 87 be a2 3d 18 73 ea bd ea de 70 3d 96 50 a8 3b
       0.079464965 -0.11447734 0.058806337 0.0051365597
0000c0 db 2c 69 bd 90 c8 58 bd 2f f9 b0 3d 66 38 3b 40
       -0.056927543 -0.052925646 0.08641278 2.9253173
0000d0 03 63 de 3b 62 86 4d 40 35 ac 09 be 7b 89 0e 40
       0.0067867055 3.211327 -0.13444598 2.2271411
0000e0 4d 6d 09 c0 0b a9 c9 3f 98 96 1a 40 97 b9 81 bd
       -2.1472962 1.5754713 2.4154415 -0.063342266
0000f0 39 7e 11 40 92 2c a3 bd cd 9c 01 3d 22 b6 1c 3e
       2.273329 -0.079674855 0.031643678 0.15303853
000100 a6 fc 43 40 db 8f 4a bd c8 f4 46 40 d5 c8 cf bd
       3.0622954 -0.049453598 3.1086903 -0.101457275
000110 ba 6f de 3d ac ea 48 40 05 1c f8 bd e6 b7 3d 40
       0.10861154 3.1393232 -0.12114719 2.9643493
000120 8a 8a 46 40 27 d6 1d 3d 57 2f 5a bc 5a ec 44 40
       3.1022058 0.03853431 -0.013316951 3.0769258
000130 1f 31 71 3d 9f fb a9 bd 51 93 54 40 f3 3a 59 40
       0.058884736 -0.08299946 3.3214915 3.394223
000140 c9 56 64 40 d0 2d 14 be 33 82 5d 40 0f 2d a1 bd
       3.567797 -0.14470601 3.4610717 -0.07869922
000150 06 8a 1a 3e 0f 17 c4 bd a4 17 3b 3e d8 50 30 3e
       0.15091714 -0.095747106 0.18270737 0.1721834
000160 57 9b d7 bc d9 eb 04 3e 69 e3 60 40 28 2c 3c 3e
       -0.026319189 0.12980594 3.51388 0.1837622
000170 5b 31 6b 40 94 17 07 40 73 a4 4e 3f 59 9e f4 be
       3.6748874 2.110814 0.8071968 -0.4777706
000180 53 05 ae 3f b3 da e4 3f a7 34 36 bc ca 54 4a 40
       1.3595375 1.7879242 -0.011120952 3.161425
000190 ef 2f 1e 3e af 40 18 bd 31 bc 9a bd bf df 5b 40
       0.15447973 -0.037171062 -0.07555426 3.4355314
0001a0 49 b2 b6 3c b1 82 62 40 32 dc f3 3d 57 18 d8 bd
       0.02230181 3.5392268 0.11907233 -0.105515175
0001b0 a1 47 56 40 a0 be d2 3d bb df 5f 40 9f e8 65 40
       3.348122 0.10290265 3.4980304 3.592323
0001c0 cf f5 a1 bd a1 67 09 bd 59 a5 5b 40 d5 c6 5f 3d
       -0.079082124 -0.033546094 3.431967 0.05463298
0001d0 04 d7 99 3c f3 a4 42 40 9d 29 47 40 db 0c 40 40
       0.018779285 3.0413177 3.1119149 3.0007846
0001e0 7f 44 35 3d dd 9a 50 40 93 2d 08 3d ff 22 1e 3e
       0.044254776 3.259452 0.033246588 0.15443037
0001f0 88 8e d6 3c c3 af 93 3d d5 72 54 bc 3f 47 fc 3d
       0.026191011 0.07211258 -0.012966831 0.123182766
000200 23 cc 2b bd 43 2c 3e 40 bb 35 27 3d f1 ed 4b 40
       -0.041942727 2.9714515 0.040822726 3.1863978
000210 52 a5 3d 40 2c 75 cd bf d8 7a 6e 40 e9 c0 82 40
       2.9632154 -1.6051383 3.7262478 4.0860486
000220 14 07 05 40 4a dc 40 be 95 f6 3f c0 c3 f3 a7 3d
       2.078557 -0.18834034 -2.9994252 0.08200791
000230 fd dc e2 bb 90 59 af 3c 91 65 3e 40 7a 05 7b bd
       -0.0069233165 0.021405011 2.9749491 -0.06128452
000240 81 68 44 40 10 b4 17 be 77 36 e7 3d 6f 6f 35 40
       3.0688784 -0.14814782 0.11289685 2.8349264
000250 37 5b 0b 3e 51 b1 44 40 59 d6 40 40 9a 7a 51 3d
       0.13609014 3.0733225 3.0130827 0.051142313
000260 27 4b f3 bd ed 22 3f 40 87 be 43 bc 81 4a 83 3d
       -0.118795685 2.9865067 -0.011947281 0.06410695
000270 59 a7 39 40 d7 84 48 40 11 2e 31 40 f3 cd 56 3d
       2.900839 3.133108 2.7684367 0.052442502
000280 cf 80 3d 40 9b 7e 9a bd fb 37 33 be d3 21 44 3c
       2.9609869 -0.07543679 -0.17501824 0.011970955
000290 27 d9 bf 3a 13 b7 21 be 6d 9f 57 bd f2 3a 1e be
       0.001463686 -0.15792494 -0.052642275 -0.15452173
0002a0 63 bd 45 40 47 02 e2 3d 29 c9 39 40 b4 1b 2c be
       3.0896842 0.110355906 2.9029028 -0.16807443
0002b0 c2 49 0b 40 47 0b ed bf a1 1f be 3f 9b e1 03 40
       2.1763768 -1.8519067 1.4853402 2.0606449
0002c0 b0 d8 1a 3e 36 43 04 40 87 89 a5 bd e3 11 9c bc
       0.15121722 2.0666022 -0.08082872 -0.019051498
0002d0 af 24 c9 bd c3 a8 3c 40 c8 3c 7a bd 6b 45 2c 40
       -0.0982145 2.9478004 -0.06109312 2.691737
0002e0 45 ad 97 3d df 72 20 3d b3 cd 3c 40 f3 81 1c 3a
       0.074060954 0.03917205 2.950055 0.00059702917
0002f0 b7 6c 3f 40 ab 49 40 40 ed c8 27 3e 90 e6 8d 3c
       2.9910104 3.0044963 0.16385241 0.017321855
000300 9f 1f 38 40 b3 a3 85 3d 14 51 18 3e 26 a8 20 40
       2.87693 0.06525364 0.14874679 2.510263
000310 b0 30 16 40 ae 21 1b 40 0f ca b2 3b 54 7f 22 40
       2.3467216 2.4239306 0.005456216 2.5390215
000320 aa d2 5a 3e 40 bf 91 bd 07 83 ec bd ab da 2c 3a
       0.21369424 -0.07116556 -0.11548429 0.00065938634
000330 6f 4b d8 3c 97 08 ca 3c 35 09 c8 3c fc 59 24 40
       0.026403157 0.0246623 0.024418453 2.5679922
000340 b6 1a a6 bd b4 98 27 40 d8 32 17 c0 e9 e9 d6 3f
       -0.081105635 2.6186953 -2.3624783 1.6790134
000350 be 32 ee bf bc 83 90 3f 7f ff c6 3f ab cf 8a 3d
       -1.8609235 1.1290202 1.5546721 0.06777891
000360 74 09 45 40 5f 87 37 3d 75 0b 24 3c 82 ec 1d 3e
       3.078702 0.044806834 0.010012497 0.15422252
000370 02 0c 24 40 5b bb 24 3e f8 40 23 40 60 6e 95 3d
       2.563233 0.16087095 2.5508404 0.07296443
000380 1d 0d 8c 3d 52 06 22 40 85 19 c0 3d 1c 79 10 40
       0.06838439 2.5316358 0.093798675 2.257392
000390 ce ef 26 40 39 e3 0f 3e 96 44 af bd ca 8a 1a 40
       2.6083865 0.14051522 -0.085580036 2.414721
0003a0 d3 d0 d0 3d a1 c5 be bd 66 dc 4a 40 94 de 52 40
       0.1019608 -0.093150385 3.169702 3.294835
0003b0 8a 1d 44 40 63 37 e1 bc 68 2b 4d 40 1d 8a f2 3d
       3.064303 -0.02749223 3.2057743 0.11842749
0003c0 4a 10 eb 3d 71 c7 95 bd 58 d7 af bc 47 19 de bd
       0.11477716 -0.07313431 -0.021464989 -0.10844665
0003d0 4f e9 8f bc e3 bb 04 3d 1e c3 44 40 20 78 de bd
       -0.017567305 0.032405745 3.074409 -0.10862756
0003e0 1e 77 49 40 2f 55 36 40 a2 60 c6 bf ce 2a 90 40
       3.1478953 2.8489492 -1.549824 4.505225
0003f0 d2 c2 83 40 b2 d8 3a 40 f1 38 09 bc 90 eb 39 c0
       4.117532 2.919476 -0.008375392 -2.9050026

input_layer.bias f4 [32]
000000 5d 6a 02 be 6d b5 3c 40 8d 2e 65 40 94 c0 43 40
       -0.12735887 2.9485734 3.5809662 3.058629
000010 14 00 41 40 81 ed 15 40 a9 bf 50 40 ea 68 6a 3d
       3.0156298 2.342621 3.261698 0.05722896
000020 99 06 98 bd 96 55 7e 40 c1 97 59 40 8d dc d4 3f
       -0.074231334 3.9739738 3.3998873 1.6629807
000030 dc 31 3c 3d a8 9d 3d 40 8c 3f 93 3b 8f 52 38 40
       0.045945987 2.9627476 0.0044936594 2.880039
000040 10 bc 44 40 69 c3 37 40 74 86 2a 40 17 e7 28 40
       3.0739784 2.871302 2.6644564 2.6391046
000050 3c 79 24 40 05 67 55 40 63 59 3e 40 f3 6a 21 40
       2.5698996 3.3344128 2.9742057 2.5221527
000060 98 a3 4f 40 34 ed 5d 40 30 e0 3e 40 77 e1 3d 40
       3.24436 3.4676027 2.9824333 2.9668863
000070 f3 d1 32 40 38 63 77 40 cf 22 5c 40 dc 75 2c 40
       2.7940643 3.8654308 3.4396245 2.6946936

hidden_layer1.weight f4 [64, 32]
000000 05 40 e3 3d 66 e5 3f c0 ce 4a 2e c0 80 95 0f 3f
       0.11096195 -2.9983764 -2.7233157 0.56087494
000010 ed aa 3d c0 73 35 14 c0 7a 96 03 3f d2 8f bb bd
       -2.9635575 -2.3157623 0.51401484 -0.09158291
000020 05 47 ba 3f 9f 69 36 c0 f4 3a 60 3e a7 38 7c bf
       1.4552923 -2.8501966 0.21897489 -0.98523945
000030 ed ac cf bd 19 9a fc bf 31 38 bc 3f 63 34 37 3f
       -0.10140405 -1.9734527 1.4704648 0.7156431
000040 f1 97 47 c0 54 fb 46 3f e7 67 d0 bf de d6 53 c0
       -3.1186488 0.77727246 -1.6281708 -3.3099895
000050 64 f3 04 c0 78 a3 1f c0 ef 15 5d c0 d2 c4 1a c0
       -2.0773554 -2.4943523 -3.4544637 -2.418263
000060 04 b1 0c c0 f7 8e 15 c0 fb 6f 00 3f 8d d1 55 c0
       -2.1983042 -2.336851 0.5017087 -3.340915
000070 36 de 42 c0 b4 eb 40 c0 9c ae 1f c0 87 e9 21 c0
       -3.0448127 -3.0143862 -2.4950323 -2.5298784
000080 ca 0d e9 3c d5 81 39 c0 8d 1a 2b c0 b8 e7 0a 40
       0.028448958 -2.8985493 -2.6734955 2.170393
000090 76 a8 30 c0 0d c0 e9 bf 14 1e e5 3f 5d f5 86 3d
       -2.760282 -1.8261734 1.7899804 0.06589768
0000a0 e1 bd 2b 40 6f 47 30 c0 d8 f6 d3 3f d8 ad 02 3f
       2.6834643 -2.75436 1.6559706 0.51046515
0000b0 db a2 09 3e 5c b0 1e c0 14 4d 2c 40 e2 89 fd 3f
       0.1344103 -2.4795141 2.6922045 1.9807703
0000c0 1e 84 3a c0 4a 2a 0b 40 8e 9b 7c bf 39 fa 54 c0
       -2.9143138 2.1744561 -0.9867486 -3.3277724
0000d0 48 c0 f6 bf 50 80 2a c0 23 37 5a c0 1d 52 37 c0
       -1.927743 -2.6640816 -3.4096153 -2.8643868
0000e0 84 5e 13 c0 32 15 30 c0 8b f3 eb 3f 6b 20 44 c0
       -2.3026438 -2.7512937 1.8433698 -3.0644786
0000f0 d1 e8 38 c0 b6 ac 29 c0 37 19 25 c0 39 16 31 c0
       -2.88921 -2.6511664 -2.579664 -2.7669814
000100 bf 78 17 3d 0e f5 38 c0 2c 92 59 c0 a3 24 0d 40
       0.036980387 -2.889957 -3.3995466 2.2053611
000110 13 ba 4f c0 70 cc 56 c0 f7 14 3b 40 f2 50 69 bd
       -3.245732 -3.3562279 2.9231546 -0.05696196
000120 ee 17 47 3f 5b 3e 6a c0 6d 0d 34 40 19 9e 7f 40
       0.7777089 -3.6600559 2.8133194 3.9940245
000130 4a b2 29 be 53 f4 55 c0 40 17 72 3f fb 06 24 40
       -0.16571918 -3.3430374 0.94566727 2.562926
000140 ff 90 4d c0 47 76 67 40 06 8f 20 c0 90 36 44 c0
       -3.2119749 3.616594 -2.5087295 -3.0658302
000150 e8 d4 27 c0 2e b1 54 c0 22 cf 40 c0 07 93 40 c0
       -2.6223698 -3.3233142 -3.0126424 -3.0089738
000160 bb 94 41 c0 88 15 5e c0 93 6e 36 40 94 d7 48 c0
       -3.0247028 -3.4700642 2.850499 -3.1381578
000170 95 7a 49 c0 da 5e 60 c0 7b 69 4a c0 4c 85 17 c0
       -3.1481068 -3.5057893 -3.162688 -2.3675108
000180 7a 08 04 3d 60 a7 2d c0 f9 85 5f c0 28 89 0a 3f
       0.032234646 -2.7133408 -3.492552 0.54115534
000190 39 73 30 c0 21 fc e6 bf 9c f0 92 3e 76 a4 57 3e
       -2.7570326 -1.8045694 0.28699195 0.2105883
0001a0 11 d2 dc 3f c8 5e 4e c0 36 86 4f 3e 8a c7 75 bf
       1.7251607 -3.224535 0.20266041 -0.960076
0001b0 23 77 c8 3d 29 44 60 c0 b9 fb a6 3f 0a a6 dc 3e
       0.097883485 -3.5041602 1.304557 0.43095428
0001c0 73 20 2d c0 16 7f 46 3f 3c d1 31 bf fd eb 54 c0
       -2.7051055 0.7753767 -0.6945989 -3.3269036
0001d0 36 bf 45 c0 31 dd 4d c0 c8 46 49 c0 af 77 51 c0
       -3.0897956 -3.2166255 -3.1449451 -3.27293
0001e0 a7 12 45 c0 a5 f9 59 c0 10 80 07 3f a4 13 3e c0
       -3.0792634 -3.405862 0.5292978 -2.9699488
0001f0 d7 7b 37 c0 a7 8f 4d c0 1c 42 61 c0 3d b2 67 c0
       -2.8669336 -3.2118928 -3.51966 -3.6202538
000200 da 4e 53 bd 17 5c 8c c0 dd 29 83 c0 e9 c5 06 40
       -0.05158887 -4.3862414 -4.0988603 2.1058295
000210 d2 88 91 c0 e6 95 92 c0 e5 ee 1a 40 5a 6f b6 3d
       -4.5479517 -4.580798 2.420831 0.089079574
000220 dd 46 87 3e b9 bc 98 c0 be 8e 2c 40 b5 ea 82 40
       0.26421252 -4.7730374 2.6962123 4.0911508
000230 78 e7 44 3e 8e da 7c c0 e5 23 ac 3e 92 72 fd 3f
       0.19228923 -3.9508395 0.33621135 1.9800589
000240 04 8f 8f c0 a0 5c 05 40 c9 a4 7e c0 3b 09 87 c0
       -4.486208 2.0837784 -3.9788077 -4.219877
000250 f9 68 53 c0 0c 82 7f c0 8e 5c 87 c0 80 72 89 c0
       -3.303282 -3.9923124 -4.230048 -4.295227
000260 76 31 6e c0 b9 13 89 c0 19 d8 09 40 36 67 8d c0
       -3.7217689 -4.2836576 2.1538146 -4.418849
000270 10 c2 89 c0 84 67 9f c0 a2 3a 68 c0 3f c8 47 c0
       -4.3049393 -4.981386 -3.6285787 -3.121597
000280 16 6f 85 3e 34 8c 40 c0 56 f7 50 c0 67 bf 23 40
       0.26061314 -3.0085573 -3.2650962 2.5585573
000290 3c c7 56 c0 63 33 5c c0 2e 29 49 40 ec aa 33 be
       -3.3559103 -3.4406364 3.1431384 -0.1754567
0002a0 2c 14 72 3f 84 83 64 c0 3b fd 3b 40 60 22 8f 40
       0.9456203 -3.570527 2.937331 4.472946
0002b0 d7 18 7d bc b2 c8 5b c0 2e 2f 9f 3f 40 6d 3b 40
       -0.015447817 -3.4341245 1.2436273 2.928543
0002c0 9a 07 4b c0 15 5a 5c 40 68 57 11 c0 8d d6 52 c0
       -3.172339 3.4429982 -2.2709599 -3.2943451
0002d0 d3 64 36 c0 52 bd 59 c0 b3 90 42 c0 e4 d8 3d c0
       -2.8499038 -3.4021802 -3.0400817 -2.966363
0002e0 2d 68 3a c0 9e 4c 6a c0 c0 1f 43 40 d2 59 55 c0
       -2.9126084 -3.6609263 3.0488129 -3.3336072
0002f0 ee ef 52 c0 2d 11 68 c0 78 84 48 c0 dd 1e 23 c0
       -3.2958941 -3.6260483 -3.1330853 -2.5487587
000300 b1 a9 0f 3e bf 0b 42 c0 e7 8e 6b c0 80 13 59 3f
       0.14029576 -3.031967 -3.680597 0.8479538
000310 08 73 36 c0 4d 97 05 c0 b8 cd 0e 3f f4 58 5e 3e
       -2.850771 -2.0873597 0.5578265 0.2171362
000320 36 2f c8 3f 6a 35 6e c0 4e ac 05 3f e3 de 5d bf
       1.5639408 -3.7220101 0.5221604 -0.86668223
000330 46 f5 c4 bc e6 50 55 c0 57 1d de 3f 88 86 3f 3f
       -0.024042737 -3.3330626 1.7352704 0.74814653
000340 d0 b5 36 c0 35 93 9c 3f fa 9d 85 bf 93 50 5f c0
       -2.854847 1.2232424 -1.0438836 -3.4892929
000350 ce b3 2a c0 af fc 51 c0 c2 5a 54 c0 c2 e6 61 c0
       -2.6672244 -3.2810476 -3.3180394 -3.5297093
000360 4b ce 34 c0 54 52 5e c0 50 0c 1c 3f fe 33 44 c0
       -2.8250911 -3.473775 0.6095629 -3.0656734
000370 da 40 41 c0 c2 0c 79 c0 ae 9b 59 c0 c2 4c 6f c0
       -3.0195832 -3.8914037 -3.400127 -3.73906
000380 88 8a f3 3d 1b 61 2d c0 e4 70 4a c0 d3 1c 22 3f
       0.11891657 -2.7090518 -3.1631403 0.6332523
000390 db f7 21 c0 b0 8b e9 bf cf 12 7e 3e bc 9b 9c bd
       -2.530753 -1.8245754 0.24811862 -0.076468915
0003a0 7a 3d be 3f 69 0d 3a c0 c7 d2 26 3e 0b 47 91 bf
       1.4862511 -2.9070685 0.16291343 -1.1349806
0003b0 88 8d 36 3e 1d fa 43 c0 85 75 9e 3f b0 36 10 3f
       0.17827427 -3.0621407 1.2379614 0.56333447
0003c0 c4 84 26 c0 74 1a 31 3f 01 a5 3e bf a9 51 45 c0
       -2.6018534 0.6918099 -0.74470526 -3.0831091
0003d0 10 a1 29 c0 77 b5 36 c0 70 a6 41 c0 b4 4f 46 c0
       -2.6504555 -2.8548257 -3.0257835 -3.0986147
0003e0 de 55 3b c0 4e 4f 3f c0 92 81 08 3f c9 82 38 c0
       -2.927116 -2.9892154 0.5332271 -2.8829825
0003f0 50 05 2e c0 3e 8f 26 c0 c2 ba 4f c0 da 21 46 c0
       -2.7190742 -2.6024928 -3.2457738 -3.0958161

hidden_layer1.bias f4 [64]
000000 2b 57 5d be ba 2c 44 3f d4 d5 1c 40 1c 15 fa be
       -0.21615283 0.7663075 2.450551 -0.4884423
000010 3d 3f f2 3f 02 1f 35 40 a1 d8 21 bd 78 1a de be
       1.8925549 2.8300176 -0.039513234 -0.4337957
000020 a8 be 39 be 1d cd ef 3f 53 df ad 3e db 3c 36 be
       -0.18139136 1.8734471 0.33959445 -0.17796652
000030 ce 88 3c 3f 3e cb 9d 3f af 6f 29 40 17 36 bc 3e
       0.7364625 1.232765 2.6474416 0.36760017
000040 50 48 26 40 dc 8f 54 be 98 b5 49 3f df d4 c0 3e
       2.5981636 -0.20758003 0.78792715 0.37662408
000050 2f a8 99 bd 69 64 20 40 43 97 1b be f7 65 ca bd
       -0.075027816 2.5061285 -0.1519442 -0.098827295
000060 90 60 e3 3b 7a 00 2f be 6b 2b 40 40 0b 6d c9 3f
       0.0069390014 -0.17090026 3.00265 1.5736402
000070 87 fe 4b 40 33 53 2c 40 7f cc 6d be c1 f6 9d 3e
       3.18741 2.692578 -0.2322254 0.3085232
000080 a3 09 df 3f da ef fc 3f d0 f8 e2 3e fb fe 24 be
       1.7424816 1.9760697 0.44330454 -0.16112892
000090 1f ae 34 40 5f 5f 4b be ec df c3 3f eb 0e b4 be
       2.8231275 -0.198606 1.530271 -0.35167632
0000a0 a8 32 ea 3f 33 2c 2e 3f 77 f5 8d bd 46 bc 72 be
       1.8296709 0.6803619 -0.06931584 -0.23704633
0000b0 15 82 bd 3f b0 89 12 be bf 1a 81 40 f6 20 44 40
       1.4805323 -0.14310336 4.034515 3.0645118
0000c0 6e c3 37 40 7b 44 bd be 9a 6e a4 be c5 8b 73 3c
       2.871303 -0.3696631 -0.32115632 0.014864867
0000d0 55 cd 85 3f 6e 2c 30 40 9a 93 56 40 53 84 d4 3f
       1.0453287 2.7527118 3.352759 1.6602882
0000e0 97 8a bb be ce 3d 27 3b 03 51 17 40 86 a4 05 40
       -0.36629173 0.0025519016 2.3643196 2.0881667
0000f0 25 05 61 3f 6f f3 dd 3c 66 e0 2a 40 4a 31 7f 3e
       0.87898475 0.027093617 2.6699462 0.24921146

hidden_layer2.weight f4 [32, 64]
000000 ad b5 04 3b 76 24 65 be 64 0c e7 3d 03 89 2a be
       0.0020249889 -0.2237719 0.1128166 -0.16653828
000010 92 93 e3 39 2e 41 2d bd 22 0e 4e bc 8b f0 84 be
       0.00043406762 -0.04229849 -0.012576612 -0.2596477
000020 92 1c 36 bc c2 66 f2 bd 38 14 1c be 79 41 44 3d
       -0.01111521 -0.11836006 -0.15242088 0.047914002
000030 5c 59 90 bd b5 0a 0a 3e 5f db dd bd 57 15 3c 3c
       -0.07048294 0.13480647 -0.10832857 0.011479697
000040 66 44 cb 3d d3 47 02 3e a6 8f b8 3d 89 1d 92 bd
       0.09925155 0.12722711 0.09011774 -0.0713454
000050 91 ef 12 be 01 06 40 be e8 6f 01 be c1 4e a8 3d
       -0.143492 -0.1875229 -0.12640345 0.08218146
000060 75 b6 ab bd c7 77 85 bc 11 26 c5 bc 2e 36 cc bd
       -0.0838441 -0.016292466 -0.024066003 -0.099712715
000070 f0 d2 54 be f5 bf 76 bd 0d 49 82 be 61 c8 04 be
       -0.20783591 -0.06024166 -0.25446358 -0.12967063
000080 00 01 ff 3c db 52 8d be bd c6 40 3d cb af 9d 3b
       0.031128407 -0.27602276 0.04706453 0.004812216
000090 56 85 cb bd d2 d3 80 3d c6 77 46 be 5f aa eb bd
       -0.09937541 0.062904015 -0.19381627 -0.11507105
0000a0 37 5e 17 be c3 7d c9 3d cf bb 1d be 72 35 a8 3d
       -0.14782034 0.0983844 -0.15403675 0.08213319
0000b0 1d 62 f8 bd 5b ae 75 3e 04 3f 98 bd d2 a7 02 be
       -0.121280886 0.23992293 -0.07433894 -0.12759331
0000c0 db 1f 46 be 85 d0 be bc 09 d0 ab bd c8 b7 f2 bd
       -0.1934809 -0.02329279 -0.08389289 -0.1185146
0000d0 9a 18 16 be de ad 72 bd ba d1 8d 3d be d3 a1 bd
       -0.14657822 -0.059247844 0.06924768 -0.07901715
0000e0 49 d3 88 bd 85 01 9a bd 81 72 a0 bc 2b 0d 90 bd
       -0.066809244 -0.07519821 -0.01958585 -0.070337616
0000f0 b9 d7 22 be 9e 6c 33 3d 5b 48 a1 bd 68 71 56 bd
       -0.15902604 0.043804757 -0.07875129 -0.052354246
000100 47 08 62 bf 5d c0 93 bf 1b 5d eb 3d c1 3c 9d bf
       -0.8829388 -1.154308 0.11492368 -1.2284166
000110 6a de b9 3e 8f 37 23 be 8e 34 8b bf bc d0 8d bf
       0.363025 -0.15939163 -1.0875413 -1.1079326
000120 c9 27 02 3e 33 a6 b8 bf 4a 25 a1 bf 3a 27 c1 bc
       0.1271049 -1.442572 -1.2589505 -0.023578275
000130 38 2d 77 bf f1 fe a3 bf 8b f1 86 be fe ca 71 bf
       -0.96553373 -1.2812177 -0.26356158 -0.94450366
000140 85 1a 14 be a7 4e aa bd 14 46 bf bf 8b 2d 3b bf
       -0.14463241 -0.08315783 -1.4943261 -0.7311637
000150 4b 41 1b 3d 03 a8 8b be b2 1e 8e bf b9 5a 2a 3d
       0.037904065 -0.2727662 -1.1103117 0.041590426
000160 23 ab bd bd 4d f6 4f bc e2 b1 33 bd 15 76 91 3e
       -0.09261157 -0.012693 -0.043870814 0.28410402
000170 5a 67 a5 3d f3 56 7e be 5e 2b 8b bf 2b 30 71 bf
       0.08076353 -0.24837856 -1.087261 -0.94214123
000180 1a 6b db 3f 85 a2 eb be 4d 1f 81 bf 58 e1 98 bf
       1.714206 -0.4602243 -1.0087677 -1.194377
000190 f1 7e 88 3e 75 2f 8b bf 96 7f ab bf 07 34 b2 bf
       0.2665935 -1.0873858 -1.3398311 -1.3922127
0001a0 d6 9d 41 bf 6e bb 9b bf a1 72 aa bc a2 56 9e bf
       -0.75631464 -1.2166574 -0.020806612 -1.2370188
0001b0 9b fb 92 bf dc 01 c6 3c 1e 48 b2 be d7 53 34 3e
       -1.1483034 0.024170808 -0.34820646 0.17610107
0001c0 04 1a 41 3d 7b fc 97 bf 3c 2f 2e bf ae 8e ca 3d
       0.04714395 -1.1873926 -0.68040824 0.09890495
0001d0 50 53 bc bf 0b ad 0c bf d4 10 83 3c 75 03 b7 bf
       -1.4712925 -0.5495154 0.015999235 -1.429793
0001e0 99 a8 9e bf 60 01 1d 3e cd f3 9d 3e 09 57 e3 3f
       -1.2395202 0.15332556 0.30850068 1.7760936
0001f0 ff 6a 83 bf ee 5c 56 bc 2e f7 8d bd 94 f6 9d bf
       -1.0267028 -0.01308368 -0.069319114 -1.2340875
000200 14 ab 22 be dc 79 8d be 65 5d 58 3f 5e 5c c4 3e
       -0.15885574 -0.27632034 0.8451751 0.3835172
000210 f6 a0 8d 3e 06 d4 84 3f f1 23 17 be a0 33 0d 3e
       0.27661866 1.0377204 -0.14759804 0.13789225
000220 f9 27 81 3d 1a fc 3a c0 48 aa 31 be d2 8b b4 3d
       0.06306452 -2.921637 -0.17350113 0.08815731
000230 64 d7 71 be c9 ec ee bf 9a 15 1f 3f 4a 30 a6 3e
       -0.23617321 -1.8666011 0.62142336 0.32458717
000240 1b 8b c0 3e 40 35 1d be 1c 43 c5 bd 12 75 39 3f
       0.3760613 -0.15352345 -0.09631941 0.7244426
000250 f0 f8 8f 3d db f0 0c 3f 41 e4 d9 bd d1 d5 26 bd
       0.07029903 0.55055016 -0.10639239 -0.040731255
000260 0c c4 84 3d 6e a7 90 bd 1e 1f 09 be ac 08 76 be
       0.064827055 -0.07063185 -0.13390777 -0.24026746
000270 10 4b 01 3f e5 06 df 3e 95 55 01 bf c9 90 02 3e
       0.5050516 0.43559948 -0.5052121 0.12750544
000280 f2 f8 a2 3f 2d 61 85 3e 27 bc ad bd b3 c9 1e bf
       1.2732222 0.26050702 -0.08483153 -0.6202652
000290 3e 9c 95 3f 3b d1 88 3e a3 e1 ea bf 6c 34 97 be
       1.1688306 0.2672213 -1.8350109 -0.29532182
0002a0 bc 74 3b bf fa c2 6e bf b2 53 e0 3d 81 2d 13 3e
       -0.73225 -0.9326626 0.109534636 0.14372827
0002b0 6a 29 aa be 7d 87 39 bd ce 50 11 bf 42 c8 b4 3e
       -0.3323472 -0.045295227 -0.56763923 0.35309035
0002c0 e3 d9 5e 3f 12 e2 ba 3e e4 87 c9 bc 7a c4 b8 bb
       0.8705122 0.36500603 -0.02460093 -0.005638656
0002d0 72 9b ca bf 8c df 6f 3e 92 93 4c 3e 40 ae d0 bf
       -1.5828688 0.2342512 0.19978169 -1.6303177
0002e0 92 ee ee 3d aa e5 ee 3c 36 2c 8e 3f 7f f1 ac 3f
       0.116665974 0.029162247 1.1107242 1.3511199
0002f0 cf dc 08 be 86 5e 9b b9 38 1c 91 3e 45 8b 04 bf
       -0.13365482 -0.0002963433 0.28341842 -0.5177501
000300 d5 aa 2e 3f 95 20 1e 3f 5a b2 96 3f 27 2a 6e 3f
       0.6822942 0.61768466 1.1773179 0.9303307
000310 82 61 80 3f 63 13 bf 3f 95 0d cf 3f 9d df 50 3f
       1.0029757 1.4927791 1.617602 0.81591207
000320 42 1d e5 bc 20 1e f0 3e bf 63 ef 3f 6a c0 fc 3c
       -0.027968053 0.46897984 1.8702315 0.030853469
000330 51 23 50 3f 58 de 74 3f 65 db a4 3f b1 72 72 3f
       0.8130389 0.9565177 1.2879454 0.94706255
000340 c0 bd 9f 3f 8a e4 65 3c 8b bc f8 3f 23 55 36 3f
       1.2479782 0.014031539 1.9432539 0.7122366
000350 57 45 3c bd 67 d3 93 3f 1d f4 8e 3f ab 52 32 3e
       -0.045964565 1.154889 1.1168247 0.17414348
000360 d8 d0 cd 3d 65 38 ed bc fd 62 53 3f 9a 00 a9 3f
       0.100495994 -0.028957555 0.8257292 1.3203309
000370 a7 66 92 3f ce cf cb 3f 19 e2 75 3f 30 f0 4c 3f
       1.1437577 1.5922792 0.9604812 0.80054
000380 61 ec a6 3f 65 ab 28 3f 23 7d 8b 3f a8 78 84 3f
       1.3040887 0.6588653 1.0897564 1.0349321
000390 6f 80 cd 3f 84 5f 5c 3f b2 d6 55 3f 67 22 b0 3f
       1.605482 0.86083245 0.83530724 1.3760499
0003a0 70 5e c9 3f 42 3a 49 3f ae 5e 0c bd 5b 55 5c 3f
       1.5731945 0.7860452 -0.03426998 0.8606774
0003b0 39 44 8e 3f fc 6b 49 3d b1 39 2e 40 d3 a6 cc 3f
       1.111457 0.049175248 2.7222712 1.5988411
0003c0 72 93 9d 3f 24 68 5f 3f 22 f0 6e 3f ed df 70 3d
       1.2310622 0.8726828 0.93335164 0.058807302
0003d0 1d ab 7b 3f 82 74 ae 3f 45 b6 e6 3f 9d 3d 80 3f
       0.98307973 1.3629305 1.8024374 1.0018803
0003e0 5f ad 58 3f a2 7d 45 3d c0 8f c2 3f 6a e3 a7 3f
       0.84639543 0.048215516 1.5200119 1.3116276
0003f0 fb 70 ec 3f 53 0e c2 bd 1b 42 ba 3f 3d 27 bb 3f
       1.8471979 -0.094753884 1.4551424 1.462135

hidden_layer2.bias f4 [32]
000000 ed d3 81 be 38 35 a5 be e3 5c f6 bf ca 03 b0 3f
       -0.25357 -0.32267165 -1.9247097 1.3751156
000010 be b9 41 be 69 a5 65 bf 55 b3 33 be cb a5 aa 3f
       -0.18918511 -0.8970552 -0.17548878 1.3331846
000020 c6 6b ba bd e4 a9 08 3e 88 24 98 bb 42 d0 c2 bd
       -0.091025874 0.13346058 -0.0046430267 -0.09512378
000030 c2 89 19 40 33 a0 31 be a5 7c ba bd 18 af 4b bf
       2.399033 -0.17346267 -0.09105805 -0.79564047
000040 12 e9 6b be 08 ed 2b bc 88 4b dc be 26 5b 04 be
       -0.23038128 -0.010493524 -0.43026376 -0.12925395
000050 03 3e 0f be e2 b8 1f c0 a4 aa f1 bd 4f c6 0a be
       -0.139885 -2.4956594 -0.11800125 -0.13552211
000060 84 55 e2 bf 39 52 57 bf 4d f3 a1 bf 2a 71 91 40
       -1.7682347 -0.84109837 -1.2652375 4.545064
000070 36 1f a0 bf 54 69 8e 40 53 01 90 bc b4 61 0a bf
       -1.2509525 4.4503574 -0.017578756 -0.54055333
