Comparison/TrainedModel/20-0.001-72-Agent/node_agent_29.pth (torch, 39236 bytes, 6 tensors)

input_layer.weight f4 [32, 153]
0.24828832 0.8275212 -0.059016522 0.030944297 -0.1270565 0.034911167 0.84877104 -0.15540509
0.068427116 0.7741374 0.06831189 0.014733106 -0.01987138 -0.11221559 -0.018376274 0.026004855
-0.03206355 0.06532467 0.05475344 -0.124299444 0.012386958 0.052738756 0.1703507 0.0562596
0.03812377 -0.18070342 0.021556264 0.15001823 0.08741602 0.05728237 0.0690147 0.13208257
-0.13450395 -0.062295716 -0.037133396 -0.09037905 0.10123777 -0.15874748 0.07517873 0.048929896
0.064827286 0.036028203 0.24383557 -0.04601065 0.094781116 -0.122203924 0.115793146 -0.03859703
0.078154705 0.009130217 -0.01950904 0.009950807 -0.058577895 -0.041877307 -0.012166194 0.6143713
0.07439418 0.033093315 0.04706138 0.032552656 -0.03033194 0.60153395 0.1152782 -0.24679379
0.20297793 0.36983392 0.65991986 1.2036847 0.9367672 0.06985831 -0.24139316 1.3299088
0.6899981 0.70970386 0.15653124 0.7110113 0.6788091 0.23812544 1.0115647 -0.16494717
0.08622545 0.90470815 -0.04153579 -0.029630605 0.05660624 0.5313352 -0.12415458 0.0994593
-0.090554655 -0.024516173 -0.23663199 -0.01139147 -0.019670783 0.051106658 0.0852238 0.14198422
0.16750388 0.052235264 0.031642467 -0.29055536 -0.0036179684 0.100392364 -0.0054465225 -0.15243016
-0.19145727 -0.04461327 -0.099008285 0.00049680675 0.034399267 -0.13263756 -0.11667078 -0.006012198
0.102100454 0.08027863 0.7146063 -0.03572924 -0.033387017 -0.12455217 -0.056872785 0.087946706
0.08255824 -0.12507899 -0.050872277 0.03390965 -0.020998133 0.029827813 0.039397348 -0.08700934
0.82858205 0.07327672 -0.027759006 0.03649796 -0.17876224 -0.018290967 0.15954916 0.068182476
0.20383899 0.18506896 0.034870055 -0.19673227 0.024426386 0.09925365 -0.03577194 -0.10756164
0.1154099 0.030846884 0.13471226 -0.098116 0.060568344 -0.077962935 0.08624997 -0.097155385
-0.0951088 -0.0061374293 -0.1511891 0.28309503 0.07203236 -0.009795885 0.080093734 -0.055246536
0.061000586 0.023710428 0.12297583 0.17647861 -0.28051245 0.17975275 -0.01985737 -0.042028435
-0.043332584 -0.16002414 0.15560913 0.008559733 -0.01756633 -0.020777611 0.0013767785 0.12827764
-0.042360913 0.12349588 0.12407899 0.053760167 -0.17307226 0.15790534 0.0430471 0.14202972
0.02883166 -0.06765132 0.17943297 -0.062144794 -0.17608465 -0.08603218 0.29112306 0.10238131
-0.012457828 -0.023829088 0.032296468 0.008570296 0.06335026 0.08054011 -0.03723311 0.0011191837
0.10344943 -0.10668594 -0.04754063 -0.0074322494 0.030063739 -0.25831473 0.28588602 0.01972067
-0.25743362 -0.075596556 -0.21543618 0.103694655 0.11025398 0.020732542 -0.033222985 0.192829
0.1450536 -0.14289692 0.15047276 0.056763202 0.07602696 -0.0326115 0.0945845 0.22029732
-0.012161485 -0.15955162 -0.14902496 -0.12461114 -0.06846984 -0.031905778 0.010514493 -0.09123282
0.04332651 0.13057646 -0.07860522 0.013334358 -0.022286575 0.060520608 -0.030338312 0.106781244
0.12304293 -0.04141149 0.101142265 -0.04654625 0.102154486 -0.055048447 0.05823138 -0.09777138
0.08010259 -0.03125801 0.009110472 -0.058460277 -0.0975265 0.016716756 -0.20590632 0.19984081
00000000: 4b3f 7e3e 6ed8 533f 4fbb 71bd e57e fd3c
00000010: 191b 02be 03ff 0e3d 0f49 593f 8322 1fbe
00000020: 8423 8c3d de2d 463f 1be7 8b3d 2063 713c
00000030: 4ec9 a2bc 4ad1 e5bd d789 96bc 2208 d53c
00000040: 1255 03bd f1c8 853d 2545 603d b590 febd
00000050: abf2 4a3c 9804 583d 6a70 2e3e 7770 663d
00000060: ac27 1c3d 510a 39be c396 b03c 619e 193e
00000070: 2c07 b33d eba0 6a3d 9457 8d3d a740 073e
00000080: 67bb 09be cb29 7fbd 3019 18bd a718 b9bd
00000090: bf55 cf3d b38e 22be 4ef7 993d b76a 483d
000000a0: 2bc4 843d 4f92 133d 08b0 793e aa75 3cbd
000000b0: 9a1c c23d 0d46 fabd f524 ed3d eb17 1ebd
000000c0: 930f a03d e896 153c 6cd1 9fbc b608 233c
000000d0: 60ef 6fbd 8a87 2bbd b754 47bc 7047 1d3f
000000e0: fa5b 983d db8c 073d 6fc3 403d ef55 053d
000000f0: b07a f8bc 21fe 193f fa16 ec3d 83b7 7cbe
00000100: 72d9 4f3e df5a bd3e 82f0 283f 5712 9a3f
00000110: facf 6f3f e011 8f3d c52f 77be 743a aa3f
00000120: b7a3 303f 27af 353f ba49 203e d604 363f
00000130: 6fc6 2d3f 28d7 733e f47a 813f e9e7 28be
00000140: f896 b03d f49a 673f 6f21 2abd e2bb f2bc
00000150: f2db 673d 9505 083f c244 febd 51b1 cb3d
00000160: b874 b9bd 24d6 c8bc a84f 72be 4aa3 3abc
00000170: 9f24 a1bc 3755 513d d189 ae3d 5064 113e
00000180: 2386 2b3e a5f4 553d 889b 013d acc3 94be
00000190: 701b 6dbb 839a cd3d be78 b2bb a716 1cbe
000001a0: 600d 44be 67bc 36bd dbc4 cabd 233c 023a
000001b0: 3fe6 0c3d 24d2 07be 17f1 eebd f901 c5bb
000001c0: 0b1a d13d 1f69 a43d 70f0 363f d358 12bd
000001d0: d3c0 08bd 3515 ffbd 70f3 68bd 671d b43d
000001e0: 4b14 a93d b514 00be 735f 50bd d8e4 0a3d
000001f0: 4704 acbc 7559 f43c 1d5f 213d f431 b2bd
00000200: f41d 543f 1b12 963d db66 e3bc e37e 153d
00000210: 730d 37be f0d6 95bc db60 233e 41a3 8b3d
00000220: 2bbb 503e b882 3d3e e7d3 0e3d 2f74 49be
00000230: d819 c83c 7f45 cb3d 9985 12bd 4749 dcbd
00000240: 075c ec3d 9bb2 fc3c 03f2 093e 0bf1 c8bd
00000250: 8316 783d 08ab 9fbd d3a3 b03d 67f9 c6bd
00000260: 67c8 c2bd 7d1c c9bb 51d1 1abe d5f1 903e
00000270: b485 933d eb7e 20bc 2f08 a43d 314a 62bd
00000280: c0db 793d 5f3c c23c c1da fb3d cfb6 343e
00000290: 549f 8fbe 1b11 383e ecab a2bc 0226 2cbd
000002a0: 827d 31bd 5edd 23be 0058 1f3e 1f3e 0c3c
000002b0: 44e7 8fbc cf35 aabc 0575 b43a 375b 033e
000002c0: a382 2dbd 68eb fc3d 201d fe3d 9f33 5c3d
000002d0: db39 31be f0b1 213e 2852 303d 3d70 113e
000002e0: 6030 ec3c c68c 8abd 47bd 373e 8a8b 7ebd
000002f0: 894f 34be a431 b0bd 150e 953e 4bad d13d
00000300: eb1b 4cbc 3835 c3bc 4d49 043d 6d6a 0c3c
00000310: c8bd 813d 37f2 a43d bf81 18bd 93b1 923a
00000320: 4bdd d33d 287e dabd f7b9 42bd 3a8a f3bb
00000330: 3b48 f63c d441 84be a75f 923e 3e8d a13c
00000340: 57ce 83be 5ed2 9abd 4d9b 5cbe dd5d d43d
00000350: d7cc e13d 4bd7 a93c d314 08bd f774 453e
00000360: ee88 143e 9253 12be 8815 1a3e 8880 683d
00000370: 06b4 9b3d a393 05bd 85b5 c13d 9f95 613e
00000380: f740 47bc 8061 23be 009a 18be 2034 ffbd
00000390: ea39 8cbd a2af 02bd fb44 2c3c 46d8 babd
000003a0: 2377 313d d6b5 053e c6fb a0bd 5a78 5a3c
000003b0: 5692 b6bc 75e4 773d 0d88 f8bc 20b0 da3d
000003c0: effd fb3d 189f 29bd ad23 cf3d 48a7 3ebd
000003d0: 5f36 d13d 7b7a 61bd 0784 6e3d 5c3c c8bd
000003e0: d40c a43d 6608 00bd 1744 153c 0b74 6fbd
000003f0: f9bb c7bd 94f1 883c 1bd9 52be 12a3 4c3e

input_layer.bias f4 [32]
0.6648844 -0.018988803 0.6147654 0.036223724 0.512599 1.1657213 0.78658587 0.06291701
0.61071616 0.6004689 1.1887621 0.6575346 -0.09076779 0.74271625 1.1233824 0.038947895
0.7096754 0.74653 -0.08352973 0.6180667 0.6963304 0.59508705 0.028816132 0.6479372
0.5323485 0.7688866 0.7180673 -0.02121049 0.7380175 1.168945 0.69700783 -0.0049240813
00000000: dd35 2a3f 688e 9bbc 4461 1d3f 545f 143d
00000010: b039 033f 5b36 953f b15d 493f a2da 803d
00000020: e557 1c3f 54b8 193f 5b29 983f 3054 283f
00000030: 77e4 b9bd a722 3e3f ffca 8f3f d487 1f3d
00000040: 49ad 353f 971c 3f3f a311 abbd 9f39 1e3f
00000050: b642 323f a057 183f cf0f ec3c 36df 253f
00000060: fe47 083f c1d5 443f 42d3 373f 9fc1 adbc
00000070: b7ee 3c3f fd9f 953f 1b6f 323f 305a a1bb

hidden_layer1.weight f4 [64, 32]
0.04142365 0.17263143 -0.033056304 0.0073259673 -0.029653704 -0.031016817 0.08875032 -0.05726991
-0.10596955 0.006002547 0.15786293 -0.16948633 -0.12054821 0.03060776 0.011262081 -0.09996196
-0.09036907 0.030824233 -0.13322918 -0.13568208 -0.10390057 -0.2472802 0.03717145 -0.026935736
0.02072208 -0.15860933 -0.22527003 0.025447488 -0.122091964 -0.009181239 0.08253919 -0.13611129
0.0051018 0.20153645 -0.02242529 0.08856798 -0.02657198 0.058470942 -0.03793646 -0.14070165
-0.039977334 0.122943595 0.063029826 -0.066764794 -0.07085293 -0.13574636 -0.016952476 -0.00034959472
-0.0556827 -0.086153224 -0.010479747 0.026188402 -0.1197202 -0.00027955827 0.050985552 0.10909771
-0.047771763 -0.02332013 -0.03598778 0.23863263 0.07391952 0.10018207 -0.037575956 -0.04538002
0.014159602 0.10910994 -0.14019409 0.14480886 0.11201409 0.06410556 -0.05605528 -0.13742462
-0.117309384 0.04218838 -0.08878437 -0.26837313 0.18292528 0.0260946 0.023399765 -0.212448
0.019981245 0.13084045 -0.010717772 -0.007227802 -0.12670502 -0.17818783 -0.029616475 0.014007727
-0.106673695 -0.017991064 -0.008408001 -0.081906974 -0.07998809 -0.034391746 0.007014299 -0.0126122935
0.8084249 -0.071753144 -1.8119478 0.014492312 0.67725074 -1.5618312 -0.9459028 0.014301342
0.6944327 0.97776955 -1.5185683 0.64881504 0.014146338 0.64241105 -1.3415111 0.09145014
0.84380305 -0.9060805 0.06254023 0.8744476 0.8799785 -1.1564198 0.022760998 0.74976957
-0.21623847 0.80604726 0.85081846 -0.014531441 0.7674916 -1.4245425 0.6727738 0.026770566
-0.08407393 0.058122516 -0.040657315 -0.032145057 -0.012255403 -0.12887701 -0.0045039966 0.038216274
-0.12500905 -0.0544112 -0.022648742 0.0008651795 -0.0990308 0.1744704 -0.11457586 -0.12833668
-0.11711257 -0.10094768 -0.06378185 0.024976933 -0.11668755 0.06784954 -0.061607283 0.052625295
0.048936132 0.00039874268 0.020076057 0.011578752 -0.115256704 -0.1506441 0.057359666 -0.09755523
0.022783466 -0.005567492 -0.10925039 0.008771005 -0.013942867 0.11616098 0.040785942 -0.028626058
-0.05020187 0.051226225 0.110431924 0.0005000328 0.101203874 0.00908253 0.043747865 -0.07237948
-0.09056833 -0.14812188 -0.052490354 -0.19084062 -0.12156678 -0.09138428 0.09110765 0.07322717
-0.08771745 -0.09150479 -0.0062484466 0.047972824 0.118142344 -0.030293915 -0.010134292 -0.20005678
0.52427775 -0.076362476 -2.001812 -0.12549531 0.5989146 -1.7405493 -1.1384411 -0.06637534
0.974174 0.8605512 -1.6718872 0.94628227 -0.055611078 0.6926331 -1.6047467 0.012081579
0.8996967 -0.97317487 0.031196842 0.7480096 0.6919085 -1.6244586 -0.121457905 0.8696404
-0.3223402 0.8563545 0.81371415 0.05178643 0.6869058 -1.7565057 0.7816228 -0.041339736
-0.014213703 -0.045143124 0.15926121 0.09698614 0.064518176 -0.067578 0.19447505 0.10935408
-0.03005967 0.07685755 0.1486461 0.092726216 -0.19637333 0.09556341 0.1388957 -0.013596836
0.029267464 -0.20385292 0.0023748258 -0.14941862 -0.059272733 -0.19919282 -0.15118593 0.13760017
-0.100202374 -0.05059299 -0.1997085 -0.052622914 0.080943316 -0.15976301 -0.1468641 -0.019067068
00000000: d8ab 293d 4bc6 303e 0c66 07bd ab0e f03b
00000010: 53ec f2bc fb16 febc bac2 b53d da93 6abd
00000020: 9006 d9bd 04b1 c43b d2a6 213e d38d 2dbe
00000030: fbe1 f6bd 20bd fa3c 9784 383c dbb8 ccbd
00000040: 6b13 b9bd 1a83 fc3c 3b6d 08be 3ef0 0abe
00000050: d2c9 d4bd 0537 7dbe 1741 183d 55a8 dcbc
00000060: 5ac1 a93c 7c6a 22be 30ad 66be 4077 d03c
00000070: 5a0b fabd e86c 16bc 4f0a a93d c260 0bbe
00000080: 002d a73b 925f 4e3e 3eb5 b7bc 2163 b53d
00000090: 7bad d9bc 3a7f 6f3d 4363 1bbd 1814 10be
000000a0: 46bf 23bd dac9 fb3d c815 813d fbbb 88bd
000000b0: 571b 91bd 1801 0bbe ebdf 8abc cf49 b7b9
000000c0: 8b13 64bd 1a71 b0bd 3fb3 2bbc 0f89 d63c
000000d0: dd2f f5bd ad91 92b9 3ad6 503d 9f6e df3d
000000e0: 53ac 43bd db09 bfbc ec67 13bd 1d5c 743e
000000f0: 1e63 973d 422c cd3d 3fe9 19bd 66e0 39bd
00000100: adfd 673c 0875 df3d 0a8f 0fbe c648 143e
00000110: a567 e53d c749 833d 399a 65bd 0ab9 0cbe
00000120: e73f f0bd b9cd 2c3d 94d4 b5bd 3468 89be
00000130: c450 3b3e 58c4 d53c ddb0 bf3c f88b 59be
00000140: b5af a33c 0afb 053e 9899 2fbc 33d7 ecbb
00000150: f6be 01be df76 36be 409e f2bc aa80 653c
00000160: bd77 dabd ff61 93bc b6c1 09bc d8be a7bd
00000170: ccd0 a3bd 5cde 0cbd 34d8 e53b cba3 4ebc
00000180: eff4 4e3f 50f3 92bd e8ed e7bf 2a71 6d3c
00000190: 4e60 2d3f 16ea c7bf b026 72bf 2d50 6a3c
000001a0: 57c6 313f 1b4f 7a3f 7260 c2bf be18 263f
000001b0: 0bc6 673c 0d75 243f a3b6 abbf 364a bb3d
000001c0: 7a03 583f e4f4 67bf 1815 803d ccdb 5f3f
000001d0: 4546 613f 9005 94bf 4675 ba3c e6f0 3f3f
000001e0: 9e6d 5dbe 1d59 4e3f 3dcf 593f 4815 6ebc
000001f0: 547a 443f 6957 b6bf e73a 2c3f f24d db3c
00000200: f42e acbd e011 6e3d 4988 26bd 89aa 03bd
00000210: e3ca 48bc 56f8 03be 4396 93bb ab88 1c3d
00000220: 5f02 00be 47de 5ebd db89 b9bc 37cd 623a
00000230: a9d0 cabd 5ea8 323e c0a6 eabd b16a 03be
00000240: b7d8 efbd a8bd cebd 0fa0 82bd 6d9c cc3c
00000250: e2f9 eebd b3f4 8a3d eb57 7cbd 9f8d 573d
00000260: 4171 483d 560e d139 8b76 a43c ceb4 3d3c
00000270: b50b ecbd 7242 1abe f8f1 6a3d 09cb c7bd
00000280: 64a4 ba3c 826f b6bb abbe dfbd 43b4 0f3c
00000290: 9f70 64bc cfe5 ed3d 290f 273d 3281 eabc
000002a0: 7aa0 4dbd 97d2 513d 222a e23d a214 033a
000002b0: fa43 cf3d e4ce 143c f630 333d b13b 94bd
000002c0: e37b b9bd 43ad 17be 2000 57bd b96b 43be
000002d0: 01f8 f8bd ae27 bbbd a696 ba3d 20f8 953d
000002e0: 35a5 b3bd dd66 bbbd c5bf ccbb 277f 443d
000002f0: 9df4 f13d f22a f8bc 4d0a 26bc afdb 4cbe
00000300: 1137 063f ee63 9cbd b01d 00c0 d881 00be
00000310: 7852 193f 52ca debf 70b8 91bf cbef 87bd
00000320: 7863 793f 154d 5c3f 6600 d6bf 8e3f 723f
00000330: 71c8 63bd 6750 313f 5768 cdbf d1f1 453c
00000340: 8652 663f fd21 79bf 8590 ff3c 8f7d 3f3f
00000350: ea20 313f 42ee cfbf ecbe f8bd c1a0 5e3f
00000360: c609 a5be 0c3a 5b3f 924f 503f 021e 543d
00000370: 0fd9 2f3f 2ed5 e0bf 6f18 483f db53 29bd
00000380: 97e0 68bc ffe7 38bd 5f15 233e aba0 c63d
00000390: 1b22 843d 5666 8abd 7824 473e 08f5 df3d
000003a0: b23f f6bc 7e67 9d3d af36 183e 3ee7 bd3d
000003b0: 1716 49be c0b6 c33d ad3a 0e3e 43c5 5ebc
000003c0: 52c2 ef3c d2be 50be f7a2 1b3b 3201 19be
000003d0: f7c7 72bd 34f9 4bbe 7cd0 1abe 0fe7 0c3e
000003e0: e736 cdbd 983a 4fbd 6380 4cbe 208b 57bd
000003f0: 9cc5 a53d ea98 23be 8b63 16be 8a32 9cbc

hidden_layer1.bias f4 [64]
0.07750778 0.05106716 -0.096228495 0.44553357 0.10131339 -0.11168556 0.6882834 -0.01410383
0.05709049 0.074572325 0.42039326 0.3266926 0.120190434 0.20498395 -0.16340104 0.5559754
0.048785787 -0.1584752 0.7413742 0.16400121 0.47891805 0.5588024 0.78681093 -0.17628592
0.1397242 0.031116337 0.479458 0.04306963 -0.08688541 0.12852381 -0.002022311 1.0592318
0.0057439506 1.1701438 0.016160218 0.04616748 0.09958625 -0.04069425 0.17490517 1.376639
0.16170691 1.2239598 0.070412084 0.14641866 0.30785695 0.105316706 -0.09609849 0.23794323
0.20091313 -0.05976792 -0.10427689 0.114312574 1.0418082 0.38349688 1.0631814 0.36171415
-0.19298306 0.037802264 0.60849303 0.6148608 -0.040867362 0.3780426 1.0764768 0.41598067
00000000: 66bc 9e3d cc2b 513d 7213 c5bd fa1c e43e
00000010: 657d cf3d 66bb e4bd 5733 303f c013 67bc
00000020: b8d7 693d 60b9 983d c93d d73e 4144 a73e
00000030: 6726 f63d 50e7 513e 9a52 27be 6754 0e3f
00000040: 9bd3 473d 5347 22be b3ca 3d3f efef 273e
00000050: bf34 f53e ad0d 0f3f 716c 493f 4c84 34be
00000060: dc13 0f3e b0e7 fe3c 857b f53e c869 303d
00000070: faf0 b1bd bf9b 033e c088 04bb e894 873f
00000080: c037 bc3b 46c7 953f 6f62 843c 1d1a 3d3d
00000090: e0f3 cb3d 04af 26bd 571a 333e b535 b03f
000000a0: 7f96 253e b7aa 9c3f 3634 903d c6ee 153e
000000b0: 6d9f 9d3e 49b0 d73d 49cf c4bd 64a7 733e
000000c0: 2cbc 4d3e 35cf 74bd 1f8f d5bd b61c ea3d
000000d0: f959 853f b459 c43e 5416 883f 9932 b93e
000000e0: 5a9d 45be 8cd6 1a3d 33c6 1b3f 8467 1d3f
000000f0: 8964 27bd cd8e c13e fec9 893f 6bfb d43e

hidden_layer2.weight f4 [32, 64]
0.1398233 0.07941302 -0.012132759 0.10212394 0.13800168 0.11138383 -0.02493744 -0.11947062
0.035915952 -0.004670204 0.10077749 0.11923823 0.022604926 0.098843664 -0.105987385 0.005892742
-0.07239413 0.01932638 0.11756301 0.09057595 0.25357175 0.3809288 0.1226658 0.056399133
0.20566626 0.17608474 0.17817797 -0.07370008 -0.06740465 0.10174312 -0.076797724 0.08528488
0.28110042 -1.2066636 0.024906253 0.34715438 0.029788496 -0.01768755 0.08233993 -0.48343232
0.08315343 -0.007978237 0.24319603 -0.018551331 0.08030177 0.12352675 -0.110019684 0.42574564
0.08870864 0.021639952 -0.045956027 -0.018301621 -0.1423822 0.21518669 -0.75466436 0.13298969
-0.16914985 -0.06748106 -0.17843159 -0.0936391 -0.03701569 0.2209156 0.045677654 0.14061798
0.06847567 -0.049479373 0.031519525 1.1883533 -0.03504288 -0.013302216 1.3509884 0.17858562
0.009452449 0.008381954 1.2082136 1.2394248 0.9474812 1.1067895 -0.0795031 1.1441809
-0.05258528 -0.14028172 1.4983921 -0.07990389 1.1272236 -0.47792253 -0.9976598 0.027196247
1.1689831 -0.073420085 1.536108 0.0062724478 0.16490732 -0.08894538 -0.036372274 0.14386372
0.9627042 0.37503394 0.17099623 0.7882896 1.0846388 0.21511076 0.06760743 -0.5740129
-0.015484 -1.0926493 1.1225617 -0.07074355 1.0721887 1.0362672 0.005420051 1.1173655
1.2723141 0.033965897 -0.058999617 -0.040402155 1.3123695 1.2271514 0.25851125 1.0654107
0.03707217 0.100690596 1.2447302 1.3498672 0.0721294 1.0532302 -0.0014392193 1.0841709
0.06591737 0.08886695 -0.11269446 -0.07102214 -0.027874473 0.05854068 -0.16673686 -0.010951075
-0.04099556 0.1925764 -0.08208284 -0.11538371 -0.08826288 -0.045353092 -0.096475035 0.15012358
0.024399478 -0.12189656 -0.069627084 -0.17273247 -0.09501517 0.062940605 -0.023109876 0.0126834605
0.15301478 -0.029138679 -0.064673685 0.05441287 0.16597256 -0.0564469 -0.07901143 0.09734086
-0.25986096 -0.092568 -0.0865114 -0.03817563 0.13683695 -0.11857151 0.12866877 0.13701409
0.23174754 -0.19278693 0.10043059 0.07789436 -0.016432658 -0.1396639 0.034312375 -0.13777415
0.08051962 -0.07449511 0.0046305857 -0.15447117 -0.17100205 0.072295144 -0.05811425 0.037343282
-0.10956796 0.068782374 -0.07472439 -0.055046584 0.050876256 0.06861061 0.038424443 0.030712714
0.03369653 0.03749224 -0.03638683 0.5347327 0.08903908 0.016794229 0.16963516 0.018877415
0.022457153 0.06616972 0.9853612 0.818321 0.765011 0.7833642 0.06181221 0.5015403
0.00842039 -0.10673185 0.21529828 0.103074364 0.7188426 0.024704633 -0.33710638 -0.15098092
0.7618036 -0.020349579 0.32289925 0.022577891 0.01255516 0.073928244 -0.06375165 0.50864553
0.9263225 0.32970154 -0.11685032 0.9821496 0.728279 -0.025140718 0.066077456 -0.2474704
-0.033574846 0.05894857 1.0034958 -0.085247435 0.554622 0.71534705 0.115546025 0.902131
0.6968712 -0.060583502 0.06208091 0.06706073 -0.29309928 0.87754816 0.1744661 0.69275683
-0.052552193 0.071522616 0.09256141 0.16160142 -0.20150886 0.81211674 0.62923354 0.81345695
00000000: d72d 0f3e 4ba3 a23d 7bc8 46bc 5b26 d13d
00000010: 5050 0d3e 351d e43d 9a49 ccbc 03ad f4bd
00000020: 9b1c 133d 8308 99bb 6e64 ce3d 2c33 f43d
00000030: f72d b93c 8c6e ca3d ea0f d9bd e717 c13b
00000040: 6043 94bd 5b52 9e3c e0c4 f03d e27f b93d
00000050: 28d4 813e 1a09 c33e 3538 fb3d c702 673d
00000060: 2d9a 523e 8f4f 343e 4974 363e 11f0 96bd
00000070: 730b 8abd b25e d03d 2048 9dbd d7a9 ae3d
00000080: 65ec 8f3e f473 9abf 3308 cc3c 38be b13e
00000090: 0107 f43c 7be5 90bc d6a1 a83d 7184 f7be
000000a0: 584c aa3d 27b7 02bc 6108 793e f6f8 97bc
000000b0: 4175 a43d 98fb fc3d 0052 e1bd 55fb d93e
000000c0: e0ac b53d 4546 b13c 633c 3cbd 48ed 95bc
000000d0: a4cc 11be e659 5c3e af31 41bf 732e 083e
000000e0: 9e35 2dbe 8333 8abd c5b6 36be dbc5 bfbd
000000f0: c49d 17bd b337 623e 7e18 3b3d 29fe 0f3e
00000100: f93c 8c3d e2aa 4abd 9e1a 013d f61b 983f
00000110: 1f89 0fbd 8af1 59bc 30ed ac3f 26df 363e
00000120: 72de 1a3c 7754 093c bea6 9a3f 79a5 9e3f
00000130: 218e 723f 47ab 8d3f 85d2 a2bd 8574 923f
00000140: aa63 57bd 03a6 0fbe 50cb bf3f a7a4 a3bd
00000150: dd48 903f 43b2 f4be a266 7fbf aaca de3c
00000160: 3da1 953f 455d 96bd 309f c43f 1b89 cd3b
00000170: 77dd 283e ff28 b6bd 18fb 14bd 0351 133e
00000180: c873 763f 7304 c03e a319 2f3e 59cd 493f
00000190: 72d5 8a3f ff45 5c3e c475 8a3d 82f2 12bf
000001a0: 9ab0 7dbc efdb 8bbf 1ab0 8f3f ffe1 90bd
000001b0: 7b3d 893f 67a4 843f af9a b13b d505 8f3f
000001c0: 30db a23f d31f 0b3d 95a9 71bd bb7c 25bd
000001d0: b9fb a73f 4c13 9d3f 965b 843e 615f 883f
000001e0: fdd8 173d df36 ce3d 5253 9f3f 73c8 ac3f
000001f0: 94b8 933d 3fd0 863f 30a4 bcba 1dc6 8a3f
00000200: b0ff 863d e0ff b53d 5acc e6bd 0e74 91bd
00000210: 0259 e4bc 5ac8 6f3d 11bd 2abe 236c 33bc
00000220: f6ea 27bd bf32 453e 0c1b a8bd 4b4e ecbd
00000230: 2bc3 b4bd 2ac4 39bd b494 c5bd ffb9 193e
00000240: 6ae1 c73c e7a4 f9bd a598 8ebd c8e0 30be
00000250: 5097 c2bd 01e7 803d ec50 bdbc 4ace 4f3c
00000260: e8af 1c3e 3db4 eebc a373 84bd 08e0 5e3d
00000270: b6f4 293e dd34 67bd bfd0 a1bd a55a c73d
00000280: 7f0c 85be 4b94 bdbd e42c b1bd 0d5e 1cbd
00000290: fc1e 0c3e 9fd5 f2bd bfc1 033e 6c4d 0c3e
000002a0: 3a4f 6d3e f069 45be 8eae cd3d 1487 9f3d
000002b0: c89d 86bc 0e04 0fbe 228b 0c3d ab14 0dbe
000002c0: 78e7 a43d e490 98bd 2bbc 973b b12d 1ebe
000002d0: 291b 2fbe 7a0f 943d 3509 6ebd 45f5 183d
000002e0: 2b65 e0bd c6dd 8c3d 1a09 99bd 8778 61bd
000002f0: 9f63 503d b883 8c3d f362 1d3d 3b99 fb3c
00000300: 5f05 0a3d 7791 193d 5b0a 15bd 3ee4 083f
00000310: 1f5a b63d 0d94 893c d7b4 2d3e cfa4 9a3c
00000320: 10f8 b73c fd83 873d a240 7c3f 7c7d 513f
00000330: c3d7 433f 8e8a 483f cd2e 7d3d f264 003f
00000340: adf5 093c 3a96 dabd 2777 5c3e a718 d33d
00000350: 1206 383f 5f61 ca3c 3599 acbe be9a 1abe
00000360: 9005 433f 29b4 a6bc 0d53 a53e 45f5 b83c
00000370: 28b4 4d3c b167 973d 3a90 82bd 9836 023f
00000380: 7923 6d3f a4ce a83e 384f efbd 286e 7b3f
00000390: 7e70 3a3f e8f3 cdbc 9e53 873d e168 7dbe
000003a0: c785 09bd 0e74 713d 8d72 803f 3596 aebd
000003b0: b5fb 0d3f fc20 373f 65a3 ec3d 0ff2 663f
000003c0: 2766 323f 6826 78bd 8d48 7e3d 2357 893d
000003d0: 1c11 96be ffa6 603f 3ea7 323e 8358 313f
000003e0: f840 57bd 737a 923d d690 bd3d d87a 253e
000003f0: 5758 4ebe e2e6 4f3f 7315 213f b73e 503f

hidden_layer2.bias f4 [32]
-0.20498368 0.49251848 -0.021376444 -0.11222279 -0.061852142 0.73025256 -0.06534411 0.3281289
0.35276863 0.7649003 0.62017363 0.064247265 0.022872502 -0.33955237 0.62576693 -0.19722533
0.06737231 -0.0051905513 -0.00308609 -0.28583923 0.08587687 -0.17197105 -0.03534335 -0.063462995
-0.14836277 0.14686826 0.040590465 0.51435834 0.02011328 -0.14043069 -0.07889524 0.25367692
00000000: 3ee7 51be 622b fc3e a71d afbc 10d5 e5bd
00000010: ac58 7dbd d5f1 3a3f 22d3 85bd 8300 a83e
00000020: 179e b43e 82d0 433f b3c3 1e3f 1294 833d
00000030: 1d5f bb3c cfd9 adbe 4332 203f 70f5 49be
00000040: 7efa 893d 8015 aabb 0040 4abb 8559 92be
00000050: 36e0 af3d 2e19 30be 30c4 10bd e3f8 81bd
00000060: 69ec 17be a264 163e 3042 263d fdac 033f
00000070: 9bc4 a43c 10cd 0fbe d493 a1bd f1e1 813e
