Comparison/TrainedModel/20-0.001-54-Agent/node_agent_2.pth (torch, 36922 bytes, 6 tensors)

input_layer.weight f4 [32, 135]
00000000: 8863 e9bd 570d babd e5b1 e2bd 9bf1 b23c
00000010: bb84 3ebd 7ffa 07be c49a 02bd 1956 903d
00000020: d27f 073e 22ed 913d 4b4b c53d d058 bc3d
00000030: b251 06bd b6a8 09be 0d16 ca3d 6fa7 433e
00000040: 252e 5e3d 634f bf3d 9b8e 343b 18c3 eabc
00000050: 0bb6 30be 38d0 5c3b 8336 cf3b 3ddd 1d3d
00000060: 1a2c 52be 3899 85bd ada0 063e f87f 7e3d
00000070: 72f7 c33d c5c2 613e dd07 0cbe 2b8e 723e
00000080: 4767 18be 2ff3 053e 9ac6 a73d 151b 663c
00000090: 12aa a03d fcbe bc3d f8d8 cc3d ab6c 6bbd
000000a0: 6746 c23b c770 e5bd 52fd 7a3d b797 7e3e
000000b0: 5516 713b 1f45 05be 1fde 26be 9c84 08bd
000000c0: 9d4a acbd 739c 40bc ce30 923d aad9 923d
000000d0: bb7e d13d e7fa f5bc 7da7 3cbd 0dc5 6b3d
000000e0: cff1 d3bd 7f41 793c 70cc 133e 277b f03c
000000f0: 104a 0cbe f374 613d 3b9e 18bd cffc 3ebe
00000100: 9fd2 de3a 675e 8dbd b086 833d 834d 57bd
00000110: aa79 debd 3019 df3d 5791 0f3e 0313 4cbc
00000120: 4a08 c7bd 76ef 183d 58c4 f23c 877c e83d
00000130: a4a5 b5bb e4d0 3cbd d1e5 49bc abf3 f63c
00000140: 573f 073d b2f5 4fbe ff83 90bd 67f1 8a3d
00000150: ba5a 583c e340 f03d 4b0d b3bd 23ac d6bd
00000160: 52b1 473d d36d 5cbd 4729 523e ebf6 26be
00000170: 676a c83c dd1e 7cbd b027 dabd 60be ccbd
00000180: 023d b53a 1afc e63d a722 40bd b694 2c3c
00000190: 080a ee3c f75b c9bd c50c 1d3e e736 0a3e
000001a0: 5f8a a33d 288f d13a 5c05 073e bcfd 4a3d
000001b0: b82a 01be 96cc 0fbe cafc bd3c ea3a 373e
000001c0: 55b3 513c 7f54 cabd fbb6 9a3d 5fe8 e2bd
000001d0: 63a7 95bd 151e 203e 5331 f13d 1f20 6e3c
000001e0: 5782 f03c 2ab5 e0bd 67ed f13d 6d41 66bd
000001f0: 4fa3 73bd e392 333e bfb4 2ebe 481c e43c
00000200: 2697 35bd daf1 77bd 656f 23ba 7144 a8bd
00000210: 5aaa 5dbd f01c 223e 6f3b 47bc 0498 b9bd
00000220: 68ee 3fbd eb10 adbd 2372 a4bd 2936 c03d
00000230: 1f98 10bd d28a be3d eb4f a53c e84a 23bc
00000240: dba2 a0bc c7f6 45bd aa27 063e a022 da3c
00000250: c475 293e 2e3b 913d f7d9 a93d 108a b2bd
00000260: ea45 cd3c d044 56bd e54b 5cbd f49c c2bc
00000270: d5dd e6bd 6ccf 003d ecf4 8dbc 3736 1fbe
00000280: ddd2 6abd 8275 b23d d65e 8c3d eb02 31bd
00000290: 9843 6c3d 8031 ecbc 79d9 043c 6c59 9cbc
000002a0: d993 0a3e db6a 243d 13bf f03b a7f2 08bd
000002b0: 6d4a df3d 72e3 233d 4b15 953c 97ea 493e
000002c0: f5bc bc3d 79fe 813d 8720 3e3d 837c f23d
000002d0: 1d79 68bd e4cd 423d c29f ba3d bc92 b93d
000002e0: b83f 153e 283a d6be f2e8 263e baca 0a3d
000002f0: 3324 e5bd e04e 13bc 97d1 9dbc 278a 183e
00000300: 0dcc fb3c 1960 133e 8019 2c3d 515d 03be
00000310: b859 fb3d b35f 343d 4d18 5abe 8b55 b3bc
00000320: d251 d6bc 9f90 fcbd 7bd9 24bb 1157 0fbe
00000330: 20f0 afbe cdcd dd3d 5a64 cfbd 3b66 1dbd
00000340: 222d 9b3d 6b49 633d 1d43 17bd 58f3 e53d
00000350: 3622 2d3d aa90 0cbe f7a8 a9bc 6a41 05be
00000360: f25b d4bd 75e7 0e3e eb1c 183e 37b4 403e
00000370: 0216 9fbc e97f 493d 8362 4e3d 6db6 373d
00000380: 1b5a 7b3b 5b50 933d 9fde 153d 155e 743d
00000390: 40f3 523c 4506 0b3e 47de ea3d d1e7 9dbd
000003a0: 9f4d f43d fdee 92bb 175f b63d 8530 d53c
000003b0: 2543 85be dfa8 30be 2506 03be ab98 68bd
000003c0: 881c e1bd 5366 f03b 93ab acbd bbfa c5bd
000003d0: 3939 2f3c e9ac 97bd 6e8f 1bbd df66 923d
000003e0: ddbe 4fbc 3794 493a 9b73 5f3d 940f 08be
000003f0: 134d a7bd 2d3f 42bd 77c0 29be e365 66bd
-0.11395937 -0.090845756 -0.11069087 0.021843722 -0.0465133 -0.1327915 -0.031885877 0.07047672
0.13232353 0.071253076 0.096335016 0.09196627 -0.032792754 -0.13443264 0.09867487 0.1910684
0.054243226 0.09341314 0.002755082 -0.028657481 -0.17256944 0.0033693444 0.006323637 0.038541067
-0.20524636 -0.06523365 0.1314723 0.06213376 0.09568681 0.22046955 -0.13674875 0.23687045
-0.14883147 0.13081048 0.08192177 0.014044543 0.07844938 0.09216115 0.10002321 -0.05747668
0.005928803 -0.11203151 0.06127674 0.24862562 0.0036786993 -0.13014649 -0.1629567 -0.03332959
-0.08412669 -0.01175605 0.07138215 0.071704224 0.1022925 -0.030026866 -0.046058167 0.05756097
-0.10348856 0.015213369 0.14433455 0.029355599 -0.13700128 0.055043172 -0.037260275 -0.18651126
0.0017000026 -0.069027714 0.06422174 -0.052564155 -0.10863049 0.10893476 0.14020287 -0.012455705
-0.09718378 0.037337743 0.02963464 0.11351877 -0.0055434275 -0.04609765 -0.012322859 0.030145487
0.03301939 -0.20308569 -0.07056426 0.06784325 0.013205225 0.11731126 -0.0874277 -0.10482051
0.04875309 -0.053815674 0.20523559 -0.16305129 0.0244648 -0.06155287 -0.10652101 -0.09997249
0.0013827386 0.11278553 -0.046908047 0.010533502 0.029057518 -0.09831994 0.15336902 0.13497506
0.079853766 0.0015988098 0.13185638 0.049558386 -0.12613952 -0.14042887 0.023191828 0.17893568
0.012799104 -0.098793976 0.07554432 -0.110794775 -0.07307317 0.15636475 0.11776986 0.014534025
0.029359026 -0.10972054 0.11812859 -0.05621474 -0.059481915 0.17536502 -0.17061137 0.027845517
-0.0443336 -0.060533382 -0.00062345556 -0.08216179 -0.054117538 0.15831351 -0.012160166 -0.09062198
-0.04685822 -0.084504925 -0.08029582 0.0938533 -0.035301324 0.093038216 0.02017971 -0.0099665895
-0.019608906 -0.04833105 0.13101068 0.026627839 0.1654883 0.07091366 0.082935266 -0.087177396
0.025057752 -0.05231172 -0.053783316 -0.023756482 -0.1127278 0.031447813 -0.017328702 -0.15548025
-0.05733 0.08713819 0.06854026 -0.043215673 0.05768165 -0.028832197 0.00810849 -0.019085608
0.13532962 0.040140968 0.0073469966 -0.033434536 0.109028675 0.04001183 0.01819863 0.19718395
0.09215728 0.06347365 0.04641774 0.11840155 -0.056756128 0.047559634 0.09112503 0.090611905
0.14575088 -0.41841245 0.16299799 0.03388474 -0.11188545 -0.008990973 -0.01926498 0.14896451
0.030736947 0.14392127 0.042016506 -0.12828566 0.12272972 0.04403658 -0.21298333 -0.021891376
-0.026162062 -0.12332272 -0.0025154043 -0.13998057 -0.34362888 0.10830269 -0.101265624 -0.038427573
0.07576968 0.05548994 -0.03692924 0.11228055 0.042268954 -0.1372706 -0.020710452 -0.13013235
-0.103691 0.13955481 0.14854781 0.18818747 -0.019419674 0.04919425 0.050386917 0.04485171
0.0038353268 0.07193061 0.03658926 0.059660036 0.012875378 0.1357661 0.11468177 -0.07710231
0.119288675 -0.004484056 0.08904856 0.026024112 -0.2602779 -0.17251919 -0.12795313 -0.05678622
-0.1099177 0.0073364167 -0.08431163 -0.09666964 0.010694795 -0.07406027 -0.037978582 0.07148527
-0.012679783 0.0007689627 0.05455361 -0.13287193 -0.081689976 -0.04742353 -0.16577326 -0.05624951

input_layer.bias f4 [32]
00000000: c0c4 b5bc 4bcc 25bd 6416 b83e 3097 ef3e
00000010: ba8d 503d c0a1 f13e 4811 65bd 4c14 033f
00000020: 6fdb 7fbd 1ba2 b83e 1433 ba3e 2f71 e93e
00000030: 1e24 4bbd 888e 203f 6f60 a13e 23fa d43e
00000040: f8a0 913e 7aaa 7bbd 000d cb3e be6c bcbd
00000050: 6a93 ed3e 24e4 813e e83e b7bd 5743 fb3e
00000060: 7cd6 e23e 1e8e aa3e 9c0d c2bd 7c3c f13e
00000070: ab70 d03e 0a7d d33e 96bb cd3d 3f6b b63e
-0.022188544 -0.040478032 0.35954583 0.46795034 0.05091641 0.47193718 -0.055924684 0.51202846
-0.062465128 0.36061177 0.36367095 0.45594165 -0.04959499 0.62717485 0.31518885 0.4159709
0.28443122 -0.061441876 0.39658356 -0.092004284 0.4640153 0.2536937 -0.08947545 0.49074814
0.44304264 0.33311552 -0.09475252 0.47116458 0.4071096 0.41306335 0.10045545 0.35628697

hidden_layer1.weight f4 [64, 32]
00000000: 5a57 03be 1f30 143c c312 183f c74f 1c3f
00000010: 7ff2 2dbc 19e8 46bf 82fa e93d 11ca 013f
00000020: 0d99 96bd 3772 bd3e 75a4 d93e 682f fe3e
00000030: 7558 90bd c157 28bf 60c4 8f3e 65aa 093f
00000040: 7ab9 90bf 607a d83d a457 41bf ab1f da3d
00000050: 4be6 9abf 2d13 a0bf b3d0 fcbb 0729 df3e
00000060: 3bb7 e93e 6240 86bf 9ca3 f8bc e51c d03e
00000070: fef3 263f 204d 9f3e aae9 bfbf f0a9 81bf
00000080: b0bb b93c b74c 913d ce55 e93e 11cc aa3e
00000090: 8a09 e03d cded 65bf b9ec c23d 842e 2a3f
000000a0: 43c6 013d a85e d53e 472f 743e 3571 d63e
000000b0: bdbf 093e 55e3 54bf 93dd 053f f600 c63e
000000c0: 6774 45bf 46a7 213e 6fde 5fbf b682 ecbc
000000d0: 85a6 8cbf 195c b0bf eb67 13be 3445 1e3f
000000e0: 83b8 db3e 2f0c 7fbf 2f47 c13d d8d5 c23e
000000f0: 0279 ce3e a82f c73e fdb8 c0bf e6f9 77bf
00000100: 2754 91bd f516 50be 94e0 073f d196 013f
00000110: 92ee 52bb c246 41bf d295 31bc b199 f83e
00000120: 4b43 1a3a b02e fe3e 860b db3e 0eb3 0c3f
00000130: fca9 c73d 8e5c 31bf d521 e83e 27c7 043f
00000140: 36e2 4fbf 43f9 aebd ad8f 2ebf 140d c83b
00000150: 8d7b 62bf 0f4f 7dbf 3193 acbd 6ad4 c73e
00000160: 2fb6 c63e 6d89 41bf a02c 233d 9dce f23e
00000170: f16e 3d3f 1e92 083f e51c b1bf 90d4 52bf
00000180: ed32 79bd 6bc6 833b d4a3 3ebe 7b1c 25bd
00000190: 9b67 383e f93f f13d f252 1a3d a88e b3bd
000001a0: eaad bd3d 69a3 93bc 476f 64be c2e1 683c
000001b0: f8ee ac3d 4f59 95bd 2c5a 5b3c c87f 64bc
000001c0: 40a9 d4bd 6b82 04bd e782 cebd 488c b6bc
000001d0: 2059 6b3b a98c cd3d a621 be3d 3e5c cabd
000001e0: 6e58 91bd 2b48 f63d c395 3bbd c3b7 0a3d
000001f0: 98bf 613e 2bf0 33bd 1cee 12be 1d56 7abc
00000200: 70c1 c6bd 28c9 96bc 6481 083d 03c6 42bc
00000210: dc07 023c db94 c9bd 9f22 53be ffd0 5a3e
00000220: 547c 8a3c 26f4 29bd 13a4 38bd fb34 01be
00000230: 5021 49be fb6c 48bd 5e9c 7bbe 43d7 23be
00000240: 8ff4 ba3d b058 593d 2fe5 a63c b568 c5bd
00000250: 12ef e73c 10ea b1bc e2f5 e93d d35a 12be
00000260: f22d 63be bc8c 31be c501 0ebd 4705 2fbe
00000270: 1a1e 5cbd a714 493d fadd 533d 70e1 c2bd
00000280: 7de2 0abd 7f0d 073e 1097 cabd bd4b 4fbc
00000290: 9b5b 623d 67e8 3d3d a650 41bb 2b55 a5bb
000002a0: 7def adbd 38e2 58bd 90d7 813d e5ba 313e
000002b0: 2bdf 87bc b42a f1bd 609e 803d b91c 2c3d
000002c0: f7db a93d b42a 01bd 19a7 013e 3348 243d
000002d0: c71b d0bd ae75 68bd 0e10 a7bd 597b e2bd
000002e0: 1b93 09be 3329 813c 0cd1 a53d 4d29 013e
000002f0: c5e8 08bd 36ae 24bd 2b8f 963c 1ba2 64bd
00000300: abf2 293e df1c b2bd 6683 123f 84a3 523f
00000310: aa17 fabc b6da 24bf 8b22 f3bd 7be2 343f
00000320: 08ff b53d d249 053f 08b4 053f 5d08 223f
00000330: 5780 fabd 6c8f 03bf 5e41 243f c024 1f3f
00000340: c3d2 44bf 49cb 0a3e 5bb9 19bf 38ab 153d
00000350: 66e1 90bf 5290 7fbf 81d5 15bb 2eed 213f
00000360: fd2f 1b3f 08c1 5abf 05aa 20bd d7f0 103f
00000370: 44a4 273f 1002 2c3f e04e bebf b8f5 21bf
00000380: ddff c83d e2cc c2bc 1852 323f 6f59 3a3f
00000390: f1d5 44be 70a2 e1be cfba cbbd e93f 2c3f
000003a0: b0ed d0ba d9a2 1e3f 2e2e 193f 42a0 343f
000003b0: 3735 28be 6ed0 f1be 1c75 0d3f a9bf ec3e
000003c0: bc48 17bf 56f9 12be 598e 0abf d6ce 963d
000003d0: f2f4 17bf 29e5 3fbf 77e9 01be 9229 fd3e
000003e0: 1957 2d3f 4ae7 25bf b7f8 17bd 0e05 e33e
000003f0: 2de0 0f3f d158 1a3f 4fb2 6bbf 86a7 00bf
-0.1282629 0.009044676 0.5940363 0.6105923 -0.010616898 -0.776979 0.11424734 0.50698954
-0.07353411 0.37001202 0.42508283 0.49645543 -0.07048122 -0.657589 0.2807951 0.53775626
-1.1306603 0.10570216 -0.75524354 0.106505714 -1.210153 -1.2505852 -0.0077153086 0.4358599
0.45647606 -1.0488398 -0.030351453 0.40647045 0.6521605 0.3111353 -1.4993184 -1.0129986
0.022672504 0.0709471 0.45573276 0.33358815 0.109393194 -0.8981598 0.095178075 0.6647723
0.031683218 0.4167378 0.2384616 0.41883245 0.13452049 -0.8315938 0.5229122 0.38672608
-0.7713074 0.15786466 -0.8744878 -0.028870922 -1.0988318 -1.3778106 -0.1439511 0.61824346
0.4291421 -0.99627966 0.09437405 0.38053775 0.40326697 0.38903546 -1.5056454 -0.9686569
-0.07096129 -0.20321257 0.53077054 0.5062075 -0.0032185656 -0.7549859 -0.010838943 0.48554757
0.0005884661 0.49644995 0.4278223 0.54960716 0.09749219 -0.6928185 0.45338312 0.5186638
-0.81204545 -0.08543637 -0.6818798 0.0061050747 -0.88469774 -0.9894876 -0.08426512 0.39029247
0.3881087 -0.7560032 0.03983748 0.47423258 0.7399741 0.5334796 -1.3836943 -0.82355595
-0.060839582 0.004021456 -0.18617183 -0.040310364 0.18008272 0.1177978 0.03767676 -0.08767444
0.09261687 -0.018022256 -0.22308074 0.014213981 0.08444017 -0.07292425 0.013388198 -0.013946481
-0.103838444 -0.03235094 -0.100835614 -0.022283688 0.0035911277 0.100365944 0.09283762 -0.09880875
-0.07096945 0.12025484 -0.04579712 0.033866655 0.22045743 -0.043930214 -0.14348644 -0.01527932
-0.09704864 -0.018406466 0.03332652 -0.01188803 0.007936444 -0.09842845 -0.20618676 0.21368788
0.016904987 -0.041492604 -0.04507835 -0.12617867 -0.19641614 -0.048932057 -0.24571368 -0.16000085
0.09128677 0.053063095 0.020372955 -0.09639112 0.02831224 -0.021718055 0.114238515 -0.14292459
-0.22185495 -0.17338842 -0.034669656 -0.17091857 -0.053739645 0.04909196 0.051725365 -0.09515655
-0.033907402 0.13188742 -0.09892094 -0.012652335 0.055263143 0.046364214 -0.0029497533 -0.005045553
-0.084929444 -0.052950114 0.063399434 0.17356451 -0.016585907 -0.11775723 0.06280208 0.04201958
0.08293908 -0.031534865 0.12661399 0.040107917 -0.10161548 -0.056752853 -0.08157359 -0.11058683
-0.13435023 0.015766716 0.08096513 0.12613411 -0.03342511 -0.040205203 0.018378815 -0.05581866
0.16596477 -0.08696913 0.5723175 0.82280755 -0.030528862 -0.64396226 -0.11871823 0.7065808
0.08886534 0.52065766 0.5222783 0.6329401 -0.1223151 -0.5139072 0.6416224 0.6216545
-0.76884097 0.1355411 -0.60048455 0.03654024 -1.1318786 -0.9982959 -0.0022862854 0.6325253
0.606201 -0.8545079 -0.039224643 0.5661749 0.65485024 0.6719065 -1.4867821 -0.6326556
0.09814427 -0.023779336 0.69656515 0.72792715 -0.19222237 -0.44069242 -0.0994774 0.6728502
-0.0015939977 0.61967236 0.5983609 0.70557034 -0.1642655 -0.47229332 0.5525682 0.46239975
-0.5909536 -0.14352927 -0.54123455 0.073636696 -0.5935813 -0.74959046 -0.12686716 0.49445778
0.67711025 -0.64806044 -0.037102427 0.44339794 0.5620144 0.60291773 -0.9206895 -0.5025562

hidden_layer1.bias f4 [64]
00000000: 169f 8b3e 98a0 eabd 9659 893e 43f3 4ebd
00000010: de7a a63d 834e 043e debb cb3e 97d9 da3e
00000020: 30fd 5a3e 5f34 973e 9c40 813e 11d8 453e
00000030: d9ba 333e 12c9 173e 0e47 28be cde2 ed3d
00000040: 0d18 d93e 341e 753e cfb5 823e f71a 813f
00000050: 9ca5 093e 89d4 f0bd f01c 5dbd 65a7 e63e
00000060: 208b ecbd 1269 0abe 6f8d 103e 0063 7cbc
00000070: 075e 42bd 70dc 123f 9628 d53e d113 1f3e
00000080: bd2d fabc a5bd 5d3f a231 333e c111 533e
00000090: fd60 fe3e d9c7 673e 794a 49be 5eb5 d83d
000000a0: e5fb a8bc 5274 a03e f734 8c3e fb34 533e
000000b0: 9f03 13be 941c 2bbe f199 233e 36fc 93be
000000c0: 4422 90bd 1ae8 653f 1c1d a13d 0d31 953e
000000d0: 6991 a93e b7aa a23e 7ec5 053f bda0 d53e
000000e0: eceb 203b 1d31 bd3d 3c81 553b d94c 233f
000000f0: 6e7a fbbb 413d 3a3e ad45 b43e 4631 153f
0.2726981 -0.11456412 0.2682616 -0.05052496 0.08128904 0.12920575 0.3979177 0.42744133
0.21385646 0.29532143 0.25244606 0.19320704 0.17551745 0.14822796 -0.16433355 0.116155244
0.42401162 0.23937303 0.25529334 1.0086354 0.13442081 -0.11759288 -0.053982675 0.45049587
-0.115499735 -0.13516644 0.14116453 -0.015404463 -0.047452953 0.5736761 0.41632527 0.15534903
-0.030539388 0.866175 0.17499402 0.20612241 0.4968337 0.2263483 -0.19657315 0.10581468
-0.020627925 0.31338745 0.2738416 0.20625679 -0.1435685 -0.1671012 0.15976693 -0.2890336
-0.07037786 0.89807284 0.0786688 0.29138985 0.33118752 0.3177087 0.52254474 0.41724196
0.0024554683 0.09237883 0.003257825 0.63789135 -0.007674507 0.18187429 0.35209408 0.5827831

hidden_layer2.weight f4 [32, 64]
00000000: c561 1bbd 9924 26be 7911 c3bd 148e 2ebe
00000010: 83e6 3ebd b327 f0bc 9d28 a83d fe42 24be
00000020: dc04 0abe 302a 19be ff81 093a 9462 adbd
00000030: 8d66 163e 5b2f 5dbd 9363 37be a057 eebc
00000040: a9a1 433d 6324 3f3d 89e5 823d cc7e fbbd
00000050: 2d16 463c a903 c7bc 0860 d53d 90e2 b038
00000060: 4db2 c0bc 58e3 383d 08e7 6cbe 4ff4 fdbc
00000070: 63ac 68bb 3017 6dbe c8e2 d53c bf8e 573d
00000080: 0a20 76be d443 b5bc 9dcc 093d 12da 84bd
00000090: d07c 9e3c 1a90 cd3c 85d7 44bb 5b6e c0bd
000000a0: c9d5 9fbd ac9d 2bbe 103c 273d 7c4e bdbd
000000b0: 421b a7bd c399 85be 5e0c b73d 23ad c8bd
000000c0: b36d 87bd dd58 133e 5212 a53d a9e3 2cbd
000000d0: 39e1 28be d7e7 88be 6059 c6bd ef80 873c
000000e0: 2b64 7fbd eab2 053e 8a73 153d 5e08 a0bd
000000f0: f808 99bc 37f5 50bd ae83 0e3e 4b8a 7dbe
00000100: 76a4 893d f559 8f3e 2cbd ac3e 328b fe3d
00000110: eb7a ec3b 45c0 5d3e 5179 a13e 5780 a53e
00000120: 87c3 4cbd 6045 743d 41d1 97ba 8605 a53e
00000130: bfe5 1b3e 5417 3dbe 5b7f 7abe adfe 2e3e
00000140: 08ee 943d 0d63 373e f1d3 213e e7d7 8cbe
00000150: e8ee 81bd 8a2a 59bc 7e76 0a3e c844 38be
00000160: e9cc 283e 17cb 803e 5e5c 263e 8702 febd
00000170: 8845 103e 1cdb 1ebe 37a7 87bc ce29 18be
00000180: 2b48 22bb e49b bebe d7d0 e93e 72a3 053e
00000190: c347 be3e 4676 333e 48ee 593e db38 75bd
000001a0: 8116 42be d4d9 553e 3e4c 4c3e 3e5d febd
000001b0: ed87 53bd 3239 35be 95eb f83d 7965 50bd
000001c0: 8d92 f13d f38e bfbe dabb 7dbd d3f6 b2be
000001d0: 1b47 05bf 20c8 0b3e 4684 1cbe d36e e63d
000001e0: a19a c63b bd52 08be 53ef b4bd 13f2 e43c
000001f0: 6a76 6bbc 28c2 5c3d e811 b13d 3f31 afbe
00000200: e866 013f a910 033f 7843 133f 25c9 f5bd
00000210: 7468 8a3c 9e53 3c3e c78d 503f f0b2 b03e
00000220: 6892 483f 27d7 213f 3aac 063f 5170 89bf
00000230: 187c f73e 2458 123f 16dd 2a3c e8d9 303f
00000240: dd65 eb3e 48b6 1f3f e9ee e03e 9323 af3e
00000250: 1456 193d d787 4b3e c870 a43b 3515 5d3e
00000260: b82a 8ebd 5866 173f c3b5 253f 7299 ee3d
00000270: 610f 043f 73dc ed3d 422a ed3e e781 4fbf
00000280: 0213 5c3c 4d0d e13e bc85 09bf 910c 86bf
00000290: 0cb6 8cbf 273f 203f 4d75 40bf 1487 003d
000002a0: e7e2 583e d7d7 313f cb22 313f 2429 f33e
000002b0: 5fd8 06bf dde9 d03d 2dcd f43e a21d 193e
000002c0: f8e2 34bf a89f 2b3e 46fd c63c adb5 ee3e
000002d0: 2909 37bf c165 0f3f b4a2 e7be ced5 313f
000002e0: e91d b73d e349 4b3d 5e22 213d abd2 29be
000002f0: ae08 0d3f 5280 43bf 238e 2e3f 0839 5d3f
00000300: 358e 863d da2b 3dbd 0b50 29be 7513 c3bc
00000310: ff0b ef3d 659f 35bd 88d3 da3d 8379 9dbd
00000320: 6815 87be 598d 3cbd 653e 1a3d a80b 7d3b
00000330: 7213 853b 2bd1 523c 75ec 88bd f686 c93b
00000340: 4d45 b03d 3370 f23d 746b 06be eecd 81be
00000350: 8b41 06bd 5b3f b2bd 5e7a b73d a803 803d
00000360: 0c97 bbbd 61f1 11bd 73a7 1dbe fb2a ddbd
00000370: 7667 e2bd 85fb ff3d 0468 c93d a562 09be
00000380: 02fa 85bd 17e2 9ebc da51 1b3e 750e 0bbe
00000390: 2c83 093d e5de 10be ce19 17be 08af 1ebc
000003a0: 4ec1 b03d 10f7 8b3d d55c fbbb c53e 16be
000003b0: 6f8e 2a3c 6e87 45bd 01b6 183e 5d16 503e
000003c0: 8cb6 1a3e 09a8 dcbd ffb8 6b3d b5ad 29be
000003d0: a991 933d 3ea7 2d3d ca1a 673d b79b 50bc
000003e0: 8659 0f3d 6a24 0e3c 8a7a 9dbd 3b0e dabc
000003f0: 9569 0fbe f80e a8bd 2255 ddbd eef0 93bd
-0.037935037 -0.16224898 -0.09524817 -0.17046386 -0.04660655 -0.029315805 0.08210871 -0.1604118
-0.13478416 -0.149575 0.0005245506 -0.08466068 0.14687558 -0.05400024 -0.17909078 -0.029094517
0.047761593 0.04666556 0.063914366 -0.12280044 0.012090248 -0.024293737 0.10418707 8.4345345e-05
-0.02352252 0.045138687 -0.23135006 -0.031000284 -0.003550314 -0.23153377 0.026109114 0.052626368
-0.2403566 -0.02212707 0.0336424 -0.06486906 0.019346625 0.025093127 -0.0030035686 -0.09396049
-0.07804448 -0.16759366 0.040828764 -0.09243485 -0.08159496 -0.26093873 0.08937906 -0.09798648
-0.0661272 0.14389367 0.08060135 -0.0422093 -0.16492166 -0.2673938 -0.09685016 0.016540973
-0.062351387 0.13056532 0.03648714 -0.07814096 -0.018681034 -0.051015105 0.1391742 -0.24759786
0.067208216 0.2799832 0.33738077 0.12428893 0.0072168014 0.21655376 0.3153787 0.32324478
-0.049991157 0.059636474 -0.0011582748 0.32230777 0.1522436 -0.1846593 -0.24462645 0.17089339
0.07271963 0.17908879 0.15803505 -0.2750847 -0.06344396 -0.013254771 0.13521764 -0.17994988
0.16484417 0.25154945 0.16246173 -0.12402826 0.14089024 -0.15513271 -0.016559226 -0.14859697
-0.0024762254 -0.3722831 0.45667145 0.1305063 0.37164125 0.17525586 0.21282303 -0.059868675
-0.18953897 0.20883876 0.19950959 -0.12420128 -0.0516433 -0.176976 0.12154309 -0.050878022
0.117955305 -0.3741375 -0.061946727 -0.34953937 -0.52061623 0.1365056 -0.15284833 0.11251607
0.0060609137 -0.13312812 -0.0883471 0.027947461 -0.014371494 0.0538961 0.086459935 -0.3421726
0.5054765 0.51197296 0.57524824 -0.12001256 0.01689551 0.18391272 0.81466335 0.34511518
0.783484 0.6321892 0.52606547 -1.0737401 0.48336864 0.5716574 0.010428688 0.690825
0.45976153 0.62387514 0.43932274 0.34206828 0.037435606 0.19876038 0.0050183274 0.21590121
-0.06941742 0.5914054 0.6473047 0.11650361 0.51585966 0.11614313 0.46321303 -0.8105759
0.013432266 0.4395546 -0.5371969 -1.0472585 -1.0993056 0.6259636 -0.75178987 0.03137882
0.21180306 0.6946997 0.69193715 0.47492325 -0.52673906 0.10200856 0.47812787 0.1495271
-0.70658827 0.16760123 0.024290692 0.46622983 -0.7149835 0.5601464 -0.4524132 0.69466865
0.08941252 0.04963101 0.039339416 -0.1658427 0.5509137 -0.76367676 0.68185633 0.8641515
0.065700926 -0.0461844 -0.1653444 -0.023812989 0.1167221 -0.044341464 0.10684878 -0.07689192
-0.2638352 -0.046033237 0.03765716 0.0038611684 0.004061156 0.012867252 -0.066857256 0.006150122
0.08606968 0.118378066 -0.13126928 -0.25352424 -0.03277735 -0.0870349 0.089588866 0.062506974
-0.09159669 -0.035630587 -0.15395908 -0.107992135 -0.1105489 0.124991454 0.098342925 -0.13416536
-0.06541826 -0.019394917 0.15167943 -0.13579734 0.03357236 -0.14147528 -0.14755937 -0.009685285
0.0863062 0.06834233 -0.0076709785 -0.14672382 0.010409935 -0.04822486 0.14913179 0.20321031
0.15108699 -0.10774238 0.057549473 -0.1657017 0.07205517 0.042395823 0.056422032 -0.012732438
0.034997486 0.008675674 -0.07689388 -0.026618114 -0.1400512 -0.0820598 -0.108072534 -0.07223688

hidden_layer2.bias f4 [32]
00000000: dbc1 723c f851 61bf ba4c 343d 4632 b73d
00000010: ee1d 083e 9996 c33e 2750 853e 832c f3bd
00000020: f556 89bc 4eda 17bf f0a8 d4bc 8a82 373f
00000030: 632b 06bc 5260 03bb 7d4b c33e 527f 4bbf
00000040: 111c bebc 9276 f1bd 469b ccbe be32 5ebc
00000050: 1288 34bd f4a4 0f3c 47ad f8bd 5c53 2dbf
00000060: eed0 1dbe ae7d 5abd a96b 8d3c 22e6 9ebe
00000070: 26b8 72be c01c 913d ed19 59bd 5736 6a3e
0.014816727 -0.880157 0.044018485 0.08945136 0.13292667 0.38200834 0.26037714 -0.11873724
-0.016765097 -0.5931748 -0.025959462 0.7168356 -0.008189055 -0.0020046425 0.3814353 -0.7949115
-0.023206742 -0.117901936 -0.39962214 -0.013561903 -0.04407508 0.008767355 -0.12142425 -0.6770532
-0.15411732 -0.053342514 0.01726325 -0.31034952 -0.2370306 0.07085562 -0.05300324 0.22872292
