Comparison/TrainedModel/20-0.001-54-Agent/node_agent_9.pth (torch, 36922 bytes, 6 tensors)

input_layer.weight f4 [32, 135]
-0.11395937 -0.090845756 -0.11069087 0.021843722 -0.0465133 -0.1327915 -0.031885877 0.07047672
0.13232353 0.071253076 0.096335016 0.09196627 -0.032792754 -0.13443264 0.09867487 0.1910684
0.054243226 0.09341314 0.002755082 -0.028657481 -0.17256944 0.0033693444 0.006323637 0.038541067
-0.20524636 -0.06523365 0.1314723 0.06213376 0.09568681 0.22046955 -0.13674875 0.23687045
-0.14883147 0.059397154 0.010508454 0.014044543 0.07844938 0.09216115 0.10002321 -0.05747668
0.005928803 -0.11203151 0.06127674 0.24862562 0.0036786993 -0.13014649 -0.1629567 -0.03332959
-0.08412669 -0.01175605 0.07138215 0.00029091342 0.030879159 -0.10144012 -0.046058167 0.05756097
-0.10348856 0.015213369 0.14433455 0.029355599 -0.13700128 0.055043172 -0.037260275 -0.18651126
0.0017000026 -0.069027714 0.06422174 -0.052564155 -0.10863049 0.10893476 0.094128765 -0.04302749
-0.09718378 0.037337743 0.02963464 0.11351877 -0.0055434275 -0.04609765 -0.08134978 -0.00042633252
0.03301939 -0.27240893 -0.14197761 -0.0035700519 0.013205225 0.11731126 -0.0874277 -0.10482051
0.04875309 -0.053815674 0.20523559 -0.16305129 0.0244648 -0.06155287 -0.10652101 -0.09997249
0.0013827386 0.11278553 -0.046908047 0.010533502 0.029057518 -0.09831994 0.15336902 0.06356178
0.079853766 0.0015988098 0.13185638 0.049558386 -0.12613952 -0.14042887 0.023191828 0.1075224
0.012799104 -0.098793976 0.07554432 -0.110794775 -0.07307317 0.15636475 0.11776986 0.014534025
0.029359026 -0.10972054 0.11812859 -0.05621474 -0.059481915 0.17536502 -0.17061137 0.027845517
-0.115746856 -0.13194674 -0.00062345556 -0.08216179 -0.054117538 0.15831351 -0.012160166 -0.09062198
-0.04685822 -0.084504925 -0.08029582 0.0938533 -0.035301324 0.093038216 0.02017971 -0.0099665895
-0.019608906 -0.04833105 0.13101068 0.026627839 0.1654883 0.07091366 0.082935266 -0.087177396
0.025057752 -0.05231172 -0.053783316 -0.023756482 -0.1127278 0.031447813 -0.017328702 -0.15548025
-0.05733 0.08713819 0.06854026 -0.043215673 0.05768165 -0.028832197 0.00810849 -0.019085608
0.090597756 -0.004590943 0.0073469966 -0.033434536 0.109028675 0.04001183 0.01819863 0.19718395
0.09215728 0.06347365 0.04641774 0.11840155 -0.056756128 0.047559634 0.09112503 0.090611905
0.14575088 -0.41841245 0.11826612 -0.010847171 -0.15661736 -0.008990973 -0.01926498 0.14896451
0.030736947 0.14392127 0.042016506 -0.12828566 0.12272972 0.04403658 -0.21298333 -0.021891376
-0.026162062 -0.12332272 -0.0025154043 -0.13998057 -0.34362888 0.10830269 -0.101265624 -0.038427573
0.07576968 0.05548994 -0.03692924 0.11228055 -0.0024630404 -0.1372706 -0.020710452 -0.13013235
-0.14842297 0.09482295 0.10381596 0.18818747 -0.019419674 0.04919425 0.050386917 0.04485171
0.0038353268 0.07193061 0.03658926 0.059660036 0.012875378 0.1357661 0.11468177 -0.07710231
0.119288675 -0.004484056 0.08904856 0.026024112 -0.2602779 -0.17251919 -0.17268503 -0.05678622
-0.1099177 0.0073364167 -0.08431163 -0.09666964 0.010694795 -0.07406027 -0.08271045 0.07148527
-0.012679783 0.0007689627 0.05455361 -0.13287193 -0.081689976 -0.04742353 -0.16577326 -0.05624951
00000000: 8863 e9bd 570d babd e5b1 e2bd 9bf1 b23c
00000010: bb84 3ebd 7ffa 07be c49a 02bd 1956 903d
00000020: d27f 073e 22ed 913d 4b4b c53d d058 bc3d
00000030: b251 06bd b6a8 09be 0d16 ca3d 6fa7 433e
00000040: 252e 5e3d 634f bf3d 9b8e 343b 18c3 eabc
00000050: 0bb6 30be 38d0 5c3b 8336 cf3b 3ddd 1d3d
00000060: 1a2c 52be 3899 85bd ada0 063e f87f 7e3d
00000070: 72f7 c33d c5c2 613e dd07 0cbe 2b8e 723e
00000080: 4767 18be 6e4a 733d a72b 2c3c 151b 663c
00000090: 12aa a03d fcbe bc3d f8d8 cc3d ab6c 6bbd
000000a0: 6746 c23b c770 e5bd 52fd 7a3d b797 7e3e
000000b0: 5516 713b 1f45 05be 1fde 26be 9c84 08bd
000000c0: 9d4a acbd 739c 40bc ce30 923d bd85 9839
000000d0: 4af6 fc3c d6bf cfbd 7da7 3cbd 0dc5 6b3d
000000e0: cff1 d3bd 7f41 793c 70cc 133e 277b f03c
000000f0: 104a 0cbe f374 613d 3b9e 18bd cffc 3ebe
00000100: 9fd2 de3a 675e 8dbd b086 833d 834d 57bd
00000110: aa79 debd 3019 df3d 95c6 c03d 983d 30bd
00000120: 4a08 c7bd 76ef 183d 58c4 f23c 877c e83d
00000130: a4a5 b5bb e4d0 3cbd b79a a6bd 6285 dfb9
00000140: 573f 073d 2f79 8bbe 9462 11be 88f7 69bb
00000150: ba5a 583c e340 f03d 4b0d b3bd 23ac d6bd
00000160: 52b1 473d d36d 5cbd 4729 523e ebf6 26be
00000170: 676a c83c dd1e 7cbd b027 dabd 60be ccbd
00000180: 023d b53a 1afc e63d a722 40bd b694 2c3c
00000190: 080a ee3c f75b c9bd c50c 1d3e ae2c 823d
000001a0: 5f8a a33d 288f d13a 5c05 073e bcfd 4a3d
000001b0: b82a 01be 96cc 0fbe cafc bd3c b434 dc3d
000001c0: 55b3 513c 7f54 cabd fbb6 9a3d 5fe8 e2bd
000001d0: 63a7 95bd 151e 203e 5331 f13d 1f20 6e3c
000001e0: 5782 f03c 2ab5 e0bd 67ed f13d 6d41 66bd
000001f0: 4fa3 73bd e392 333e bfb4 2ebe 481c e43c
00000200: b00c edbd 0c1d 07be 656f 23ba 7144 a8bd
00000210: 5aaa 5dbd f01c 223e 6f3b 47bc 0498 b9bd
00000220: 68ee 3fbd eb10 adbd 2372 a4bd 2936 c03d
00000230: 1f98 10bd d28a be3d eb4f a53c e84a 23bc
00000240: dba2 a0bc c7f6 45bd aa27 063e a022 da3c
00000250: c475 293e 2e3b 913d f7d9 a93d 108a b2bd
00000260: ea45 cd3c d044 56bd e54b 5cbd f49c c2bc
00000270: d5dd e6bd 6ccf 003d ecf4 8dbc 3736 1fbe
00000280: ddd2 6abd 8275 b23d d65e 8c3d eb02 31bd
00000290: 9843 6c3d 8031 ecbc 79d9 043c 6c59 9cbc
000002a0: 518b b93d 9f6f 96bb 13bf f03b a7f2 08bd
000002b0: 6d4a df3d 72e3 233d 4b15 953c 97ea 493e
000002c0: f5bc bc3d 79fe 813d 8720 3e3d 837c f23d
000002d0: 1d79 68bd e4cd 423d c29f ba3d bc92 b93d
000002e0: b83f 153e 283a d6be 8235 f23d 55b8 31bc
000002f0: 4d60 20be e04e 13bc 97d1 9dbc 278a 183e
00000300: 0dcc fb3c 1960 133e 8019 2c3d 515d 03be
00000310: b859 fb3d b35f 343d 4d18 5abe 8b55 b3bc
00000320: d251 d6bc 9f90 fcbd 7bd9 24bb 1157 0fbe
00000330: 20f0 afbe cdcd dd3d 5a64 cfbd 3b66 1dbd
00000340: 222d 9b3d 6b49 633d 1d43 17bd 58f3 e53d
00000350: f66a 21bb aa90 0cbe f7a8 a9bc 6a41 05be
00000360: 31fc 17be 8932 c23d 769d d43d 37b4 403e
00000370: 0216 9fbc e97f 493d 8362 4e3d 6db6 373d
00000380: 1b5a 7b3b 5b50 933d 9fde 153d 155e 743d
00000390: 40f3 523c 4506 0b3e 47de ea3d d1e7 9dbd
000003a0: 9f4d f43d fdee 92bb 175f b63d 8530 d53c
000003b0: 2543 85be dfa8 30be 58d4 30be ab98 68bd
000003c0: 881c e1bd 5366 f03b 93ab acbd bbfa c5bd
000003d0: 3939 2f3c e9ac 97bd 1964 a9bd df66 923d
000003e0: ddbe 4fbc 3794 493a 9b73 5f3d 940f 08be
000003f0: 134d a7bd 2d3f 42bd 77c0 29be e365 66bd

input_layer.bias f4 [32]
-0.09360179 -0.085209906 0.21473446 0.32373938 0.8771795 0.6549915 0.6345743 0.36989743
0.1900565 0.25816345 0.25204477 0.28504753 0.7563318 0.7230662 0.20851973 0.23990123
0.20500816 0.7211272 -0.012235598 -0.07228191 0.59689564 0.19610053 0.48315954 0.3536695
0.31171766 -0.08594642 -0.06688081 0.31492445 0.24700099 0.0044555045 0.60051215 0.11877276
00000000: 4cb2 bfbd 8882 aebd 5ae3 5b3e 2bc1 a53e
00000010: d68e 603f 86ad 273f 7673 223f 3263 bd3e
00000020: 2c9e 423e 002e 843e 030c 813e c0f1 913e
00000030: f69e 413f de1a 393f 3286 553e aba8 753e
00000040: a9ed 513e cb9b 383f d177 48bc 8a08 94bd
00000050: 27ce 183f 94ce 483e b060 f73e 2b14 b53e
00000060: 7599 9f3e ad04 b0bd cef8 88bd c73d a13e
00000070: d4ed 7c3e 7bff 913b 2abb 193f 223f f33d

hidden_layer1.weight f4 [64, 32]
-0.1282629 0.009044676 0.1049522 0.0743417 -0.07382877 0.08255035 0.08250212 0.012413284
-0.105279446 -0.096727595 -0.05985182 -0.004821845 -0.102226526 -0.05639868 -0.22533466 -0.011333427
-0.16574019 0.073956855 0.042454135 0.07725893 -0.054019365 0.066350184 -0.039460655 -0.09946362
-0.022147525 0.019431155 -0.006441352 -0.12792075 0.076547176 -0.13386245 0.009028661 -0.030529141
0.022672504 0.03261162 0.30280378 0.2147351 -0.64438117 -0.713416 0.09911644 0.53099555
0.076921016 0.29220405 0.082326636 0.27040365 -0.76224476 -1.0535941 0.3969842 0.2109768
0.4231629 -0.54731 -0.13229921 -0.04550443 -0.6219297 0.18256915 -0.6840114 0.46693635
0.28611833 -0.021955911 0.08570045 0.18004572 0.22584277 -0.029384295 -1.0569818 -0.05437507
-0.07096129 -0.24100085 0.26709074 0.2546671 -0.66368604 -0.31837377 0.10194468 0.2379909
0.13891317 0.25573653 0.1604904 0.286303 -0.92078626 -0.6892829 0.21955508 0.23334247
0.30233628 -0.69165623 0.19631788 -0.00022186957 -0.3527887 0.22915712 -0.39906928 0.13153742
0.1323591 0.10369407 0.07255959 0.16857368 0.4337633 0.040515896 -1.2952111 0.121950716
-0.037493773 -0.03320871 0.7030397 0.8411932 1.082684 1.1285605 -0.5192198 0.8220854
0.61697966 0.91027534 0.6899028 0.9226259 0.7425712 -0.26872587 0.92195237 0.8270278
0.77746 -0.09560618 -1.2798747 -0.022283688 -0.38183212 1.0034673 -0.35494718 0.7806397
0.86962634 0.2148308 -0.04579712 0.88038456 1.1509639 -0.040634517 1.1889652 0.63883466
-0.09704864 -0.018406466 0.065022394 -0.01188803 0.007936444 -0.09842845 -0.20618676 0.24538338
0.016904987 -0.009795105 -0.013381402 -0.094481654 -0.19641614 -0.017234204 -0.2140253 -0.16000085
0.09128677 0.053063095 0.020372955 -0.09639112 0.02831224 0.00997964 0.114238515 -0.111237444
-0.19015856 -0.17338842 -0.034669656 -0.17091857 -0.053739645 0.04909196 0.0834231 -0.09515655
-0.033907402 0.094667874 0.08207671 0.22932391 -0.59207845 -0.27075964 0.13855623 0.20140196
0.015995633 0.12665506 0.23608534 0.37797987 -1.1205077 -0.78835964 0.30154604 0.24860437
0.3306202 -0.5323341 0.34493482 0.050475676 -0.5032089 0.17927986 -0.41354722 0.105253495
0.057484806 0.03396486 0.08096513 0.31126434 0.1956016 -0.06358491 -1.3085687 0.040079508
0.16596477 -0.1245569 0.14158644 0.4276277 -0.8493628 -0.40634057 -0.022149958 0.29930332
0.04176429 0.10938496 0.089035824 0.22347222 -1.0819318 -0.59869033 0.2596554 0.17717324
0.30181265 -0.41193387 0.3383497 0.033105325 -0.615127 0.3701508 -0.37829772 0.21652353
0.19365175 -0.025215812 -0.0030711757 0.100322984 0.19113578 0.0059562745 -1.2566323 0.11135418
0.09814427 -0.060986158 0.36691403 0.4030022 -0.6710313 -0.0739117 -0.4252611 0.34956568
0.059551235 0.3039319 0.26373324 0.36970884 -1.0760658 -0.4570107 0.22764356 0.094764836
0.38676202 -0.23106113 -0.28827202 0.0594358 -0.253064 0.22623947 -0.49442178 0.13493876
0.357803 -0.012324236 -0.009262933 0.06414406 0.19078234 -0.01026702 -1.1857584 0.15102576
00000000: 5a57 03be 1f30 143c 2ef1 d63d 7640 983d
00000010: 8a33 97bd 2810 a93d dff6 a83d 1661 4b3c
00000020: c09c d7bd 1e19 c6bd 2f27 75bd 9100 9ebb
00000030: 245c d1bd 4d02 67bd 21be 66be d7af 39bc
00000040: ccb7 29be b176 973d 63e4 2d3d ee39 9e3d
00000050: 6943 5dbd 9be2 873d 7fa1 21bd 95b3 cbbd
00000060: ba6e b5bc 162e 9f3c fa11 d3bb a8fd 02be
00000070: c4c4 9c3d 3d13 09be f3ec 133c 4018 fabc
00000080: b0bb b93c c393 053d 1909 9b3e 85e3 5b3e
00000090: 2af6 24bf 6ea2 36bf 8ffd ca3d 53ef 073f
000000a0: c488 9d3d c59b 953e de9a a83d 5972 8a3e
000000b0: 7922 43bf 2cdc 86bf 8341 cb3e 4d0a 583e
000000c0: cfa8 d83e 821c 0cbf 7279 07be da62 3abd
000000d0: c936 1fbf 68f3 3a3e 5f1b 2fbf 4812 ef3e
000000e0: 1a7e 923e e2dc b3bc b883 af3d e85d 383e
000000f0: 5443 673e 55b7 f0bc 2e4b 87bf 65b8 5ebd
00000100: 2754 91bd edc8 76be 1ec0 883e ba63 823e
00000110: 54e7 29bf e301 a3be 5fc8 d03d e3b3 733e
00000120: 413f 0e3e e6ef 823e 9857 243e 4f96 923e
00000130: a6b8 6bbf d874 30bf 0cd3 603e 54f1 6e3e
00000140: d2cb 9a3e 6210 31bf 8e07 493e a9a5 68b9
00000150: b8a0 b4be 2aa8 6a3e cf52 ccbe bfb1 063e
00000160: 2589 073e 8e5d d43d 1f9a 943d 949e 2c3e
00000170: 3916 de3e fff3 253d 7ac9 a5bf 4cc1 f93d
00000180: 1293 19bd db05 08bd 69fa 333f 7058 573f
00000190: 6495 8a3f ac74 903f 97eb 04bf 3074 523f
000001a0: 61f2 1d3f ce07 693f 789d 303f 3631 6c3f
000001b0: 2519 3e3f 7096 89be 1205 6c3f 18b8 533f
000001c0: 9e07 473f 2ccd c3bd efd2 a3bf 488c b6bc
000001d0: 807f c3be 9e71 803f a3bb b5be 01d8 473f
000001e0: d59f 5e3f 9bfc 5b3e c395 3bbd e260 613f
000001f0: c952 933f 6170 26bd 0330 983f ab8a 233f
00000200: 70c1 c6bd 28c9 96bc 762a 853d 03c6 42bc
00000210: dc07 023c db94 c9bd 9f22 53be c845 7b3e
00000220: 547c 8a3c a67b 20bc ab3d 5bbc 997f c1bd
00000230: 5021 49be bf2e 8dbc 7329 5bbe 43d7 23be
00000240: 8ff4 ba3d b058 593d 2fe5 a63c b568 c5bd
00000250: 12ef e73c a581 233c e2f5 e93d 75d0 e3bd
00000260: edb8 42be bc8c 31be c501 0ebd 4705 2fbe
00000270: 1a1e 5cbd a714 493d bbd9 aa3d 70e1 c2bd
00000280: 7de2 0abd 3be1 c13d d617 a83d e3d3 6a3e
00000290: 7492 17bf 02a1 8abe afe1 0d3e 513c 4e3e
000002a0: 4609 833c ddb1 013e 5bc0 713e 9486 c13e
000002b0: cc6c 8fbf f0d1 49bf 3e64 9a3e 2592 7e3e
000002c0: 0d47 a93e 0c47 08bf 4c9b b03e 95bf 4e3d
000002d0: 4cd2 00bf 2495 373e 76bc d3be 258f d73d
000002e0: 3075 6b3d bd1e 0b3d 0cd1 a53d 0a5e 9f3e
000002f0: c94b 483e ce38 82bd 2e7f a7bf 692a 243d
00000300: abf2 293e b017 ffbd 09fc 103e 05f2 da3e
00000310: d76f 59bf df0b d0be d473 b5bc 493e 993e
00000320: 0811 2b3d 3905 e03d 6a58 b63d e7d5 643e
00000330: be7c 8abf c543 19bf 8df1 843e e76c 353e
00000340: 3087 9a3e ffe8 d2be 2c3c ad3e 7399 073d
00000350: f778 1dbf 6884 bd3e 3db0 c1be 58b8 5d3e
00000360: a54c 463e 6491 cebc c745 49bb 2376 cd3d
00000370: 19b9 433e da2c c33b 54d9 a0bf a90d e43d
00000380: ddff c83d 9fcc 79bd 28dc bb3e 4e56 ce3e
00000390: b5c8 2bbf 045f 97bd d3bb d9be 46fa b23e
000003a0: ffeb 733d f69c 9b3e 0b08 873e 7a4a bd3e
000003b0: 86bc 89bf 4efd e9be 651b 693e 1114 c23d
000003c0: ac05 c63e 4a9b 6cbe 6498 93be f472 733d
000003d0: 9b91 81be 52ab 673e da24 fdbe 632d 0a3e
000003e0: f431 b73e 98eb 49bc 8fc3 17bc f65d 833d
000003f0: 725c 433e 0137 28bc eec6 97bf 7fa6 1a3e

hidden_layer1.bias f4 [64]
0.037813347 -0.25044078 0.03809497 0.79179007 0.112985924 0.12978566 -0.016185746 0.16835628
0.051030252 0.22918965 -0.046797257 0.5733919 -0.063533105 -0.13295457 -0.14052284 -0.007433465
0.16315642 0.16096856 0.087544896 0.0059570773 0.12727253 -0.1739752 -0.08562548 0.6587069
-0.08154337 -0.02148507 0.13345209 -0.015714029 -0.054179497 0.21476799 0.14919491 0.5028207
-0.077957354 -0.18169393 0.46893382 -0.0032215896 0.10791418 -0.13703083 0.61407614 0.3660766
-0.079670295 -0.008028988 0.16300164 0.11422764 -0.011071518 -0.14851247 -0.12584284 -0.072862394
0.025968416 -0.16638424 0.21601595 -0.19072615 -0.048702773 0.09903452 0.22341883 0.1521838
0.7087525 0.38375625 0.059753075 0.0880698 -0.14542815 0.08344293 0.06481109 -0.0672049
00000000: 2be2 1a3d c639 80be 7909 1c3d c1b2 4a3f
00000010: 2a65 e73d 88e6 043e f897 84bc 9765 2c3e
00000020: 1905 513d b1b0 6a3e 7bae 3fbd d0c9 123f
00000030: a51d 82bd 3e25 08be 38e5 0fbe 6d94 f3bb
00000040: 7a12 273e f1d4 243e bd4a b33d 9633 c33b
00000050: bb53 023e 8e26 32be 695c afbd 04a1 283f
00000060: 3600 a7bd 7501 b0bc aaa7 083e b5ba 80bc
00000070: 52eb 5dbd 24ec 5b3e 8dc6 183e dbb8 003f
00000080: 1ba8 9fbd f90d 3abe 1818 f03e 4e21 53bb
00000090: 1c02 dd3d cf51 0cbe 1834 1d3f 646e bb3e
000000a0: 2e2a a3bd 048c 03bc e7e9 263e 2ef0 e93d
000000b0: 5065 35bc a713 18be f2dc 00be e138 95bd
000000c0: b7bb d43c a160 2abe 4933 5d3e b74d 43be
000000d0: 8f7c 47bd 9cd2 ca3d e8c7 643e 12d6 1b3e
000000e0: ce70 353f b37b c43e a4bf 743d f05d b43d
000000f0: 1eeb 14be 20e4 aa3d adbb 843d b9a2 89bd

hidden_layer2.weight f4 [32, 64]
-0.037935037 -0.16224898 -0.09524817 -0.22349653 -0.04660655 -0.029315805 0.08210871 -0.1604118
-0.13478416 -0.149575 0.0005245506 -0.08466068 0.14687558 -0.05400024 -0.17909078 -0.029094517
0.047761593 0.04666556 0.063914366 -0.060480494 0.012090248 -0.08552325 0.10418707 0.09740382
-0.02352252 0.045138687 -0.23135006 -0.031000284 -0.003550314 -0.23153377 0.026109114 0.040505975
-0.2403566 0.040193778 -0.0062399996 -0.0026237764 0.019346625 0.025093127 0.013109508 -0.15742396
-0.047488447 -0.16759366 0.040828764 -0.09243485 -0.049830418 -0.26093873 0.08937906 -0.09798648
-0.034362666 0.206214 0.08060135 -0.011652969 -0.10262847 -0.2673938 -0.06508561 0.016540973
-0.062351387 0.11441118 0.03648714 -0.046376422 -0.018681034 -0.01925054 0.1391742 -0.24759786
-0.04897099 0.21761057 0.32968327 0.34586164 -0.024478266 0.33882716 0.22051232 0.197295
0.18405144 0.08052336 -0.14292216 0.7809277 -0.09676621 -0.24676603 -0.23927993 0.011584125
0.17035495 0.9349648 0.023725452 -0.25068632 -0.065401286 -0.14868912 0.16685963 0.6639642
0.13965067 0.13573839 0.25088495 -0.059057746 -0.010539091 -0.36709404 -0.12569256 0.19488461
-0.032189384 0.031379838 -0.22072147 -0.0012683676 -0.08039104 0.058804844 0.5645815 -0.50281435
-0.033511776 0.012796806 0.03366059 -0.11736493 -0.015959492 -0.35916418 -0.024774117 -0.5417901
1.0016568 -0.065758064 -0.049086716 -0.09213244 -0.020947687 0.11746607 -0.065394424 0.93142635
0.8077911 0.046196513 0.900122 1.1094737 -0.13581207 -0.1637707 0.032031264 -0.2104727
-0.07658701 -0.059546843 -0.010371257 -1.4725285 0.01689551 0.29297826 0.26988348 0.008504495
0.19236398 0.14790146 0.06651624 0.103249975 -0.007502784 0.10281665 0.07652251 0.17721738
-0.08373418 0.26840186 -0.07275153 -0.2600683 0.0046434132 0.83445185 0.0050183274 -0.49309072
-0.0604783 0.0027157508 0.07576743 0.16045561 -0.0677255 -0.264038 0.014977949 0.7648919
0.036127597 0.16137806 0.23306711 -0.09162251 -0.05188869 0.064517476 0.30794284 0.28592715
-0.004848405 0.105762415 0.123547554 -0.055795796 0.02893663 0.29624018 -0.12637897 -0.34923404
0.21125537 -0.06066093 0.21664533 -0.07972117 0.11256659 -0.0075016655 -0.35736123 0.27698684
0.30289117 0.07448002 0.17713739 0.19851694 0.07302485 -0.10344773 0.08267515 -0.048836645
0.1410321 0.0341486 -0.36193648 -0.11749592 0.1167221 0.054516245 0.2168795 0.22633345
-0.10494277 -0.021533683 -0.03283339 -0.4984211 -0.046871364 -0.05357709 -0.066857256 -0.029685996
0.20055248 0.47917822 -0.12884004 0.057225596 -0.00104422 0.19808573 0.089588866 0.17859316
-0.09159669 0.075281695 -0.013653648 -0.12683739 -0.15076825 -0.027893689 0.04827146 -0.08439962
-0.035457194 0.014550335 0.040985405 -0.018076483 0.03357236 -0.19362083 -0.31985626 0.026402872
0.0863062 -0.021375868 -0.03971306 -0.18695094 0.010409935 -0.08425557 0.124292955 0.22274925
0.6280295 0.08593727 -0.1476931 -0.13397858 0.25768867 -0.024358742 -0.07164272 0.24982621
-0.42767462 -0.10635913 0.15466928 0.032756466 -0.12827842 -0.23722063 -0.17655015 -0.07223688
00000000: c561 1bbd 9924 26be 7911 c3bd 46dc 64be
00000010: 83e6 3ebd b327 f0bc 9d28 a83d fe42 24be
00000020: dc04 0abe 302a 19be ff81 093a 9462 adbd
00000030: 8d66 163e 5b2f 5dbd 9363 37be a057 eebc
00000040: a9a1 433d 6324 3f3d 89e5 823d 65ba 77bd
00000050: 2d16 463c d026 afbd 0860 d53d a77b c73d
00000060: 4db2 c0bc 58e3 383d 08e7 6cbe 4ff4 fdbc
00000070: 63ac 68bb 3017 6dbe c8e2 d53c 98e9 253d
00000080: 0a20 76be 3ba2 243d e978 ccbb aaf3 2bbb
00000090: d07c 9e3c 1a90 cd3c 43c9 563c bf33 21be
000000a0: 3f83 42bd ac9d 2bbe 103c 273d 7c4e bdbd
000000b0: fb1a 4cbd c399 85be 5e0c b73d 23ad c8bd
000000c0: debf 0cbd c329 533e 5212 a53d 18ec 3ebc
000000d0: e02e d2bd d7e7 88be 9b4b 85bd ef80 873c
000000e0: 2b64 7fbd 6950 ea3d 8a73 153d 34f5 3dbd
000000f0: f808 99bc 4fb3 9dbc ae83 0e3e 4b8a 7dbe
00000100: ce95 48bd 4ed5 5e3e 3fcc a83e c714 b13e
00000110: a586 c8bc c17a ad3e fbcd 613e b307 4a3e
00000120: fb77 3c3e 6ee9 a43d 305a 12be e1ea 473f
00000130: 5d2d c6bd 3cb0 7cbe cc05 75be 58cb 3d3c
00000140: 8771 2e3e da59 6f3f e15b c23c f559 80be
00000150: 1cf1 85bd f641 18be 40dd 2a3e 8ff9 293f
00000160: 9600 0f3e 01ff 0a3e fe73 803e 89e6 71bd
00000170: 27ac 2cbc c0f3 bbbe 8db5 00be d58f 473e
00000180: 04d9 03bd 2588 003d cf04 62be 5b3f a6ba
00000190: 0fa4 a4bd 59dd 703d 6a88 103f 71b8 00bf
000001a0: a543 09bd b2a9 513c b0df 093d 065d f0bd
000001b0: 7bbd 82bc 5ee4 b7be 17f3 cabc c2b2 0abf
000001c0: 4a36 803f 2aac 86bd 270f 49bd efaf bcbd
000001d0: 7c9a abbc 0d92 f03d 83ed 85bd f571 6e3f
000001e0: 66cb 4e3f 8e38 3d3d 656e 663f 3c03 8e3f
000001f0: 5212 0bbe 82b3 27be 3733 033d 2886 57be
00000200: a6d9 9cbd 64e7 73bd 34ec 29bc d07b bcbf
00000210: 7468 8a3c 3f01 963e 2b2e 8a3e 7056 0b3c
00000220: 10fb 443e 7b73 173e ab39 883d b974 d33d
00000230: ead9 f5bb 8991 d23d d5b7 9c3d 7978 353e
00000240: d37c abbd f86b 893e c1fe 94bd ac27 85be
00000250: c627 983b a39e 553f c870 a43b 6376 fcbe
00000260: 18b8 77bd bdfa 313b f42b 9b3d 7a4e 243e
00000270: abb3 8abd fd2f 87be 1266 753c f5cf 433f
00000280: 88fa 133d 4a40 253e 25a9 6e3e 95a4 bbbd
00000290: 3c89 54bd bd21 843d afaa 9d3e 0b65 923e
000002a0: 5edf 9ebb f799 d83d 8006 fd3d 228a 64bd
000002b0: 830c ed3c cbac 973e 7d69 01be cece b2be
000002c0: 5453 583e 9877 78bd 46d8 5d3e da44 a3bd
000002d0: 5089 e63d 88d0 f5bb 0df8 b6be 38d1 8d3e
000002e0: 8d14 9b3e fb88 983d 8163 353e 0648 4b3e
000002f0: 0d8e 953d 67dc d3bd 9751 a93d ef08 48bd
00000300: b86a 103e 67df 0b3d bd4f b9be b3a1 f0bd
00000310: ff0b ef3d 6d4c 5f3d a915 5e3e f5c3 673e
00000320: 3cec d6bd 6867 b0bc 4e7c 06bd 0d31 ffbe
00000330: 30fc 3fbd a773 5bbd 75ec 88bd 0c30 f3bc
00000340: a15d 4d3e d956 f53e a5ee 03be 6365 6a3d
00000350: 35de 88ba fcd6 4a3e 5e7a b73d 20e1 363e
00000360: 0c97 bbbd 4a2d 9a3d 8db3 5fbc a9e1 01be
00000370: fe62 1abe 4e81 e4bc 4bb8 453d b5d9 acbd
00000380: 903b 11bd 8764 6e3c 50e0 273d 2215 94bc
00000390: 2c83 093d 8a44 46be 33c4 a3be d64a d83c
000003a0: 4ec1 b03d 721c afbc 29aa 22bd 1170 3fbe
000003b0: 6f8e 2a3c 2f8e acbd 4e8d fe3d 6118 643e
000003c0: 8bc6 203f e1ff af3d dc3c 17be ae31 09be
000003d0: c5ef 833e fc8b c7bc 6bb9 92bd 71d2 7f3e
000003e0: 2bf8 dabe d1d2 d9bd a061 1e3e a52b 063d
000003f0: 6b5b 03be f7e9 72be 90c9 34be eef0 93bd

hidden_layer2.bias f4 [32]
0.02757459 -0.26772046 -0.3783568 -0.025917081 -0.14719383 -0.14597046 0.12297807 -0.25835216
0.024028394 -0.060455073 -0.025959462 0.05428088 -0.044583894 -0.007149936 0.04667094 -0.110124074
0.07493025 -0.17606854 -0.14852837 -0.036819343 0.29776463 -0.022874277 0.11649915 0.35973656
-0.15407398 -0.043766648 0.116803914 -0.3405554 -0.17113955 0.03702087 -0.19890422 0.10943119
00000000: 1be4 e13c a812 89be fcb7 c1be 0f50 d4bc
00000010: fbb9 16be 4879 15be eddb fb3d bc46 84be
00000020: 32d7 c43c bd9f 77bd f0a8 d4bc a155 5e3d
00000030: 9a9d 36bd 034a eabb 072a 3f3d bb88 e1bd
00000040: 0875 993d 504b 34be d217 18be e1cf 16bd
00000050: 9b74 983e d662 bbbc 1b97 ee3d 642f b83e
00000060: 92c5 1dbe a844 33bd e436 ef3d 475d aebe
00000070: 353f 2fbe 32a3 173d 8cad 4bbe 761d e03d
