Comparison/TrainedModel/15-0.0001-18-Agent/node_agent_12.pth (torch, 29764 bytes, 6 tensors)

input_layer.weight f4 [32, 79]
0	0xbdd650ba	-0.10464616
1	0xbd8bca3d	-0.06825683
2	0x3d2e5c77	0.04256865
3	0x3d516b9d	0.05112802
4	0x3d292d8e	0.04130321
5	0xbd21a0e0	-0.039460063
6	0x3c077f18	0.008270048
7	0x3d60ca5d	0.05488049
8	0xbe33e8da	-0.17569295
9	0x3d00ad0d	0.031415034
10	0xbdcc114d	-0.09964237
11	0x3d113d7c	0.035459027
12	0x3def6583	0.11689284
13	0x3d5dd3ce	0.05415707
14	0x3cd502af	0.026002256
15	0x3df3e727	0.11909323
16	0x3e29832e	0.16553947
17	0x3e8a28be	0.2698421
18	0xbb88155f	-0.0041529383
19	0xbe75a175	-0.23987372
20	0x3dc7e4b7	0.09760421
21	0xbe08d0fe	-0.13360974
22	0x3e6444e2	0.22291902
23	0xbcc2c21c	-0.0237742
24	0xbd2af490	-0.04173714
25	0x3d87270a	0.06599243
26	0xbd57ff9a	-0.052733995
27	0x3d0885ff	0.033330914
28	0xbda06707	-0.07832151
29	0x3db1f41b	0.086891375
30	0x3c549817	0.012975714
31	0xbc27953d	-0.010228452
32	0xbdd7dbb3	-0.10539951
33	0xbda3da9f	-0.08000683
34	0xbc0a94ff	-0.008458375
35	0xbda35072	-0.07974328
36	0xbd15d172	-0.036576696
37	0xbe093dfb	-0.1340255
38	0xbe1009bf	-0.14066218
39	0x3d9301c3	0.071780704
40	0x3cfe3e83	0.031035667
41	0x3d7e3c4b	0.06206922
42	0xbcb4beec	-0.022063695
43	0xbd8ed3ae	-0.069739684
44	0xbdf3c6c5	-0.11903147
45	0x3d2202ba	0.03955338
46	0x3db68de1	0.0891378
47	0x3d89c738	0.06727451
48	0x3e8e3de7	0.27781603
49	0x3e63bbdc	0.22239631
50	0xbca8eb60	-0.020620048
51	0xbf1cae9b	-0.61203927
52	0x3dd8a4f8	0.1057834
53	0xbf5aa295	-0.8540433
54	0x3e98d2aa	0.29848224
55	0xbe714334	-0.23560792
56	0xbcde1713	-0.027110612
57	0xbdfe0bed	-0.124046184
58	0x3f4161e5	0.7554
59	0xbd9d5110	-0.07681477
60	0x3d3e43ff	0.046451565
61	0x3e6fce03	0.23418431
62	0xbd3a2331	-0.045443717
63	0x3d695058	0.056961387
64	0xbdba611f	-0.09100556
65	0xbe06be73	-0.13158588
66	0xbd27c7a0	-0.04096186
67	0x3d7261ff	0.059175488
68	0x3de27902	0.11058237
69	0xbd2a66bb	-0.041601878
70	0xbc474664	-0.0121627785
71	0xbe0fc0b9	-0.14038362
72	0xbce64eaf	-0.028113691
73	0xbe1f7940	-0.15573597
74	0x3e59efee	0.21282932
75	0x3d51b942	0.051202066
76	0x3e643c03	0.22288518
77	0xbd83e0b5	-0.06439344
78	0xbeb72b58	-0.35775256
79	0x3c0b7a54	0.008513052
80	0xbd72dcdb	-0.059292655
81	0xbdaa954a	-0.08329256
82	0xbd0fd9e5	-0.03511991
83	0x3d6ea898	0.058266252
84	0xbe3a9a97	-0.18223034
85	0x3ce42dc5	0.027853856
86	0xbe4c23f5	-0.19935592
87	0xbda2d2e5	-0.07950381
88	0x3d8c392e	0.06846844
89	0x3d1318ef	0.03591245
90	0x3e9e563a	0.3092516
91	0x3e8f08a5	0.27936283
92	0x3e4d2a87	0.20035754
93	0x3e8ba7e4	0.27276528
94	0x3e6af227	0.22943936
95	0x3ecd58c7	0.40106794
96	0x3e8fa6be	0.28056902
97	0xbcc7fa95	-0.024411479
98	0xbe6a1f3d	-0.22863479
99	0x3e0d8005	0.13818367
100	0xbd21e050	-0.03952056
101	0x3d4ed89b	0.05049954
102	0x3da94f63	0.08267095
103	0x3e27dfb7	0.16393934
104	0xbd13f147	-0.036118772
105	0xbc55f2c0	-0.013058364
106	0xbd9d54f0	-0.07682216
107	0xbe213cab	-0.15745799
108	0xba2579fc	-0.00063124276
109	0x3e13398a	0.14377418
110	0xbe0c90d0	-0.13727117
111	0x3e6b180f	0.22958396
112	0xbcfdc922	-0.030979697
113	0xbc5e3bbf	-0.013564049
114	0x3dc8c9e2	0.09804131
115	0x3d7c9f27	0.061675217
116	0xbc8dc75f	-0.017306982
117	0xbc1f3b0c	-0.009718668
118	0xbd1696ff	-0.036765095
119	0xbda24043	-0.07922413
120	0xbda4cb24	-0.080465585
121	0xbc938c6e	-0.018011298
122	0xbd039424	-0.0321237
123	0x3b242d23	0.0025051318
124	0xbeab0edb	-0.3340977
125	0x3f354cbf	0.7082023
126	0x3eaecd05	0.34140792
127	0x3e4bd35e	0.19904849
128	0xbd6484d7	-0.05579075
129	0x3e009ad6	0.12559065
130	0x3ecc4892	0.39899117
131	0x3e43a664	0.19106442
132	0xbda398eb	-0.07988151
133	0x3f06d134	0.5266297
134	0xbf04677d	-0.5172041
135	0x3e8f0acb	0.27937922
136	0xbcecdb94	-0.028913297
137	0x3e0aa368	0.13538897
138	0xbe0b1da5	-0.13585527
139	0xbce97e15	-0.028502503
140	0xbe11bfed	-0.1423337
141	0x3ab898a6	0.0014083579
142	0xbe2f7e02	-0.17137912
143	0x3de512ed	0.111852504
144	0xbdfbda90	-0.12297547
145	0x3e7e01b0	0.24805331
146	0xbda28a49	-0.07936532
147	0x3e02db33	0.1277893
148	0xbe761807	-0.24032603
149	0x3b93066b	0.004486849
150	0x3eea468f	0.45756957
151	0xbd525ce3	-0.051358115
152	0xbdb35f8b	-0.08758458
153	0x3ec6b4b1	0.38809732
154	0xbd533790	-0.05156666
155	0x3e89d2c4	0.26918614
156	0xbdba9f34	-0.09112397
157	0xbe61dc6a	-0.22056738
158	0x3d99bc9b	0.07506677
159	0x3cda1277	0.026620133
160	0xbd1a8e07	-0.037733104
161	0xbd7d3c08	-0.06182483
162	0x3d734553	0.059392285
163	0xbd735b7d	-0.059413422
164	0xbd5479f0	-0.0518741
165	0x3d160d73	0.03663392
166	0x3c501f25	0.012702738
167	0x3db68338	0.08911747
168	0x3d982234	0.07428399
169	0x3ebbe973	0.36701545
170	0x3d836cc9	0.064172335
171	0xbc875e05	-0.016524324
172	0x3e147504	0.14497763
173	0x3d00e01b	0.031463724
174	0x3eb5af4f	0.35485312
175	0x3e75df22	0.240109
176	0x3dbd00ef	0.09228694
177	0xbdd61e1f	-0.10454964
178	0x3bd29482	0.006426395
179	0xbd85ad42	-0.06527187
180	0x3cae6619	0.021288918
181	0x3ddcb5cf	0.10776865
182	0x3d18c1c6	0.03729417
183	0xbd1bd783	-0.038047325
184	0x3d1245f7	0.035711255
185	0x3e2f4f71	0.17120148
186	0xbc8b6a5a	-0.017018486
187	0x3def4b77	0.11684316
188	0xbe0d0421	-0.13771106
189	0xbddd99d8	-0.10820359
190	0xbbcd5f6d	-0.006267479
191	0x3e0f735c	0.1400885
192	0x3af8bfb7	0.0018978034
193	0x3dd31a57	0.10307758
194	0xbde67fdb	-0.11254855
195	0x3dd961d5	0.10614363
196	0x3dcf3af8	0.10118669
197	0x3dec319d	0.115329005
198	0x3d0a1f33	0.03372116
199	0x3ce6db45	0.028180728
200	0xbd9efff4	-0.07763663
201	0x3b6ba12f	0.0035954227
202	0xbcc700d5	-0.024292389
203	0x3cf97d92	0.030455384
204	0xbf0aae2b	-0.5417201
205	0xbeccf533	-0.40030822
206	0x3ed64c3a	0.4185503
207	0x3e5d3b7b	0.21604721
208	0xbe6ce07a	-0.23132506
209	0xbdaba638	-0.08381313
210	0xbe0f96f4	-0.14022428
211	0x3c83fb6c	0.016111098
212	0xbf21920a	-0.6311346
213	0x3f11cd73	0.56954116
214	0xbdc67810	-0.09690869
215	0xbe5fdeb5	-0.218623
216	0x3e2ae6d3	0.16689615
217	0x3f00d1da	0.5032021
218	0x3c9c9a70	0.01911661
219	0x3e41d456	0.18928656
220	0x3d225150	0.039628327
221	0xbe1e8e7b	-0.1548404
222	0x3c0b9bb7	0.008521012
223	0xbdfe3b82	-0.12413694
224	0x3e416cd5	0.18889172
225	0x3de8a665	0.11359862
226	0x3d3fc4cb	0.046818536
227	0xb9a0406c	-0.00030565576
228	0xbd7e474d	-0.062079716
229	0x3e95c7ca	0.2925399
230	0xbd80663d	-0.062695004
231	0x3d9ae159	0.07562513
232	0x3e8dbdf0	0.27683973
233	0xbd5a7cf8	-0.053341836
234	0x3e2902ce	0.16504976
235	0x3d506fa0	0.050887704
236	0xbe31fbec	-0.17381257
237	0xbd7de64f	-0.061987218
238	0x3df3fb58	0.119131744
239	0x3be46557	0.0069700885
240	0x3e01e7ff	0.12686156
241	0xbda61181	-0.08108807
242	0xbdcedaaf	-0.10100304
243	0x3c5c9b5f	0.013464778
244	0x3e0f61fe	0.14002225
245	0x3adc024f	0.0016785356
246	0xbe035c73	-0.12828235
247	0x3d954202	0.072879806
248	0xbd298e64	-0.04139556
249	0x3dc60664	0.09669188
250	0xbc70644d	-0.014672351
251	0x3d378715	0.04480656
252	0x3e195c5f	0.14976643
253	0x3e13d779	0.14437665
254	0xbd517ad4	-0.05114253
255	0x3e2808af	0.16409563

input_layer.bias f4 [32]
0	0x3c1de196	0.009636303
1	0x3e8869f1	0.26643327
2	0x3e2ba115	0.16760667
3	0xbd2ebdab	-0.04266135
4	0x3e7ad89a	0.2449669
5	0x3e813b0f	0.2524037
6	0x3e272780	0.16323662
7	0x3d00a52f	0.03140753
8	0x3e4b9cfa	0.198841
9	0x3e2d04f3	0.16896419
10	0xbccfe40e	-0.0253773
11	0xbe017555	-0.12642415
12	0x3e7c7140	0.24652576
13	0x3d76ade3	0.060224425
14	0x3d98e267	0.07465058
15	0x3cd4f73f	0.025996802
16	0x3ebeacb7	0.37241146
17	0x3d1346c1	0.035956148
18	0x3dd59270	0.10428321
19	0x3e7a9b83	0.24473386
20	0x3e150b9d	0.14555211
21	0xbda30c3a	-0.079613164
22	0x3e3a00b2	0.18164328
23	0x3de20b4a	0.110373095
24	0x3c98de33	0.01866064
25	0x3e5fc03e	0.21850678
26	0x3deb2838	0.114822805
27	0x3e8069fe	0.25080866
28	0x3ec35785	0.3815271
29	0x3da30ae6	0.07961063
30	0x3e9b5fab	0.30346426
31	0x3e87c15c	0.2651471

hidden_layer1.weight f4 [64, 32]
0	0x3eb94042	0.36181837
1	0xbe3bd526	-0.18343028
2	0x3f04c62f	0.51864904
3	0x3e672287	0.22571765
4	0x3dd2ca68	0.10292512
5	0xbd76981a	-0.06020365
6	0x3e137f75	0.1440409
7	0x3f019d72	0.5063087
8	0xbeb906f6	-0.36138123
9	0x3ef37da4	0.47556794
10	0xbd4edc79	-0.050503228
11	0x3d2c53cd	0.042072106
12	0xbebcf67f	-0.36906812
13	0x3e9d0e67	0.3067505
14	0x3eaaf2f5	0.33388487
15	0x3ece73ff	0.40322873
16	0xbeabf7bc	-0.33587444
17	0xbd7eec3c	-0.06223701
18	0x3d568030	0.052368343
19	0x3e91bfa8	0.28466535
20	0xbdde8d23	-0.108667634
21	0x3ecb4221	0.3969889
22	0x3ed05b58	0.4069469
23	0x3dac865e	0.08424066
24	0x3e26fabf	0.1630659
25	0xbeb4f1a6	-0.35340613
26	0x3f0039dd	0.5008829
27	0x3ec254cb	0.37955317
28	0xbeda66b7	-0.4265649
29	0x3e07af8b	0.13250558
30	0x3dcde129	0.100527115
31	0x3ea5697b	0.32307038
32	0x3e4f458d	0.20241375
33	0xbefbd5ea	-0.4918664
34	0x3e11d9a3	0.14243178
35	0x3ddf7f87	0.10912996
36	0xbdcf194b	-0.10112246
37	0xbeaa4c83	-0.332615
38	0x3dc3adbe	0.09554623
39	0x3ea82785	0.3284265
40	0xbe9c05ee	-0.30473274
41	0x3ed410c1	0.41419032
42	0x3cf63f43	0.030059462
43	0xbb97255a	-0.004612607
44	0xbe122d3d	-0.1427507
45	0x3ebc9da6	0.36839026
46	0x3ec691e7	0.3878319
47	0x3ed4838a	0.41506606
48	0xbd2c0ee2	-0.04200638
49	0x3e534fa5	0.2063585
50	0xbdb1437c	-0.0865545
51	0x3edb6dc3	0.4285718
52	0xbe999c0b	-0.30001864
53	0x3ea821aa	0.32838184
54	0x3eb7e5d0	0.3591752
55	0xbe7b961b	-0.2456898
56	0x3ea54497	0.32278892
57	0xbf02bcb0	-0.51069164
58	0x3ef121e5	0.47096172
59	0x3e9c3cd1	0.3051515
60	0xbf2608fc	-0.6485746
61	0x3ea6d828	0.3258679
62	0xbe5347b7	-0.20632826
63	0x3e26ef84	0.16302305
64	0x3e6027ed	0.2189023
65	0xbad54793	-0.0016271941
66	0x3e4ac763	0.19802622
67	0xbe1a9cff	-0.15098952
68	0xbcc0c715	-0.02353243
69	0xbd268556	-0.040654503
70	0xbd6ce409	-0.05783466
71	0x3e8ea707	0.27861807
72	0xbecced40	-0.40024757
73	0x3e7de3cf	0.24793933
74	0x3e530124	0.20605904
75	0xbe6249bd	-0.22098441
76	0xbeac4bb8	-0.3365152
77	0x3e012e67	0.12615357
78	0x3e23d86a	0.16000524
79	0x3dc69a27	0.09697371
80	0xbdd3e3b1	-0.10346163
81	0xbdaa7ae2	-0.08324219
82	0x3e232423	0.15931754
83	0x3de8cb33	0.11366882
84	0xbd96105b	-0.07327338
85	0x3e7d03a5	0.24708422
86	0x3e40c996	0.18826899
87	0xbd397830	-0.045280635
88	0x3df7fd94	0.12108913
89	0xbc2fcb4f	-0.010729625
90	0x3e823ec9	0.25438526
91	0x3e81638a	0.25271255
92	0xbed71a79	-0.42012385
93	0x3dac7a4c	0.08421764
94	0xbe885e39	-0.26634386
95	0x3daa07e8	0.08302289
96	0x3e1b3707	0.1515771
97	0xbce58fd9	-0.028022693
98	0x3f107f3f	0.5644416
99	0x3c6a9fe9	0.014320352
100	0xbdbd412b	-0.092409454
101	0xbea970a4	-0.3309375
102	0xbd1f7328	-0.03892818
103	0x3d474824	0.048652783
104	0xbf4af543	-0.7928049
105	0x3ebde957	0.37092087
106	0x3d572b42	0.05253149
107	0x3e2308ce	0.15921327
108	0xbed24244	-0.41066182
109	0x3ddaf92d	0.10692058
110	0x3ed72164	0.42017663
111	0x3d81ee90	0.0634433
112	0xbe2d75e7	-0.16939507
113	0x3cb50119	0.02209525
114	0xbe1df003	-0.15423588
115	0x3e5d41ec	0.21607178
116	0xbeb0c9cb	-0.34528956
117	0x3eb66370	0.3562274
118	0x3ea8c20d	0.3296055
119	0xbc66bc7d	-0.014083025
120	0x3e8085a6	0.25101966
121	0xbe637f70	-0.22216582
122	0x3e9748ab	0.2954763
123	0x3e7de00a	0.24792495
124	0xbe3780d1	-0.17920233
125	0x3e564a9e	0.20926902
126	0xbe8c5944	-0.27411854
127	0x3e620c97	0.22075115
128	0x3e9f0af9	0.3106306
129	0xbe66ef6e	-0.22552273
130	0x3e9e7d1f	0.30954835
131	0xbcb99b80	-0.022657156
132	0xbed47e19	-0.41502455
133	0xbe85ff54	-0.26171362
134	0x3e7c065e	0.24611804
135	0x3e13b72c	0.14425343
136	0xbd5a4934	-0.05329247
137	0x3e95b2aa	0.29237872
138	0x3c9c3a9a	0.019070912
139	0x3d9390a1	0.0720532
140	0xbe977e6e	-0.29588646
141	0x3e032634	0.12807542
142	0x3f06e0f2	0.5268699
143	0x3e9981c5	0.2998182
144	0xbcf43a5b	-0.029812982
145	0x3ea6e804	0.3259889
146	0x3ef238f7	0.47309086
147	0xbdfecc5f	-0.124413244
148	0x3e00cedd	0.12578912
149	0x3e2f3470	0.17109847
150	0x3df12d4f	0.1177622
151	0x3ceb0340	0.028688073
152	0x3da809e6	0.08205013
153	0xbdeb7d53	-0.11498513
154	0x3ec46c5e	0.38363928
155	0x3ea664f7	0.32498905
156	0xbee155be	-0.4401073
157	0x3ce2fdaf	0.027708856
158	0xbde356d1	-0.11100543
159	0x3d851751	0.06498588
160	0x3e89ac2f	0.26889178
161	0x3e3fff10	0.18749642
162	0xbdce4d45	-0.10073332
163	0x3e56a2a9	0.20960487
164	0xbe9d56ce	-0.3073029
165	0x3eb9b1ab	0.36268362
166	0x3f04026f	0.51566213
167	0x3e09d86a	0.13461462
168	0x3f3350ac	0.7004497
169	0x3debf1ba	0.11520715
170	0x3d1dbc20	0.038509488
171	0x3cf2c593	0.029635226
172	0x3ee93da6	0.45554847
173	0x3e241cc1	0.16026594
174	0x3e96cb00	0.29451752
175	0x3e12e295	0.14344247
176	0x3eb0767a	0.3446539
177	0x3f06ed56	0.52705896
178	0x3f207701	0.62681586
179	0x3dc1d3d4	0.09464231
180	0x3f295322	0.66142476
181	0x3e038eab	0.12847392
182	0xba83639d	-0.0010024194
183	0x3e15f94b	0.14645879
184	0x3e6a71e6	0.22895011
185	0x3ed13048	0.40857148
186	0xbe1919be	-0.14951226
187	0x3d9cd77f	0.0765829
188	0x3d77161b	0.060323816
189	0x3d3efbf9	0.04662702
190	0x3ec47d18	0.3837669
191	0xbe0fecb2	-0.14055136
192	0x3d3410c9	0.04396132
193	0x3d300301	0.042971615
194	0x3e83c51d	0.25736323
195	0x3e8ac938	0.27106643
196	0x3e2b3416	0.16719088
197	0x3d6c192b	0.05764119
198	0xbcc0134c	-0.023446701
199	0x3e931504	0.2872697
200	0xbc55f108	-0.013057955
201	0x3df88c29	0.121361084
202	0x3dea8e73	0.11452951
203	0xbd58acb5	-0.05289908
204	0xbcf95065	-0.030433843
205	0x3d670b66	0.056407355
206	0x3e718dd1	0.23589255
207	0x3de196b4	0.110150725
208	0x3e1321c9	0.14368357
209	0xbd06e4d4	-0.03293307
210	0x3e36a45c	0.17836136
211	0x3e743bce	0.23850939
212	0x3a735d66	0.0009283632
213	0x3d3626d4	0.044470623
214	0x3e5a03b4	0.21290475
215	0x3e0a1664	0.13485104
216	0x3e8355f5	0.25651518
217	0x3dd7386b	0.10508808
218	0x3db48e08	0.08816153
219	0x3db0e1f8	0.0863685
220	0x3e2fa81a	0.1715397
221	0x3e016487	0.12636004
222	0x3e87368f	0.26408812
223	0x3d9d3bce	0.076774225
224	0x3e917983	0.2841302
225	0x3e99190d	0.29901925
226	0x3ecdbd81	0.40183643
227	0x3dbae52d	0.09125743
228	0x3dfef810	0.12449658
229	0xbcacccf9	-0.021093832
230	0x3e4eb38a	0.20185676
231	0x3e769351	0.24079634
232	0xbf0b5d0c	-0.54438853
233	0x3ebc5848	0.36786103
234	0x3e3c6fcc	0.18402022
235	0xbcaa94d4	-0.02082292
236	0xbe8635b0	-0.26212835
237	0x3e3a808a	0.18213096
238	0x3df6f3ec	0.12058243
239	0x3e28fc96	0.16502604
240	0x3b46ac48	0.003031509
241	0x3e850879	0.25983027
242	0xbd3cd6f6	-0.04610344
243	0x3e18a7f3	0.14907818
244	0xbe68ebc4	-0.22746187
245	0x3e674e54	0.22588474
246	0x3e6c8079	0.23095883
247	0xbd6e6651	-0.058203045
248	0x3e3a22c1	0.1817732
249	0xbddc46e5	-0.107557096
250	0x3eb2efde	0.3494863
251	0xbd4710a2	-0.048599847
252	0xbea8f5a7	-0.32999918
253	0x3e793e7e	0.24340245
254	0xbda0838b	-0.0783759
255	0x3e709295	0.23493417

hidden_layer1.bias f4 [64]
0	0x3d8ee5f0	0.06977451
1	0x3d6d31ea	0.05790893
2	0x3c810653	0.015750086
3	0x3d085bfc	0.033290848
4	0xbe1f7d1d	-0.1557507
5	0x3d9696a0	0.07352948
6	0x3d1d4eda	0.038405277
7	0x3dd498d7	0.103807144
8	0x3d62f5f3	0.055410337
9	0x3d70dcd4	0.058804348
10	0x3eb17caf	0.3466544
11	0xbdf86ab4	-0.12129727
12	0x3c822735	0.015887836
13	0x3e2c7c7e	0.16844365
14	0x3e5e2918	0.21695364
15	0x3e1b457d	0.15163226
16	0x3e809e5c	0.2512082
17	0xbd957624	-0.07297924
18	0xbd439ab2	-0.04775495
19	0x3e559ca7	0.2086054
20	0x3e91502f	0.28381488
21	0xbde6fd40	-0.11278772
22	0xbe10c3ec	-0.14137238
23	0x3c9efcbf	0.019407628
24	0x3c8c2147	0.017105712
25	0xbdb0a43b	-0.086250745
26	0xbd854144	-0.06506589
27	0x3ddbdc73	0.10735407
28	0xbe2ad9a7	-0.1668459
29	0x3e02a6e9	0.12758984
30	0xbd1d08a0	-0.038338304
31	0x3d3eb4fa	0.04655931
32	0xbd35391e	-0.044243924
33	0x3da27098	0.07931632
34	0x3d8a2ba9	0.06746609
35	0xbc36a6c2	-0.011148157
36	0x3e6f80b7	0.23388945
37	0xbda58616	-0.080822155
38	0x3da0a854	0.07844606
39	0x3dcff7c0	0.101546764
40	0x3dd7e447	0.10541587
41	0x3e66184b	0.22470205
42	0xbe0588a9	-0.13040413
43	0x3db9ba6e	0.09068762
44	0xbd4bf167	-0.049790766
45	0x3de302f8	0.110845506
46	0x3e3178d5	0.1733125
47	0x3e05a287	0.1305028
48	0x3cb3a10c	0.02192738
49	0x3dec41c1	0.11535979
50	0xbda617a6	-0.08109979
51	0x3de70a9d	0.11281321
52	0x3db568a3	0.088578485
53	0x3e291a71	0.16513993
54	0x3e4a2f5e	0.19744632
55	0xbb325a32	-0.0027214405
56	0x3bb7396d	0.0055915625
57	0x3ce24076	0.027618628
58	0x3d076f08	0.033064872
59	0x3e0f59d0	0.13999104
60	0x3d4c83a4	0.04993023
61	0x3d25621d	0.04037677
62	0xbe1d2c63	-0.15348963
63	0xbd7d4f1d	-0.061843026

hidden_layer2.weight f4 [32, 64]
0	0x3e1c3557	0.15254723
1	0x3e4ca5ec	0.19985169
2	0x3e60ad20	0.21941042
3	0x3e46ba44	0.19406992
4	0xbc3b9d98	-0.0114511475
5	0xbef4805b	-0.47754177
6	0xbe1a5ed7	-0.15075241
7	0x3e808150	0.25098658
8	0x3e3c29ee	0.1837537
9	0xbe0d46e5	-0.13796575
10	0xbe36162c	-0.17781895
11	0xbbffc838	-0.0078058504
12	0xbd91a7c1	-0.07112075
13	0x3e5fdf92	0.21862629
14	0xbd025bd4	-0.031825855
15	0xbd75408a	-0.059876002
16	0x3e842a40	0.25813484
17	0x3e8bfb52	0.2734018
18	0xbd65e2ef	-0.056124624
19	0x3e3f0827	0.18655454
20	0xbe364a81	-0.17801858
21	0x3dde5140	0.10855341
22	0xbe165e50	-0.14684415
23	0x3e941858	0.28924823
24	0x3efaf66f	0.4901614
25	0x3e1c82f2	0.15284327
26	0x3e1b95b7	0.1519383
27	0x3e39a7f0	0.1813047
28	0x3c74eae7	0.014948583
29	0x3e9c5921	0.3053675
30	0x3e497491	0.19673373
31	0x3ec3bdf8	0.38230872
32	0xbd14745f	-0.036243793
33	0x3d8f6cbb	0.070031606
34	0x3dce5725	0.10075215
35	0x3ea51f87	0.32250616
36	0x3d939ad2	0.07207264
37	0x3da151dc	0.078769416
38	0x3e2e43b3	0.17018013
39	0x3ed6e49e	0.41971296
40	0x3e235096	0.1594871
41	0x3d9cb914	0.07652488
42	0x3dc97ff0	0.09838855
43	0x3e2442d0	0.16041112
44	0x3ed64a12	0.41853386
45	0xbe98cc50	-0.29843378
46	0x3e5552d2	0.20832375
47	0x3ce8face	0.028439905
48	0x3e69fecd	0.22851105
49	0x3e246f78	0.16058147
50	0x3e3f6372	0.18690279
51	0xbde65d3b	-0.11248251
52	0xbd28ae9d	-0.04118215
53	0x3def6fbb	0.11691233
54	0x3e235e7f	0.15954016
55	0x3eb51002	0.35363775
56	0xbe13c57a	-0.144308
57	0x3db9e4c1	0.090768345
58	0x3d3ac4da	0.04559789
59	0x3e9384a6	0.2881214
60	0x3e4a3bdd	0.19749399
61	0xbd80d9ef	-0.062915675
62	0x3ea877e7	0.32903978
63	0x3ef4aaf1	0.47786668
64	0xbdb5ea8b	-0.08882626
65	0xbd6eddd9	-0.05831704
66	0xbe0ab03e	-0.13543794
67	0xbe383704	-0.17989737
68	0x3dc651eb	0.09683593
69	0xbccd14c6	-0.02503432
70	0xbd9a348a	-0.07529552
71	0xba14da92	-0.00056783215
72	0xbd1573eb	-0.0364875
73	0xbdf73ff1	-0.12072743
74	0x3d7e184a	0.062034883
75	0x3d426597	0.047460165
76	0xbd3c2b30	-0.045939624
77	0x3d59d4c4	0.053181425
78	0xbd70c153	-0.05877812
79	0xbd93ad06	-0.07210736
80	0x3d5f5d64	0.054532424
81	0xbe0da59f	-0.1383271
82	0xbd68dfd6	-0.05685409
83	0x3e0fadf8	0.14031208
84	0xbd8d74c5	-0.06907038
85	0x3db210e6	0.08694629
86	0xbcc08c74	-0.023504473
87	0x3e8b97d9	0.27264288
88	0x3bb6172a	0.0055569606
89	0x3e12fa5a	0.14353314
90	0xbdcc43b6	-0.09973852
91	0xbd857a3b	-0.06517454
92	0xbbca285b	-0.0061693615
93	0xbe19b969	-0.15012135
94	0x3d39ecdd	0.045391906
95	0x3deddcee	0.116144046
96	0xbcccf733	-0.025020218
97	0xbe2feb45	-0.17179592
98	0x3d55c6e9	0.05219165
99	0x3e017560	0.12642431
100	0xbe2e4965	-0.17020185
101	0x3dc61a8b	0.096730314
102	0x3de5bc82	0.11217596
103	0x3dfa9ae8	0.12236577
104	0x3e20eea1	0.1571603
105	0xbc8aca07	-0.016942037
106	0xbdd1fa0d	-0.102527715
107	0x3d55cdeb	0.05219833
108	0xbe0ad4a1	-0.13557674
109	0xbd5d1235	-0.05397244
110	0x3dd93adf	0.10606932
111	0xbc8aa9b0	-0.016926616
112	0xbe312633	-0.17299728
113	0x3c986b27	0.018605782
114	0xbe2b3fe6	-0.16723594
115	0x3d9dc18b	0.07702931
116	0x3e208aa1	0.15677883
117	0xbda3e484	-0.0800257
118	0x3d7f34d4	0.06230624
119	0xbdb72f0f	-0.089445226
120	0xbe7cda10	-0.24692559
121	0x3c73ee1e	0.0148883145
122	0x3cfc6653	0.03081051
123	0x3bf66387	0.007519189
124	0xbc189c49	-0.009314605
125	0x3e0c0141	0.13672353
126	0xbce57250	-0.02800861
127	0x3d387e33	0.045042228
128	0xbdef82e8	-0.1169489
129	0x3cb55c84	0.022138841
130	0xbd337bb7	-0.043819156
131	0xbe0d959a	-0.138266
132	0xbd3b9d31	-0.045804206
133	0xbc492b1a	-0.012278343
134	0x3e55a373	0.20863132
135	0xbe5fe388	-0.2186414
136	0xbe000d50	-0.12505078
137	0x3dd3fcbf	0.10350942
138	0x3d5ad859	0.05342898
139	0x3e12562d	0.14290686
140	0x3e1db9bf	0.15402888
141	0xbc91ed22	-0.017813269
142	0xbcd1261b	-0.025530865
143	0x3b8ffece	0.0043943888
144	0x3e679e0e	0.22618887
145	0x3e1d7835	0.15377887
146	0xbd07150b	-0.032979053
147	0xbe332047	-0.17492782
148	0xbd1a28bd	-0.037636507
149	0xbd84a955	-0.0647761
150	0xbcf24d3b	-0.029577842
151	0xbd824051	-0.06359924
152	0x3c8767f0	0.016529053
153	0x3dc1cbf8	0.09462732
154	0xbbd35663	-0.006449507
155	0x3c6ff754	0.01464637
156	0xbcf6a763	-0.030109113
157	0x3d0ae40e	0.033908896
158	0xbed2a5ed	-0.41142216
159	0xbd7ce0c1	-0.06173778
160	0xbd1f7856	-0.03893312
161	0x3cc2c764	0.023776717
162	0x3d3d5ba1	0.046229962
163	0x3d50a7fa	0.050941445
164	0xbe03198e	-0.12802717
165	0x3d962552	0.07331337
166	0xbd6a6e6c	-0.057234213
167	0xbd4ba6df	-0.049719688
168	0xbe12141a	-0.1426548
169	0xbbd83c5c	-0.0065989923
170	0xbd776495	-0.060398657
171	0x3cfc6049	0.030807631
172	0x3d8313aa	0.06400235
173	0xbcaa4a77	-0.02078746
174	0xbd271127	-0.040787842
175	0xbe14844b	-0.14503591
176	0xbe71c43b	-0.23610012
177	0x3e059c75	0.13047965
178	0x3cc7872d	0.024356449
179	0xbaa1a30d	-0.0012331918
180	0x3db0a4c8	0.086251795
181	0x3db30543	0.08741238
182	0x3e49b314	0.19697219
183	0xbcd18370	-0.02557537
184	0xbdb16ebe	-0.086637005
185	0xbe0a506a	-0.13507238
186	0xbca1a332	-0.019731138
187	0x3d003064	0.03129615
188	0xbc261742	-0.010137381
189	0x3c886687	0.016650451
190	0xbdd45299	-0.10367317
191	0xbd260e64	-0.040541068
192	0x3c63de3c	0.013907965
193	0xbd42ae3a	-0.047529437
194	0xbc010569	-0.007874825
195	0xbdf81ab3	-0.121144675
196	0x3e16201d	0.14660688
197	0xbd93253d	-0.07184837
198	0x3dd62abc	0.1045737
199	0xbdec4cb3	-0.11538067
200	0x3bd5333b	0.0065063513
201	0xbe9c4caf	-0.30527255
202	0xbddee4e5	-0.10883502
203	0x3d8f1fff	0.06988525
204	0xbe4063c7	-0.18788062
205	0x3dbe6322	0.09296252
206	0xbdc4b478	-0.09604734
207	0x3c924e08	0.017859474
208	0x3cae3f67	0.021270467
209	0xbcf623c9	-0.03004636
210	0x3e01b919	0.12668265
211	0x3d598e3a	0.053114153
212	0x3d28654a	0.04111222
213	0x3e1b9054	0.15191776
214	0x3dcb1447	0.09915977
215	0x3ce7dada	0.028302599
216	0x3d19a7cb	0.037513535
217	0xbe12e099	-0.1434349
218	0xbe165556	-0.1468099
219	0xbd28184d	-0.0410388
220	0x3e0a3529	0.13496841
221	0x3e5edaa0	0.21763086
222	0x3e06310d	0.13104649
223	0x3e036f0b	0.12835328
224	0x3d6075c6	0.054799818
225	0x3c906359	0.017625498
226	0x3e25a532	0.16176298
227	0xbd42928a	-0.04750303
228	0xbdc25a93	-0.09489932
229	0x3debd695	0.11515538
230	0x3db0ccdf	0.08632826
231	0x3d5097c9	0.050926004
232	0xbd666de5	-0.056257147
233	0xbdc6e68f	-0.09711944
234	0x3da10453	0.07862153
235	0x3cf4eec5	0.02989901
236	0xbe401f1f	-0.18761872
237	0x3ce36d4b	0.027762076
238	0x3d8824ec	0.06647667
239	0xbe325d37	-0.17418371
240	0xbdc6a4e9	-0.09699423
241	0xbd9d5e0a	-0.07683952
242	0x3e074919	0.13211478
243	0xbe69d12e	-0.22833702
244	0xbb3d41f5	-0.0028878425
245	0xbc82a31f	-0.015946923
246	0xbd75b4ce	-0.059986882
247	0xbcbfb1fb	-0.023400297
248	0xbd29ea34	-0.04148312
249	0x3deff203	0.11716082
250	0x3cdf9bfa	0.027296055
251	0xbda05521	-0.07828737
252	0xbdef4a92	-0.11684145
253	0x3b701696	0.0036634556
254	0xbe13e177	-0.14441477
255	0x3d41479b	0.04718743

hidden_layer2.bias f4 [32]
0	0xbe60084f	-0.2187817
1	0x3b728125	0.0037003246
2	0xbd122e8b	-0.035688918
3	0xbc92ee56	-0.017935913
4	0x3e651918	0.22372854
5	0x3c3d95c6	0.011571353
6	0x3debcfe8	0.11514264
7	0x3dc49dad	0.09600387
8	0x3e49240d	0.19642659
9	0xbe222d1b	-0.15837519
10	0x3da680af	0.08130013
11	0xbda6fd84	-0.08153823
12	0x3dd5b074	0.104340464
13	0xbc53380e	-0.012891782
14	0xbd08856b	-0.033330362
15	0x3d90a113	0.070619725
16	0xbe0625ef	-0.13100408
17	0x3c97e9e7	0.01854415
18	0xbd064b80	-0.032786846
19	0xbdca62b1	-0.09882105
20	0xbd9531b3	-0.0728487
21	0xbce95ac5	-0.028485665
22	0xbe75b26c	-0.23993844
23	0xbc43df00	-0.011955023
24	0xbdd376bd	-0.10325382
25	0xbdb6e014	-0.08929458
26	0x3cc359c4	0.023846515
27	0xbde054f2	-0.10953702
28	0x3de12d99	0.10995025
29	0x3d9fff86	0.07812409
30	0x3e6d5f94	0.23180991
31	0xbd87042f	-0.06592595
