Comparison/TrainedModel/10-0.0001-18-Agent/node_agent_8.pth (torch, 27194 bytes, 6 tensors)

input_layer.weight f4 [32, 59]
0	0x3d2e24e5	0.042515654
1	0xbc8e0494	-0.017336167
2	0x3e10082b	0.14065616
3	0xbd97a1c5	-0.07403902
4	0xbcd87ecd	-0.02642765
5	0x3c8e4d60	0.01737088
6	0xbcf3c242	-0.029755715
7	0x3daf95f7	0.085735254
8	0x3d9faed4	0.07797018
9	0x3f22d456	0.6360525
10	0x3b9b4a94	0.004739115
11	0x3f239636	0.6390108
12	0x3d1df96c	0.038567945
13	0xbdd8b4cf	-0.105813615
14	0x3cd1e5e5	0.025622318
15	0xbe111d9d	-0.14171453
16	0xbdfe0aaa	-0.12404378
17	0xbe0a146c	-0.13484353
18	0x3f041394	0.51592374
19	0x3f24bd58	0.64351416
20	0x3f27649c	0.6538789
21	0xbd04f9ca	-0.03246478
22	0x3f2853b8	0.65752745
23	0xbe2dfd59	-0.16991176
24	0x3e4c2cf8	0.19939029
25	0x3c7f3035	0.015575458
26	0xbc3ea53b	-0.011636074
27	0x3c91b13e	0.017784711
28	0xbce900f7	-0.028442843
29	0x3dab5f98	0.083678424
30	0x3d14615a	0.036225654
31	0xbe853a66	-0.26021117
32	0xbe733c22	-0.23753408
33	0x3e32b254	0.1745084
34	0x3e7fdcfd	0.24986644
35	0xbd988500	-0.07447243
36	0x3eebfd13	0.46091518
37	0xbef0fd6f	-0.47068354
38	0xbde63a53	-0.11241593
39	0x3c55f06d	0.01305781
40	0xbc445e47	-0.011985368
41	0x3ea5219a	0.32252198
42	0x3d085020	0.03327954
43	0x3daf1bcb	0.08550223
44	0x3f0304da	0.5117928
45	0xbe01b42a	-0.12666383
46	0xbe230019	-0.15918006
47	0xbea4a268	-0.32155156
48	0x3f227a2a	0.6346766
49	0x3da37cb3	0.07982769
50	0x3f048341	0.5176278
51	0xbd602f28	-0.05473247
52	0x3e0b9e3a	0.13634577
53	0xbe5d5138	-0.21613014
54	0xbd823da2	-0.06359412
55	0x3d7fa9ff	0.06241798
56	0xbe3a2b3d	-0.18180557
57	0xbe117cc4	-0.1420775
58	0x3ba60f28	0.0050677247
59	0x3d95fd34	0.07323685
60	0x3ad1f8a7	0.0016019539
61	0xbd2d051f	-0.042241212
62	0xbdbb3b49	-0.09142167
63	0x3d8d3b67	0.06896096
64	0x3c74ee0b	0.014949332
65	0xba8c8327	-0.0010720239
66	0x3d4c2fe2	0.049850352
67	0x3e690eb0	0.22759509
68	0x3dafeef5	0.08590499
69	0xbdc68a55	-0.096943535
70	0x3ec38dbf	0.3819408
71	0x3c029440	0.007969916
72	0xbd4e2d63	-0.050336253
73	0x3a9c8305	0.0011940902
74	0x3e5151b7	0.20441328
75	0xbe0775b9	-0.13228501
76	0x3dd6dd3f	0.10491418
77	0x3e2f7ae6	0.17136726
78	0x3f0056bc	0.50132346
79	0x3f0d89ec	0.5528858
80	0x3d2272b3	0.039660167
81	0x3e9377e5	0.2880241
82	0x3e2f81b4	0.17139322
83	0x3e23a508	0.15980923
84	0xbda24cb1	-0.07924784
85	0x3e9925e5	0.29911724
86	0xbd6422e3	-0.055697333
87	0xbc3e8924	-0.011629377
88	0x3dc119eb	0.094287716
89	0xbd72ebab	-0.05930678
90	0x3e20531d	0.15656705
91	0xbe17a57d	-0.14809223
92	0xbebc6d82	-0.36802298
93	0x3e3c1916	0.18368945
94	0x3f023e25	0.50876075
95	0x3ef5437b	0.47903046
96	0xbe05352a	-0.13008562
97	0xbc896e53	-0.01677624
98	0xbe7dafdc	-0.24774116
99	0xbb83edb5	-0.0040261396
100	0x3cf972c9	0.030450242
101	0xbda2631d	-0.079290606
102	0xbd88fab6	-0.06688444
103	0x3f1a0e5e	0.6017817
104	0xbd20a3e0	-0.039218783
105	0x3d4e2895	0.05033167
106	0x3e0cf157	0.13763939
107	0x3ed54909	0.41657284
108	0x3e06a89d	0.13150258
109	0x3eb898fb	0.36054215
110	0xbb41ffae	-0.002960186
111	0xbdb630e1	-0.08896042
112	0x3dd1d99d	0.102465846
113	0x3d0e0557	0.03467306
114	0x3e55a0ad	0.20862074
115	0xbda8c0a8	-0.08239871
116	0xbd26eec4	-0.04075505
117	0x3e403ae5	0.18772466
118	0x3e6018a3	0.21884398
119	0x3d16aafb	0.036784153
120	0x3d80d166	0.062899396
121	0x3d834e7b	0.06411453
122	0x3dc91da1	0.098201044
123	0x3de84e83	0.113431
124	0xbdba84c3	-0.091073535
125	0x3d599b10	0.053126395
126	0x3c7f6e87	0.015590317
127	0x3ee15b88	0.44015145
128	0xbce3420a	-0.02774145
129	0x3ed888d6	0.42291898
130	0xbe0a6f6f	-0.13519071
131	0xbe303a5c	-0.17209762
132	0x3deda522	0.11603762
133	0xbca03531	-0.019556614
134	0x3e03f22f	0.12885354
135	0x3d0a28d8	0.033730358
136	0x3eb57ce0	0.35446835
137	0x3e757c86	0.23973283
138	0x3e669a4b	0.22519796
139	0xbe950b95	-0.291104
140	0x3ee54b46	0.44783992
141	0x3d0e775b	0.034781795
142	0x3e889c0f	0.26681563
143	0xbd4a6db2	-0.04942102
144	0x3d5451bf	0.05183577
145	0x3dd7e2c7	0.10541301
146	0x3e1e11f5	0.15436538
147	0x3e3ffc10	0.18748498
148	0x3d0e21ec	0.03470032
149	0x3e3d0ab1	0.1846111
150	0xbea2e7f3	-0.31817588
151	0xbef16979	-0.47150782
152	0x3e40e7fa	0.18838492
153	0x3eefe269	0.46852425
154	0x3ef2cc0f	0.4742131
155	0xbd34731d	-0.044055093
156	0xbdb9a535	-0.09064714
157	0xbea3a77d	-0.3196372
158	0x3df6e127	0.12054663
159	0xbc9dfc25	-0.019285271
160	0xbcde5aa5	-0.027142832
161	0x3debddd2	0.11516918
162	0x3ef7d46f	0.4840426
163	0x3de36ce8	0.111047566
164	0x3c9ce5d0	0.019152552
165	0xbe3bb89e	-0.18332145
166	0x3ec3ba05	0.3822786
167	0xbd34a3d9	-0.04410157
168	0x3ec88161	0.39161208
169	0x3e062f28	0.13103926
170	0x3dd9ef38	0.106413305
171	0x3e2ce7c4	0.16885287
172	0x3da49f46	0.080381915
173	0xbe601033	-0.2188118
174	0x3e3d4aff	0.1848564
175	0x3dab16ef	0.083539836
176	0x3dd60d38	0.1045174
177	0xbdff9d6f	-0.124812
178	0xbd695410	-0.056964934
179	0xbd031fb3	-0.032012653
180	0x3d3a8860	0.045540214
181	0xbe1c759f	-0.15279244
182	0xbe3d02c7	-0.1845809
183	0x3e44a4a3	0.19203429
184	0x3e283a67	0.16428529
185	0x3d325336	0.043536387
186	0xbd53f428	-0.051746517
187	0x3db79707	0.08964353
188	0xbdacd1bc	-0.08438441
189	0x3d63ed5a	0.055646278
190	0xbd83b285	-0.06430534
191	0x3dc0c729	0.09412987
192	0xbe445083	-0.19171338
193	0xbc8b638d	-0.017015243
194	0x3d8efd1a	0.06981869
195	0x3cf2671f	0.029590188
196	0xbe32b28c	-0.17450923
197	0xbdee97ba	-0.11650033
198	0xbda58c32	-0.08083381
199	0xbca66f2f	-0.020316688
200	0xbd56df7b	-0.05245922
201	0xbd6f07d0	-0.05835706
202	0xbdbcf5f3	-0.092265986
203	0xbd054342	-0.032534845
204	0x3de08302	0.10962488
205	0x3d1da678	0.038488835
206	0xbe0e4073	-0.13891773
207	0x3d303483	0.04301883
208	0xbd8faa0c	-0.07014856
209	0x3ce8e68b	0.028430244
210	0x3c57b50f	0.013165726
211	0x3d484f97	0.048904028
212	0xbe039109	-0.12848295
213	0xbd21df86	-0.03951981
214	0xbdb0dc0f	-0.08635723
215	0xbcdb790b	-0.026791116
216	0x3d3c54f3	0.04597945
217	0x3a8ce412	0.0010749123
218	0xbb96ceb6	-0.0046022786
219	0x3d60c333	0.054873656
220	0x3b9af3e7	0.0047287825
221	0xbdf22a5f	-0.11824488
222	0xbdb811a6	-0.08987741
223	0x3e03186c	0.12802285
224	0x3c211868	0.009832479
225	0xbe4c199a	-0.19931641
226	0x3df442a2	0.11926772
227	0x3d9d6c60	0.076866865
228	0x3e1fa5d7	0.15590607
229	0x3e1eda16	0.1551288
230	0x3dd8c7ca	0.10584982
231	0x3c9b231b	0.018937638
232	0x3d1147d1	0.03546888
233	0xbda3c193	-0.07995906
234	0xbc71004a	-0.014709542
235	0xbe738a15	-0.23783143
236	0xbd3cc943	-0.046090376
237	0xbcfb7b3d	-0.030698413
238	0xbdb1c7e3	-0.086807035
239	0x3dc6f2dc	0.097142905
240	0x3d6023ff	0.05472183
241	0x3deafaa3	0.114735864
242	0xbd89238b	-0.066962324
243	0xbd9dfaab	-0.07713827
244	0xbcda4ab0	-0.026646942
245	0x3f041a9f	0.5160312
246	0xbd8f9df8	-0.07012552
247	0x3e69014b	0.227544
248	0x3d3ef15f	0.04661691
249	0x3ba0917b	0.004900155
250	0xbd0436ff	-0.03227901
251	0xbd647865	-0.05577888
252	0x3dae84c3	0.08521416
253	0x3e711b05	0.23545463
254	0x3ed925a3	0.42411527
255	0x3eeed5a6	0.46647376

input_layer.bias f4 [32]
0	0x3efc022e	0.49220413
1	0x3ec0cd21	0.376565
2	0x3edf5dfe	0.43626398
3	0xbdd65e20	-0.10467172
4	0x3eed6b57	0.46370956
5	0x3f29fb18	0.66398764
6	0x3f2800b9	0.656261
7	0x3f0ce7b3	0.55041045
8	0x3edd2ebe	0.43199724
9	0x3eeb3750	0.45940638
10	0x3ea23f64	0.31688988
11	0x3f02b6e9	0.5106035
12	0x3f07e5e2	0.5308515
13	0x3f098db4	0.53731847
14	0x3f04e83d	0.5191687
15	0x3f0563db	0.5210549
16	0x3ed2b653	0.41154727
17	0x3ee8904b	0.45422587
18	0x3ed7faf2	0.42183644
19	0x3f072bff	0.5280151
20	0x3edd051e	0.43167967
21	0x3f0ca12b	0.5493342
22	0x3dcb49d6	0.099261925
23	0x3ed48e6c	0.4151491
24	0x3f07aa02	0.52993786
25	0x3f003153	0.5007526
26	0x3ede19b1	0.43378976
27	0x3f06b96d	0.5262669
28	0x3e8040a3	0.25049314
29	0x3def1122	0.1167319
30	0x3f392d38	0.72334623
31	0x3ef5d917	0.4801719

hidden_layer1.weight f4 [64, 32]
0	0x3ed6c4c5	0.41946998
1	0x3f18e655	0.5972646
2	0x3f063ddc	0.5243814
3	0x3d5e2575	0.05423494
4	0x3ec8b8eb	0.3920358
5	0x3ef2ba7f	0.4740791
6	0x3e9a8de6	0.30186385
7	0x3e6229b4	0.22086221
8	0x3e90f11d	0.28308955
9	0x3e92373d	0.28557768
10	0x3d410b89	0.04713014
11	0x3dc77346	0.097387835
12	0x3ee0e731	0.43926385
13	0x3ee21fec	0.4416498
14	0x3e8c053d	0.27347746
15	0x3eab39da	0.33442575
16	0x3ec42f0a	0.38317138
17	0x3e9a2691	0.3010755
18	0x3f380c17	0.7189345
19	0x3ed91ab2	0.4240318
20	0x3ec876b6	0.3915307
21	0x3ecc092e	0.39850754
22	0x3e2a62d6	0.16639265
23	0xbd2e921d	-0.042619813
24	0x3eebf2c6	0.4608366
25	0x3ed57122	0.41687876
26	0x3ee0a58b	0.438763
27	0x3e4ba15a	0.1988577
28	0xbe436bc0	-0.19084072
29	0x3cc3e8d1	0.023914726
30	0x3f0c0350	0.54692554
31	0x3f17519d	0.59108907
32	0x3c9c83f7	0.019105894
33	0x3e36d846	0.1785594
34	0x3e95273b	0.29131493
35	0x3d918c41	0.071068294
36	0x3ecf879f	0.40533158
37	0x3de86573	0.11347475
38	0x3e08a3f6	0.13343796
39	0x3e5dae2d	0.21648474
40	0x3e5ec853	0.21756105
41	0x3deeea79	0.11665816
42	0x3e5788b5	0.21048243
43	0xbe7c4f1e	-0.24639556
44	0x3dcd77b2	0.10032596
45	0x3ea03e34	0.31297457
46	0x3dda4c24	0.10659054
47	0x3ed8592d	0.42255536
48	0x3ec3dc72	0.38254124
49	0x3e60ff06	0.21972284
50	0x3e503cf7	0.20335756
51	0x3e588692	0.21145085
52	0x3e7ad9b5	0.24497111
53	0x3eb598a9	0.35468033
54	0xbd551e0b	-0.052030604
55	0xbe473414	-0.1945346
56	0x3ebb0985	0.365307
57	0x3df733b8	0.120704114
58	0x3d56e1a0	0.052461267
59	0x3e9caa31	0.30598596
60	0xbe933b94	-0.28756392
61	0xbed0a014	-0.4074713
62	0x3d1c83ce	0.038211636
63	0x3eb9e575	0.36307874
64	0x3e7823ce	0.24232408
65	0x3f2accb2	0.6671859
66	0x3f4cafd6	0.79955804
67	0xbe91ab34	-0.2845093
68	0x3e6345b5	0.2219456
69	0x3d9de145	0.077089824
70	0x3e090739	0.13381661
71	0x3eb848e3	0.35993108
72	0xba94b413	-0.001134517
73	0x3e1ea08d	0.15490933
74	0xbe0d7a25	-0.13816126
75	0xbe4e337c	-0.20136827
76	0x3eab3402	0.33438116
77	0x3e77f647	0.24215041
78	0x3e76f86b	0.24118201
79	0x3f13dffd	0.57763654
80	0x3ed16c9a	0.4090317
81	0x3e658271	0.2241304
82	0x3e7b463e	0.24538514
83	0x3df59fc8	0.119933665
84	0xbd59c67a	-0.053167798
85	0x3e93f640	0.2889881
86	0xbdf3b56f	-0.1189984
87	0x3db1c764	0.08680609
88	0x3ea949e1	0.33064178
89	0x3e32515b	0.17413847
90	0x3e334ebb	0.17510502
91	0x3df60de1	0.12014366
92	0x3cb3fbc3	0.021970635
93	0xbe818dce	-0.253035
94	0x3e4875e2	0.19576219
95	0x3e9f76d5	0.3114535
96	0x3ea977ee	0.33099312
97	0x3ef13b6c	0.47115648
98	0x3f0b95a0	0.54525185
99	0x3d931bba	0.07183023
100	0x3f13fa04	0.5780337
101	0x3ea073b1	0.31338266
102	0x3ecf5b11	0.40499166
103	0x3f44ccdb	0.76875085
104	0x3f04c7fb	0.51867646
105	0x3efdc744	0.4956609
106	0x3f27088f	0.65247434
107	0x3db90029	0.09033234
108	0x3f111c28	0.5668359
109	0x3ed0a9ab	0.40754446
110	0x3ee176ae	0.44035858
111	0x3f2fe59a	0.6870972
112	0x3f0325d7	0.51229614
113	0x3ed1656c	0.4089769
114	0x3ecb9b2d	0.39766827
115	0x3f1d78a8	0.6151223
116	0x3f1f7995	0.62294894
117	0x3f0fc2b5	0.56156474
118	0xbe23b53e	-0.15987107
119	0x3e1c3ede	0.15258357
120	0x3ed66bad	0.41879025
121	0x3f31b631	0.6941863
122	0x3f009700	0.5023041
123	0x3eb1a493	0.34695873
124	0x3d89f3c1	0.067359455
125	0xbd907de5	-0.070552625
126	0x3f387100	0.72047424
127	0x3eec952c	0.4620756
128	0x3ebf5364	0.3736831
129	0x3f059e68	0.52194834
130	0x3ea71ee3	0.32640752
131	0x3d83f9af	0.06444108
132	0x3ed2c7de	0.41168112
133	0x3e091b08	0.13389218
134	0x3e9f7d4f	0.3115029
135	0x3f02f271	0.51151186
136	0x3eea0cd2	0.45712906
137	0x3ee6add1	0.45054486
138	0x3daef29b	0.08542367
139	0xbd669366	-0.056292914
140	0x3eb25c41	0.3483601
141	0x3ee9d54c	0.45670545
142	0x3ed1ccfd	0.40976706
143	0x3ebf583f	0.37372014
144	0x3f015eb2	0.5053512
145	0x3ea6f4bc	0.32608593
146	0x3e2a78f3	0.16647701
147	0x3e8f257e	0.27958292
148	0x3ecc37f5	0.39886442
149	0x3ecd4075	0.4008824
150	0x3e290c45	0.16508587
151	0xbde037ce	-0.10948144
152	0x3f0ffe15	0.56247073
153	0x3eae46a3	0.34038267
154	0x3eba59d7	0.36396667
155	0x3ed09b7d	0.40743628
156	0xbde67f28	-0.11254722
157	0xbd7fb6ad	-0.062430073
158	0x3ea07c4c	0.3134483
159	0x3eab3ee8	0.3344643
160	0x3ef8af2e	0.48571151
161	0x3e4645e9	0.19362606
162	0x3eabb113	0.33533534
163	0xbdcc3217	-0.099704914
164	0x3eddcac8	0.43318772
165	0x3ededc25	0.43527332
166	0x3f0cc5ef	0.5498952
167	0x3ee41d73	0.44553718
168	0x3f11c4e9	0.56941086
169	0x3eb8633f	0.3601322
170	0x3e25d8a2	0.1619592
171	0x3e8ad3ee	0.27114815
172	0x3f293e01	0.66110235
173	0x3ed3a5a9	0.41337326
174	0x3ef16063	0.4714385
175	0xbb833273	-0.0040038167
176	0x3dc5c27e	0.09656237
177	0x3ef78ae4	0.48348153
178	0x3f136f22	0.5759145
179	0x3ec935e9	0.39298943
180	0x3e5b325d	0.21405931
181	0x3f049bac	0.51800036
182	0xbc4f3591	-0.012647049
183	0x3e79ea13	0.24405698
184	0x3e5c7670	0.21529555
185	0x3ed53f3c	0.41649806
186	0x3f158127	0.58400196
187	0x3ef49842	0.47772413
188	0x3d5ab3ae	0.053394012
189	0x3ea873b8	0.32900786
190	0x3f1075c4	0.56429696
191	0x3eeb5af1	0.4596782
192	0x3e08ac88	0.13347065
193	0x3edb791a	0.4286583
194	0x3f1ea182	0.6196519
195	0x3c873248	0.016503468
196	0x3e3e49b5	0.18582805
197	0x3da80583	0.08204176
198	0x3e6ad258	0.22931802
199	0x3e804858	0.25055194
200	0x3ebfe437	0.37478802
201	0x3e8ade0c	0.27122533
202	0xbed807ba	-0.42193395
203	0xbecbdfb6	-0.39819115
204	0x3e838238	0.25685287
205	0x3eaeac8e	0.34116024
206	0x3e171607	0.14754497
207	0x3ed87dcd	0.42283478
208	0x3ed024ef	0.40653178
209	0x3e69ec58	0.22844064
210	0x3e9c4c1b	0.30526814
211	0x3dcb3dc0	0.09923887
212	0x3ee26faf	0.44225833
213	0x3ec1a872	0.37823826
214	0xbe019623	-0.12654929
215	0xbec2b943	-0.38031968
216	0x3de70c7f	0.1128168
217	0x3e48b381	0.19599725
218	0x3db44050	0.08801329
219	0x3e89f6f7	0.26946232
220	0xbf1f6f1b	-0.6227891
221	0xbefcf5cc	-0.49406278
222	0x3e1ea471	0.15492417
223	0x3e99f6e4	0.30071175
224	0x3e64f19a	0.22357789
225	0x3cbd53ba	0.023111213
226	0xbd97f5bc	-0.07419917
227	0x3e2a2918	0.16617239
228	0x3d6211b7	0.055192675
229	0x3ebd0899	0.36920622
230	0x3d9ac10e	0.075563535
231	0xbcf68971	-0.030094834
232	0xbdaabf63	-0.08337285
233	0xbdf0af47	-0.117521815
234	0xbc97f574	-0.018549658
235	0x3e7cc125	0.24683054
236	0x3d775046	0.06037929
237	0x3d07d807	0.033165004
238	0xbd8b80c7	-0.06811672
239	0xbd03b460	-0.03215444
240	0xbdbf8306	-0.093511626
241	0x3d320db2	0.043470092
242	0x3e82c14a	0.25538093
243	0x3d84ed7d	0.0649061
244	0x3d6dabae	0.058025055
245	0xbe8a5e2c	-0.27024972
246	0x3e4345e8	0.19069636
247	0xbd940fbb	-0.07229563
248	0xbdb6f0b0	-0.08932626
249	0x3c8d73ed	0.017267192
250	0x3e512dee	0.20427677
251	0x3d156bd0	0.03647977
252	0x3e52ec83	0.20598035
253	0x3e6b212b	0.22961871
254	0x3e8a134d	0.2696785
255	0xbe37d25e	-0.17951342

hidden_layer1.bias f4 [64]
0	0x3ebafd96	0.36521596
1	0x3e5efd27	0.21776257
2	0x3e372f45	0.17889126
3	0x3e6634fe	0.22481152
4	0x3ec823c5	0.3908979
5	0x3ecbf7b6	0.39837426
6	0xbc8c2dba	-0.017111648
7	0x3d5f49e5	0.05451383
8	0x3f0f3b2d	0.5594967
9	0x3e7b7e21	0.24559833
10	0x3e4ec5c4	0.20192629
11	0x3ef8a583	0.48563775
12	0x3e02a613	0.12758665
13	0x3eaf1e96	0.34203023
14	0x3e7990e7	0.24371682
15	0x3e4c5477	0.19954096
16	0x3d522858	0.051308006
17	0x3dd40d89	0.10354144
18	0x3e00d813	0.12582426
19	0x3d209dd5	0.03921302
20	0x3ec556df	0.3854284
21	0x3e88e93b	0.2674044
22	0x3e2431a9	0.16034569
23	0x3e13f76f	0.14449857
24	0x3e9161fc	0.2839507
25	0x3eec9fde	0.4621572
26	0x3e25fa15	0.1620868
27	0x3da3aee2	0.079923406
28	0x3d9c08d4	0.07618871
29	0x3e988adc	0.2979344
30	0xbe5356dd	-0.20638604
31	0x3e8f3760	0.27971935
32	0x3e587750	0.21139264
33	0x3f01421f	0.5049152
34	0x3e90b65b	0.28264126
35	0x3e7564b9	0.23964204
36	0x3e0e4971	0.13895203
37	0x3ec34db4	0.3814522
38	0x3daeb3b2	0.08530368
39	0xbc2472c2	-0.010037126
40	0x3e15dcf5	0.1463507
41	0x3eadd75e	0.33953375
42	0x3e8b0df1	0.27159074
43	0x3e1627c5	0.14663608
44	0x3d35e658	0.044409126
45	0x3eac725f	0.33681008
46	0x3e8f1835	0.27948156
47	0x3c21b494	0.009869713
48	0x3ea4843e	0.32132143
49	0x3e3e9b9b	0.18614046
50	0x3e6a37bc	0.22872823
51	0xbe1b500c	-0.15167254
52	0x3de24155	0.11047617
53	0x3efdc4d3	0.49564227
54	0x3e876100	0.26441193
55	0x3ebe8613	0.37211666
56	0x3eb95b6e	0.36202568
57	0xbdd7fcaf	-0.105462424
58	0x3d627244	0.055284753
59	0x3f1595e2	0.5843183
60	0x3e7ad8b5	0.2449673
61	0x3e84da18	0.25947642
62	0x3dbd6203	0.0924721
63	0x3d989a89	0.0745135

hidden_layer2.weight f4 [32, 64]
0	0x3ed9bfc7	0.42529127
1	0x3ea47b81	0.32125476
2	0x3edee58a	0.435345
3	0x3f0c50a0	0.54810524
4	0x3e87df49	0.2653754
5	0x3e74c7ad	0.23904295
6	0x3ed1924b	0.40931925
7	0xbe0dc1f2	-0.13843516
8	0x3ec7bf48	0.39013124
9	0x3e8a218a	0.26978713
10	0x3e9b5a7b	0.3034247
11	0x3eafb4df	0.3431768
12	0x3f20c3d9	0.6279884
13	0x3ee31874	0.44354594
14	0x3e96e2c6	0.2946989
15	0x3ea52aa7	0.32259104
16	0x3d07fdf3	0.03320117
17	0x3e8eec90	0.27914858
18	0xbe8b3a26	-0.271928
19	0xbb5cea0d	-0.003370884
20	0x3e5734e2	0.21016267
21	0x3ee91b42	0.4552861
22	0xbe98ecf5	-0.29868284
23	0xbd968e30	-0.07351339
24	0x3ed8d62d	0.42350903
25	0x3e9d3d78	0.3071096
26	0xbc2f74af	-0.010708972
27	0xbefddc61	-0.49582198
28	0x3e0fb9c9	0.14035715
29	0x3ee6bfb4	0.45068133
30	0xbd837f35	-0.06420747
31	0x3e616163	0.22009806
32	0x3e5b2b61	0.21403266
33	0x3ee1391d	0.43988886
34	0x3ee0d80f	0.4391484
35	0x3ebf2b2b	0.37337622
36	0x3d8d8b7d	0.06911371
37	0x3ed27908	0.41107965
38	0xbddd60db	-0.10809489
39	0x3f006d43	0.5016672
40	0xbebb2d5d	-0.36558047
41	0x3e8f6585	0.2800714
42	0x3e6f11b5	0.23346598
43	0x3ecf9e38	0.405504
44	0xbc470366	-0.012146806
45	0x3eab9b29	0.33516815
46	0x3f05abb5	0.5221513
47	0x3e3f1f90	0.18664384
48	0x3ef53907	0.4789507
49	0x3e579d21	0.21056034
50	0x3ef1f18a	0.47254592
51	0xbdf1b461	-0.11801983
52	0x3c9dcd1e	0.019262847
53	0x3eaeeda5	0.34165683
54	0x3ee3e10a	0.4450763
55	0x3f1214d9	0.5706306
56	0x3d445991	0.04793698
57	0xbda43e89	-0.0801974
58	0xbea1b3ec	-0.31582582
59	0x3ef9ce4a	0.487902
60	0x3edfed08	0.43735528
61	0x3c3f8fe2	0.011692019
62	0xbf0c9130	-0.5490904
63	0x3ef70659	0.4824703
64	0x3c73559a	0.014851952
65	0xbe5b7299	-0.21430434
66	0x3e13116b	0.14362113
67	0xbe87e116	-0.26538914
68	0xbb0c4b59	-0.0021407215
69	0x3e3c8a86	0.18412217
70	0x3e776f3c	0.24163526
71	0xbe58233d	-0.21107192
72	0x3e4abfae	0.19799682
73	0x3ce92fb2	0.028465126
74	0x3ab7e048	0.0014028633
75	0x3d8b09dd	0.06788991
76	0x3e23fd0e	0.16014501
77	0x3d5e2bb3	0.054240894
78	0x3d5192f0	0.05116552
79	0x3d8e1b2e	0.06938778
80	0xbd3cbc30	-0.046077907
81	0x3d1cfe8e	0.0383287
82	0x3e6d62e3	0.23182254
83	0xbcd86d25	-0.026419232
84	0x3dadf36f	0.08493697
85	0x3aebea29	0.0017998862
86	0x3e635214	0.22199279
87	0x3de29632	0.11063804
88	0x3e0d869f	0.13820885
89	0x3e234cd7	0.15947281
90	0xbd578a43	-0.05262209
91	0x3e1791d0	0.14801717
92	0xbd1ec6af	-0.0387637
93	0x3bd4a007	0.0064888033
94	0xbd706d54	-0.058698013
95	0x3e3bb5b6	0.18331036
96	0x3e57ee4e	0.21087
97	0xba7c5af6	-0.00096265913
98	0x3b16baeb	0.0022999595
99	0xbc3877d2	-0.011259036
100	0x3da1e2fa	0.079046205
101	0x3e12cf36	0.14336857
102	0xbdef0dad	-0.1167253
103	0x3cfc137f	0.030771015
104	0x3e713316	0.23554644
105	0xbdc67025	-0.096893586
106	0x3ed68df5	0.4190518
107	0x3d6219bf	0.055200335
108	0xbdf89b8c	-0.12139043
109	0x3e541260	0.20710135
110	0x3e65244b	0.22377126
111	0x3eabc279	0.33546808
112	0x3e3fa044	0.1871348
113	0x3daeec33	0.08541145
114	0xbdf9e872	-0.122025385
115	0x3e4d9e4d	0.20079918
116	0xbe0d2214	-0.13782531
117	0x3e3f0c27	0.1865698
118	0x3decd45c	0.11563942
119	0x3e215707	0.15755855
120	0x3e4db4dc	0.20088524
121	0xbe930e20	-0.28721714
122	0x3ea4fe68	0.32225347
123	0x3db17f2f	0.086668365
124	0x3dbe1de2	0.092830434
125	0xbddf3a33	-0.108997725
126	0x3e8c32f8	0.27382636
127	0x3d7c393e	0.061578028
128	0xbda0413a	-0.07824941
129	0xbe476e52	-0.19475678
130	0xbe09685b	-0.13418715
131	0xbd14c2e1	-0.036318664
132	0x3d939896	0.07206838
133	0xbd441d6d	-0.047879625
134	0xbe3567ee	-0.17715427
135	0x3c496a15	0.012293358
136	0x3c202186	0.009773618
137	0x3d688bf0	0.05677408
138	0xbca467e0	-0.020069063
139	0xbdbdf19a	-0.092745975
140	0xbdbd0c6b	-0.09230884
141	0xbd51e42a	-0.051242985
142	0xbb410b96	-0.0029456369
143	0x3d5cfdf2	0.05395312
144	0x3e14907c	0.14508241
145	0xbd8f1d46	-0.06988005
146	0x3cd51dd7	0.026015205
147	0xbe172280	-0.14759254
148	0x3cedfb44	0.029050477
149	0xbd532bdc	-0.0515555
150	0xbc052a81	-0.0081278095
151	0xba868f94	-0.0010266178
152	0x3db44401	0.08802033
153	0x3d661c9e	0.056179635
154	0x3c2d190a	0.010565052
155	0x3d3d6f82	0.04624892
156	0xbbee63d2	-0.007275083
157	0xbe2e7753	-0.17037706
158	0xbdad7eea	-0.084714726
159	0xbe47c48c	-0.1950857
160	0xbe3372b1	-0.1752422
161	0xbdb3849c	-0.087655276
162	0xbe2354eb	-0.15950362
163	0xbe1e12cf	-0.15436862
164	0xbd83946c	-0.064247936
165	0xbe1244d1	-0.14284064
166	0x3d3e6664	0.046484366
167	0xbc25e88d	-0.010126245
168	0xbddde35c	-0.10834381
169	0x3c8bcffe	0.017066952
170	0xbd05bcca	-0.032650746
171	0xbc82091f	-0.01587349
172	0x3c9cf0f0	0.019157857
173	0xbdd4b5d1	-0.10386241
174	0xbe0f234c	-0.13978308
175	0x3ba8cf56	0.0051516695
176	0xbda187ca	-0.07887228
177	0xbc938821	-0.018009247
178	0x3d89953c	0.06717917
179	0xbd8c3eea	-0.068479374
180	0x3e4e0e88	0.2012273
181	0x3c3f043f	0.011658727
182	0x3d6c93f4	0.057758287
183	0xbd7233a1	-0.05913127
184	0x3cb23cf4	0.02175758
185	0x3e122761	0.14272834
186	0x3de7723d	0.11301086
187	0x3e3084e9	0.17238201
188	0xbde468c0	-0.11152792
189	0x3df75c7a	0.120781854
190	0x3d25e1fa	0.04049871
191	0xbe2b0e00	-0.1670456
192	0x3eb5f4fc	0.3553847
193	0xbda26d3c	-0.07930991
194	0x3e8e3332	0.27773434
195	0x3e0fbb05	0.14036186
196	0x3ec8a745	0.39190117
197	0x3e745da1	0.23863842
198	0x3e458f25	0.19292887
199	0x3e04e6b8	0.12978637
200	0x3f016c1e	0.505556
201	0x3e673c4c	0.22581595
202	0x3edaa84b	0.42706522
203	0x3e2e7027	0.1703497
204	0x3e6ad291	0.22931887
205	0x3ea29755	0.31756082
206	0x3f054c12	0.520692
207	0x3e603899	0.2189659
208	0xbd3ebe80	-0.046568394
209	0x3edcc0c6	0.43115824
210	0x3e40cd81	0.18828394
211	0x3ea5b651	0.3236566
212	0x3e92bdd1	0.28660443
213	0x3eb69f9f	0.35668656
214	0x3ecde8dd	0.40216723
215	0x3ca1bdca	0.019743819
216	0x3e97ab4f	0.29622886
217	0x3ed3a60b	0.41337618
218	0xbdf91f85	-0.12164215
219	0x3efed6f3	0.49773368
220	0xbdb7b081	-0.08969212
221	0x3eeb717c	0.4598502
222	0x3e00c83d	0.12576385
223	0x3e967cad	0.29391995
224	0x3e5093e3	0.20368914
225	0x3ec8abe5	0.39193645
226	0x3e10f25b	0.14154951
227	0x3ea882d8	0.32912326
228	0xbd4e7eb6	-0.05041381
229	0x3ee89a0d	0.4543003
230	0xbe4a8f76	-0.19781289
231	0x3e7779c7	0.24167548
232	0x3eabd348	0.33559632
233	0x3ed4d62b	0.41569647
234	0x3ea60857	0.32428238
235	0x3e99f1df	0.30067345
236	0xbeb8c4d6	-0.36087674
237	0x3eb91d71	0.36155275
238	0xbb6c62f9	-0.0036069734
239	0x3d9f6905	0.07783703
240	0x3e3cf047	0.18451034
241	0x3e44ae58	0.19207132
242	0x3e911c89	0.28342083
243	0xbbc95df5	-0.0061452338
244	0x3e0c80a7	0.13720952
245	0x3ed1bb82	0.4096337
246	0x3ea8941b	0.32925496
247	0x3ea09ae2	0.31368166
248	0xbe1a018d	-0.15039654
249	0x3e9cc952	0.30622345
250	0xbd8e2241	-0.06940127
251	0x3eb19f3c	0.346918
252	0x3ec40c32	0.38290554
253	0x3d05bc6c	0.032650396
254	0x3e861270	0.26185942
255	0x3e91bce0	0.28464413

hidden_layer2.bias f4 [32]
0	0x3e8807d1	0.26568463
1	0x3c7dd7bd	0.015493331
2	0x3d8b87f5	0.06813041
3	0x3e9235c1	0.28556636
4	0x3d3191e3	0.04335202
5	0xbd77a2a4	-0.06045784
6	0xbdb65788	-0.08903414
7	0xbdd35ec6	-0.10320811
8	0x3d281d55	0.0410436
9	0x39801599	0.00024430154
10	0x3c848d5b	0.016180685
11	0x3ad5083f	0.0016253068
12	0xbd801d58	-0.06255597
13	0x3e8dbb98	0.27682185
14	0x3dcac866	0.09901504
15	0x3e57c597	0.21071468
16	0x3e46c6c5	0.19411762
17	0xbe2acc8f	-0.16679595
18	0xbda9740d	-0.08274088
19	0x3d22a392	0.039706774
20	0x3e1337d6	0.14376768
21	0xbccbc69c	-0.024874978
22	0x3d3b58de	0.045739047
23	0x3ddaa94d	0.10676823
24	0xbe5bc16b	-0.21460502
25	0x3dac9cfd	0.08428381
26	0xbe055b3f	-0.13023089
27	0xbe01a97b	-0.12662308
28	0x3d884049	0.066528864
29	0xbc3a4134	-0.011368085
30	0x3c02d744	0.007985894
31	0x3dd2a34d	0.102850534
