Comparison/TrainedModel/5-0.001-45-Agent/node_agent_9.pth (torch, 28090 bytes, 6 tensors)

input_layer.weight f4 [32, 66]
000000 68 18 21 3c 9a 19 4c be b6 19 df 3e 35 64 c9 3e
       0.009832479 -0.19931641 0.43574303 0.39334264
000010 0e dc f1 3e 16 da 1e 3e ca c7 d8 3d 1b 23 9b 3c
       0.472382 0.1551288 0.10584982 0.018937638
000020 d1 47 11 3d 93 c1 a3 bd 4a 00 71 bc 15 8a 73 be
       0.03546888 -0.07995906 -0.014709542 -0.23783143
000030 43 c9 3c bd 3d 7b fb bc e3 c7 b1 bd c2 6f 1f 3f
       -0.046090376 -0.030698413 -0.086807035 0.62279904
000040 01 00 8c 3e a3 fa ea 3d 7a aa 41 be 3e 43 de be
       0.27343753 0.114735864 -0.18912688 -0.43410677
000050 b0 4a da bc e3 2f b6 3e e0 42 7c 3e 81 68 91 be
       -0.026646942 0.3558341 0.24634886 -0.28400043
000060 5f f1 3e 3d 7b 91 a0 3b ff 36 04 bd 65 78 64 bd
       0.04661691 0.004900155 -0.03227901 -0.05577888
000070 c3 84 ae 3d 05 1b 71 3e cf 0d b3 bd 9e 9b 38 bd
       0.08521416 0.23545463 -0.08742868 -0.045070283
000080 9d 02 da bd ac ce 05 3e 27 41 a7 bd 7a 93 d3 bd
       -0.1064503 0.1306712 -0.08166724 -0.10330863
000090 07 77 01 bd 8f 99 7d bd bd a0 54 3e 77 4f 0a be
       -0.031607654 -0.061914023 0.20764442 -0.13506876
0000a0 d4 3d 86 3b 18 a3 d7 3e 55 cf 28 3c df 0b 3d 3e
       0.004096726 0.42116618 0.010303338 0.1846156
0000b0 e3 57 4b 3d 0b 66 26 3d 80 15 d2 bd 38 31 f8 3d
       0.049644362 0.04062466 -0.10258007 0.12118763
0000c0 3d 26 80 bc b3 d9 c2 3c 8b f6 82 b9 e3 2d 8f 3a
       -0.015643233 0.023785448 -0.0002497922 0.001092371
0000d0 ad 3b ec 3d ee fd bc 3c 9b 53 4d 3e 74 b0 a2 3d
       0.1153482 0.023070302 0.20051424 0.07943812
0000e0 1f 09 be 3e 14 a5 93 3d e7 90 28 bd 7d 84 52 3b
       0.37116334 0.072092205 -0.041153815 0.0032122426
0000f0 7a 41 f0 bd 17 74 30 3e b1 d0 2f 3d 4d 75 c4 3d
       -0.11731239 0.17231785 0.042923633 0.09592686
000100 1e ac 43 be b7 b8 48 3e 48 20 ab 3d 7a 27 f5 3d
       -0.19108626 0.19601713 0.083557665 0.1197042
000110 12 d2 dc 3e 65 65 5c 3e 0f f0 16 3e 49 54 25 bd
       0.4312902 0.21523054 0.14740013 -0.040363584
000120 3a 2a d7 bd c0 32 74 bd df c3 e4 3d cb 83 b8 ba
       -0.10506101 -0.05961871 0.11170172 -0.0014077363
000130 d3 fe 4f 3e 91 e9 12 3e b7 9c d7 3c 9f 33 30 bd
       0.20312051 0.14346911 0.026319845 -0.04301798
000140 f8 10 77 3c 1c e5 1b 3f ee e1 92 3e ea f4 91 3d
       0.015079729 0.6089647 0.28687996 0.07126792
000150 2b a2 83 bd 11 d7 ab be dd 6b 88 3e 78 f9 bb 3e
       -0.064274155 -0.3356252 0.26644793 0.36713767
000160 dc ec ef 3e fc ad 0b bb aa 66 25 3e 73 42 fa bd
       0.46860397 -0.002131342 0.16152444 -0.122197054
000170 9b d7 d0 bd 67 7d c8 3b 4c e5 3d 3e 73 82 b0 3d
       -0.101973735 0.0061184647 0.18544501 0.08618631
000180 17 57 ed 3d db c3 14 3e 43 58 2d 3d 74 0c 9c bb
       0.11588877 0.14527838 0.0423205 -0.0047622267
000190 ba 41 29 3d e8 40 5e bd b2 e9 a6 be 4f 9d 76 bd
       0.041322447 -0.05426112 -0.3260017 -0.060208615
0001a0 f8 63 d3 3e ea 56 65 3e 55 b6 d6 bd 66 7f 6c 3e
       0.41287208 0.22396436 -0.10483996 0.23095474
0001b0 8b 8c ac bd 84 d9 98 3c 50 ae 6e 3e c5 06 cd bd
       -0.08425244 0.018658407 0.23308682 -0.10011057
0001c0 98 c2 d2 bd 1d f8 b9 3d 61 b4 af bd 27 7e 8e bd
       -0.10291022 0.09080527 -0.085793264 -0.069576554
0001d0 ef bd 1a 3d 03 bd f6 bc c7 c8 46 bd d4 8e 9c 3d
       0.03777879 -0.030119425 -0.04853132 0.0764443
0001e0 93 3a 63 bd bd 0c c3 bb af 96 5b 3e ce af a7 3a
       -0.055475783 -0.0059524463 0.214442 0.0012793483
0001f0 ab 24 33 3d ed df c1 3d fd 81 df 3c 4f 30 bd 3d
       0.04373614 0.094665386 0.027283663 0.0923773
000200 a6 10 0a be e3 6b 48 be fd 48 8d bd 8f 9a a0 bd
       -0.13482913 -0.19572406 -0.06898687 -0.0784198
000210 41 e5 a6 3d 85 1f 51 be bf 65 01 3f bd 6b dc 3e
       0.081491955 -0.2042218 0.5054588 0.43050948
000220 62 1c e6 3e a8 26 01 bd 2b 62 25 3e 7b fb e3 3c
       0.4494353 -0.031531006 0.1615073 0.027829876
000230 fa 96 5a 3d 2f be 97 be 87 42 af 3d 25 cc e9 bc
       0.05336664 -0.29637286 0.08557611 -0.028539727
000240 12 5e 07 be 2d 58 02 bd 31 2b 4b bd b4 17 d1 3e
       -0.13219479 -0.031822372 -0.049601737 0.40838397
000250 a0 61 a8 3e 5b 65 11 be 93 eb cb 3e 71 88 82 3f
       0.32886982 -0.1419882 0.39828166 1.0197889
000260 ae ee 1f 3e 29 70 a8 3e fd c0 c0 3e cf 51 94 3d
       0.15618393 0.3289807 0.37647238 0.07242166
000270 3d 6b f0 bd e8 3c da 3d a5 e0 14 bd 70 1c 4f 3b
       -0.11739204 0.10656148 -0.03634705 0.0031602643
000280 73 e3 cd 3d cf 1c 54 bd 77 14 70 3c 87 cb 8e 3c
       0.10053148 -0.051785287 0.014653317 0.017431034
000290 00 af 88 3d ce 4d 23 bd 8b 85 41 bd 0f aa 55 3e
       0.066740036 -0.039869122 -0.047246497 0.20865653
0002a0 4f d0 30 3d 3a fd 1b 3e 5d a9 81 3e 4a c4 f0 bd
       0.04316741 0.15233317 0.25324526 -0.11756189
0002b0 ba fc e2 3c 75 8b d5 3e a3 80 9a bc e0 bc 61 bd
       0.0277084 0.4170796 -0.018860167 -0.055111766
0002c0 df 22 a6 bd 06 fd b9 3d f7 53 ad 3d 47 53 22 3e
       -0.0811212 0.090814635 0.08463281 0.1585208
0002d0 55 62 df bd 61 d5 88 bd f3 4f 99 bd c4 cb 82 3d
       -0.10907427 -0.06681324 -0.07485952 0.063865215
0002e0 c0 31 a6 bd 59 37 04 be 37 6d 91 3d 5a 04 3b 3e
       -0.08114958 -0.12911738 0.07100909 0.18263379
0002f0 df cf e1 3e 08 73 4b 3c 5b 79 e3 3d e6 fc 12 bd
       0.44103906 0.012417562 0.11107131 -0.035885714
000300 b6 1d af 3d c7 b2 b2 3d 37 3a 04 be 02 30 d1 3d
       0.08550589 0.08725505 -0.12912832 0.10214235
000310 78 38 1c bc 70 63 50 bd fd 31 5c bd 13 e6 00 3e
       -0.009534948 -0.05087608 -0.05375861 0.12587766
000320 ba e7 1f 3e 0b 32 a1 3e 40 54 8c 3e 33 14 cd bc
       0.1561574 0.31483492 0.27408028 -0.025034046
000330 eb f9 7e bd 93 2f 17 3e 0b 66 ed bc 74 40 c8 3c
       -0.06225006 0.14764242 -0.028979322 0.024444796
000340 49 54 0a 3d f8 1a 90 bd 07 34 ea bb 05 05 9d bd
       0.033771787 -0.07036394 -0.0071473154 -0.07666973
000350 fa e5 e9 bd cc f4 05 3f 70 36 81 3d d6 6e 1a bd
       -0.11420818 0.52326655 0.06309211 -0.037703358
000360 03 ac 23 3c 84 4d 1a bf fb f8 6e be 1c 0b d5 3e
       0.009989741 -0.6027453 -0.23337166 0.41610038
000370 c2 3d c8 3e c0 5a ad 3d cf 34 17 bd 7a f9 e7 bd
       0.39109617 0.08464575 -0.036915597 -0.11326881
000380 23 29 81 be bb c9 76 3c e7 28 de 3c 3f 65 ea 3c
       -0.25226697 0.015062745 0.027119113 0.028612731
000390 ea 22 a0 3d 17 47 c1 3d f0 08 d3 bd fe e2 04 be
       0.07819159 0.094373874 -0.10304439 -0.12977216
0003a0 3e c6 cb 3d 95 4e 9b bc 70 94 f5 bc 65 fe ee 3d
       0.09949921 -0.01895837 -0.029978007 0.11669616
0003b0 f0 19 09 3f be 62 a2 3d 41 33 ca 3d 9d 33 9a 3e
       0.535552 0.0792899 0.09873057 0.30117503
0003c0 d9 cd 05 3e 5b 2a 93 bc a1 b4 2d 3b bf 4d 89 bb
       0.13066806 -0.017964533 0.0026505368 -0.0041901763
0003d0 25 ac 8f bd 14 3e 9d bd b7 d6 2e 3e 21 61 1e bd
       -0.07015256 -0.07677856 0.17074095 -0.038666848
0003e0 4e 35 3a 3e 6d f3 a9 ba b7 2c 49 be 93 60 90 3d
       0.18184397 -0.0012966223 -0.19645964 0.0704967
0003f0 3a 4f d3 bd 80 03 ac 3d 6b 4e a8 3e a3 6e 6d bc
       -0.10317846 0.08399105 0.32872328 -0.01449171

input_layer.bias f4 [32]
000000 c2 92 cf 3e 79 03 78 3e c5 b0 e2 3e 70 2c 44 3e
       0.40541655 0.24220075 0.4427549 0.19157577
000010 2b 29 c8 3e eb f1 9e 3e 68 0e 63 3d b2 db 3d 3e
       0.3909391 0.31043944 0.05543366 0.18540838
000020 2a 50 98 3e 76 64 ba 3e fc 24 ce 3e 2d d4 d3 3e
       0.2974866 0.3640477 0.40262592 0.41372815
000030 e5 34 94 3e cc 31 df 3e 3a b1 39 be aa fe 88 3e
       0.28946605 0.4359268 -0.18134013 0.26756793
000040 e2 e7 92 3e ba c3 a6 3e 6d 60 4f 3e 08 d3 de bd
       0.28692538 0.32571203 0.20251627 -0.10880095
000050 f0 cb 7b 3c 05 68 a5 3e 4f a0 9e 3e 6c 0b b2 3e
       0.015368447 0.32305923 0.3098168 0.3477434
000060 5f 54 c5 3e 53 9f 4c 3e 4a 1b e1 3d b4 1d 4f 3e
       0.38540933 0.19982652 0.10991533 0.20226175
000070 80 ed bc ba d4 54 c4 3e 33 59 1f 3f af dd 83 3e
       -0.0014414042 0.3834597 0.6224548 0.2575507

hidden_layer1.weight f4 [64, 32]
000000 8f d6 84 3e 19 26 d9 3e 75 0f 8d be 9c 50 82 3e
       0.25944945 0.4241188 -0.27550855 0.25452125
000010 f9 95 e7 3e d7 44 ec 3e 69 e7 07 bc 03 08 00 3f
       0.45231608 0.4614627 -0.008294919 0.50012225
000020 a6 6e b1 3e d9 36 f8 3e f4 55 a5 3e eb 4b fb 3e
       0.3465473 0.48479345 0.3229214 0.49081358
000030 94 45 e9 3e 09 20 86 bf 43 8c c7 3c 6f 8f b9 3e
       0.45560896 -1.0478526 0.024358874 0.36242244
000040 92 12 ee 3e 74 cc 56 bf fb 89 c5 3e 5d df 84 3d
       0.46498543 -0.8390572 0.38581833 0.06487916
000050 46 d6 1e 3e b5 89 f1 3e 92 50 af 3e 55 c7 88 3e
       0.15511426 0.47175375 0.34241158 0.26714578
000060 f7 3b 90 be d7 e9 7d bf 03 af 51 3d e1 1c b6 3e
       -0.2817075 -0.99184936 0.051192295 0.35568908
000070 82 7a 62 be 0d f0 b0 3e 18 3b 19 3e d0 0d fc 3e
       -0.22117046 0.34558144 0.14963949 0.49229288
000080 d5 3f 1f bd 4d dd 45 be ea 64 e5 bc 9e e3 a1 bd
       -0.038879234 -0.19322701 -0.028002221 -0.07904743
000090 74 f0 6e be b3 d9 03 3d bb d2 31 3e 94 77 cc bd
       -0.23333913 0.032190036 0.17365544 -0.09983745
0000a0 3d 33 11 be 62 0f 85 bd bb 6a 0f bd 6e 3a 4a be
       -0.14179702 -0.06497075 -0.035013895 -0.19748852
0000b0 2e 79 62 3d b1 95 a6 bd 48 2a 8c 3d bf b4 22 3e
       0.055291347 -0.0813402 0.06844002 0.15889262
0000c0 ff 68 ab bc 12 35 17 3e d3 0c 13 be da 5b 37 3d
       -0.02092409 0.14766338 -0.14360361 0.04476533
0000d0 30 09 70 bc 68 23 43 bd 1f 5f c8 bd af b3 b2 bc
       -0.014650628 -0.047641188 -0.09783768 -0.021814195
0000e0 0b 75 e8 bb b1 71 a8 bc 40 8d 1c 3e 4b a1 9d be
       -0.0070940307 -0.020562025 0.15288258 -0.3078712
0000f0 08 0f 32 ba 1b 7b e2 3d 5c e4 6c 3b 3f 46 34 3d
       -0.0006792401 0.11058637 0.0036146855 0.044012304
000100 f9 21 8c 3d 1f 23 27 be 43 e6 2a bd 02 94 0f 3e
       0.06842417 -0.16321991 -0.0417235 0.14021304
000110 35 b6 7e 3c 7b 8b 89 b9 e0 03 8f 3d 02 3b 89 3d
       0.015546371 -0.00026234597 0.06983161 0.06700708
000120 15 63 47 bd 6c 33 20 be c8 7b e6 3c 01 83 84 3d
       -0.048678476 -0.15644616 0.028135195 0.064702995
000130 7a c4 00 3d b5 1b f2 bd 1d 27 06 be c6 41 ba bd
       0.031437375 -0.11821691 -0.13100858 -0.090945765
000140 d6 6e c4 bd dc b6 3f 3d ff 62 64 be 97 a7 20 bd
       -0.09591453 0.046805248 -0.22303389 -0.039222326
000150 bf c3 00 be 0a 4f 6d bd d4 58 9c bb 67 ed 3d bd
       -0.12574671 -0.057936706 -0.0047713313 -0.046368983
000160 05 f7 85 bc ee 27 05 3d fb b9 be 3d 14 bb 1e bc
       -0.01635314 0.032508783 0.09312817 -0.009688158
000170 68 29 b1 3d c9 01 22 be 44 4f 1e be 93 8d 60 3e
       0.08650476 -0.15820993 -0.15459925 0.21929006
000180 26 3c e8 3e e5 c0 d4 3e 71 0d 14 be a4 84 c5 3e
       0.4535839 0.41553417 -0.14458252 0.3857776
000190 79 40 b6 3e c6 d7 99 3e d3 b0 b4 3c a9 db a7 3e
       0.35596064 0.30047435 0.022056973 0.32784775
0001a0 fd 42 a5 3e c1 ac 8c 3e 48 7a d1 3e 57 61 c7 3e
       0.3227767 0.2747555 0.40913606 0.38941452
0001b0 f1 4c 8a 3e 1b 8d 56 bf ae c9 25 3e a4 d8 c2 3e
       0.27011827 -0.8380906 0.16190216 0.3805591
0001c0 60 59 c0 3e 89 8a 5c bf c2 39 b9 3e b3 cf 74 b8
       0.37568188 -0.8614889 0.36176878 -5.836757e-05
0001d0 0f a7 de bd 70 fe ac 3e 3f f9 3c 3e 9b b2 eb 3e
       -0.10871708 0.3378787 0.18454455 0.46034703
0001e0 df 2e 84 be d0 1b b4 be 1d a5 6a 3d a3 2f 86 3e
       -0.2581701 -0.3517747 0.05728637 0.2620822
0001f0 17 5a 01 3d 4b 62 d9 3e c6 94 26 bd 6e c2 e3 3e
       0.031580057 0.42457804 -0.040669225 0.44484276
000200 22 74 3f 3e fd 0e b5 3e 81 76 3c bf 63 92 36 3e
       0.18696645 0.35362998 -0.7361832 0.1782928
000210 7e 84 8c 3e 56 5a 90 3e f1 ce 35 3d af 4f b5 3e
       0.27444834 0.2819392 0.044386808 0.35412356
000220 33 a3 a4 3e 6b ea 2a 3e 16 3b c0 3e d0 3f 87 3e
       0.3215576 0.16690986 0.3754508 0.26415873
000230 c9 3a 5f 3e 53 34 4b bf 1d 8e fc 3d 32 53 88 3e
       0.21799769 -0.79376715 0.123317935 0.26625973
000240 29 0e 23 3e 74 a4 15 bf 71 a5 d4 3d 1a 3e 86 bd
       0.1592337 -0.5845406 0.10383118 -0.06554814
000250 57 db f3 bd c6 5b a1 3d 6f dd 43 3e 8f dd 54 3e
       -0.1190707 0.078788325 0.19127439 0.20787643
000260 c7 72 2a bf e9 ca 0e bf bd 2a 04 be 50 9a 89 3e
       -0.66581386 -0.55778366 -0.12906928 0.26875544
000270 da 57 57 bc d0 a3 2d 3e 2a 52 ef be bf 09 77 3e
       -0.013143504 0.16957021 -0.46742374 0.24124812
000280 e3 de 82 3c 79 d6 9a bd 35 43 9b 3c 00 03 74 3d
       0.015975421 -0.07560439 0.018952945 0.059573174
000290 23 cc c9 bd 8f 8e c9 3d 07 93 fc bc b7 20 67 bd
       -0.09853389 0.09841644 -0.030831827 -0.056427684
0002a0 00 b3 d5 bd aa 81 7f 3d dc 7e 00 3e 37 4d 80 be
       -0.10434532 0.062379517 0.12548393 -0.2505891
0002b0 af 84 35 be 0b c2 fe 3c d6 2f 40 be 94 7d 1d 3e
       -0.17726396 0.031098386 -0.18768248 0.15379936
0002c0 a3 4b 7e bd 6f 1e 09 3e 0b 79 ba 3d be ae 98 bd
       -0.06208385 0.13390516 0.09105118 -0.074552044
0002d0 5c 31 33 bd b5 07 5b bd e7 52 ca 3d 53 0c 51 be
       -0.043748245 -0.053474147 0.098790936 -0.20414858
0002e0 f7 af b0 bd 5d a3 84 bc 92 00 0c be ab ef f5 3d
       -0.08627313 -0.016191179 -0.13672093 0.12008604
0002f0 32 a0 5e 3d 5c b9 9e 3d bf 4c 44 bd ca 6d 18 bd
       0.054351993 0.07750198 -0.047924753 -0.037214078
000300 89 7d b6 3e 01 15 87 3e 2c ee c9 bd 68 3e 33 3e
       0.3564265 0.26383212 -0.09859881 0.17504275
000310 51 47 75 3d 96 37 bd bc 33 af 16 bd 47 d7 a8 3d
       0.059882466 -0.023097795 -0.036788177 0.08244186
000320 69 34 87 bc bc 12 66 3e d1 b1 97 bc 35 86 b9 bc
       -0.016504483 0.22468084 -0.018517407 -0.022647003
000330 65 32 2e 3e 7c 62 01 be 89 34 f8 3d 02 24 2b 3e
       0.17011411 -0.12635225 0.12119395 0.16712955
000340 8d 30 2c 3e ac 2d 77 3d dc d2 9b 3c 8f 6f b7 bd
       0.16815396 0.06034629 0.019021444 -0.08956825
000350 0c bd 0e 3e 32 66 55 3e 10 23 ed 3d f0 d5 3e 3e
       0.13939303 0.20839766 0.11578953 0.18636298
000360 06 74 fa bd 2e c9 89 be 8f 80 79 bd 6d 11 87 3e
       -0.12229161 -0.269113 -0.06091362 0.26380482
000370 cb 3b d4 bd de 7e 2d bd 44 f8 3d 3e a0 2a 00 3e
       -0.10362967 -0.042357318 0.18551737 0.1251626
000380 b4 82 00 3f 1b e6 9e 3e 3a 49 a4 be 82 ba 66 3e
       0.5019944 0.31034932 -0.32087117 0.22532085
000390 9a cd c1 3e 1b bc 22 3f e7 27 96 be 39 e1 85 3e
       0.37852174 0.63568276 -0.29327318 0.26148394
0003a0 39 7d cd 3e 60 31 9e 3e 36 d5 d3 3d 9c a4 76 3e
       0.401346 0.30897045 0.10343401 0.24086231
0003b0 d9 86 94 3e 6e aa 1a bf 6b 16 bd 3d d7 ac d9 3e
       0.2900913 -0.60416305 0.092327915 0.4251468
0003c0 0b 8f b1 3e aa cf 18 bf 74 f0 e2 3e 04 51 a3 3d
       0.34679446 -0.5969187 0.44324076 0.07974437
0003d0 75 4e 23 3e 65 5a 8b 3e 52 46 a4 3e a3 2b 94 3e
       0.15947898 0.27217403 0.320849 0.28939542
0003e0 54 28 a2 be 60 73 bc be 6d e3 52 3d d2 da ef 3e
       -0.31671393 -0.36806774 0.05148642 0.46846634
0003f0 ad 61 cf bd 82 a8 e3 3e f7 46 b6 be 19 ec b6 3e
       -0.10126052 0.444645 -0.35601017 0.35727003

hidden_layer1.bias f4 [64]
000000 5f d1 bb 3e 12 ae 05 be 29 ea c2 bd 96 01 d6 3e
       0.36683175 -0.13054684 -0.09517319 0.41798085
000010 cb c8 56 3e 3c 4e fc bd d5 af 89 3c 2d 1c 32 3e
       0.20975034 -0.123196095 0.016807476 0.1739356
000020 5b 44 64 3e d5 ed d8 3b c6 f7 31 3e c9 1f 87 3e
       0.222917 0.0066201487 0.17379674 0.26391438
000030 b8 b4 7f bd c1 32 8a 3d 89 38 ea 3e 31 36 3e 3e
       -0.062428206 0.06747962 0.45746258 0.1857536
000040 24 81 94 bc 06 5a cf bd 36 52 8f bd 00 18 9f 3d
       -0.018127985 -0.101245925 -0.06998102 0.077682495
000050 10 24 e6 3d 5b 07 af bd 97 64 07 3e df 29 ff bd
       0.11237347 -0.08546325 0.13221966 -0.12459158
000060 c8 0f 15 be 1c 7e 41 3d e4 9e 9e 3e d6 b8 ba 3d
       -0.14556801 0.047239408 0.309806 0.09117286
000070 1e ad cb 3e 08 ae 8d 3e 5e ab 37 3c 3c 9f 82 3e
       0.39780515 0.27671838 0.011210291 0.2551211
000080 4a ca 3d 3f 83 bf 08 bd e9 1e 2a 3e cb 8a 38 be
       0.74136794 -0.033385765 0.16613354 -0.18021695
000090 60 11 31 bd 8f 86 df bd 6f 33 4b be ac 41 16 3e
       -0.04322946 -0.10914337 -0.19843839 0.1467349
0000a0 63 36 de 3d c6 72 37 3e 0a 9e 00 3e ed 20 6e bd
       0.10850217 0.17914876 0.12560287 -0.05813687
0000b0 34 97 11 bd d7 83 05 3e 2a 6a 9d 3e 4b 90 d0 3e
       -0.03554459 0.13038574 0.3074506 0.40735087
0000c0 ba 21 91 3e fb 38 13 3d b2 ab cc 3d 0c 4a c9 3e
       0.28346044 0.035943013 0.09993686 0.39314306
0000d0 32 9f 3b 3e 5e 3b 79 3e 89 af 9a bd c3 33 14 3c
       0.18322447 0.24339053 -0.07553012 0.009045544
0000e0 10 05 78 be c0 7c 1e be fc 40 c3 bd 5f 72 d1 3e
       -0.24220681 -0.15477276 -0.09533879 0.4090757
0000f0 57 bf 03 3d b1 54 9b 3e 81 0e 86 bc 12 ac 00 be
       0.032164898 0.30338052 -0.016364338 -0.1256564

hidden_layer2.weight f4 [32, 64]
000000 b1 2c 19 3e 86 f1 a0 bd 97 60 07 3e 4a 0f 3e 3e
       0.14958455 -0.07858567 0.1322044 0.1856052
000010 74 44 c6 3d 40 31 06 3e 50 88 b1 3b ca 1e f6 3d
       0.09681025 0.13104725 0.005417861 0.12017591
000020 fb 2a 40 3e 6a f1 45 be e3 df 1f be 01 2d e1 3c
       0.18766396 -0.19330373 -0.1561275 0.02748728
000030 6e db bc bd fb 2a 50 3e 73 03 8f bd e0 05 d1 be
       -0.092215404 0.20328896 -0.0698308 -0.40824795
000040 4f e2 95 bd 9b 01 84 ba 87 71 73 be cf ea 13 be
       -0.073185556 -0.0010071279 -0.23773776 -0.14445041
000050 fa e2 04 bd 82 da 35 3d a0 36 5b bd f8 9a 24 bd
       -0.032443024 0.04439784 -0.05351889 -0.040186852
000060 46 78 c9 bc b8 d9 0c ba e5 24 a8 3e 98 63 37 bd
       -0.024593484 -0.0005373019 0.32840648 -0.044772714
000070 01 6b 5c 3e b0 6d 2d 3e f1 7b 24 be 19 8d 64 3e
       0.21525194 0.16936374 -0.16062905 0.2231945
000080 91 30 b6 3e 6d 9c 9d 3d 4b e2 90 bd 0a 2d 2a bd
       0.35583928 0.076958515 -0.07074412 -0.04154686
000090 ad 48 51 be f3 56 26 3d 20 1c e2 3c 27 fd ab bd
       -0.2043788 0.040610265 0.027601302 -0.08397894
0000a0 70 65 23 3e 1e bf eb 3d 1f d6 ca bc 5e b7 77 3e
       0.15956664 0.11511062 -0.024760304 0.24191043
0000b0 9d b4 4e 3c 26 b2 e0 3d 67 4d 4e 3e 42 be e4 3e
       0.012616304 0.10971479 0.20146714 0.44676405
0000c0 a6 ea 95 3e 79 7f 0c 3e d5 f3 a3 bd 3f 27 c8 3e
       0.29280585 0.13720502 -0.08005492 0.39092442
0000d0 5d 8c 16 bc 46 2d 91 3e 22 1c f4 3c 85 e5 a4 bd
       -0.009188739 0.28354853 0.029798571 -0.0805159
0000e0 0b 44 57 3e 63 ab 1a 3d d2 ef 67 bd 20 e1 ea be
       0.2102205 0.037761103 -0.056625195 -0.45874882
0000f0 dc e1 c8 3d b7 a4 05 3e d5 72 13 be a3 a8 98 3b
       0.09808704 0.13051115 -0.14399274 0.004658775
000100 32 b0 ca 3e 11 d3 70 3e 87 1e d4 bd 77 a2 18 3e
       0.3958755 0.23518015 -0.10357385 0.14905725
000110 a3 bc 5b 3e d7 40 3f 3c 0a c9 8e 3e 0f d5 12 3e
       0.21458678 0.011673174 0.27887756 0.14339088
000120 1a 18 a4 3e 63 2f 90 3e 36 fa a5 3e fa ff c2 3d
       0.32049638 0.28161153 0.32417458 0.0952148
000130 b6 27 84 bd 3a b0 8f 3e 95 e9 84 3e 7d a3 a9 bc
       -0.06452887 0.28064138 0.2595946 -0.02070784
000140 87 05 ab bc a3 70 97 bd 40 35 e4 bb ed 00 20 3d
       -0.02087666 -0.073945306 -0.0069643557 0.039063383
000150 a7 88 1b 3d af 70 bc 3d b4 94 49 3e 4f a7 e2 3d
       0.03797212 0.0920118 0.19685632 0.11067068
000160 ce 8e 10 3c 53 1d 92 3d 08 89 fa 3e 50 21 06 bd
       0.00882311 0.071344994 0.48932672 -0.032746613
000170 6c 23 e9 3e 16 e3 7c 3e e4 db a0 be 36 be 13 3e
       0.45534837 0.24696001 -0.31417763 0.14428028
000180 07 aa e4 bd cd ee e4 3c 1a 34 ad 3e 64 a9 1b bd
       -0.11165243 0.0279459 0.33828813 -0.03800334
000190 f1 ba 38 bd 9f 73 de bd e3 b2 e2 3d 6a 64 44 bd
       -0.045100156 -0.10861897 0.11069276 -0.047947325
0001a0 0d d1 a7 3e 64 b6 c2 3e a0 de d3 bd b3 c9 73 3d
       0.3277668 0.38029778 -0.10345197 0.059518527
0001b0 46 01 11 3e 35 0d ee 3d 40 e8 b7 3e 4f 43 c0 3e
       0.14160642 0.11623613 0.3591938 0.37551352
0001c0 b0 97 35 3e 07 c5 8f 3e 11 44 24 3d 38 e1 32 3e
       0.17733645 0.28080007 0.040103976 0.17468727
0001d0 09 c3 80 3e fc f7 b9 3d 93 79 9c 3c 76 db cd 3c
       0.251488 0.090805024 0.01910094 0.025129061
0001e0 1f e9 80 be a0 8f 8f be d4 2d 66 3e 46 cf 33 bc
       -0.25177857 -0.28039265 0.2247842 -0.010974711
0001f0 ed d9 a7 3c 0f 9c ba 3e 84 29 25 bc c2 f0 0c be
       0.020489657 0.36447188 -0.010080699 -0.13763717
000200 93 8b dc 3e f9 7a 6f 3d 67 61 02 be 45 da db 3e
       0.43075237 0.058466885 -0.12732469 0.42939964
000210 b1 e3 c8 3e 6f ea 2e bd 23 e5 fd bd ed 43 dc 3e
       0.39236215 -0.042704042 -0.1239722 0.43020573
000220 a3 b5 d3 3e fb d4 12 be cb 4c be 3e ef b3 83 be
       0.41349515 -0.14339058 0.37167963 -0.25723216
000230 ca 96 05 3e ed 21 f7 3e 9a 8a 16 3e 33 fd 9d be
       0.13045803 0.4826807 0.1470131 -0.30857238
000240 e5 e1 4e 3e b8 64 ad bc 68 72 23 be 73 6c 93 bd
       0.2020336 -0.02116619 -0.15961611 -0.071984194
000250 08 5b 10 3d 8b 44 e8 3d fd 2a 26 bd 62 3c af bd
       0.035243064 0.113411985 -0.04056834 -0.08556439
000260 98 eb db bc dd d4 10 3d f5 b4 05 3f e8 54 cb bc
       -0.026845738 0.035359252 0.52229244 -0.02482076
000270 ab 02 d4 3e 5a d1 ff 3e 00 2a 3f bd 68 ba 81 3e
       0.41408285 0.4996441 -0.046670914 0.2533753
000280 c1 c0 0a 3f 28 b6 50 bd 3f 2a e0 3e 9a 47 a8 bd
       0.5420037 -0.050954968 0.4378223 -0.08216782
000290 a4 02 c4 3d b9 d9 03 bc 8e ed 9f bc 08 5b 1e bd
       0.09570816 -0.008047515 -0.019522455 -0.038661033
0002a0 b8 6f c9 3e ac ea 00 3f 9b 01 39 3e 74 ee e2 3e
       0.39343047 0.5035808 0.18067019 0.4432255
0002b0 ff bb fe bd 7d c5 86 bd 83 f7 0b 3f 32 78 37 3f
       -0.12438201 -0.06580637 0.5467455 0.7166778
0002c0 97 e8 c6 3e 04 8a b5 3e ae 08 17 3d 3d 8c 07 3f
       0.38849327 0.3545686 0.036873512 0.5294836
0002d0 b6 50 2b 3f d7 e9 2a 3f 67 d3 44 be af e0 8d 3d
       0.6692003 0.6676306 -0.19221269 0.069276206
0002e0 10 6a 74 3e 53 53 56 3c 54 ef be 3e 4b e1 d1 be
       0.23868585 0.0130813895 0.37291968 -0.40992197
0002f0 85 38 40 3e 4e 04 10 3f 3c 1c 94 bd 0c 5c 94 3c
       0.1877156 0.5625657 -0.07231948 0.018110298
000300 55 c8 65 bd a8 df 5e 3d b1 c0 48 bd ef c8 b7 bd
       -0.056099255 0.054412514 -0.04901189 -0.08973872
000310 9f 20 d8 bd 83 0d 4f be ff cb f2 3d 3e 5b 10 be
       -0.10553097 -0.20219998 0.118553154 -0.14097306
000320 b1 0f 4e be 13 c8 54 bb 30 77 27 3d 62 34 ad 3d
       -0.20123173 -0.0032467886 0.04088515 0.08457257
000330 a3 49 14 3e ab 86 e5 3d 5b 62 65 3d 59 d1 3c be
       0.14481215 0.112073265 0.056002002 -0.18439235
000340 65 d4 d5 bd 3f 35 26 be 7b 9c dd 3c 78 7c 6f 3e
       -0.10440902 -0.1623125 0.027052155 0.23387325
000350 e7 d6 f2 bc 2b f4 99 3c 08 0d 1a 3c e5 5e fd bc
       -0.029643489 0.018793186 0.009402521 -0.030929038
000360 6b 0c 2c be 11 3d 80 bd 78 64 54 3d b2 ab 64 bd
       -0.16801612 -0.062616475 0.051853627 -0.055827804
000370 41 ed f6 bd 18 32 f7 bd fa 60 ee 3c 21 e3 9e 3d
       -0.12056971 -0.120701015 0.029098976 0.07758165
000380 27 45 15 be cf 8f cc 3c 19 1a 24 be aa 86 32 3d
       -0.14577161 0.024970917 -0.1602558 0.043585457
000390 09 07 2d be df d7 17 3e 4f 15 13 3d 74 05 06 be
       -0.16897215 0.14828442 0.035908993 -0.13088018
0003a0 30 6d 90 bc d1 f0 17 bc 19 85 45 3d 47 56 d6 3d
       -0.01763019 -0.009273724 0.048222635 0.10465675
0003b0 3a 94 9a 3d 3e 8b 14 3e c2 01 fd 3d 02 ad e9 bd
       0.07547803 0.14506242 0.12353851 -0.11409952
0003c0 26 72 9a bd f4 54 47 be 30 15 32 3e 67 26 68 be
       -0.07541303 -0.19466001 0.17390895 -0.226709
0003d0 5c f0 3e be 63 42 cf bc 27 bf bc 3d 83 17 0e bd
       -0.18646377 -0.02530021 0.09216147 -0.03469039
0003e0 f0 87 49 3e a8 25 e4 3d 2a 1d d4 bd e3 a4 60 3d
       0.19680762 0.11139995 -0.10357125 0.05484475
0003f0 17 1f 25 3e da f0 91 bd 62 cc cd bb d9 44 21 3e
       0.16125141 -0.07126017 -0.006280468 0.1574892

hidden_layer2.bias f4 [32]
000000 fb 5f f5 3d d2 2a 2d 3e e3 f3 58 3e be 37 ca 3d
       0.119811974 0.16910866 0.21186785 0.09873913
000010 d2 5b 5e 3d 40 69 82 bd 83 1e 89 bc 1c 3e 0f bd
       0.054286785 -0.06367731 -0.016738182 -0.03497134
000020 16 85 1a be 4d 3a 82 bd 6b 35 50 3c 73 e2 2c be
       -0.15089831 -0.06358776 0.012708048 -0.16883259
000030 73 79 3b 3e cc 1a 75 3c 1c 2a 48 be 97 49 ed bd
       0.18308048 0.014960002 -0.19547313 -0.11586302
000040 af bc 3b 3d ce c9 85 bd 1f b5 02 bd 80 33 cc 3c
       0.04583424 -0.06532632 -0.03191101 0.0249269
000050 05 aa f5 bc 60 7e fd bb 84 bd 2a 3e 50 14 30 bd
       -0.029988298 -0.0077360123 0.16673857 -0.04298812
000060 e4 58 1f 3e 62 32 0b 3c fd c8 8d 38 83 c2 95 3d
       0.15561253 0.008495899 6.760841e-05 0.07312491
000070 e4 e4 9f 3e d9 26 b5 bd 38 ad f1 bc bd 14 e0 3d
       0.31229317 -0.088453 -0.029501542 0.109414555
